HW4/best_ppo_ac_model.pth (torch, 52825 bytes, 12 tensors)

pi.log_std f4 [6]
-1.3694166 -1.3484635 -1.1914375 -1.1537412 -1.3134482 -1.3889344
00000000: 0b49 afbf 749a acbf 0681 98bf cbad 93bf
00000010: 121f a8bf 9ac8 b1bf

pi.mu_net.0.weight f4 [64, 24]
0.2468296 -0.1852857 0.18143912 -0.2505236 0.25879848 0.22770865 0.023050884 0.05644188
0.16945657 0.0011758108 -0.19981758 0.1772177 0.12036019 0.079156294 0.43727255 0.041487444
0.23595363 -0.035970286 0.10847451 0.2102427 0.15548983 0.12474459 0.045875218 -0.06239307
0.5199397 -0.34849843 0.14659347 -0.23688193 0.0075236666 0.027411714 -0.021706792 -0.0023712402
-0.08614477 -0.39173388 0.060606472 0.013128775 -0.12791577 0.30572113 0.1550164 -0.19626598
-0.3269466 -0.12793659 -0.045868866 0.11815535 0.119018726 0.12849542 0.024303487 -0.037642222
-0.4215083 -0.008712823 0.21690659 0.12264169 -0.039530482 -0.061550286 -0.31023625 -0.15465105
-0.16202901 0.26908758 -0.06624205 -0.20139256 -0.1720339 0.00084533385 -0.3068795 -0.007454342
-0.17154497 -0.09837116 -0.12101425 0.007842347 -0.10430639 0.059725836 0.03439395 -0.0054398924
-0.07854151 0.31689423 0.01738523 -0.14588302 -0.004661458 0.010052536 -0.006480038 -0.017799614
0.11317396 -0.09376826 0.03249674 0.19483154 -0.26775825 -0.08693081 -0.08381531 0.051010534
0.20299502 0.093471825 0.07352863 0.21342805 -0.01857845 -0.22190964 0.1994053 -0.063893594
-0.10312969 0.0113922935 0.009106279 0.1565357 -0.010926741 0.030445373 0.029683521 0.023665633
0.2580287 0.2133933 0.030444179 0.03534222 -0.013622757 -0.00718145 0.122897655 0.3056342
0.1368794 -0.13773802 -0.13999216 -0.011226773 0.020637736 0.056920692 -0.012119372 0.1292716
-0.19133319 -0.43884766 0.017321015 0.009874987 0.1116081 -0.2892007 0.16794974 -0.23428972
-0.035615366 -0.29404315 0.111478485 0.22159904 0.13499321 0.17269213 0.14075759 -0.059781738
-0.027203634 -0.075671315 -0.05290778 -0.112343974 0.14486301 0.12781405 0.022416484 -0.05632753
-0.29187447 0.034892406 0.09086977 -0.09488678 0.19556491 0.038708366 0.29686585 -0.049055282
0.2805971 -0.09285106 -0.11567024 0.08424589 -0.05307172 0.028225472 -0.013184969 0.23779127
0.13977194 -0.16754551 0.081531696 -0.044764996 -0.12917759 0.055438854 0.09194772 -0.095757835
0.52580506 0.01198223 -0.025644345 -0.13012993 -0.20512903 0.19215655 -0.13565972 0.21927585
0.07347371 -0.30569422 0.22838396 0.19894318 0.17685185 0.16590433 0.012997825 -0.1525235
-0.1349485 -0.06967563 -0.097172976 -0.14461157 -0.13606045 0.11033509 -0.048443824 -0.048944514
-0.30612284 0.11195099 0.0633093 0.16532622 -0.023603506 -0.0025704338 0.16408893 0.024619168
-0.018563824 0.33610383 -0.027110633 -0.0350847 -0.022813704 -0.14477724 0.03375107 0.2720316
0.04380487 -0.17153911 -0.15537785 -0.013039537 -0.07482482 -0.25239855 0.014356428 0.07424192
-0.06949679 -0.013512838 -0.016593117 -0.045108385 -0.12826073 -0.13450564 0.2541059 -0.31250873
-0.22823714 -0.18527561 0.20273562 -0.2792818 0.11061943 -0.122999266 0.050952513 -0.19400401
-0.42559323 -0.12052826 0.12422246 -0.13896012 -0.12307891 0.005853022 0.12979622 0.046951033
0.05132439 -0.08676182 0.24435657 -0.21879636 -0.08297786 -0.09615263 -0.22298917 -0.014621347
0.048010197 0.13582107 0.0607798 -0.08292476 0.045558166 -0.08097208 -0.054712392 -0.09533286
00000000: e6c0 7c3e 89bb 3dbe 2dcb 393e a144 80be
00000010: 3c81 843e 752c 693e 35d5 bc3c 9a2f 673d
00000020: 0686 2d3e aa1d 9a3a fb9c 4cbe 8f78 353e
00000030: 677f f63d b21c a23d 30e2 df3e bdee 293d
00000040: d49d 713e 9455 13bd e227 de3d dd49 573e
00000050: ba38 1f3e 177a ff3d a7e7 3b3d e08f 7fbd
00000060: c51a 053f 636e b2be 991c 163e 2d91 72be
00000070: 1789 f63b 888e e03c 71d2 b1bc cf66 1bbb
00000080: ab6c b0bd 5891 c8be 7e3e 783d 131a 573c
00000090: 5afc 02be 7b87 9c3e 9fbc 1e3e f3f9 48be
000000a0: 8b65 a7be cf01 03be fee0 3bbd 6ffb f13d
000000b0: 17c0 f33d 4e94 033e 1b18 c73c bb2e 1abd
000000c0: f0cf d7be 3ac0 0ebc c31c 5e3e 912b fb3d
000000d0: b7ea 21bd 271c 7cbd 49d7 9ebe d85c 1ebe
000000e0: efea 25be d9c5 893e e9a9 87bd da39 4ebe
000000f0: a829 30be 6599 5d3a 4f1f 9dbe 8e43 f4bb
00000100: 7ca9 2fbe d276 c9bd 52d6 f7bd 307d 003c
00000110: 979e d5bd 14a3 743d ace0 0c3d 2041 b2bb
00000120: 5fda a0bd f63f a23e 786b 8e3c 5c62 15be
00000130: 25bf 98bb 64b3 243c 8056 d4bb 7fd0 91bc
00000140: c0c7 e73d 9309 c0bd 4d1b 053d eb81 473e
00000150: 9c17 89be c808 b2bd 5ca7 abbd 6cf0 503d
00000160: eddd 4f3e 286e bf3d 2e96 963d e28c 5a3e
00000170: d531 98bc 483c 63be e730 4c3e a5da 82bd
00000180: a935 d3bd bea6 3a3c 8132 153c e54a 203e
00000190: 1306 33bc 9368 f93c db2a f33c 6ede c13c
000001a0: 561c 843e c683 5a3e 1266 f93c 01c3 103d
000001b0: fc31 5fbc 5e52 ebbb c4b1 fb3d 167c 9c3e
000001c0: 1d2a 0c3e 320b 0dbe 1b5a 0fbe 80f0 37bc
000001d0: 7810 a93c ac25 693d 5590 46bc c65f 043e
000001e0: d9ec 43be a4b0 e0be cde4 8d3c b3ca 213c
000001f0: ca92 e43d 1d12 94be 04fb 2b3e a5e9 6fbe
00000200: 6be1 11bd d38c 96be d54e e43d dcea 623e
00000210: a93b 0a3e 35d6 303e c222 103e b2dd 74bd
00000220: 28da debc 90f9 9abd d4b5 58bd 9914 e6bd
00000230: f856 143e b0e1 023e c6a2 b73c b2b7 66bd
00000240: 9270 95be 57eb 0e3d ee19 ba3d 0054 c2bd
00000250: 2b42 483e aa8c 1e3d cdfe 973e 31ee 48bd
00000260: 6caa 8f3e b228 bebd 85e4 ecbd 1c89 ac3d
00000270: bb61 59bd 1b39 e73c c505 58bc 8e7f 733e
00000280: 6020 0f3e 0d91 2bbe 17fa a63d 805b 37bd
00000290: 2147 04be da13 633d 164f bc3d af1c c4bd
000002a0: 299b 063f 1d51 443c 1714 d2bc c840 05be
000002b0: 580d 52be b0c4 443e 62ea 0abe d989 603e
000002c0: 6279 963d f483 9cbe 7cdd 693e c3b7 4b3e
000002d0: a718 353e d3e2 293e d4f4 543c 1f2f 1cbe
000002e0: f12f 0abe 19b2 8ebd a002 c7bd 0e15 14be
000002f0: 6e53 0bbe 5df7 e13d 086d 46bd 0b7a 48bd
00000300: 22bc 9cbe 9046 e53d 4ea8 813d 474b 293e
00000310: 245c c1bc b974 28bb ee06 283e 23ae c93c
00000320: 2913 98bc cd15 ac3e 1e17 debc f9b4 0fbd
00000330: cee3 babc 7c40 14be 903e 0a3d ba47 8b3e
00000340: bc6c 333d f3a7 2fbe 5f1b 1fbe c8a3 55bc
00000350: c13d 99bd 623a 81be 3937 6b3c 260c 983d
00000360: 5554 8ebd f364 5dbc 4aee 87bc 92c3 38bd
00000370: c856 03be d9bb 09be 2b1a 823e 2501 a0be
00000380: ffb6 69be e4b8 3dbe ed99 4f3e 06fe 8ebe
00000390: 718c e23d 0ae7 fbbd 95b3 503d fda8 46be
000003a0: 5be7 d9be 85d7 f6bd 5868 fe3d 904b 0ebe
000003b0: cc10 fcbd b5ca bf3b 4de9 043e ba4f 403d
000003c0: 8639 523d 2eb0 b1bd 9c38 7a3e 270c 60be
000003d0: 4cf0 a9bd aceb c4bd 4657 64be 608e 6fbc
000003e0: 57a6 443d ae14 0b3e 3df4 783d 75d4 a9bd
000003f0: 339b 3a3d b1d4 a5bd 1a1a 60bd e03d c3bd

pi.mu_net.0.bias f4 [64]
-0.042476404 -0.10689337 -0.20440094 0.24309498 -0.04059873 0.03509744 -0.074676 -0.12328711
-0.29171962 -0.048965342 -0.078189276 -0.049607422 -0.11196791 0.014636149 0.126371 0.04764049
-0.025163878 0.09731892 -0.049839195 -0.010079352 -0.058052417 -0.043743875 -0.13511841 -0.06927691
0.12841278 -0.35218674 0.16959296 0.14754833 -0.08960598 -0.13564655 0.09117223 0.17275995
-0.029142002 -0.11744592 0.26934072 0.044145655 -0.08092234 -0.06756534 -0.061404184 -0.18432717
0.11330541 -0.08910942 -0.09311306 -0.19776016 0.06786293 0.13126197 0.1170352 0.1849023
-0.03875748 0.23448206 -0.09513114 -0.23231092 0.03293298 -0.05335666 -0.36001152 -0.12559132
-0.13701804 0.11899781 -0.056201898 0.059501022 -0.15645106 -0.112022914 -0.16263403 0.037717834
00000000: bdfb 2dbd e9ea dabd 7b4e 51be e4ed 783e
00000010: db4a 26bd 55c2 0f3d bbef 98bd f47d fcbd
00000020: 465c 95be e28f 48bd b321 a0bd 2731 4bbd
00000030: 6e4f e5bd 75cc 6f3c 6667 013e ad22 433d
00000040: 7a24 cebc 244f c73d 2f24 4cbd de23 25bc
00000050: 5fc8 6dbd c72c 33bd 7b5c 0abe 0de1 8dbd
00000060: a47e 033e d251 b4be c7a9 2d3e e916 173e
00000070: 5783 b7bd eee6 0abe 82b8 ba3d fce7 303e
00000080: 35bb eebc 7d87 f0bd 07e7 893e 13d2 343d
00000090: 9dba a5bd b25f 8abd f482 7bbd 43c0 3cbe
000000a0: ab0c e83d 007f b6bd 0fb2 bebd a481 4abe
000000b0: b8fb 8a3d 8a69 063e 27b0 ef3d 0757 3d3e
000000c0: 2ac0 1ebd 111c 703e 1dd4 c2bd eae2 6dbe
000000d0: bce4 063d 838c 5abd 6e53 b8be 039b 00be
000000e0: 754e 0cbe 20b5 f33d f633 66bd 58b7 733d
000000f0: b534 20be 456c e5bd 8989 26be 047e 1a3d

pi.mu_net.2.weight f4 [64, 64]
-0.076878555 0.027393999 0.088592716 -0.036118336 -0.035086576 -0.0017182434 -0.049633384 0.11599688
0.09642813 0.06881823 -0.09414436 -0.043184377 0.05614784 -0.09560076 -0.10734564 -0.06318883
0.1303458 -0.0853809 0.06055583 -0.03747521 -0.004568806 -0.13063793 0.17603819 0.06539264
-0.16013916 0.056682702 0.13266176 0.20230746 0.04924714 -0.103453204 -0.08497695 0.10376104
0.21370456 0.06998054 0.101425 -0.022608366 -0.014133273 -0.097306125 0.15283594 0.09062994
-0.21510501 -0.14155084 0.13767327 -0.04915136 -0.07004679 0.08512777 -0.15520462 -0.01562285
0.13296437 -0.05368964 0.06241167 -0.2129122 -0.01438509 -0.005577098 0.04032132 0.09941502
-0.1144358 -0.12094941 0.009641969 0.053246908 -0.041711394 0.017818915 0.009610706 0.093436204
-0.086608104 -0.046059217 -0.07733754 -0.04206167 0.05517702 -0.1622353 -0.14900188 -0.08688347
0.047555394 -0.045664188 -0.020881193 0.15253788 0.07564188 0.15023962 0.20221724 -0.019093702
0.04175074 0.0696737 0.0168123 0.044145692 -0.16243243 0.056108348 -0.10330939 0.18420286
0.14922458 -0.10109277 0.13567166 -0.15983243 0.05610561 0.11430567 -0.104313836 0.011305098
0.026252795 -0.086518764 0.06900205 -0.039638516 -0.06922429 0.051858492 -0.1147169 -0.13111603
0.004332564 -0.0040258453 0.09960399 0.13928656 0.06708105 0.09550239 -0.052530505 0.121147305
0.06490226 0.104856506 0.102231346 -0.21202952 0.0946212 0.001903733 -0.115754984 0.11978856
0.072841525 0.04186579 -0.055377156 0.18639189 -0.06266888 -0.0081945425 -0.15178813 0.06832469
0.041387327 -0.014246487 0.1081949 0.12647581 -0.08467234 -0.016804514 -0.051117152 0.035985626
0.08642557 -0.013005118 -0.03484987 -0.12202893 -0.115264565 -0.09600425 -0.09190761 0.19635426
-0.13798447 0.08573278 -0.07029436 0.06981053 0.046702836 -0.086051814 0.13918543 0.059103765
0.06007947 0.05466848 -0.06717688 -0.008422832 -0.22324419 0.072142996 0.08159595 -0.06191827
0.046094265 0.17448838 -0.12893908 -0.117821604 -0.04694021 -0.061104923 0.008789317 -0.13174993
0.059464484 0.16409154 -0.14534964 0.0935197 0.054906204 0.17291869 0.064155005 -0.05687884
0.14542086 -0.12124052 -0.0062526586 0.05950169 -0.044586837 0.10162854 0.04647607 0.072358236
0.16975303 0.076330744 0.07582632 0.01573572 -0.13578692 -0.023074511 -0.12334252 -0.012711723
-0.008333302 0.010590153 -0.108686134 0.017604994 0.058932688 0.011738489 0.089328505 0.004924923
0.11533583 -0.14746436 -0.13728894 0.027496958 0.04941893 0.14247432 0.13568296 -0.01965176
-0.03489807 0.18354182 -0.12772675 0.07457579 -0.013598934 -0.04465804 0.17689 0.20351993
0.16219878 -0.09272073 -0.004414382 0.04837787 0.04569883 -0.1359212 0.1025703 -0.12762994
-0.020422304 0.10460062 -0.12339122 0.027349042 0.05324812 -0.09791196 -0.101992086 -0.11987378
-0.036992412 -0.067821346 0.04879499 -0.012519646 0.17768559 -0.048840523 0.09887756 0.052613754
0.116689354 0.19768038 0.06749571 0.14581464 -0.22219235 0.02548827 0.075230055 0.08063271
0.13222769 0.052657243 -0.0913865 -0.08845383 0.08801812 -0.022812517 0.07509726 0.0064372397
00000000: 8172 9dbd 6169 e03c 1970 b53d d2f0 13bd
00000010: f1b6 0fbd ae36 e1ba 604c 4bbd c68f ed3d
00000020: 1d7c c53d 92f0 8c3d c2ce c0bd 1ae2 30bd
00000030: 47fb 653d 55ca c3bd 08d8 dbbd 2569 81bd
00000040: 5f79 053e 2edc aebd 6409 783d 9b7f 19bd
00000050: ecb5 95bb f3c5 05be 5b43 343e 94ec 853d
00000060: 85fb 23be 1f2c 683d 7cd8 073e b029 4f3e
00000070: 5eb7 493d 46df d3bd 6508 aebd ab80 d43d
00000080: 5ed5 5a3e f551 8f3d e9b7 cf3d 2e35 b9bc
00000090: 3e8f 67bc 6f48 c7bd 0681 1c3e 319c b93d
000000a0: 7d44 5cbe b4f2 10be 39fa 0c3e f052 49bd
000000b0: b174 8fbd 7857 ae3d f6ed 1ebe fbf6 7fbc
000000c0: d027 083e abe9 5bbd 61a3 7f3d a805 5abe
000000d0: 71af 6bbc 17c0 b6bb f827 253d 1a9a cb3d
000000e0: 515d eabd 53b4 f7bd 59f9 1d3c 6e19 5a3d
000000f0: 91d9 2abd f9f8 913c 3976 1d3c 7b5b bf3d
00000100: 975f b1bd 97a8 3cbd 2563 9ebd dc48 2cbd
00000110: 4d01 623d 0321 26be f393 18be f6ef b1bd
00000120: 72c9 423d 5f0a 3bbd 090f abbc e432 1c3e
00000130: 21ea 9a3d 6ad8 193e 0912 4f3e 656a 9cbc
00000140: d302 2b3d 16b1 8e3d f3b9 893c 1dd2 343d
00000150: b054 26be ded1 653d e093 d3bd ad9f 3c3e
00000160: 54ce 183e ba09 cfbd 83ed 0a3e 1dab 23be
00000170: ffce 653d 1719 ea3d 7ea2 d5bd 0539 393c
00000180: 1a10 d73c c030 b1bd f250 8d3d ff5b 22bd
00000190: 77c5 8dbd 9269 543d b2f0 eabd 4843 06be
000001a0: 2ef8 8d3b 3deb 83bb 2dfd cb3d 23a1 0e3e
000001b0: ca61 893d c296 c33d 3a2a 57bd 141c f83d
000001c0: 7aeb 843d 02bf d63d ab5e d13d 441e 59be
000001d0: c2c8 c13d ae86 f93a f310 edbd b453 f53d
000001e0: f02d 953d 767b 2b3d 28d3 62bd 84dd 3e3e
000001f0: 8b58 80bd 6742 06bc 596e 1bbe d1ed 8b3d
00000200: c285 293d 196a 69bc 4a95 dd3d e082 013e
00000210: b168 adbd 9fa9 89bc 3860 51bd aa65 133d
00000220: e4ff b03d 6b13 55bc bdbe 0ebd 4eea f9bd
00000230: d40f ecbd e09d c4bd 0f3a bcbd 1711 493e
00000240: cd4b 0dbe ab94 af3d 7df6 8fbd d3f8 8e3d
00000250: 794b 3f3d ef3b b0bd a086 0e3e ca16 723d
00000260: e415 763d 0eec 5f3d 0894 89bd ebff 09bc
00000270: 209a 64be b5bf 933d c71b a73d 039e 7dbd
00000280: 57cd 3c3d 15ad 323e 9b08 04be 744c f1bd
00000290: 6144 40bd 2849 7abd 1101 103c 74e9 06be
000002a0: 0891 733d 9d07 283e 89d6 14be 4287 bf3d
000002b0: 54e5 603d 9911 313e b363 833d c9f9 68bd
000002c0: 35e9 143e f34c f8bd 1ae3 ccbb 0bb8 733d
000002d0: b0a0 36bd a022 d03d b15d 3e3d 8e30 943d
000002e0: bdd3 2d3e 4b53 9c3d d44a 9b3d 32e8 803c
000002f0: ba0b 0bbe c206 bdbc 019b fcbd d544 50bc
00000300: 6788 08bc 5282 2d3c d696 debd 5938 903c
00000310: 6763 713d cb52 403c ddf1 b63d 4061 a13b
00000320: 3135 ec3d e600 17be 7995 0cbe 4d41 e13c
00000330: 816b 4a3d cae4 113e 79f0 0a3e bafc a0bc
00000340: 47f1 0ebd 63f2 3b3e cdca 02be 31bb 983d
00000350: 10ce 5ebc 59eb 36bd a722 353e 8767 503e
00000360: 7017 263e 5ee4 bdbd 85a6 90bb e027 463d
00000370: b22e 3b3d ed2e 0bbe 6110 d23d 6cb1 02be
00000380: ad4c a7bc da38 d63d 89b4 fcbd 190b e03c
00000390: b31a 5a3d 1186 c8bd 3ae1 d0bd 6280 f5bd
000003a0: 5b85 17bd ebe5 8abd 41dd 473d 341f 4dbc
000003b0: 36f3 353e 000d 48bd 5180 ca3d 8581 573d
000003c0: d4fa ee3d ba6c 4a3e 313b 8a3d 6f50 153e
000003d0: 6486 63be c7cc d03c 3712 9a3d c322 a53d
000003e0: b266 073e 1faf 573d d828 bbbd 4827 b5bd
000003f0: d842 b43d 51e1 babc 98cc 993d 7bef d23b

pi.mu_net.2.bias f4 [64]
0.113845825 0.052508675 0.04693475 0.09818593 0.09271063 0.01666819 0.13275619 0.13002734
-0.034992114 0.08394842 -0.073984064 0.11794271 0.023082009 0.12540491 0.13291381 -0.041528262
-0.013558594 0.13297257 0.075088955 -0.03497215 -0.08713869 0.12237364 0.036063556 -0.07128894
0.10847766 -0.07485681 0.08877554 0.06789242 -0.09856648 -0.01501082 0.02212409 -0.00058332353
0.097903885 0.12007206 0.10295478 0.07716836 0.03997872 0.02572944 -0.019237917 0.08399672
0.24038726 0.00795484 -0.023231458 0.013580274 0.03186671 0.24504888 0.07389419 0.04499575
0.08910738 -0.08293766 -0.012460838 -0.06528012 -0.021528695 -0.018961316 0.17340973 0.17238745
0.10791038 -0.057647407 0.034098394 0.05470146 0.09728031 -0.013664919 0.13782394 -0.056708504
00000000: 0028 e93d 5613 573d a73e 403d b415 c93d
00000010: 12df bd3d ba8b 883c 3df1 073e e325 053e
00000020: e453 0fbd 26ed ab3d f584 97bd f38b f13d
00000030: 7b16 bd3c 256a 003e 8f1a 083e 8a19 2abd
00000040: dd24 5ebc f629 083e 3dc8 993d f53e 0fbd
00000050: c575 b2bd 089f fa3d 61b7 133d f0ff 91bd
00000060: 8929 de3d 874e 99bd f3cf b53d 2e0b 8b3d
00000070: 39dd c9bd f1ef 75bc 943d b53c 2eea 18ba
00000080: d581 c83d 57e8 f53d f5d9 d23d 720a 9e3d
00000090: bac0 233d 8cc6 d23c d698 9dbc 7906 ac3d
000000a0: 1428 763e 0455 023c e64f bebc cc7f 5e3c
000000b0: ab86 023d 18ee 7a3e d655 973d 774d 383d
000000c0: ee7d b63d 38db a9bd 8b28 4cbc 95b1 85bd
000000d0: f25c b0bc c354 9bbc 5292 313e 5686 303e
000000e0: 1e00 dd3d b01f 6cbd c2aa 0b3d a30e 603d
000000f0: e63a c73d d3e2 5fbc b821 0d3e 2d47 68bd

pi.mu_net.4.weight f4 [6, 64]
-0.069380306 0.109829366 -0.04717313 -0.08196777 -0.098765016 0.04225102 0.18697281 -0.16440848
0.08493693 0.014289606 0.19559665 -0.06345065 0.0063791457 -0.122699715 0.0012446282 0.040432747
-0.10711369 0.124472104 0.09718023 -0.006198386 0.10185764 0.02056149 0.19257821 0.048880033
-0.14768401 -0.1858047 -0.21153188 -0.03334978 -0.24188939 -0.24586926 -0.006182447 0.1975423
-0.16846964 0.047763858 -0.06558731 0.110523686 0.020301662 0.19495976 -0.1564236 0.10697983
0.19931513 -0.08389032 -0.1206772 -0.11367736 -0.09099927 0.23305674 -0.13907196 0.16909847
-0.0009166244 0.058629613 0.07861372 -0.04470702 0.0543196 0.09816832 0.0024858657 0.13914941
0.2216428 -0.18152915 0.057781126 0.16890821 -0.20950411 0.15837082 -0.11320561 -0.029733652
0.008665533 -0.07210511 -0.17262568 -0.11622999 0.24237308 0.19731262 -0.21275294 0.23509498
-0.13156238 0.15063047 -0.24389385 0.18257031 0.25925958 0.10714629 0.1725747 0.08026855
-0.08110979 0.008372147 -0.14878118 -0.08391781 0.10894483 0.054123007 -0.06255062 0.081614025
-0.04179493 -0.08236962 0.067904525 -0.10898868 -0.11633229 0.10308791 -0.17196603 -0.2537034
0.050219882 -0.05807296 0.16221765 0.04274695 -0.01824995 0.019395791 0.12015619 -0.34905115
0.2707709 0.2076629 0.022264978 -0.22262532 0.18001707 0.025813779 -0.10251455 0.092839025
0.023066672 -0.024247507 -0.00047978872 0.14603509 -0.10441531 -0.039557517 0.21968631 0.156403
-0.08027021 -0.22304127 0.15658548 -0.00800256 -0.1791563 0.0049634655 -0.17057943 0.015116632
0.16305792 -0.16852063 0.10433944 -0.15401594 0.07848587 0.06379212 0.011776849 -0.06028319
0.15071236 0.08033453 0.11175603 -0.10151711 -0.11419734 -0.17363013 -0.15755062 -0.11072633
0.0061824406 -0.14824487 0.14971526 -0.088891625 0.19446051 -0.044947844 -0.07960446 -0.103749
-0.064973034 0.05926202 0.08587162 -0.025863754 0.043622814 0.059737336 0.029754318 0.08634633
-0.056371596 0.052324545 0.078543656 0.11536234 -0.13206698 -0.10171054 0.21021569 -0.10741223
0.018797481 -0.19895004 -0.20485976 0.09772353 -0.19713338 -0.016584644 0.008777822 -0.14300424
-0.058887932 -0.05653906 0.08504396 -0.077387586 0.16499591 -0.025453392 0.104266904 0.09849319
0.07576575 0.04317375 0.088754326 0.038774326 0.046816662 -0.12449745 -0.1708613 0.04967897
-0.14186059 0.20612772 0.08340658 -0.05779805 0.12987289 0.018461807 0.15290928 0.07377227
-0.12240816 0.20132977 -0.010560143 -0.05174574 -0.04289132 0.17953494 -0.14771841 0.20147383
0.01490591 -0.029941007 -0.07081134 -0.013084947 -0.121238455 -0.057557903 -0.04764525 0.3007918
-0.14610481 -0.07227405 0.01787803 -0.17415051 -0.02368912 -0.21335566 -0.19627 -0.19547255
-0.012859273 -0.20108576 -0.16310813 0.07351346 0.038036242 -0.21439223 -0.10309781 -0.0038974534
0.121762395 -0.06975436 -0.07073502 -0.03159959 -0.140982 0.26571083 -0.21211258 0.032552943
0.22827473 0.12506887 -0.044117674 0.049005497 -0.12724565 0.093943276 0.082980484 -0.00866923
0.19650824 -0.118515685 -0.151968 -0.22768928 -0.15240541 0.09629652 -0.04322931 0.096979104
00000000: 4317 8ebd 38ee e03d 9d38 41bd b8de a7bd
00000010: 5045 cabd 680f 2d3d cd75 3f3e b25a 28be
00000020: 6af3 ad3d f41e 6a3c 7d4a 483e 6af2 81bd
00000030: 2708 d13b fd49 fbbd cb22 a33a cf9c 253d
00000040: 6c5e dbbd 3beb fe3d 6e06 c73d d51b cbbb
00000050: bd9a d03d 9270 a83c 3933 453e 6e36 483d
00000060: 7a3a 17be 9643 3ebe d09b 58be c799 08bd
00000070: dab1 77be 27c5 7bbe 2096 cabb 8748 4a3e
00000080: 4e83 2cbe 09a4 433d a452 86bd 3e5a e23d
00000090: ac4f a63c 88a3 473e 822d 20be 3e18 db3d
000000a0: 4419 4c3e b0ce abbd 9c25 f7bd adcf e8bd
000000b0: d35d babd 6da6 6e3e e168 0ebe 2628 2d3e
000000c0: 9f49 70ba 9b25 703d 3b00 a13d b51e 37bd
000000d0: 3b7e 5e3d 790c c93d e8e9 223b 2f7d 0e3e
000000e0: 55f6 623e c7e2 39be e7ab 6c3d 46f6 2c3e
000000f0: 3f88 56be f62b 223e 58d8 e7bd fd93 f3bc
00000100: e1f9 0d3c d8ab 93bd c9c4 30be fd09 eebd
00000110: a630 783e 520c 4a3e e8db 59be bdbc 703e
00000120: 4ab8 06be e03e 1a3e 4fbf 79be b6f3 3a3e
00000130: acbd 843e 846f db3d 6cb7 303e d663 a43d
00000140: e41c a6bd 542b 093c 185a 18be 1add abbd
00000150: 781e df3d 16b0 5d3d 8a1a 80bd 4125 a73d
00000160: 2931 2bbd 67b1 a8bd 8711 8b3d 7535 dfbd
00000170: a03f eebd c11f d33d dd17 30be 69e5 81be
00000180: 5db3 4d3d e9dd 6dbd 621c 263e 6d17 2f3d
00000190: eb80 95bc ece3 9e3c 7314 f63d d5b6 b2be
000001a0: 7ca2 8a3e 95a5 543e 0b65 b63c e4f7 63be
000001b0: 6556 383e 6b77 d33c 26f3 d1bd 6322 be3d
000001c0: 51f6 bc3c b5a2 c6bc 278c fbb9 398a 153e
000001d0: b2d7 d5bd 1007 22bd 73f5 603e 1c28 203e
000001e0: b564 a4bd ee64 64be f257 203e 2b1d 03bc
000001f0: c074 37be 91a4 a23b 60ac 2ebe c0ab 773c
00000200: a8f8 263e ac90 2cbe ebaf d53d 5bb6 1dbe
00000210: 33bd a03d 71a5 823d aff3 403c 82eb 76bd
00000220: 5754 1a3e 6e86 a43d 58e0 e43d 34e8 cfbd
00000230: 4ce0 e9bd 19cc 31be f354 21be 7cc4 e2bd
00000240: 1296 ca3b 81cd 17be f54e 193e d00c b6bd
00000250: a820 473e 3b1b 38bd aa07 a3bd 5b7a d4bd
00000260: 9510 85bd bbbc 723d 76dd af3d 39e0 d3bc
00000270: d6ad 323d 23af 743d 54bf f33c 58d6 b03d
00000280: e7e5 66bd 4352 563d 7fdb a03d 1743 ec3d
00000290: 913c 07be 9e4d d0bd c842 573e f1fa dbbd
000002a0: 2dfd 993c 8fb9 4bbe c2c6 51be 4623 c83d
000002b0: 55dd 49be 85dc 87bc dbd0 0f3c b46f 12be
000002c0: 7934 71bd 8095 67bd 872b ae3d 627d 9ebd
000002d0: b0f4 283e a283 d0bc e389 d53d ccb6 c93d
000002e0: 132b 9b3d f5d6 303d d4c4 b53d d4d1 1e3d
000002f0: d4c2 3f3d 85f8 febd 44f6 2ebe 2d7c 4b3d
00000300: e743 11be 2513 533e 12d1 aa3d a6bd 6cbd
00000310: 66fd 043e 373d 973c 4094 1c3e ea15 973d
00000320: 21b1 fabd 6429 4e3e 7304 2dbc 57f3 53bd
00000330: cfae 2fbd 02d8 373e 7f43 17be 284f 4e3e
00000340: eb37 743c d846 f5bc 8905 91bd 3f62 56bc
00000350: de4b f8bd d6c1 6bbd aa27 43bd 6201 9a3e
00000360: 809c 15be 6b04 94bd f274 923c 8354 32be
00000370: af0f c2bc e879 5abe 01fb 48be f529 48be
00000380: b3af 52bc 6de9 4dbe d105 27be 3a8e 963d
00000390: e4cb 1b3d a389 5bbe f224 d3bd 6b6c 7fbb
000003a0: 905e f93d 60db 8ebd 86dd 90bd 926e 01bd
000003b0: 965d 10be 400b 883e 0a34 59be 3c56 053d
000003c0: dac0 693e 0e12 003e bcb4 34bd fdb9 483d
000003d0: af4c 02be 5565 c03d acf1 a93d 6309 0ebc
000003e0: 7539 493e 5ab8 f2bd 809d 1bbe 6127 69be
000003f0: 2a10 1cbe 1c37 c53d 3811 31bd fb9c c63d

pi.mu_net.4.bias f4 [6]
-0.106183544 -0.09185053 0.08165113 0.025603397 0.029672302 -0.028568113
00000000: c276 d9bd 211c bcbd b538 a73d 37be d13c
00000010: 5413 f33c ad07 eabc

vf.v_net.0.weight f4 [64, 24]
-0.3881955 0.016763203 0.14519739 0.036843877 -0.12097177 -0.42633533 0.02190873 -0.050860967
-0.13399854 0.24763331 0.014633254 0.3792055 -0.45551288 0.27584523 0.026983766 -0.14713223
-0.30777752 -0.0802226 -0.08414936 -0.012567592 -0.032725833 0.1507512 0.20905365 0.000115474475
0.47242308 -0.2948167 -0.10227783 -0.11150494 0.11668107 -0.1051925 0.09164634 -0.16460033
0.060215615 0.61538845 0.21808097 0.26181617 -0.096136294 -0.03506581 -0.30303538 -0.037990235
-0.17553401 -0.5468767 -0.87721807 0.1857771 0.017417608 -0.2295949 0.25945744 0.020985296
-0.18863834 -0.6005862 -0.6536033 -0.52775294 0.2217143 -0.8347505 0.42788282 -0.60123134
-0.87320393 -0.29009682 0.41739005 -0.3921646 0.5427555 0.14980412 -0.18839572 -0.35017058
-1.2219473 -0.019364053 0.002186726 0.03739304 -0.011670378 0.08937799 0.100535244 0.011255788
-0.3312757 0.24812706 -0.052453086 0.9131555 -0.4127327 0.24323578 0.18273364 0.29563588
0.1326279 1.1285172 -0.15711918 0.6058084 -0.0119258 -0.22402412 0.104214616 -0.30003873
1.1917067 0.036180623 -0.022236072 -0.050008543 -0.013985334 -0.05172919 -0.057368714 -0.00019168599
0.51928604 0.2301793 0.17290093 -0.19123614 0.20509899 -0.33389574 0.12381159 -0.11073257
0.12638965 -0.33750767 -0.22067252 -0.2537061 0.20339431 0.19515759 -0.052010998 0.13824156
-1.8022625 0.07959648 0.10043028 0.07987011 0.020759419 0.02268494 0.05669728 0.0035448738
-0.15567814 0.35849515 -0.17266922 -0.0012192088 -0.12576349 0.17489107 -0.0822117 0.058874767
-0.04239578 -0.6295745 -0.037651017 -0.33419612 0.07697222 0.17566185 -0.0334604 0.23851623
-0.5252189 -0.031710826 -0.071167305 -0.073511325 0.036926858 -0.3141015 -0.13802074 0.007091517
0.20574225 0.2646806 -0.34887528 0.13719551 0.056787208 0.12300892 -0.19885522 0.0034381968
-0.275031 0.10844694 0.09165582 -0.053311124 0.09022853 0.4450624 -0.23242071 0.1457783
-0.93000257 -0.057168502 0.0019413625 0.07643388 0.01677806 -0.049079925 0.07429474 -0.009778232
-0.049926344 -0.17133352 0.19816972 0.09645227 0.11035185 0.074151166 0.07520722 -0.13399473
0.09359782 -0.46228096 -0.22015575 -0.2541657 -0.08477592 0.14295049 -0.183645 0.09247236
0.11676032 0.3145919 0.5710802 -0.06419087 -0.032805167 0.13949938 -0.21068892 -0.0061228904
-0.08446394 0.20504116 0.16524054 0.08732845 -0.57964236 0.33559796 -0.3886922 0.09198219
-0.11073883 -0.21168502 0.10066484 -0.45195127 0.1982177 -0.23887306 0.042944193 0.049555726
-0.46030492 -0.02704967 0.091602005 0.01637062 -0.007142835 0.0014462338 0.011353128 0.013789302
0.29502633 -0.95176744 -0.644789 -0.44473675 0.42303428 -0.75489956 0.4099346 -0.3839054
-0.36797565 -0.84191203 -0.0039375448 -0.97366935 0.51546484 0.37427416 -0.03254217 -0.3151521
-0.8933424 -0.42247143 0.16433483 0.112905174 0.0035709473 0.11977404 0.07176315 0.009716236
-0.21584974 -0.66789913 -0.4915883 -0.31942642 0.14725244 -0.21091273 0.2739123 0.10269137
-0.38432062 -0.23265626 0.47436038 0.11926541 0.059566613 -0.22003496 -0.25452423 -0.30756763
00000000: 90c1 c6be fc52 893c a0ae 143e 9be9 163d
00000010: 0cc0 f7bd a048 dabe f079 b33c 9753 50bd
00000020: ea36 09be 9693 7d3e 51c0 6f3c 3927 c23e
00000030: fc38 e9be 963b 8d3e 0f0d dd3c d5a9 16be
00000040: 0495 9dbe bf4b a4bd 8056 acbd 4de8 4dbc
00000050: 860b 06bd 865e 1a3e 2912 563e e32a f238
00000060: 70e1 f13e 37f2 96be 0a77 d1bd b45c e4bd
00000070: 7cf6 ee3d 2a6f d7bd 14b1 bb3d fd8c 28be
00000080: a6a4 763d 198a 1d3f 9e50 5f3e c50c 863e
00000090: 1be3 c4bd 2ba1 0fbd 7427 9bbe a69b 1bbd
000000a0: 30bf 33be 1d00 0cbf 5d91 60bf 5a3c 3e3e
000000b0: 5faf 8e3c ed1a 6bbe 9bd7 843e 5be9 ab3c
000000c0: 692a 41be 04c0 19bf 8c52 27bf d11a 07bf
000000d0: 1309 633e 35b2 55bf 7513 db3e 4cea 19bf
000000e0: 4b8a 5fbf 9287 94be 26b4 d53e ccc9 c8be
000000f0: 06f2 0a3f 4066 193e cfea 40be 8f49 b3be
00000100: c568 9cbf 5da1 9ebc 2d4f 0f3b 7229 193d
00000110: 1d35 3fbc cf0b b73d 6ce5 cd3d 326a 383c
00000120: f89c a9be 0515 7e3e 0cd9 56bd 8fc4 693f
00000130: b351 d3be cd12 793e 871e 3b3e 965d 973e
00000140: 9ccf 073e 4073 903f dae3 20be 4216 1b3f
00000150: 6e64 43bc 9466 65be 796e d53d ad9e 99be
00000160: d889 983f 2232 143d 6c28 b6bc c2d5 4cbd
00000170: be22 65bc fde1 53bd 75fb 6abd 51ff 48b9
00000180: eeef 043f 1fb4 6b3e f10c 313e 68d3 43be
00000190: 7805 523e 62f4 aabe ee90 fd3d c2c7 e2bd
000001a0: 4a6c 013e cecd acbe faf7 61be c4e5 81be
000001b0: 9946 503e 64d7 473e 7c09 55bd 328f 0d3e
000001c0: 8ab0 e6bf 7b03 a33d 64ae cd3d f192 a33d
000001d0: a80f aa3c c4d5 b93c 683b 683d 1d51 683b
000001e0: 176a 1fbe ad8c b73e 33d0 30be dccd 9fba
000001f0: 25c8 00be a516 333e 9c5e a8bd ab26 713d
00000200: 33a7 2dbd cb2b 21bf f437 1abd c11b abbe
00000210: 9ca3 9d3d b3e0 333e c60d 09bd 993d 743e
00000220: bf74 06bf 36e3 01bd 2ac0 91bd 1b8d 96bd
00000230: 9e40 173d e9d1 a0be 4f55 0dbe f55f e83b
00000240: 19ae 523e 3784 873e c89f b2be fb7c 0c3e
00000250: b499 683d 1aec fb3d b4a0 4bbe 5f53 613b
00000260: ddd0 8cbe 6e19 de3d 0cb6 bb3d c45c 5abd
00000270: bcc9 b83d 38df e33e b2ff 6dbe e846 153e
00000280: a614 6ebf 8529 6abd 5175 fe3a 5e89 9c3d
00000290: 2472 893c 0808 49bd d727 983d e134 20bc
000002a0: 917f 4cbd 0e72 2fbe 01ed 4a3e c588 c53d
000002b0: 2700 e23d 91dc 973d 3e06 9a3d ea35 09be
000002c0: 37b0 bf3d 17b0 ecbe 8270 61be 0222 82be
000002d0: ff9e adbd 9d61 123e 6f0d 3cbe 2662 bd3d
000002e0: 0920 ef3d 3112 a13e 5032 123f 8176 83bd
000002f0: b65e 06bd edd8 0e3e d6be 57be 87a2 c8bb
00000300: 6efb acbd 4ff6 513e d134 293e 42d9 b23d
00000310: 7163 14bf 7fd3 ab3e aa02 c7be 2961 bc3d
00000320: 0acb e2bd f5c3 58be 5e29 ce3d 2866 e7be
00000330: 95f9 4a3e 249b 74be 40e6 2f3d f2fa 4a3d
00000340: 16ad ebbe 4597 ddbc d599 bb3d ae1b 863c
00000350: 710e eabb 8e8f bd3a 7802 3a3c 86ec 613c
00000360: b10d 973e 08a7 73bf e410 25bf 89b4 e3be
00000370: f397 d83e 1941 41bf f3e2 d13e 408f c4be
00000380: 4e67 bcbe 8c87 57bf 8506 81bb 6542 79bf
00000390: 81f5 033f dda0 bf3e f04a 05bd 9e5b a1be
000003a0: 16b2 64bf 2d4e d8be 6447 283e d43a e73d
000003b0: 8e06 6a3b 184c f53d 8ff8 923d d930 1f3c
000003c0: b707 5dbe 70fb 2abf 76b1 fbbe dc8b a3be
000003d0: 58c9 163e 82f9 57be 3c3e 8c3e da4f d23d
000003e0: acc5 c4be 713d 6ebe 5ddf f23e 6c41 f43d
000003f0: 1ffc 733d d850 61be 0051 82be 8179 9dbe

vf.v_net.0.bias f4 [64]
-0.63171047 0.5026257 0.10617411 0.19218762 -0.39742583 -0.69055974 -0.77217126 -0.74658144
-0.78385425 -0.27937892 0.461537 -0.33235636 -0.67293066 -0.12265681 0.13327241 -0.7453145
0.0675767 0.99447536 -0.22280973 0.17036752 -0.16472387 0.9777826 -1.0668365 0.4365345
0.78466374 -0.44133994 -0.5007114 -0.477556 -0.08272757 0.18923078 -0.5126838 0.61932665
-0.2439677 0.5535419 -1.0670844 0.3212115 -0.3651078 0.037914407 -0.40588158 0.18351488
-0.087479435 0.734107 0.042561248 -0.13431737 -0.681406 0.2973859 0.4757652 0.1204254
1.0191107 0.66142875 0.110819995 0.30743706 -0.9198598 -0.61378855 -0.18760696 0.5028604
0.77415645 -0.60192907 0.49190962 -0.044424057 -0.72991866 -0.07345884 -0.5664221 -0.638186
00000000: c7b7 21bf 14ac 003f d071 d93d d5cc 443e
00000010: 667b cbbe 86c8 30bf 04ad 45bf f61f 3fbf
00000020: acaa 48bf c10a 8fbe 944e ec3e 9d2a aabe
00000030: 2f45 2cbf 7e33 fbbd 9078 083e eecc 3ebf
00000040: a765 8a3d f095 7e3f 3c28 64be d374 2e3e
00000050: 60ad 28be f64f 7a3f 198e 88bf 7381 df3e
00000060: b9df 483f 4ff7 e1be 9f2e 00bf 3882 f4be
00000070: 126d a9bd b7c5 413e 3f3f 03bf 318c 1e3f
00000080: abd2 79be ecb4 0d3f 3996 88bf d575 a43e
00000090: 69ef babe 234c 1b3d b6cf cfbe 53eb 3b3e
000000a0: 6b28 b3bd 70ee 3b3f b454 2e3d 7e8a 09be
000000b0: a070 2ebf f742 983e 7f97 f33e 98a1 f63d
000000c0: 3872 823f 6553 293f 98f5 e23d 6468 9d3e
000000d0: ef7b 6bbf 3f21 1dbf 0a1c 40be 76bb 003f
000000e0: 1e2f 463f 0618 1abf 94db fb3e 00f6 35bd
000000f0: f3db 3abf 9771 96bd 0a01 11bf 2860 23bf

vf.v_net.2.weight f4 [64, 64]
0.19744296 0.3818713 -0.103025414 0.26592514 -0.5250907 0.12680155 0.09322126 -0.32159737
-0.31695586 -0.58079535 0.33459947 -0.3601392 0.24180688 -0.18410984 -0.5881573 -0.35018474
0.31336483 -0.021073444 0.46725872 -0.18923031 -0.20763338 0.32430404 0.085382156 0.28574565
0.36609998 0.20740826 -0.37858972 -0.22981651 -0.30716246 -0.10841931 -0.40554488 0.020397885
-0.39499745 0.09321606 0.14973576 -0.14181215 -0.25741678 0.15863673 -0.11297237 -0.15831196
-0.17538917 0.015245993 0.18355282 0.22580586 0.2975673 0.452457 0.2815937 -0.19073784
-0.2615469 0.001571377 0.0013553323 0.36960682 -0.2938335 -0.26610562 -0.14276248 0.3202758
-0.37648973 -0.1081393 0.3543866 -0.14292808 0.12163002 0.3117808 0.012593052 -0.32820222
-0.12016153 0.28716207 -0.06330757 0.2254529 -0.3945656 0.3315239 -0.038895845 -0.30582017
-0.44244313 -0.55441153 0.40290812 -0.17655487 0.32543445 -0.0050589843 -0.634193 -0.32325116
0.24995162 -0.3592886 0.14740087 0.046889488 -0.15880272 0.24312705 0.08909641 0.3464796
0.20301148 0.32880056 -0.42622322 0.4626525 -0.33453754 0.47273976 -0.32836407 -0.064900614
-0.3173264 0.07073152 0.13708209 -0.27521557 -0.044748086 -0.02606726 -0.36727965 -0.11639903
-0.15168642 0.16786894 -0.22894372 -0.14437623 0.2370567 0.5213823 0.28823596 -0.11526528
-0.17837287 0.19159432 -0.20462154 -0.13656175 -0.26394293 -0.093157515 -0.41958705 0.15541504
-0.3767827 -0.39275566 -0.037844185 -0.38999194 -0.16460851 0.6240844 0.5642764 0.019820422
-0.051963575 -0.20253983 0.18404569 0.005485867 -0.2564211 0.32773915 0.07719198 0.11523058
-0.19630624 -0.4556168 0.02799902 -0.21224226 -0.19629191 -0.3355666 -0.42892295 0.014499733
0.14947917 0.0011908904 -0.009930303 0.15366916 -0.06126808 0.17424178 0.0031648136 0.20566198
-0.011713087 0.03392225 -0.28774035 0.64307845 0.21666074 0.49739295 -0.12834927 -0.015256898
-0.19099396 -0.12872154 -0.15650645 -0.10541099 0.19958822 -0.854374 -0.16009988 -0.29056403
0.018620469 0.15034416 -0.30641863 -0.5749647 0.12029669 0.14957911 0.13890235 -0.2240698
0.09799712 0.07385832 -0.2082778 -0.4295033 -0.22853735 -0.28696007 -0.2064666 0.39785936
0.18769701 -0.21350525 -0.22281505 0.063267924 -0.3584297 0.24223113 0.31136665 0.30898553
-0.10791608 -0.14199609 -0.029030643 0.30447978 -0.30179146 -0.38481873 -0.30159882 0.29315594
0.082033046 -0.5278903 -0.34465513 0.3921486 -0.18547162 -0.24419302 0.2232371 -0.04371394
0.121459596 0.30409545 -0.12556009 0.15181346 0.3268995 -0.10972754 -0.27059346 -0.058010634
-0.04818308 -0.27601665 -0.30802712 -0.2196634 0.40933082 -0.4152935 -0.13879722 -0.12336931
-0.36364692 -0.044242218 -0.36126897 0.30472547 -0.328926 -0.04024263 0.46078563 -0.47861245
0.25980672 -0.30418426 -0.043960813 -0.21047744 -0.12023883 0.45690513 -0.026036724 0.17834446
0.16217133 0.23333658 0.22876993 -0.12324052 0.26012045 0.2406401 0.22528675 0.116713524
0.31505883 0.27178666 0.067940414 0.4104535 -0.1217653 0.36537513 -0.110629484 0.13423358
00000000: 7d2e 4a3e a384 c33e fdfe d2bd 5727 883e
00000010: 586c 06bf 44d8 013e caea be3d 69a8 a4be
00000020: 0a48 a2be 01af 14bf 9f50 ab3e 2a64 b8be
00000030: 399c 773e 4a87 3cbe 7a91 16bf 6a4b b3be
00000040: 5b71 a03e 37a2 acbc 893c ef3e 97c5 41be
00000050: d89d 54be 2e0b a63e d7dc ae3d 414d 923e
00000060: 7571 bb3e d562 543e 83d6 c1be 0555 6bbe
00000070: 6644 9dbe f10a debd 94a3 cfbe 7719 a73c
00000080: 1b3d cabe 10e8 be3d 5554 193e 3437 11be
00000090: 22cc 83be ab71 223e 0f5e e7bd 881c 22be
000000a0: 3899 33be 54ca 793c 45f5 3b3e a739 673e
000000b0: be5a 983e 72a8 e73e 0d2d 903e c850 43be
000000c0: 7ae9 85be aaf6 cd3a 68a5 b13a 1b3d bd3e
000000d0: 5871 96be ff3e 88be 5430 12be 31fb a33e
000000e0: 43c3 c0be 2378 ddbd 2972 b53e bd5b 12be
000000f0: 2919 f93d bca1 9f3e 1753 4e3c 1f0a a8be
00000100: 4017 f6bd e806 933e 66a7 81bd 20dd 663e
00000110: 8104 cabe 80bd a93e 4051 1fbd 7694 9cbe
00000120: e887 e2be eaed 0dbf f949 ce3e cdca 34be
00000130: 589f a63e d6c5 a5bb 795a 22bf 2d81 a5be
00000140: 51f3 7f3e adf4 b7be 41f0 163e 310f 403d
00000150: 2e9d 22be 4cf6 783e 2e78 b63d c665 b13e
00000160: 3ee2 4f3e 8c58 a83e ee39 dabe cae0 ec3e
00000170: 8148 abbe f20a f23e 561f a8be 9dea 84bd
00000180: 9b78 a2be b0db 903d 3f5f 0c3e 0ee9 8cbe
00000190: c549 37bd 028b d5bc 140c bcbe 9d62 eebd
000001a0: af53 1bbe d6e5 2b3e 3970 6abe 5dd7 13be
000001b0: febe 723e 4f79 053f aa93 933e 3410 ecbd
000001c0: 61a7 36be 4d31 443e 4f88 51be d8d6 0bbe
000001d0: 8723 87be 5ec9 bebd 1dd4 d6be 1f25 1f3e
000001e0: a9e9 c0be 4517 c9be 8102 1bbd 06ad c7be
000001f0: 228f 28be ffc3 1f3f 6b74 103f 705e a23c
00000200: c2d7 54bd 9a66 4fbe 7976 3c3e cac2 b33b
00000210: a049 83be 6dcd a73e d416 9e3d 03fe eb3d
00000220: 8104 49be 9b46 e9be 335e e53c 0956 59be
00000230: bf00 49be 63cf abbe ca9b dbbe 4a90 6d3c
00000240: 1111 193e a717 9c3a b6b2 22bc 735b 1d3e
00000250: 3df4 7abd 706c 323e c368 4f3b 0e99 523e
00000260: 3fe8 3fbc 0ff2 0a3d b452 93be caa0 243f
00000270: 50dc 5d3e 4aaa fe3e fe6d 03be 11f8 79bc
00000280: ec93 43be 94cf 03be 3a43 20be b8e1 d7bd
00000290: db60 4c3e 41b8 5abf 39f1 23be cfc4 94be
000002a0: f489 983c d2f3 193e e7e2 9cbe e330 13bf
000002b0: 1c5e f63d 442b 193e 6b3c 0e3e 8e72 65be
000002c0: b7b2 c83d 0843 973d c746 55be dbe7 dbbe
000002d0: b205 6abe 6eec 92be fb6b 53be 39b4 cb3e
000002e0: a533 403e 1fa1 5abe a129 64be 9d92 813d
000002f0: 1984 b7be 700b 783e 736b 9f3e 5a33 9e3e
00000300: 1b03 ddbd 6c67 11be acd1 edbc c6e4 9b3e
00000310: 6984 9abe f606 c5be 296b 9abe 8918 963e
00000320: f100 a83d d223 07bf a376 b0be b4c7 c83e
00000330: 46ec 3dbe bc0d 7abe 4498 643e 630d 33bd
00000340: cfbf f83d 66b2 9b3e d392 00be fd74 1b3e
00000350: 5f5f a73e d5b8 e0bd 3a8b 8abe 8f9c 6dbd
00000360: 9f5b 45bd 0e52 8dbe bbb5 9dbe 71ef 60be
00000370: cf93 d13e 5aa1 d4be dc20 0ebe 0ca9 fcbd
00000380: ee2f babe 5437 35bd 3ff8 b8be fa04 9c3e
00000390: fd68 a8be 75d5 24bd 18ec eb3e b10c f5be
000003a0: 6305 853e 0abe 9bbe 4110 34bd 6687 57be
000003b0: c73f f6bd 78ef e93e f84a d5bc ee9f 363e
000003c0: 3e10 263e c9ef 6e3e aa42 6a3e 8765 fcbd
000003d0: 822e 853e 5c6a 763e 92b1 663e 8007 ef3d
000003e0: 644f a13e 9f27 8b3e 5824 8b3d f626 d23e
000003f0: 1660 f9bd 7312 bb3e b691 e2bd 8774 093e

vf.v_net.2.bias f4 [64]
0.44406307 0.38347453 0.13833134 0.41084394 -0.2904114 0.2017204 0.3914271 0.39009488
0.3370229 0.010140595 0.43529478 0.12328609 -0.25209564 0.48631364 0.43781754 0.061677534
-0.3291638 0.11620528 -0.28287202 0.21690935 0.49012485 -0.10278556 0.19013579 -0.18127419
-0.14558254 0.40851125 0.023080043 0.18053891 0.085996605 0.015941055 0.26528123 -0.21029891
0.380955 0.49972117 0.4338101 -0.2540561 0.24823578 0.24218819 0.32820913 -0.083988115
0.25135246 0.12656455 0.2159095 0.2795859 -0.32021758 0.4707876 0.4559606 0.22881618
0.10757535 0.32773548 0.20901956 0.26925734 0.40548185 -0.20838392 0.30318868 0.38250184
-0.19651805 0.2849688 0.3369449 0.35870433 0.48081884 0.39332163 0.21241772 -0.1798046
00000000: 3c5c e33e c656 c43e bba6 0d3e 235a d23e
00000010: ceb0 94be cb8f 4e3e 2269 c83e 84ba c73e
00000020: 448e ac3e bd24 263c f5de de3e 6b7d fc3d
00000030: ae12 81be 1afe f83e 9f29 e03e 95a1 7c3d
00000040: 2888 a8be 09fd ed3d 9ad4 90be 7c1d 5e3e
00000050: a5f1 fa3e 3c81 d2bd f5b2 423e f19f 39be
00000060: 9713 15be 6328 d13e 5c12 bd3c 31df 383e
00000070: fd1e b03d d196 823c f1d2 873e 9958 57be
00000080: 890c c33e 74db ff3e 5c1c de3e a413 82be
00000090: 8531 7e3e 2e00 783e 070b a83e f601 acbd
000000a0: 45b1 803e 239a 013e 6117 5d3e e225 8f3e
000000b0: 8ff3 a3be 130b f13e ab73 e93e ca4e 6a3e
000000c0: 7750 dc3d f2cc a73e 3909 563e 19dc 893e
000000d0: 519b cf3e 9862 55be 8c3b 9b3e 48d7 c33e
000000e0: 073c 49be 6ee7 913e 0b84 ac3e 18a8 b73e
000000f0: e32d f63e 7461 c93e 0884 593e b21e 38be

vf.v_net.4.weight f4 [1, 64]
0.30045632 0.32979533 0.30781358 0.32477924 -0.26591012 0.27680543 0.3991957 0.36116648
0.37739325 0.21967487 0.43927765 0.25459725 -0.41991636 0.372593 0.38756 0.21801814
-0.3639493 0.18418151 -0.33805767 0.36785218 0.36843595 -0.4212893 0.15679392 -0.4101071
-0.38250822 0.37428936 0.2774602 0.66945165 0.27665788 0.4367219 0.48443732 -0.22564702
0.3330743 0.35032237 0.33139086 -0.29626882 0.50038564 0.4638466 0.369132 -0.2933099
0.6147019 0.42402148 0.23006898 0.33553842 -0.3638358 0.4119477 0.3686491 0.43856597
0.3754551 0.31236196 0.4176877 0.3833947 0.43176883 -0.36962065 0.4285512 0.29537588
-0.4542584 0.29916212 0.43074512 0.37644476 0.857829 0.89279 0.28546745 -0.39195907
00000000: 69d5 993e efda a83e be99 9d3e 7749 a63e
00000010: 5f25 88be 71b9 8d3e 6163 cc3e d0ea b83e
00000020: b039 c13e 73f2 603e 00e9 e03e 925a 823e
00000030: 47ff d6be 82c4 be3e 446e c63e 2640 5f3e
00000040: 9057 babe 149a 3c3e e515 adbe 1f57 bc3e
00000050: a3a3 bc3e 3bb3 d7be 968e 203e 8ff9 d1be
00000060: 1ed8 c3be dba2 bf3e 430f 8e3e 2f61 2b3f
00000070: 1aa6 8d3e 039a df3e 2b08 f83e 0310 67be
00000080: b788 aa3e 745d b33e 10ac a93e 8cb0 97be
00000090: 4619 003f 4d7d ed3e dffe bc3e b72c 96be
000000a0: 1b5d 1d3f 5819 d93e 3497 6b3e b1cb ab3e
000000b0: b048 babe cfea d23e 93bf bc3e b88b e03e
000000c0: a73b c03e e8ed 9f3e 2adb d53e 4f4c c43e
000000d0: ce10 dd3e eb3e bdbe 106b db3e 823b 973e
000000e0: 8f94 e8be c72b 993e a08a dc3e 5ebd c03e
000000f0: ae9a 5b3f e38d 643f ca28 923e dcae c8be
