HW4/ppo_actor.pth (torch, 84890 bytes, 7 tensors)

log_std f4 [6]
-0.51647586 -0.23383598 -0.41735807 -0.45607474 -0.6395472 -0.27393016
00000000: c337 04bf b372 6fbe f5af d5be a182 e9be
00000010: 5eb9 23bf 9340 8cbe

mu_net.0.weight f4 [128, 24]
0.32851395 0.113501385 0.25449008 0.0144467885 0.08899776 0.09340808 -0.036137376 0.052747644
-0.04733236 0.13568461 -0.010981354 -0.110203244 0.050516363 -0.07227275 -0.2633398 0.12741713
0.04739182 0.29209608 0.3785524 -0.2942749 0.10429544 -0.04612947 -0.25510424 -0.11065269
0.040330406 -0.28148603 -0.11289547 0.02128314 0.049798224 -0.29787868 0.0902635 0.05286844
-0.40793812 0.23446104 -0.15380707 -0.043734293 -0.22509152 -0.19142522 -0.05390187 0.09935157
-0.1588121 0.15384449 -0.013492635 -0.04929623 -0.06629013 0.3731074 -0.09097136 -0.4297978
0.104998 0.08575768 0.03384496 0.025236825 0.081677206 0.12446154 0.07592516 -0.05429344
0.31757367 -0.23954968 0.09514642 0.19756134 0.11084087 0.08827661 0.12793835 0.0012946646
0.22045681 -0.052950293 0.34400737 -0.11221269 -0.19744438 0.25635764 -0.03495418 0.15037493
-0.26651695 -0.14360906 -0.10390669 0.057107344 0.1492796 0.039439227 -0.26266816 -0.19765204
-0.24839121 -0.12676853 -0.1155648 0.060584474 -0.11201111 0.1620049 0.22593082 -0.07944463
0.071482554 -0.040122878 -0.41177103 0.35264686 -0.16039589 -0.025672752 0.1349468 -0.31761673
-0.24719271 0.36824647 0.45917624 0.0041357344 -0.14341885 0.32553977 -0.39370108 -0.010260713
0.2874656 -0.076859795 -0.023100385 0.12874053 0.2861614 0.2108101 0.26978734 -0.26502585
-0.17418088 -0.13965091 -0.25010723 -0.23341917 0.11941188 -0.02164586 -0.17767921 0.16753186
-0.14477213 -0.3614177 -0.38997403 0.18627024 0.25412712 -0.2969077 -0.0962442 0.046780653
-0.36709034 0.40555027 -0.1321422 -0.2635421 -0.041012995 -0.12806402 0.034440853 -0.112592876
0.041488163 0.05782234 0.09180545 0.13301657 0.19248477 0.3427635 0.03427793 -0.21043614
0.06172372 0.20535684 0.5920334 -0.15850323 -0.2101908 0.51268476 -0.07478877 0.20093882
0.38893193 0.047664907 -0.17169657 0.20148149 0.04640434 0.28907505 -0.018375166 0.056153294
-0.052840207 -0.039868478 0.08071792 -0.18342914 0.053881913 -0.07192317 0.03065683 0.2491293
0.21149153 0.15948735 0.20535384 -0.2834393 -0.15799046 0.47194424 0.1458116 0.1204042
-0.06707819 -0.42537367 0.20618977 0.2572674 0.35230583 0.39706218 0.28916663 -0.31303963
-0.09581721 -0.00013850504 -0.07115195 -0.39649084 0.03165608 -0.18468237 0.091326654 -0.022154547
-0.055015523 0.27781838 0.382951 -0.058772504 -0.040143754 0.057071205 -0.13184115 0.18493883
0.18471253 -0.09779253 -0.22778212 0.24583253 -0.05381257 0.11845327 0.059426 -0.07013215
-0.12920728 -0.12051868 -0.10618269 0.097933196 0.103086814 -0.15219101 -0.41745245 -0.21736898
0.16223137 -0.15637311 -0.4607195 0.120267265 -0.069327354 -0.46405616 -0.02673 -0.21436675
-0.25925517 0.21562876 0.16985984 -0.1536755 -0.015477783 -0.29325238 -0.22589453 -0.13836727
0.20086902 0.11118989 0.23371655 -0.10818168 0.09634156 0.19538166 0.16717522 -0.02953376
0.011735441 -0.3511605 -0.39001355 0.20171827 0.30274084 -0.37423274 0.07176901 -0.13662511
-0.42092445 0.091409735 -0.048323337 -0.059753116 -0.18493018 -0.1718274 -0.072262645 -0.13379675
00000000: fb32 a83e 6a73 e83d 864c 823e 39b2 6c3c
00000010: 7544 b63d bc4c bf3d c904 14bd ea0d 583d
00000020: 94df 41bd e8f0 0a3e 23eb 33bc 3db2 e1bd
00000030: 3fea 4e3d bc03 94bd 79d4 86be a379 023e
00000040: ed1d 423d 9e8d 953e 9fd1 c13e 33ab 96be
00000050: d998 d53d 41f2 3cbd 069d 82be e19d e2bd
00000060: 7f31 253d f01e 90be bd35 e7bd fb59 ae3c
00000070: 39f9 4b3d 8e83 98be 12dc b83d 948c 583d
00000080: 44dd d0be 8e16 703e 9a7f 1dbe bb22 33bd
00000090: 647e 66be f904 44be 35c8 5cbd d678 cb3d
000000a0: a49f 22be 6989 1d3e 3710 5dbc d8ea 49bd
000000b0: 1fc3 87bd ef07 bf3e 314f babd 750e dcbe
000000c0: 3109 d73d b9a1 af3d 03a1 0a3d 75bd ce3c
000000d0: 6146 a73d b1e5 fe3d a67e 9b3d cc62 5ebd
000000e0: 0499 a23e 834c 75be 20dc c23d 854d 4a3e
000000f0: 8a00 e33d 5eca b43d 4502 033e bcb1 a93a
00000100: 6ebf 613e 68e2 58bd bc21 b03e c4cf e5bd
00000110: dc2e 4abe 4f41 833e 1d2c 0fbd e3fb 193e
00000120: e974 88be 410e 13be 08cd d4bd 64e9 693d
00000130: c0dc 183e 078b 213d 717c 86be 4c65 4abe
00000140: 445a 7ebe 9ccf 01be 3dad ecbd 6d27 783d
00000150: 1566 e5bd 9de4 253e 695a 673e deb3 a2bd
00000160: 7265 923d e357 24bd a7d3 d2be 218e b43e
00000170: d23e 24be aa4f d2bc 7e2f 0a3e a99e a2be
00000180: 1620 7dbe cd8a bc3e 2619 eb3e 0e85 873b
00000190: 64dc 12be 26ad a63e 3093 c9be 8d1c 28bc
000001a0: b12e 933e ab68 9dbd 053d bdbc 8fd4 033e
000001b0: bf83 923e 9ade 573e 9121 8a3e 78b1 87be
000001c0: 795c 32be a600 0fbe 0e0e 80be 6f05 6fbe
000001d0: 378e f43d a952 b1bc 8af1 35be 798d 2b3e
000001e0: 253f 14be be0b b9be adaa c7be a0bd 3e3e
000001f0: f31c 823e 4904 98be ae1b c5bd 129d 3f3d
00000200: 44f3 bbbe 49a4 cf3e 4950 07be fdee 86be
00000210: 3efd 27bd 3723 03be da11 0d3d 1897 e6bd
00000220: 7eef 293d 1ed7 6c3d 7f04 bc3d 7f35 083e
00000230: ba1a 453e b37e af3e 0467 0c3d 927c 57be
00000240: 03d2 7c3d 1049 523e 808f 173f ac4e 22be
00000250: 423c 57be 4f3f 033f db2a 99bd e8c2 4d3e
00000260: 1622 c73e 473c 433d 3ad1 2fbe 2a51 4e3e
00000270: 7a12 3e3d a501 943e 8487 96bc ff00 663d
00000280: f96e 58bd 214d 23bd 704f a53d d9d4 3bbe
00000290: 48b3 5c3d 744c 93bd 0824 fb3c c01b 7f3e
000002a0: 3c91 583e a750 233e 4748 523e f51e 91be
000002b0: 40c8 21be ada2 f13e a34f 153e 7a96 f63d
000002c0: 4a60 89bd 94ca d9be 6923 533e 8db8 833e
000002d0: 6e61 b43e bc4b cb3e a60d 943e bb46 a0be
000002e0: d03b c4bd aa3b 11b9 1db8 91bd d900 cbbe
000002f0: cea9 013d 601d 3dbe 7809 bb3d 747d b5bc
00000300: f557 61bd 363e 8e3e 2712 c43e 70bb 70bd
00000310: c76d 24bd 7fc3 693d 5e01 07be 9b60 3d3e
00000320: 4825 3d3e 7347 c8bd b73f 69be 86bb 7b3e
00000330: 926a 5cbd a197 f23d ad68 733d 72a1 8fbd
00000340: ea4e 04be 7fd2 f6bd 4f76 d9bd 3391 c83d
00000350: 2e1f d33d f6d7 1bbe 54bc d5be f995 5ebe
00000360: fb1f 263e 4620 20be 6de3 ebbe af4e f63d
00000370: 80fb 8dbd c598 edbe dff8 dabc f582 5bbe
00000380: 18bd 84be c9cd 5c3e bdef 2d3e 1c5d 1dbe
00000390: 8796 7dbc 2d25 96be e550 67be 26b0 0dbe
000003a0: 9cb0 4d3e 86b7 e33d 6453 6f3e 5b8e ddbd
000003b0: b94e c53d 2112 483e fb2f 2b3e c9f0 f1bc
000003c0: 0246 403c 4fcb b3be dbaf c7be 3c8f 4e3e
000003d0: d900 9b3e 6f9b bfbe a1fb 923d 74e7 0bbe
000003e0: 6983 d7be 0735 bb3d b1ee 45bd afbf 74bd
000003f0: 565e 3dbe 86f3 2fbe 70fe 93bd 0402 09be

mu_net.0.bias f4 [128]
-0.012096162 -0.37390417 -0.10201734 0.34817633 0.08411283 -0.35531312 0.04442478 0.23258078
0.04702369 -0.22395657 0.056035567 -0.16087382 -0.1988892 0.008841337 -0.050772246 -0.010624768
0.16821654 0.16563408 -0.0028662113 0.38893667 -0.14812638 0.4242126 0.12147312 0.23835783
0.028319856 0.20204256 -0.08512472 0.3707448 0.16505411 0.082642205 0.30005527 -0.09812199
0.18079548 0.010841145 -0.13720597 -0.20687121 0.17185387 -0.08106565 -0.30539078 0.19680884
0.16995347 -0.14162293 0.06898015 -0.17856285 -0.22818603 -0.065451294 -0.20756862 0.053699143
-0.21764484 -0.088561125 0.05864017 0.08748549 -0.15309004 0.16978888 0.01879264 -0.1540257
0.03696145 0.19170511 -0.20881757 0.29017845 0.20063132 -0.20195822 0.04415943 -0.058401987
-0.36475626 -0.017754707 0.262211 0.04881936 -0.31250677 -0.20893514 -0.019924523 0.23093002
0.024295518 -0.29300585 0.32088405 0.08064266 -0.13513632 -0.10791104 0.26423892 0.08912536
-0.2978389 0.1068473 0.11917141 -0.047210775 -0.1762848 0.12194796 -0.29613647 0.04459227
0.0123025905 0.1362388 0.15256768 0.05340756 0.1578295 -0.013747887 -0.13975587 -0.13013801
0.3020918 0.0936045 0.19334874 0.11197804 -0.22500494 -0.10424246 0.39212355 0.022534736
-0.10564589 -0.3503723 -0.24535502 0.18492831 -0.4599984 -0.32233623 -0.0783248 -0.27494445
0.046516214 -0.16655688 -0.11454787 -0.078356706 0.05604144 0.33511624 -0.2961058 -0.22582631
-0.33996853 -0.08360962 0.064523295 0.36817902 0.23847377 -0.03963582 -0.025969077 0.17311957
00000000: fb2e 46bc 5e70 bfbe 78ee d0bd 2b44 b23e
00000010: 5943 ac3d 9aeb b5be c2f6 353d a829 6e3e
00000020: ea9b 403d df54 65be 8d85 653d 1bbc 24be
00000030: 9ca9 4bbe 41db 103c 8ff6 4fbd 8213 2ebc
00000040: f540 2c3e fb9b 293e 0cd7 3bbb b522 c73e
00000050: 71ae 17be 6532 d93e e6c6 f83d 1314 743e
00000060: 0bff e73c 3fe4 4e3e df55 aebd 43d2 bd3e
00000070: f203 293e 5140 a93d d8a0 993e 2ff4 c8bd
00000080: 7322 393e 0f9f 313c b97f 0cbe 0cd6 53be
00000090: 76fa 2f3e bf05 a6bd 2e5c 9cbe 4288 493e
000000a0: 4808 2e3e 9a05 11be 7745 8d3d 2ed9 36be
000000b0: 99a9 69be 540b 86bd de8c 54be a2f3 5b3d
000000c0: 4ade 5ebe 895f b5bd ad30 703d 982b b33d
000000d0: a3c3 1cbe 23dd 2d3e 06f3 993c eab8 1dbe
000000e0: e464 173d 584e 443e 46d4 55be 4592 943e
000000f0: 4c72 4d3e 23ce 4ebe 85e0 343d ec36 6fbd
00000100: 55c1 babe 5272 91bc 8540 863e cff6 473d
00000110: e300 a0be 18f3 55be c138 a3bc eb78 6c3e
00000120: 6507 c73c dd04 96be ea4a a43e fb27 a53d
00000130: 2d61 0abe 7700 ddbd 534a 873e 5b87 b63d
00000140: 577e 98be c2d2 da3d 2410 f43d 1660 41bd
00000150: 0184 34be dabf f93d 339f 97be 62a6 363d
00000160: ce90 493c 2f82 0b3e b43a 1c3e e3c1 5a3d
00000170: 0e9e 213e d13e 61bc 2a1c 0fbe e642 05be
00000180: c7ab 9a3e b7b3 bf3d 36fd 453e be54 e53d
00000190: b267 66be 127d d5bd 6bc4 c83e c49a b83c
000001a0: df5c d8bd 0064 b3be 593e 7bbe d95d 3d3e
000001b0: e984 ebbe 4109 a5be c168 a0bd 85c5 8cbe
000001c0: c987 3e3d e38d 2abe 1398 eabd 7b79 a0bd
000001d0: b68b 653d 5b94 ab3e 2e9b 97be 033f 67be
000001e0: 5b10 aebe 853b abbd ca24 843d f681 bc3e
000001f0: 7832 743e 2b59 22bd 1abd d4bc 4246 313e

mu_net.2.weight f4 [128, 128]
-0.09899997 -0.13563588 0.012141053 -0.28993022 0.013006367 0.01635613 0.10710475 -0.14316748
-0.20046781 -0.083795466 -0.09309947 0.025116336 -0.2747786 0.094551936 -0.083952114 -0.16075471
0.26042223 0.038033005 -0.20390335 0.23467016 -0.15035918 -0.08517633 0.031847436 -0.007968963
-0.0971233 0.18096143 -0.22830461 0.116049476 0.3059742 0.079054885 -0.14465515 -0.110388756
0.30295295 -0.08339004 -0.02747181 0.22900824 0.006437272 -0.20866473 0.06663822 -0.06898817
0.22561297 -0.095189765 -0.0037366557 0.11169895 -0.010187147 0.06580056 0.14665465 0.025839763
-0.11253724 0.11629636 0.17553869 0.04509963 -0.08044835 -0.1392525 -0.1517169 0.31247452
0.021225398 0.03209189 0.10158454 -0.038840085 -0.2268151 0.34734425 0.37226006 -0.16916001
0.08959497 -0.19164549 0.19932552 0.020713521 0.18413399 -0.147666 0.24039002 -0.1133913
-0.1810485 -0.26810786 -0.035639722 0.07712013 0.2774516 -0.069923356 0.104935504 -0.1511162
0.17569679 0.024172438 0.15210739 0.23486005 -0.1392349 0.23062156 0.22752796 0.0026477317
0.18521617 0.17364246 0.03796228 -0.21324733 0.094000064 -0.18936557 -0.16941647 -0.18865158
-0.02369497 -0.23218207 0.13989556 0.2626505 -0.17547838 0.057908487 -0.116614506 0.22964475
-0.20254599 0.24923344 -0.04630177 0.093851164 -0.19593972 0.13640514 -0.11465985 -0.3099188
-0.25540844 -0.027164934 0.18095037 -0.04887659 -0.09043879 -0.06418269 0.108783685 0.03368211
-0.19533911 -0.11045968 0.3087126 -0.3505495 0.21348454 0.034349747 0.05254504 0.17708711
0.046578586 0.27162972 -0.11844067 -0.050900582 -0.08321887 -0.0042048865 -0.21586828 -0.16038273
-0.106511004 -0.066499814 0.10249891 -0.044140805 -0.064179115 -0.052447155 -0.15878569 -0.30618626
0.042379837 -0.15038761 -0.14176555 -0.49296296 -0.04302588 0.011880196 -0.018257275 -0.20997731
-0.06705008 0.028342659 -0.23377904 0.049594283 -0.31242782 -0.13190217 -0.06417711 0.18653949
-0.043776102 -0.035387788 0.0668269 0.22268781 0.16151263 -0.04398564 0.13910075 -0.27968812
-0.06707073 0.08707414 0.28616533 0.18185174 0.117721245 -0.05382992 -0.07887618 0.14178103
0.1705046 0.38989764 0.08063778 0.019642277 -0.2280259 -0.19580421 0.13395657 0.034030322
-0.5410497 -0.2507307 0.0476331 -0.15688498 -0.100547366 0.17604902 0.1829384 0.14579009
0.12349666 0.15896955 -0.2698775 -0.2408929 0.14729829 0.05072588 -0.062275637 -0.2912641
0.42738497 0.11480116 -0.007834664 0.0724168 -0.19768299 0.19370876 0.063443445 0.0029817752
0.32681382 0.08942155 -0.034597445 0.020328896 0.12936345 -0.2805418 0.30917054 -0.16211356
-0.14970024 -0.2616012 -0.22428447 0.13049991 -0.3939156 -0.045892663 0.17077836 0.16938487
-0.2228881 0.30283895 0.0033363928 0.34101498 0.40944794 -0.096266165 -0.22378567 0.013333038
-0.20943473 0.2276135 0.2699199 0.09942403 0.45910135 0.099646546 0.39804858 -0.013909243
-0.0971087 0.020674214 -0.016533779 0.14286904 0.017557805 -0.023107635 0.29123792 0.13314278
0.087628074 0.16468985 -0.02627353 -0.12472391 -0.26249793 -0.16673833 0.117376335 0.093642645
00000000: 7fc0 cabd 22e4 0abe 44eb 463c bc71 94be
00000010: a818 553c 4afd 853c bc59 db3d 7f9a 12be
00000020: 6f47 4dbe f59c abbd efaa bebd c6c0 cd3c
00000030: c8af 8cbe 72a4 c13d 16ef abbd e29c 24be
00000040: 1056 853e 7fc8 1b3d 0acc 50be 604d 703e
00000050: c2f7 19be ed70 aebd 7572 023d 4190 02bc
00000060: 95e8 c6bd f44d 393e afc8 69be 59ab ed3d
00000070: a6a8 9c3e 87e7 a13d 7b20 14be 8013 e2bd
00000080: a61c 9b3e 66c8 aabd 900c e1bc 2381 6a3e
00000090: c0ef d23b 35ac 55be 9e79 883d ab49 8dbd
000000a0: 1607 673e daf2 c2bd aee2 74bb 6bc2 e43d
000000b0: fee7 26bc 72c2 863d a32c 163e e9ad d33c
000000c0: ed79 e6bd c92c ee3d 6ac0 333e 64ba 383d
000000d0: 1bc2 a4bd 3598 0ebe ad5b 1bbe a9fc 9f3e
000000e0: e3e0 ad3c c972 033d 8e0b d03d c816 1fbd
000000f0: 3842 68be 1bd7 b13e df98 be3e 4838 2dbe
00000100: 917d b73d b73e 44be fd1b 4c3e 67af a93c
00000110: 9f8d 3c3e c235 17be cd28 763e b339 e8bd
00000120: c764 39be 6f45 89be f5fa 11bd 29f1 9d3d
00000130: 230e 8e3e fa33 8fbd 6de8 d63d 35be 1abe
00000140: dce9 333e 4705 c63c 0ac2 1b3e 277f 703e
00000150: 9893 0ebe 0f28 6c3e 17fd 683e 9185 2d3b
00000160: 4fa9 3d3e 54cf 313e 567e 1b3d 825d 5abe
00000170: 1b83 c03d 0ce9 41be 837b 2dbe e12d 41be
00000180: f41b c2bc 23c1 6dbe c840 0f3e 207a 863e
00000190: 9bb0 33be 7331 6d3d 96d3 eebd fe27 6b3e
000001a0: 3768 4fbe 0d37 7f3e eda6 3dbd 0a35 c03d
000001b0: 6ca4 48be caad 0b3e c9d2 eabd adad 9ebe
000001c0: e5c4 82be ff88 debc 0e4b 393e d232 48bd
000001d0: f937 b9bd 3772 83bd fbc9 de3d 41f6 093d
000001e0: fa06 48be af38 e2bd 940f 9e3e 397b b3be
000001f0: b19b 5a3e 52b2 0c3d 7839 573d 5356 353e
00000200: 30c9 3e3d 0d13 8b3e 0691 f2bd 217d 50bd
00000210: a86e aabd 25c9 89bb 930c 5dbe 5f3b 24be
00000220: 7122 dabd 0e31 88bd f3ea d13d fdcc 34bd
00000230: 5770 83bd d4d2 56bd b798 22be 72c4 9cbe
00000240: 7b96 2d3d 36ff 19be fd2a 11be a465 fcbe
00000250: e83b 30bd 27a5 423c 4890 95bc 4b04 57be
00000260: 8d51 89bd dd2e e83c c663 6fbe 6023 4b3d
00000270: 8af6 9fbe 5d11 07be 4a6f 83bd 3504 3f3e
00000280: 924e 33bd c9f2 10bd 8bdc 883d 4608 643e
00000290: 9163 253e 492a 34bd 6d70 0e3e 4833 8fbe
000002a0: 615c 89bd ed53 b23d 4384 923e 5837 3a3e
000002b0: d617 f13d c37c 5cbd d689 a1bd 0c2f 113e
000002c0: c298 2e3e aaa0 c73e 6c25 a53d d7e8 a03c
000002d0: 9f7f 69be e680 48be e92b 093e 6163 0b3d
000002e0: 3c82 0abf c65f 80be ed1a 433d 75a6 20be
000002f0: c7eb cdbd 3246 343e 3454 3b3e ff49 153e
00000300: d1eb fc3d eac8 223e 622d 8abe a1ac 76be
00000310: 5dd5 163e f1c5 4f3d bd14 7fbd 9120 95be
00000320: 34d2 da3e df1c eb3d f65c 00bc 424f 943d
00000330: 696d 4abe 975b 463e a3ee 813d e369 433b
00000340: 2454 a73e a522 b73d 0db6 0dbd c988 a63c
00000350: da77 043e 2da3 8fbe 9a4b 9e3e 1901 26be
00000360: 054b 19be 98f0 85be d4aa 65be c5a1 053e
00000370: 4eaf c9be f2f9 3bbd 86e0 2e3e 3a73 2d3e
00000380: c73c 64be b50d 9b3e 62a7 5a3b 8499 ae3e
00000390: 29a3 d13e 3227 c5bd 1228 65be d172 5a3c
000003a0: 0f76 56be 8313 693e f132 8a3e d39e cb3d
000003b0: 550f eb3e 7d13 cc3d 06cd cb3e 98e3 63bc
000003c0: ede0 c6bd f85c a93c d971 87bc 434c 123e
000003d0: 63d5 8f3c 394c bdbc 231d 953e 9556 083e
000003e0: 5976 b33d 75a4 283e 963b d7bc 406f ffbd
000003f0: 2166 86be 74bd 2abe 0163 f03d b7c7 bf3d

mu_net.2.bias f4 [128]
0.21895194 -0.093057804 -0.050226726 -0.36079744 0.05220195 -0.10290232 0.09085884 -0.13180551
0.34228638 0.11123696 0.03972139 -0.06859623 -0.107566245 0.107046835 -0.02263728 -0.011958162
0.104014054 0.18589553 -0.022339655 0.086238936 -0.18473245 0.05088412 0.21564393 -0.25119203
0.2960795 -0.21588944 -0.18658158 0.021667056 0.13783517 -0.3470234 -0.30027017 -0.03215368
0.05577393 0.049858883 -0.066009186 -0.1710102 0.25980154 -0.065126196 -0.12944332 0.2262945
0.06327069 -0.15996745 0.088481694 -0.22136769 0.07718816 0.16919155 0.15406492 -0.040344838
0.08679116 0.012371551 -0.07920524 0.34328908 0.057818856 -0.10971258 0.30761585 -0.20630275
0.040322024 0.1525706 0.029329883 -0.05927526 0.07472588 -0.1194134 0.4331375 -0.20659012
-0.30490386 0.20427653 0.063530326 0.033787 0.38784373 -0.30973065 0.3573533 0.25818047
0.012282544 0.23950477 -0.042203728 -0.1318858 -0.06844569 0.050408702 0.066277176 0.21172778
-0.33860514 -0.12282983 -0.1939817 -0.087397575 0.21760419 -0.003874481 0.02087684 -0.019853817
-0.17596126 0.08289352 0.1896909 -0.2334803 0.007231617 -0.016551722 0.24953021 -0.3503902
0.2868262 -0.06900371 0.0131084975 0.087719016 0.23358083 0.093075365 -0.1911531 -0.008225649
0.022827158 -0.02747366 0.04718596 -0.10562425 0.112811446 0.16899559 0.123547606 0.001543854
-0.10383728 0.029652134 0.21225387 0.087304965 0.25573868 -0.22807492 0.13518699 0.027730944
-0.26328897 -0.013192358 -0.06409385 0.10860681 -0.15676568 -0.1215614 -0.16612768 0.016814591
00000000: f034 603e 1795 bebd 8aba 4dbd 71ba b8be
00000010: b6d1 553d 74be d2bd 3314 ba3d 06f8 06be
00000020: 2940 af3e 34d0 e33d e5b2 223d 2e7c 8cbd
00000030: b14b dcbd 5f3b db3d d171 b9bc 2bec 43bc
00000040: 5205 d53d 665b 3e3e a701 b7bc 0a9e b03d
00000050: 812a 3dbe de6b 503d c3d1 5c3e 3e9c 80be
00000060: bb97 973e 1f12 5dbe 3e0f 3fbe 1c7f b13c
00000070: aa24 0d3e 0dad b1be 03bd 99be 94b3 03bd
00000080: 3473 643d d438 4c3d d32f 87bd 4c1d 2fbe
00000090: b504 853e e260 85bd ca8c 04be bfb9 673e
000000a0: 1094 813d 82ce 23be e435 b53d 36ae 62be
000000b0: d314 9e3d 8d40 2d3e 32c3 1d3e a140 25bd
000000c0: 90bf b13d 0cb2 4a3c 5b36 a2bd 96c3 af3e
000000d0: 77d3 6c3d fdb0 e0bd d37f 9d3e 0741 53be
000000e0: b528 253d 783b 1c3e 3945 f03c 9dca 72bd
000000f0: e209 993d 038f f4bd 33c4 dd3e 5c8c 53be
00000100: 5c1c 9cbe de2d 513e 301c 823d 3d64 0a3d
00000110: 7493 c63e 0495 9ebe 03f7 b63e 3b30 843e
00000120: b93c 493c bd40 753e d1dd 2cbd 120d 07be
00000130: 412d 8cbd 5b79 4e3d 54bc 873d 2bcf 583e
00000140: a75d adbe 358e fbbd 24a3 46be 80fd b2bd
00000150: a2d3 5e3e 01eb 7dbb e805 ab3c 79a4 a2bc
00000160: 302f 34be 14c4 a93d 553e 423e 7615 6fbe
00000170: 33f7 ec3b 7a97 87bc d984 7f3e 5866 b3be
00000180: e2da 923e d151 8dbd 06c5 563c 07a6 b33d
00000190: d02f 6f3e 4c9e be3d a3bd 43be dfc4 06bc
000001a0: 0500 bb3c 7110 e1bc 1146 413d 8751 d8bd
000001b0: b009 e73d 2e0d 2d3e 8706 fd3d 255b ca3a
000001c0: a4a8 d4bd 08e9 f23c 1459 593e f2cc b23d
000001d0: 2ef0 823e 798c 69be 756e 0a3e 012c e33c
000001e0: d0cd 86be c324 58bc a343 83bd 3f6d de3d
000001f0: 2f87 20be 2ff5 f8bd 601d 2abe c1be 893c

mu_net.4.weight f4 [6, 128]
-0.17709428 -0.038781762 -0.024344813 0.23363304 0.0018535332 0.19018735 -0.0062754615 -0.16624916
0.08263378 -0.06701957 0.088201754 -0.040320773 -0.010881411 0.07928754 -0.032497462 -0.04498825
-0.062127396 -0.043538146 0.0017529133 -0.045951433 0.42845848 0.057262566 0.11268492 0.020328987
0.044313777 0.12994684 -0.24941076 -0.099341266 -0.0043460717 0.09538711 -0.06346482 0.037196763
0.010863293 -0.044423327 -0.05707026 -0.07416 0.00045824147 -0.014611264 0.13561091 -0.050256763
0.020174885 0.00041662692 -0.00050297537 -0.020364616 -0.013457297 0.17739603 -0.11166267 -0.09608527
-0.100427926 -0.14143085 0.11847236 -0.034665965 0.009746462 0.06234667 0.009292144 0.05792318
0.033240438 -0.13533254 0.11483911 0.14872101 0.014208145 0.08503372 0.060673334 0.2068083
0.12142763 0.13168174 -0.019838333 0.044795003 0.026626613 -0.108122684 -0.054219514 -0.11581252
0.10357315 -0.048286878 0.047155254 -0.064996585 0.3975792 -0.11351302 0.10095824 -0.13589385
0.049694166 -0.02655901 0.2534173 -0.0809908 -0.027276361 -0.09439852 0.04781562 0.042023007
0.051428445 0.13697115 -0.037056383 0.17464744 -0.019339886 0.098777264 -0.08283069 0.032603208
-0.005087297 0.07542606 0.10694013 -0.15313561 -0.14764741 0.004816477 0.02761232 -0.08552117
0.13307923 -0.074509196 0.07686627 -0.04811767 0.067338124 -0.01070885 -0.007619953 -0.113885015
-0.076551065 -0.011008777 0.018128177 0.004373097 -0.020440836 0.15523279 0.045120433 0.0952949
0.008497413 -0.010413058 -0.043052968 0.019114118 0.0061143218 0.090649836 0.5451532 0.011870226
0.11306104 0.022545677 0.16593151 0.24099062 0.003860603 -0.0026306063 0.028118148 0.031022683
0.0675523 -0.21015562 0.09711423 0.14487098 -0.07733296 0.15469325 -0.03614286 0.03250278
-0.20455025 0.008116987 0.0020551335 -0.07458313 -0.09000732 -0.045246664 0.019612556 -0.034102917
-0.043661255 -0.008461811 0.013963842 0.12997572 0.17234096 0.0591856 -0.0024275011 0.114031754
-0.038021393 0.032430653 -0.16233301 -0.002862802 -0.012623059 -0.12762526 0.14170405 0.0421503
-0.0803868 -0.1430911 0.015435781 -0.078373365 0.17524554 0.017553775 0.15893471 0.05393298
0.010692807 0.055014864 0.27815115 0.19298683 -0.03203341 -0.031560376 0.03739052 0.08368094
0.13221553 0.10158025 -0.13897121 -0.036502387 0.13481937 0.039855752 -0.101953626 -0.13710082
-0.12710056 0.033975713 0.012047578 0.1761227 0.045926318 -0.22360006 0.009108337 0.054284494
0.0554891 -0.013855601 -0.18691823 0.00783867 -0.18377985 0.1612567 0.012197486 0.22762387
0.05090521 -0.11227646 -0.006932547 0.057572633 -0.021133272 -0.12129913 -0.08226678 -0.23709221
0.060498033 -0.051074196 -0.0802584 -0.11046503 0.13596112 0.06763338 -0.08856461 -0.2775846
-0.03284915 0.11601835 0.1875293 -0.053333554 -0.096021235 0.10236759 0.06888846 -0.098365046
-0.007118333 -0.080701046 0.020881562 0.073285356 -0.09092867 0.14785509 0.109883904 -0.020297203
0.09139225 0.06840811 0.15787598 -0.086691886 0.010096252 -0.11915921 0.00290535 -0.0446136
0.078193665 -0.13375846 -0.0627217 0.044495143 -0.08770359 -0.014872274 -0.22002989 -0.022061137
00000000: 3458 35be a0d9 1ebd c66e c7bc 803d 6f3e
00000010: 41f2 f23a 79c0 423e 63a2 cdbb 383d 2abe
00000020: e63b a93d 8e41 89bd 1fa3 b43d 6527 25bd
00000030: f247 32bc 8161 a23d 0f1c 05bd 9945 38bd
00000040: 4c79 7ebd 0e55 32bd 03c2 e53a 9237 3cbd
00000050: e95e db3e 278c 6a3d 5ac7 e63d fa88 a63c
00000060: 5d82 353d c910 053e 8965 7fbe 6f73 cbbd
00000070: 7e69 8ebb 515a c33d d8f9 81bd a25b 183d
00000080: f4fb 313c 3cf5 35bd 81c2 69bd 33e1 97bd
00000090: 2140 f039 1564 6fbc 96dd 0a3e 09da 4dbd
000000a0: cd45 a53c b86e da39 1bda 03ba b2d3 a6bc
000000b0: ff7b 5cbc 4ea7 353e 66af e4bd 5bc8 c4bd
000000c0: 28ad cdbd 40d3 10be a3a1 f23d e6fd 0dbd
000000d0: a0af 1f3c 395f 7f3d 143e 183c db40 6d3d
000000e0: 2027 083d 9d94 0abe c430 eb3d 524a 183e
000000f0: 48c9 683c 2926 ae3d 9a84 783d 8ec5 533e
00000100: 0daf f83d 94d7 063e 0084 a2bc f77a 373d
00000110: 0e20 da3c 6d6f ddbd 4815 5ebd 1d2f edbd
00000120: 291e d43d 76c8 45bd de25 413d ee1c 85bd
00000130: 808f cb3e 8479 e8bd 32c3 ce3d c227 0bbe
00000140: 1c8c 4b3d 4892 d9bc eabf 813e 81de a5bd
00000150: ad72 dfbc 0354 c1bd 50da 433d 5120 2c3d
00000160: a2a6 523d 2a42 0c3e 6fc8 17bd c7d6 323e
00000170: ae6e 9ebc bc4b ca3d 23a3 a9bd f18a 053d
00000180: 57b3 a6bb fa78 9a3d 6d03 db3d 95cf 1cbe
00000190: e230 17be 8ad3 9d3b 3b33 e23c b925 afbd
000001a0: ec45 083e 4798 98bd 106c 9d3d 0917 45bd
000001b0: 92e8 893d 2c74 2fbc ccb0 f9bb 8c3c e9bd
000001c0: cec6 9cbd 285e 34bc 8b81 943c 324c 8f3b
000001d0: 8a73 a7bc 58f5 1e3e 34d0 383d f929 c33d
000001e0: bc38 0b3c 889b 2abc 4f58 30bd 3695 9c3c
000001f0: a65a c83b 9fa6 b93d 298f 0b3f 567b 423c
00000200: 8c8c e73d b6b1 b83c f3e9 293e 3fc6 763e
00000210: 2c02 7d3b 4066 2cbb 0858 e63c 4823 fe3c
00000220: dc58 8a3d 0933 57be d3e3 c63d 0f59 143e
00000230: be60 9ebd e867 1e3e 890a 14bd a321 053d
00000240: 9f75 51be 1cfd 043c 6baf 063b 0abf 98bd
00000250: c255 b8bd 9154 39bd 83aa a03c 80af 0bbd
00000260: 25d6 32bd 68a3 0abc 99c8 643c 5b18 053e
00000270: 267a 303e 9a6c 723d b616 1fbb 7b89 e93d
00000280: 52bc 1bbd 01d6 043d a03a 26be d99d 3bbb
00000290: f2d0 4ebc 32b0 02be de1a 113e cba5 2c3d
000002a0: d6a1 a4bd 7986 12be 5ce6 7c3c 3782 a0bd
000002b0: 9173 333e efcc 8f3c c8bf 223e d4e8 5c3d
000002c0: e230 2f3c 4457 613d d469 8e3e 579e 453e
000002d0: 7735 03bd 7445 01bd cd26 193d ea60 ab3d
000002e0: 8263 073e 4e09 d03d 784e 0ebe 8783 15bd
000002f0: 170e 0a3e c93f 233d 10cd d0bd 2864 0cbe
00000300: a626 02be 1e2a 0b3d 3463 453c 8259 343e
00000310: 3c1d 3c3d 6af7 64be 223b 153c 6b59 5e3d
00000320: 8a48 633d 9a02 63bc 7e67 3fbe c46d 003c
00000330: c930 3cbe 7a20 253e f7d7 473c 3b16 693e
00000340: fb81 503d 33f1 e5bd 6b2a e3bb 48d1 6b3d
00000350: af1f adbc ae6b f8bd 7c7b a8bd 4dc8 72be
00000360: c9cc 773d 2d33 51bd 845e a4bd 7d3b e2bd
00000370: 6439 0b3e 5f83 8a3d 5d61 b5bd 921f 8ebe
00000380: d58c 06bd 079b ed3d ae07 403e 4974 5abd
00000390: c8a6 c4bd 19a6 d13d 6515 8d3d 9d73 c9bd
000003a0: e840 e9bb 9746 a5bd cf0f ab3c a216 963d
000003b0: cf38 babd 5367 173e d00a e13d 5246 a6bc
000003c0: dc2b bb3d 8d19 8c3d 3eaa 213e 848b b1bd
000003d0: c06a 253c be09 f4bd af67 3e3b c0bc 36bd
000003e0: 0024 a03d faf7 08be 3c74 80bd 8a40 363d
000003f0: f19d b3bd d7aa 73bc 844f 61be 8fb9 b4bc

mu_net.4.bias f4 [6]
-0.16448611 0.17761737 0.03229238 -0.0025607375 0.094549134 0.14731842
00000000: 0c6f 28be 54e1 353e 0445 043d 0cd2 27bb
00000010: faa2 c13d a4da 163e
