HW4/ppo_critic.pth (torch, 26022 bytes, 5 tensors)

v_net.0.weight f4 [64, 24]
-0.1365582 0.09702684 0.14990158 -0.21184483 -0.47636813 0.027815241 -0.06560704 0.050575607
0.39747357 -0.22741047 -0.28624815 0.05388156 -0.22458485 0.13023317 -0.6316663 0.1253437
-0.6209996 -0.7695039 -0.3481236 0.439805 0.42898965 -0.3680965 0.34738654 0.19369605
0.3426563 -0.03042065 -0.40754074 0.104670204 0.08715631 -0.04361885 0.040133573 0.19382206
-0.29965478 -0.2192563 0.0737192 -0.071132064 -0.039019156 -0.042507913 -0.17484622 0.47057682
-0.4096577 -0.39655575 0.04965187 -0.4002268 -0.00035533545 0.2816893 -0.38214424 0.19039094
0.1885162 -0.03759155 -0.041985083 -0.07295343 0.18601134 -0.11844305 -0.00793186 -0.069761485
0.32326844 -0.24018952 0.09237805 0.09067916 0.05502698 0.091529414 -0.991455 0.3797513
-1.1464281 0.04499939 0.059263732 0.037091833 -0.0008509797 0.06440326 -0.03754308 0.012834719
0.3186036 -0.2457262 -0.19670105 0.49271378 0.032721143 -0.023629975 0.24384917 -0.098079234
-0.31421828 0.33453035 0.29064238 -0.27574253 0.07725871 -0.11234888 0.4409785 -0.1820048
0.7700052 0.3324639 -0.1832266 -0.048854657 0.03880204 -0.102461986 -0.057743322 0.3979388
0.1499826 -0.18643925 0.2270718 0.100407146 -0.059357453 -0.2897486 0.06982152 0.1464674
0.39726877 0.035865612 -0.007901327 -0.11244292 -0.022265442 -0.08126824 0.14323725 -0.26085117
-0.6369063 -0.5287683 0.25581107 0.048092388 0.09407096 0.2761888 0.024042666 -0.26710513
0.002231117 -0.19352646 0.056870256 0.29513124 0.30979222 -0.05893119 0.0615426 0.32321352
0.015089035 0.08408256 0.28082302 -0.2286719 -0.015962059 -0.0060523683 0.2931806 -0.05412915
0.78263927 0.98413914 0.50120854 -0.91628426 0.018402837 0.54453045 -0.33941185 -0.011858345
0.13945994 0.0056114295 0.31975245 0.21419567 0.0052213585 -0.024971101 -0.004427417 0.11882157
0.12985934 0.1257735 -0.0071527422 -0.10302933 -0.023792913 -0.011211529 -0.43167794 -0.25318405
0.6118529 0.29852793 -0.40700862 0.018370345 0.22628023 -0.28237492 -0.02736293 0.13630149
-0.06596978 -0.2227956 -0.004981097 0.15819003 0.02363304 0.02118607 -0.0064806375 0.25226426
-0.054596223 0.077748425 0.21588102 -0.15097496 0.09175168 -0.106137455 -0.088622555 0.42973766
-1.2206892 -1.1817714 -0.5146055 0.38406643 0.60580015 -0.13598226 0.35953435 0.25754842
0.06320815 -0.165858 -0.2262074 0.24690539 0.23227446 -0.2524042 0.34667736 0.17516299
-0.33661744 -0.02493097 0.3811047 -0.07666512 0.15613842 -0.27629828 0.20945352 -0.16684426
-0.1781944 0.056702312 -0.09899453 0.10891011 -0.039602283 0.51881975 0.1698377 -0.7360418
0.23423806 0.07362424 -0.012686422 0.052660465 -0.25616756 0.11502819 0.29527918 -0.0832011
-0.19275227 0.3287324 -0.31372154 0.0024611373 -0.13907215 0.0042036325 0.41005376 0.74856013
0.38772258 0.14920911 -0.14721224 -0.09711573 -0.017975207 -0.025496785 -0.08926324 -0.016574347
0.15166762 0.08581976 0.17835283 -0.15498346 -0.11513694 0.2627016 -0.064772874 0.17922634
0.11195126 -0.22734377 -0.12897983 0.114629745 0.07573357 0.13022657 -0.6498421 -0.12117307
00000000: ead5 0bbe 02b6 c63d cd7f 193e daed 58be
00000010: 86e6 f3be cadc e33c fc5c 86bd 5e28 4f3d
00000020: a881 cb3e 4ade 68be 1e8f 92be e9b2 5c3d
00000030: 92f9 65be d85b 053e e2b4 21bf 195a 003e
00000040: d4f9 1ebf 35fe 44bf 423d b2be 1f2e e13e
00000050: 88a4 db3e 2577 bcbe a6dc b13e 4258 463e
00000060: a670 af3e ba34 f9bc 2ea9 d0be 555d d63d
00000070: 027f b23d aea9 32bd 1a63 243d 4a79 463e
00000080: 5a6c 99be b984 60be 18fa 963d b0ad 91bd
00000090: 8dd2 1fbd c71c 2ebd e30a 33be 72ef f03e
000000a0: a7be d1be 5b09 cbbe c25f 4b3d 87ea ccbe
000000b0: 514c bab9 9439 903e 69a8 c3be d8f5 423e
000000c0: 640a 413e 99f9 19bd 8df8 2bbd 9c68 95bd
000000d0: c279 3e3e 4592 f2bd a2f4 01bc 1cdf 8ebd
000000e0: 7183 a53e 3ef4 75be b430 bd3d ffb5 b93d
000000f0: f863 613d c673 bb3d ffcf 7dbf c36e c23e
00000100: 28be 92bf 4851 383d 87be 723d 9bed 173d
00000110: 4814 5fba dbe5 833d c6c6 19bd b748 523c
00000120: 0320 a33e a69f 7bbe 006c 49be fb44 fc3e
00000130: 9b06 063d a693 c1bc 99b3 793e c4dd c8bd
00000140: 38e1 a0be 9047 ab3e 14cf 943e 202e 8dbe
00000150: d139 9e3d 2b17 e6bd efc7 e13e 775f 3abe
00000160: 101f 453f b538 aa3e c19f 3bbe d21b 48bd
00000170: e3ee 1e3d 97d7 d1bd 4384 6cbd a2be cb3e
00000180: 0a95 193e eee9 3ebe 8385 683e 43a2 cd3d
00000190: cd20 73bd ee59 94be 96fe 8e3d 8dfb 153e
000001a0: d066 cb3e d2e7 123d 9174 01bc 7948 e6bd
000001b0: 0466 b6bc f76f a6bd c9ac 123e 498e 85be
000001c0: 4b0c 23bf 5c5d 07bf abf9 823e 86fc 443d
000001d0: 47a8 c03d 9e68 8d3e 20f5 c43c 01c2 88be
000001e0: ef37 123b cd2b 46be c9f0 683d 711b 973e
000001f0: 169d 9e3e d561 71bd 1814 7c3d 3e7c a53e
00000200: 0038 773c 7a33 ac3d 09c8 8f3e f728 6abe
00000210: ddc2 82bc f252 c6bb c51b 963e 87b6 5dbd
00000220: 0c5b 483f 8bf0 7b3f 344f 003f 9b91 6abf
00000230: 8cc1 963c 5966 0b3f 64c7 adbe 8149 42bc
00000240: 96ce 0e3e 15e0 b73b 98b6 a33e 1c56 5b3e
00000250: ee17 ab3b 3290 ccbc de13 91bb b958 f33d
00000260: d9f9 043e c5ca 003e 8d61 eabb 0b01 d3bd
00000270: 5be9 c2bc 90b0 37bc e404 ddbe 57a1 81be
00000280: 64a2 1c3f a7d8 983e 6f63 d0be 687d 963c
00000290: 01b6 673e 7293 90be 3928 e0bc 9e92 0b3e
000002a0: 2a1b 87bd 8824 64be 7838 a3bb 91fc 213e
000002b0: 149a c13c 698e ad3c 875b d4bb c828 813e
000002c0: 4aa0 5fbd 913a 9f3d ea0f 5d3e 2e99 1abe
000002d0: 4ee8 bb3d 985e d9bd be7f b5bd 9306 dc3e
000002e0: 8b3f 9cbf 4944 97bf 30bd 03bf 5ba4 c43e
000002f0: b815 1b3f ef3e 0bbe e314 b83e 63dd 833e
00000300: 4673 813d aed6 29be eaa2 67be c4d4 7c3e
00000310: 5bd9 6d3e 203b 81be b27f b13e ed5d 333e
00000320: 1f59 acbe 093c ccbc 2820 c33e 9a02 9dbd
00000330: c0e2 1f3e f876 8dbe fc7a 563e 39d9 2abe
00000340: 9878 36be af40 683d a5bd cabd 440c df3d
00000350: 0136 22bd 5fd1 043f efe9 2d3e 3c6d 3cbf
00000360: 1adc 6f3e 4ec8 963d b6da 4fbc 80b2 573d
00000370: 6528 83be e693 eb3d d52e 973e 5765 aabd
00000380: da60 45be 9d4f a83e 1ca0 a0be 084b 213b
00000390: ee68 0ebe a0be 893b 91f2 d13e a3a1 3f3f
000003a0: 9383 c63e 46ca 183e cebe 16be 9de4 c6bd
000003b0: be40 93bc a2de d0bc a5cf b6bd edc6 87bc
000003c0: c24e 1b3e 45c2 af3d 20a2 363e fcb3 1ebe
000003d0: eacc ebbd d380 863e a4a7 84bd 1c87 373e
000003e0: b446 e53d cecc 68be 4a13 04be 00c3 ea3d
000003f0: 341a 9b3d 1d5a 053e 0d5c 26bf 9629 f8bd

v_net.0.bias f4 [64]
-0.016343616 0.2496012 0.55333406 0.082633905 -0.1759245 -0.29856697 0.16082077 -0.23602496
-0.1707258 -0.8421866 -0.23062064 0.45462352 -0.040437177 -0.27808452 -0.107608266 -0.111751996
0.24801664 0.0125376005 0.5403952 0.3332416 0.2201907 -0.5901171 -0.069152534 0.24242897
0.6578818 -0.631152 -0.0039215507 0.18545374 0.23926859 -0.9132033 0.6160759 -1.0599506
0.2708308 -0.32537287 -0.22073466 0.44061399 0.18491265 -0.63308644 -0.80206716 0.040142585
-0.28077343 -0.2495297 0.17884338 1.2741083 0.4235055 0.40362033 0.1328681 -0.4894014
-0.38296145 -0.08396234 0.053604394 -0.19717488 -0.35807684 -0.0008212188 0.19217183 0.29144913
0.49745983 -0.109367944 0.45561972 0.30902368 -0.40405363 0.38307703 0.012769769 0.1553622
00000000: 0ce3 85bc 7597 7f3e 4da7 0d3f f73b a93d
00000010: 8d25 34be c5dd 98be 33ae 243e 87b0 71be
00000020: bed2 2ebe 8b99 57bf d127 6cbe 6ac4 e83e
00000030: 74a1 25bd 1861 8ebe b961 dcbd 3bde e4bd
00000040: 13f8 7d3e 826a 4d3c 5757 0a3f a59e aa3e
00000050: ac79 613e ea11 17bf d89f 8dbd 4d3f 783e
00000060: f16a 283f 2d93 21bf 5a80 80bb 96e7 3d3e
00000070: d302 753e b1c7 69bf 26b7 1d3f 76ac 87bf
00000080: 56aa 8a3e 4697 a6be 4408 62be 2898 e13e
00000090: be59 3d3e f411 22bf 4654 4dbf 8d6c 243d
000000a0: 89c1 8fbe b784 7fbe b822 373e fb15 a33f
000000b0: b7d5 d83e 53a7 ce3e 930e 083e d292 fabe
000000c0: 8613 c4be 73f4 abbd 4890 5b3d 36e8 49be
000000d0: d955 b7be 1047 57ba b1c8 443e d238 953e
000000e0: 0eb3 fe3e 4dfc dfbd fd46 e93e 5a38 9e3e
000000f0: 1ee0 cebe ac22 c43e 4b38 513c 4517 1f3e

v_net.2.weight f4 [64, 64]
-0.10121058 -0.00042437235 0.0942267 -0.032625843 -0.16108331 -0.07187413 -0.06462217 0.007172482
0.028652344 0.0922984 0.12296685 0.10364223 -0.056769833 0.018468348 -0.027990246 -0.048087284
0.0034190465 -0.048571132 0.05458553 -0.022422174 0.1153143 -0.04527736 0.095564544 -0.052672807
-0.029579774 0.017323729 -0.023935923 0.08483363 0.09668517 0.19145721 0.02102282 -0.0035052667
0.049307913 0.03950178 -0.02482181 0.035951078 0.008014825 0.055865973 0.012432949 -0.0960884
0.19647263 0.059338685 -5.1288727e-05 0.06572999 -0.12808575 0.051006828 -0.0023095189 0.09677516
-0.09386838 0.111561455 -0.026151974 -0.05078919 0.08666594 -0.0044473824 0.12704486 0.0384634
0.25753963 -0.08613814 -0.006239084 -0.046260025 -0.012587607 -0.056192048 0.12028918 0.02610104
-0.004600974 0.13885686 -0.09627593 -0.09966754 -0.05151069 0.097830944 0.06877018 0.059263963
-0.10697395 0.08788577 0.092106484 -0.016719071 -0.12780225 -0.10042691 -0.24116744 0.042729724
-0.033506364 0.067338526 -0.31354478 0.09996617 0.030133335 0.00027651776 0.057156112 0.1750262
0.09544193 -0.033525124 -0.038466167 0.031853665 0.051349543 -0.08602472 0.080880605 -0.1593531
-0.039598692 -0.025871878 -0.12647547 -0.16778648 -0.1550319 0.09686877 -0.1001855 0.17336786
-0.037921276 -0.10104931 0.00875447 -0.18268998 0.030264072 0.064089544 -0.08513741 0.099891126
-0.09900695 -0.042068228 -0.096492656 0.117964104 -0.066323705 0.033858873 -0.049370997 0.14009671
-0.22084917 -0.03508831 0.14664322 0.13742615 -0.08291039 0.16256455 -0.09439026 -0.16941917
-0.123778306 -0.01907129 -0.039117537 -0.0434232 -0.024647692 0.0735992 -0.0686822 0.08352234
-0.03069486 -0.032952152 0.06871874 0.06909983 0.113232136 0.14482485 -0.041945923 -0.0773687
-0.026374528 -0.033081066 -0.102058694 -0.06907987 0.03246253 0.039358288 0.060175557 0.025325352
0.055648275 0.111286715 0.03103538 -0.049466122 0.0016703785 -0.06207611 0.03432314 -0.13427521
-0.113809176 -0.06475575 -0.086946756 0.030057747 -0.122352205 -0.0050082924 -0.09799917 0.04249884
-0.046248127 0.027403494 0.09464849 0.13943355 -0.037480418 -0.08346608 -0.09339628 0.0425449
-0.08864676 -0.07819724 0.06195928 -0.05084687 -0.111789644 -0.08111261 -0.0923048 -0.14002334
-0.1657219 0.2691599 -0.0921807 -0.0031026439 -0.017493134 -0.04327464 -0.073480375 0.09719729
0.19816934 -0.01960801 -0.22972548 0.072741576 0.18436234 0.3995061 0.0022923665 0.44221523
0.09737987 0.16701707 -0.010539591 -0.03927008 -0.1814417 -0.09162319 0.1865806 -0.11918546
-0.09597484 0.33800158 0.15557285 -0.099078126 -0.119272254 0.10060696 0.12449268 0.014295678
-0.30357367 0.1739449 -0.291395 -0.21984687 0.102909826 0.38582566 -0.27982888 0.2474232
-0.18955909 0.05579845 0.21041861 0.14495267 -0.33352694 0.4540946 0.23621772 0.23092553
0.24126852 0.11899123 0.27645403 0.20338254 -0.017058743 -0.19463588 -0.0001447573 0.18404812
0.10949092 0.14328368 -0.2388086 -0.25982964 -0.017195692 -0.18220107 0.24202229 -0.04549237
0.37978217 -0.10106003 -0.30520183 0.06114801 0.29813763 -0.049798463 0.011541175 -0.02734662
00000000: 7e47 cfbd 4b7e deb9 eef9 c03d ada2 05bd
00000010: 06f3 24be be32 93bd a158 84bd 2407 eb3b
00000020: 52b8 ea3c f206 bd3d 0bd6 fb3d 6142 d43d
00000030: 7c87 68bd ef4a 973c cd4b e5bc 2cf7 44bd
00000040: 1512 603b 86f2 46bd 1495 5f3d b5ae b7bc
00000050: e729 ec3d c174 39bd 58b7 c33d 71bf 57bd
00000060: 4851 f2bc 7eea 8d3c 4515 c4bc 41bd ad3d
00000070: e002 c63d 5c0d 443e 0d38 ac3c 9eb8 65bb
00000080: 18f7 493d 9ecc 213d 1c57 cbbc 7041 133d
00000090: 9d50 033c b8d3 643d 91b3 4b3c ffc9 c4bd
000000a0: 1f30 493e 1f0d 733d da1e 57b8 729d 863d
000000b0: e928 03be 89ec 503d 4c5b 17bb 0e32 c63d
000000c0: 113e c0bd 557a e43d aa3c d6bc 5308 50bd
000000d0: ea7d b13d 59bb 91bb 0c18 023e cc8b 1d3d
000000e0: 3cdc 833e 3169 b0bd 3b71 ccbb 277b 3dbd
000000f0: 403c 4ebc a229 66bd 2c5a f63d d9d1 d53c
00000100: c4c3 96bb 7e30 0e3e 512c c5bd 7f1e ccbd
00000110: e0fc 52bd 975b c83d 61d7 8c3d c5be 723d
00000120: 2915 dbbd 74fd b33d 53a2 bc3d 6ff6 88bc
00000130: 98de 02be a0ac cdbd 99f4 76be 5d05 2f3d
00000140: f83d 09bd c8e8 893d f188 a0be 10bb cc3d
00000150: 2fda f63c 96f9 9039 871c 6a3d 113a 333e
00000160: 0f77 c33d a451 09bd b38e 1dbd fd78 023d
00000170: e653 523d ba2d b0bd bba4 a53d 762d 23be
00000180: 3d32 22bd 43f1 d3bc c982 01be 38d0 2bbe
00000190: afc0 1ebe 2263 c63d 0e2e cdbd 5887 313e
000001a0: 5753 1bbd f1f2 cebd e96e 0f3c 1513 3bbe
000001b0: 5cec f73c 6141 833d 865c aebd b893 cc3d
000001c0: 28c4 cabd bc4f 2cbd f19d c5bd 2a97 f13d
000001d0: b9d4 87bd 9aaf 0a3d 3e39 4abd 8375 0f3e
000001e0: 4926 62be c2b8 0fbd a429 163e 71b9 0c3e
000001f0: eccc a9bd 5277 263e ae4f c1bd 387c 2dbe
00000200: 7b7f fdbd 653b 9cbc b639 20bd 86dc 31bd
00000210: f5e9 c9bc 2dbb 963d 41a9 8cbd c30d ab3d
00000220: c973 fbbc d6f8 06bd 69bc 8c3d 3684 8d3d
00000230: 40e6 e73d f74c 143e 7dcf 2bbd 7b73 9ebd
00000240: 650f d8bc 0380 07bd 2604 d1bd bf79 8dbd
00000250: 6ef7 043d 2836 213d a57a 763d 1d77 cf3c
00000260: 72ef 633d 4aea e33d e93d fe3c fd9c 4abd
00000270: 9af0 da3a 8543 7ebd 6c96 0c3d 717f 09be
00000280: c914 e9bd aa9e 84bd 2411 b2bd aa3b f63c
00000290: cb93 fabd 9a1c a4bb cab3 c8bd 4313 2e3d
000002a0: ad6e 3dbd 4b7d e03c 11d7 c13d abc7 0e3e
000002b0: 1185 19bd 44f0 aabd 8d46 bfbd 9043 2e3d
000002c0: 6f8c b5bd e025 a0bd 04c9 7d3d cf44 50bd
000002d0: f8f1 e4bd 5e1e a6bd 4d0a bdbd 4762 0fbe
000002e0: 00b3 29be 54cf 893e 3cc9 bcbd ba55 4bbb
000002f0: c34d 8fbc c040 31bd e17c 96bd 5f0f c73d
00000300: e7ec 4a3e faa0 a0bc 283d 6bbe 89f9 943d
00000310: 7bc9 3c3e 108c cc3e 873b 163b 096a e23e
00000320: 196f c73d 8606 2b3e 40ae 2cbc aad9 20bd
00000330: dacb 39be f0a4 bbbd fc0e 3f3e 8217 f4bd
00000340: 758e c4bd 8b0e ad3e 7d4e 1f3e 79e9 cabd
00000350: 0345 f4bd 060b ce3d 05f6 fe3d 6b38 6a3c
00000360: 026e 9bbe 9d1e 323e ba31 95be 8a1f 61be
00000370: 63c2 d23d f18a c53e bb45 8fbe 825c 7d3e
00000380: c71b 42be ea8c 643d fa77 573e 796e 143e
00000390: 0bc4 aabe 167f e83e 0fe3 713e be77 6c3e
000003a0: 180f 773e adb1 f33d 628b 8d3e 8343 503e
000003b0: c7be 8bbc a14e 47be fec9 17b9 1c77 3c3e
000003c0: c73c e03d f5b8 123e 3e8a 74be 6408 85be
000003d0: fbdd 8cbc eb92 3abe b1d4 773e 3556 3abd
000003e0: cf72 c23e 90f8 cebd 6a43 9cbe 5676 7a3d
000003f0: 7fa5 983e 79f9 4bbd 3217 3d3c 0506 e0bc

v_net.2.bias f4 [64]
0.04137393 0.022932218 -0.07686271 0.08479755 -0.012193694 0.07490779 0.0061429637 0.10374025
0.003738721 -0.031685982 0.13430217 -0.016659714 -0.39200056 0.008834805 0.042339254 0.0856265
-0.07318671 0.24589063 -0.2610654 0.2069638 -0.508275 0.10047603 0.01775664 -0.2779772
-0.09472286 -0.008692774 0.049761955 0.056512844 -0.6550999 0.1298129 0.3274059 -0.17416263
-0.52658975 0.04518319 0.08291759 0.10955098 -0.08502994 -0.029671576 0.21485314 0.013755111
0.09060691 0.016895127 0.027221702 -0.049058255 0.13178763 -0.019662078 0.25649437 0.15987293
-0.37908778 -0.002538045 0.92177266 -0.06678025 0.000978436 0.15377408 0.06511144 0.010636833
-0.7152403 -0.099865 0.01606992 0.12672298 0.25827664 0.07806675 0.026943743 0.6962015
00000000: b677 293d 59dc bb3c 326a 9dbd 57aa ad3d
00000010: 0fc8 47bc 4169 993d ea4a c93b c575 d43d
00000020: 5405 753b 29c9 01bd 8286 093e f479 88bc
00000030: 4cb4 c8be dcbf 103c ed6b 2d3d f25c af3d
00000040: eae2 95bd c1ca 7b3e 5daa 85be 52ee 533e
00000050: 4f1e 02bf 60c6 cd3d 6076 913c 0753 8ebe
00000060: 0ffe c1bd 236c 0ebc 31d3 4b3d 037a 673d
00000070: a1b4 27bf aced 043e bfa1 a73e b057 32be
00000080: 96ce 06bf 0212 393d b3d0 a93d 445c e03d
00000090: 2d24 aebd ce11 f3bc 7602 5c3e 1e5d 613c
000000a0: 1e90 b93d a667 8a3c 0c00 df3c 4ff1 48bd
000000b0: 56f3 063e 5e12 a1bc 3b53 833e bbb5 233e
000000c0: cb17 c2be 5455 26bb 4bf9 6b3f 15c4 88bd
000000d0: dd3e 803a f476 1d3e 2659 853d 1c46 2e3c
000000e0: fd19 37bf 0586 ccbd 11a5 833c abc3 013e
000000f0: d63c 843e 76e1 9f3d 20b9 dc3c 433a 323f

v_net.4.weight f4 [1, 64]
0.005208066 0.008008369 -0.010773113 0.028829824 -0.015331742 -0.18186943 0.027783455 -0.002106046
0.0271795 -0.00012622835 0.025365591 0.0036434967 -0.10821022 -0.025658164 0.01107157 -0.03916205
-0.002832632 0.08398078 -0.38424867 0.21620221 -0.19570814 0.052864894 -0.010338583 -0.35033607
-0.00018494163 -0.010768037 0.013027783 -0.013633147 -0.13166659 0.09197677 0.118143804 -0.022914251
-0.06453316 0.0011252672 0.008828094 0.070098296 -0.018327793 0.023840845 -0.13029128 -0.0063937055
0.026682433 -0.009582919 -0.0029825452 0.009207304 0.00817517 0.0011435635 0.13102825 0.006271706
-0.20538653 -0.002325343 -0.40919915 -0.006710872 0.0020124984 0.0098640695 0.011793742 0.012438155
-0.19673236 0.00038392268 0.024023233 -0.06486766 0.20870075 -0.014011643 -0.0124800755 0.13701771
00000000: 6da8 aa3b 8935 033c b681 30bc 862c ec3c
00000010: fd31 7bbc fb3b 3abe 219a e33c 9705 0abb
00000020: 8ba7 de3c 2a5c 04b9 80cb cf3c bbc7 6e3b
00000030: 529d ddbd 1231 d2bc 8865 353c 6368 20bd
00000040: aea3 39bb 1dfe ab3d 3ebc c4be 1d64 5d3e
00000050: b767 48be dc88 583d 2963 29bc 405f b3be
00000060: e4ec 41b9 6c6c 30bc 7b72 553c 905d 5fbc
00000070: 9bd3 06be 515e bc3d 61f5 f13d abb6 bbbc
00000080: f629 84bd b47d 933a b6a3 103c b28f 8f3d
00000090: 2b24 96bc e04d c33c 146b 05be 4a82 d1bb
000000a0: 1e95 da3c ad01 1dbc ce76 43bb 3bda 163c
000000b0: 26f1 053c a0e3 953a 452c 063e e282 cd3b
000000c0: d950 52be c864 18bb 8d82 d1be e0e6 dbbb
000000d0: 1fe4 033b e89c 213c 8a3a 413c 67c9 4b3c
000000e0: 3574 49be 3b49 c939 5fcc c43c 56d9 84bd
000000f0: a6b5 553e 1791 65bc 3b79 4cbc 5f4e 0c3e
