HW4/ppo_dm_control-master (2)/ppo_dm_control-master/training/walker/walk/best_ppo_ac_model.pth (torch, 166233 bytes, 12 tensors)

pi.log_std f4 [6]
00000000: 7516 45bf b139 3cbf eaf1 38bf 98f7 43bf
00000010: deef 37bf b2e3 3ebf
-0.7698739 -0.7352553 -0.7224413 -0.76549673 -0.71850383 -0.74566185

pi.mu_net.0.weight f4 [128, 24]
00000000: c18d 0c3e 629f 05be 53b8 123e fb06 e23c
00000010: dde1 1e3e 8b55 28bd 35b1 31be efea 26be
00000020: 3587 89bd 7ffc cabd 7025 70bc 3389 313c
00000030: fb05 003e 1d9f 30bd 5fd0 0a3e 923b 723d
00000040: 6207 83bb ff6a 9a3d 89ee ec3d 469a df3d
00000050: 48c2 3f3c ed7b c93d 2b60 3c3e b4a1 25be
00000060: 2a80 f8bd 4e9b 563e 771b 52bd e3a5 cdbc
00000070: 701e 2a3e 1dbf 0c3e 8515 edbd faa7 63bb
00000080: 4f31 953d 245b 4cbe 8e38 2d3d db48 85bd
00000090: a639 8abd a89c 393e 521b 1e3e 8473 0e3e
000000a0: 227a 903e 1fca a03c f127 c53d eef2 24be
000000b0: 6fa6 3f3e 047c 843d 413c fb3d 63b1 ec3d
000000c0: a927 e23d 5fb4 273e 1536 41be b4bd 30be
000000d0: 6e67 90bd 9810 34bd 73d7 a9bd a55d 9bbc
000000e0: c5a5 413d 7e6a 3cbd a141 71be e621 25bd
000000f0: 562e 7f3d d5a9 ff3d 13b9 4abc bd2a 5fbe
00000100: 9568 54be efbc 35be ad03 2bbd ad20 703d
00000110: 2a95 32bd ff33 233e 3774 b23d 0e5b 43bd
00000120: 0a93 623e 8bbc d1bd 6731 a53d 3647 bcba
00000130: 513a 79bc 1596 a4bd bf32 a23d a5f3 eebb
00000140: 0efe 1e3d 1a34 0b3e 211a c03d e932 313d
00000150: e081 703e 1330 f3bb 4b02 9c3d 8380 dc3c
00000160: fcae 243d ffb8 e73c caeb 893d 1f54 84bd
00000170: 193f 04be 487c a8bd 5333 a8bd bc8c 04be
00000180: e756 87be 84f0 c3bd 3774 3dbd d715 80bd
00000190: 0d60 843e 4952 233e f94e 313d ad99 ca3d
000001a0: d3c2 093e 9b7a 37be 015c 873d b4aa 61be
000001b0: a4e9 fdbd 75a0 113e a9e3 87bd c7b8 a9bd
000001c0: 65de 3abe 43d9 65be c357 6dbd e7c7 cebc
000001d0: f18e a6bd f552 1cbe 2660 913d d1df 0abe
000001e0: 578e 8b3e 99c9 093e 5a25 193e 6c59 073e
000001f0: 6d7b 35be e052 cebd ed83 733d 3ee6 2d3d
00000200: bce6 0fbd 764d 0bbe 5c08 b8bc f355 463e
00000210: 0237 20be f095 8e3c b8bf 0c3e c7da 58be
00000220: 51e9 67be 1b7d f63d a389 f53d 7e86 77bd
00000230: 1008 e9bd 1f9e a0bd c6ff 90bc 2872 e1bd
00000240: a14a 0a3e b9fa 1cbe bcbc 993d b551 c03c
00000250: 1635 013e 6386 8f3c 6f12 2e3d bff6 47be
00000260: fdc3 07bd 223b 0d3e 48e2 1e3d 1f76 7f3d
00000270: eea9 383e f945 2cbe ea15 28be a5dd f63d
00000280: 4f5f 62be e643 2e3c 399f 483e 0b28 f53d
00000290: 0777 0bbe aff6 643e 6b76 90bd 01fb e43d
000002a0: 98d8 3cbe 9ba8 0b3e 4542 42bd fcce e53c
000002b0: b3bc 2c3e 6ee8 54bd 97c3 02be 4711 68be
000002c0: 3456 0b3e aa90 8d3d 615f 3a3c 5bf8 13be
000002d0: 8bc6 da3d 40c2 72bb d394 943d 910f b83d
000002e0: d833 77bd 52ab 2e3e 26b4 49bd 2295 0a3d
000002f0: e2ae 353d 66ef 24be 54a8 4abd 0231 29be
00000300: 11f3 083e bb5a 123d 0f97 c3bd 1afc 86bd
00000310: dddb 2d3e bdec 263e 2064 25bd dae1 023d
00000320: 9a75 bcbc 9fad 5f3d bff9 18bb e677 6d3e
00000330: 5994 b2bd 30f2 663e 2fe6 0cbe ae89 67be
00000340: 3037 1abe 66d4 463e 9fa3 af3d da9c 29bd
00000350: 1c2f 12bd c604 963d aed6 d03d d13e c6bb
00000360: 392f 503e 7d32 773d 4c4b 38be de39 58be
00000370: f249 313e 945c 56bb fe99 ecbc 65b2 5d3d
00000380: a7d3 163c 77f2 16bc df48 403e aa89 fb3d
00000390: a248 d9bc 02e2 433e 5838 3b3e 7087 a33d
000003a0: a257 e1bd 1126 18be 5a18 463e e233 a13d
000003b0: 95bf 2bbc 11c9 32be 4581 05be 3c3b 01be
000003c0: 2568 2dbe 6fbf 2fbe 8e83 c1bd 815d 723c
000003d0: aac4 7ebd 8198 4a3d 8d29 743d 5d9f 46bc
000003e0: ed67 3fbe 54b8 573e ac68 4b3c 3397 28be
000003f0: 690a c93d c40f 1ebd f3c1 99bc 507e fabc
0.1372595 -0.13049081 0.14328127 0.02759122 0.15515848 -0.041097205 -0.17352755 -0.16300558
-0.06715242 -0.09911441 -0.014657363 0.0108359335 0.12502281 -0.043120492 0.1355605 0.059138842
-0.003998683 0.07539939 0.115689345 0.10918097 0.011704035 0.0983809 0.1839606 -0.16174966
-0.1213382 0.20957682 -0.051295724 -0.025103515 0.16613173 0.13744779 -0.1157637 -0.0034737573
0.072847955 -0.19956642 0.042290263 -0.06508037 -0.06749277 0.18126166 0.1544011 0.13911253
0.2821818 0.019627629 0.09626759 -0.16108295 0.18715833 0.064689666 0.12267352 0.11557271
0.11042721 0.163774 -0.18868287 -0.17259866 -0.07050978 -0.043961138 -0.08293047 -0.018965552
0.04727723 -0.045999996 -0.23560192 -0.04031553 0.06230005 0.12483565 -0.012373227 -0.21793647
-0.2074302 -0.17747854 -0.041751552 0.058624912 -0.043599285 0.15937804 0.087135725 -0.04769426
0.22126403 -0.1024104 0.080660634 -0.0014364484 -0.015211658 -0.080364384 0.07919835 -0.0072922283
0.038816504 0.13594094 0.09379984 0.043261442 0.23487043 -0.0074215024 0.07617625 0.026916748
0.04020594 0.028286455 0.06734426 -0.06461357 -0.12914695 -0.0822683 -0.08212914 -0.12944311
-0.2643349 -0.09567359 -0.04625341 -0.062541656 0.2585453 0.15949358 0.043288205 0.098925926
0.13453226 -0.17917864 0.06609345 -0.22037774 -0.12398079 0.14221366 -0.066352196 -0.082871966
-0.182489 -0.2244616 -0.057945024 -0.025241805 -0.08132733 -0.1526602 0.07098417 -0.13561942
0.27257034 0.1345581 0.14955655 0.13217705 -0.17722864 -0.10074401 0.059451986 0.042455904
-0.035132155 -0.13603768 -0.022464924 0.19368725 -0.15645984 0.01740548 0.1374501 -0.21177207
-0.22647597 0.12035581 0.11989143 -0.060430996 -0.11378491 -0.07842659 -0.017700087 -0.11008102
0.13505031 -0.15330018 0.07506701 0.023476461 0.12617907 0.017520135 0.04249805 -0.1952772
-0.033145893 0.13792089 0.038790017 0.06236851 0.18033573 -0.16823567 -0.1641461 0.12053994
-0.2210667 0.010636305 0.19591989 0.11970528 -0.13619624 0.22359727 -0.070538364 0.11180688
-0.18441999 0.13638537 -0.04742648 0.0280528 0.16868858 -0.051979475 -0.12769924 -0.22662841
0.13607103 0.06912358 0.011375279 -0.14450209 0.106824 -0.0037042052 0.072549485 0.08987344
-0.060352176 0.17057541 -0.04924407 0.03383363 0.044356234 -0.16106948 -0.049476936 -0.16522601
0.13373972 0.03573106 -0.095502965 -0.06591053 0.16978402 0.16301246 -0.04037869 0.03195367
-0.023005296 0.054608937 -0.002334222 0.23190269 -0.08719701 0.22553325 -0.13759683 -0.22611114
-0.15060115 0.19416961 0.0857613 -0.04140935 -0.03568946 0.07325129 0.10197197 -0.006049969
0.20330514 0.060350884 -0.17997473 -0.21115825 0.17313364 -0.003270899 -0.028882023 0.05412521
0.009205735 -0.009213082 0.18777798 0.12282117 -0.026523892 0.19129184 0.18283212 0.07984817
-0.11003043 -0.14858271 0.19345227 0.07871224 -0.010482688 -0.17459513 -0.13037594 -0.12620252
-0.16934259 -0.1716287 -0.0944892 0.014792801 -0.062199272 0.049461845 0.05960994 -0.012122956
-0.18691988 0.2106641 0.012415092 -0.16463928 0.09816439 -0.038589254 -0.01876924 -0.030577809

pi.mu_net.0.bias f4 [128]
00000000: aa01 27be dad6 45bb b18b 08be 95e8 78bd
00000010: 669f 02be 992a 8ebd b9ea cdbc b51f 243e
00000020: d6a5 203d 7ce3 ffbd d304 313e a3ea 26be
00000030: cc93 dabd 27cf 493d 548e 293d 0697 34bd
00000040: 9765 22be 14c6 173e 1cbb 25be b15f 25bd
00000050: 23f2 61bd baa2 2b3e 70e0 5c3e 45f6 d73d
00000060: a7db d3bd 38ad 1d3e 19e8 543e ba9e 813c
00000070: b2d4 34be c9c9 103e 366b 8537 02e9 3dbd
00000080: 775f 5cbe cd3a 0bbe 6642 8dbd c172 71bd
00000090: bde3 55be 13eb 523e 5e55 073e 4fd2 563e
000000a0: b9f4 383e dcb9 00be 01ba 3e3e a51f 54bd
000000b0: a9d1 f93d bd56 1ebe 1ad8 833c 9cad 04be
000000c0: c7b2 b03c 6ef8 b73d 94fd 76bd 14b0 98bd
000000d0: 3649 393e 8059 953d 9416 443e 6e94 21bb
000000e0: c330 17be fe74 13bd 22ca 073d 645f 58bd
000000f0: 053a 19bc d95d 4ebd 7224 903d 2019 593e
00000100: 2f80 69bd dcd0 863d 9e6f fdbd cb34 043e
00000110: 1111 683d 9f26 6abe 43dc 22bc 3c75 803d
00000120: 174b a23d 99a5 a73c 9b15 253d be4f f8bd
00000130: d48e 323e 0150 343e 6c75 12be 11e5 873d
00000140: 385b 10be 711c 1abd 471a 9b3d cd83 9f3b
00000150: 4508 ccbd 7381 0fbc 85e1 d3bc 664e 46be
00000160: e173 4ebe 75c2 aa3d 813c d5bd 2326 f7bd
00000170: 14b0 12be b3b6 703c c52e 64bd 6f08 153e
00000180: 9a13 d53d 6edc 4abd 5e79 07be 1a68 b6bb
00000190: f538 e23d b185 f33d 8d8e 33be 3e8f e0bd
000001a0: 92b2 16be 1ef9 b7bd 3825 7a3d f70a 0e3e
000001b0: f2ab 10be 5e0a 36bb 23f5 f9bc f61c 7cbd
000001c0: 8b5b e33b 1bf6 3d3e 49eb 22bd 4db9 153e
000001d0: f6d2 99bc 6c99 d03b 0f71 17be e4e2 7bbd
000001e0: eaf3 25be a1bf 0f3d dbc9 053d 5476 0cbe
000001f0: 4bc9 1b3e a025 e03b 9f57 b2bd 8976 d13d
-0.16309229 -0.0030187876 -0.13334538 -0.060768683 -0.12756118 -0.069417186 -0.025136339 0.1602772
0.039220653 -0.12494561 0.17286997 -0.16300444 -0.10672721 0.04926982 0.0413955 -0.04408934
-0.15859066 0.14821655 -0.16184658 -0.04037446 -0.05516256 0.16761294 0.21569991 0.10545019
-0.1034463 0.15398109 0.20791663 0.015822757 -0.17659262 0.14139475 1.590476e-05 -0.04636479
-0.21520792 -0.1359665 -0.0689743 -0.05894733 -0.20887657 0.20597486 0.13216159 0.20978664
0.18062104 -0.125709 0.18625642 -0.05178799 0.121981926 -0.15462776 0.016094256 -0.12956852
0.021569623 0.08982931 -0.060300425 -0.07455459 0.18094334 0.072924614 0.19149238 -0.0024655121
-0.14764695 -0.036000244 0.033151753 -0.052825347 -0.009352212 -0.05038247 0.070382014 0.2120099
-0.05700701 0.065828055 -0.12374805 0.12910764 0.0566569 -0.22866295 -0.00994021 0.06272361
0.079244785 0.020464705 0.040303808 -0.121245846 0.17437297 0.17608644 -0.14302605 0.06635488
-0.14097297 -0.03762478 0.075733714 0.004868007 -0.09962515 -0.00875889 -0.025864372 -0.19365844
-0.20161392 0.08337871 -0.10411931 -0.12067821 -0.14324981 0.014691996 -0.055708665 0.14553998
0.10404129 -0.049526624 -0.13229892 -0.005566609 0.1104602 0.11890734 -0.17534848 -0.10964821
-0.14716557 -0.08983062 0.06107065 0.1387137 -0.14128092 -0.0027777175 -0.030512398 -0.061551057
0.006938403 0.18550913 -0.039775167 0.14621468 -0.018777352 0.0063659456 -0.14789222 -0.061495677
-0.16206327 0.03509486 0.032663208 -0.13717014 0.15213506 0.0068404227 -0.08708119 0.10227687

pi.mu_net.2.weight f4 [128, 128]
00000000: 315e cf3c 0bdc 21bd 736a 8abd 6773 a3bd
00000010: f86f 883c 88b7 cebd 80e8 523d d314 453d
00000020: 7817 aa3d 6cd3 d9bd 16a7 633b 5dca aabd
00000030: d4bc a63c 9a15 17bd 36ad 48bd 4018 b63d
00000040: e199 9a3c e668 e53d ba14 61bd 7964 043d
00000050: ec57 e73c 8d9a 803d dbc1 92bd 678e 25bd
00000060: b569 3dbd 7ff9 d83d 4960 18bc b333 18bd
00000070: e9c9 093d e236 4a3d 3ed5 bdbd 3dba 24bd
00000080: 98b0 95bd 2122 80b9 14cb 763c 00cb 0d3a
00000090: 8a4d 963c 4915 083d 9f06 cdbb f4cb c23c
000000a0: 9f71 9bbd 4aea 1cbd 807a ab3d b6d4 89bd
000000b0: 909e bbbc 7fad f33c ca55 213d a902 f13c
000000c0: 78a2 f93c 4a6d acbd ebe6 953d a6d1 82bd
000000d0: d5be 3dbc 7641 893d c321 92bd 67a1 5abd
000000e0: d0e1 b8bb 68e3 a3bd 7639 2f3d d201 5d3d
000000f0: f85c 5dbd 7aee 373d 8d12 973d ec2b 423c
00000100: 9230 db3c c1cd 1c3d 9b91 3b3d 5d98 b93d
00000110: aa76 a0bd c2c2 5ebd a29c 053d 8025 013d
00000120: 5f29 503d 87ee b73d d591 46bd 63bb 2c3d
00000130: d8df 9bbd 1387 da3c f376 f73d 3f64 4ebd
00000140: 6a8c fcbd f83f b33d ae32 d13b 82f3 8b3d
00000150: cfd0 3b3d 6e1a 44bd 6c55 b5bd b580 69bc
00000160: 12c3 1a3c 272c 25bd 5f4d 093d c65e 56bd
00000170: cd2a 91b9 17cf 3dbc d30d 103d fefc 68bd
00000180: c267 f33b dae5 1d39 9cbc 053d 2e1c ad3d
00000190: 5b4f 49bd 8ba0 22bc 6619 833d 8197 8a3d
000001a0: 3f69 8cbc 021f f43c 882e af3c ff07 a0bc
000001b0: 9b8e 303d c801 e3bc a759 d13d 9333 f93c
000001c0: 6a59 95bd 16b9 983d a0b6 9d3d 8c47 0d3d
000001d0: 5060 253d ab90 9cbc d8a6 f2bc f308 b3bd
000001e0: 892c 1e3d 611d 543d 8e82 5a3d 188e 97bc
000001f0: a86d c1bd 52f0 7fbd 3e31 a03d cbbf 273d
00000200: b1ae 6bbc 9b1a 083d cedf 91bd e656 a93d
00000210: 91f7 833d 79d3 073d ede9 a13b 096e dbbd
00000220: 87c6 2dbd 6046 64bd 56ff a33b 4e49 0c3c
00000230: 2c28 c53d c7b1 eabd 15c3 07bd 6852 97bd
00000240: 7ef8 e23c 314f 84bd 6a6a 6539 bc72 a83b
00000250: 559d 0e3c 6956 963d bb0f c63d 24ca 0a3d
00000260: 8fe6 23bd 871d 64bd df22 913b a396 353d
00000270: 4c0b 05be efe1 aabd 866c 873d 70a3 34bb
00000280: 6a36 513b 9ca4 a83c 8fbe b33c ac4f bbbb
00000290: a9f9 b83c 2ce9 bb3c fd1f a63d fad9 6d3d
000002a0: a7be 75bd b648 c03c f88b e3bb d1eb 6e3c
000002b0: 27b1 563d af18 a93c d845 c43d 1f51 97bd
000002c0: 50cd 2b3d d421 ae3d b34d 47bd 29ee 98bd
000002d0: 196f ecba f41e 21bd e3bb a73c a42c 113d
000002e0: 13a5 e3bb 41dd 4abd 9706 27bd e26a 60bd
000002f0: 253c 45bd 1212 0d3d 1f45 46bd 9afe 863d
00000300: 7969 66bb 6f43 40bd 96a2 f43c d62e afbd
00000310: bd67 e6bd 6a23 e3bc 8e7e 85bd ca9d 60bc
00000320: 74ca 13bd b7dc 383d 66c1 ae3c 6c26 ea3b
00000330: 26df 67bd 3e56 c4bd 7bb3 c93d db92 343d
00000340: a26a a43c d482 63bd 9100 a03d 230e f43c
00000350: ba32 5e3c b60b 35bd ce2f 763c 31f1 d8bc
00000360: 25a9 8abd c94b 5f3d 244a 0cbc 6ac8 073d
00000370: e90d 6dbd a47c b33d c363 0cbd ffc7 1a3d
00000380: 6312 4c3d dd82 a1bd b273 dd3b 6e16 79bc
00000390: cdd4 23bc edff bb3d dca8 ec3c b1fe e03c
000003a0: b975 9bbd db1c a93c 0bc8 ab3d e0e7 9cbc
000003b0: 77bd 3d3c 11e9 cebd a94d c83d 8c64 b63b
000003c0: 0ac2 3b3d 5b45 41bc 1f64 08bd e35c a03d
000003d0: 9877 93bc 0cd3 e1bd a942 b8bc 818f 883a
000003e0: 9953 a83c 0745 5e3d 35dc 743c 399a 533c
000003f0: 4c1a 3c3d 1347 673d d743 9cbd 9083 463d
0.025313469 -0.03951649 -0.06758585 -0.079809956 0.016654953 -0.100935996 0.05149126 0.048115563
0.083052576 -0.10636029 0.0034737042 -0.08339379 0.020353712 -0.036885835 -0.04899331 0.08891344
0.018872203 0.112016484 -0.054951407 0.03232238 0.028240167 0.06279478 -0.07165881 -0.04041901
-0.04624339 0.105944626 -0.0093003 -0.03715868 0.033639822 0.049368747 -0.09269188 -0.040216673
-0.07309073 -0.0002443949 0.015063066 0.00054089725 0.01834752 0.033223424 -0.006256893 0.023778893
-0.07590031 -0.038309373 0.083729744 -0.067300245 -0.022902757 0.029745815 0.039388455 0.029420214
0.030472979 -0.08419283 0.07319435 -0.063876435 -0.011581142 0.06701939 -0.07135346 -0.05337658
-0.0056421533 -0.08002359 0.04277941 0.053956814 -0.05404374 0.044905163 0.07376585 0.011851292
0.026756559 0.03828216 0.045793157 0.09062264 -0.078351334 -0.054384954 0.03262008 0.031529903
0.050820705 0.08981042 -0.04847892 0.042170893 -0.07611054 0.026675737 0.12083235 -0.05038857
-0.12331469 0.087524354 0.0063842153 0.06833555 0.045853432 -0.047876768 -0.088541836 -0.014251878
0.009445922 -0.04032531 0.033521052 -0.052336477 -0.00027688444 -0.011585019 0.035169434 -0.056881897
0.0074281404 0.00015058313 0.032650575 0.084526405 -0.049147945 -0.009925972 0.06401329 0.06767178
-0.017140029 0.029799942 0.021384493 -0.019535063 0.04310475 -0.02771081 0.10222178 0.0304201
-0.07292445 0.07457177 0.077008486 0.03449206 0.040375054 -0.019111952 -0.029620573 -0.08741941
0.03861669 0.05178583 0.053347163 -0.018500373 -0.094447434 -0.062485047 0.07821892 0.040954392
-0.014384911 0.033228498 -0.071227655 0.08268528 0.06443704 0.03316066 0.004941216 -0.10714347
-0.04242566 -0.055731177 0.0050048037 0.008562399 0.09626803 -0.114596896 -0.03314503 -0.073887646
0.027706381 -0.06460417 0.00021878784 0.0051406305 0.008704503 0.073407 0.09670969 0.033884183
-0.0400148 -0.055692222 0.004429206 0.04433311 -0.1299259 -0.08343875 0.06612496 -0.0027563237
0.0031923302 0.020586304 0.021941451 -0.0057162847 0.022579985 0.022938333 0.0811157 0.058069207
-0.059996273 0.023472171 -0.006944176 0.01458259 0.05241504 0.020641653 0.09583634 -0.073885195
0.041943848 0.08502546 -0.048658084 -0.074673004 -0.0018038481 -0.03933616 0.020475334 0.035442963
-0.0069471686 -0.04952741 -0.04077777 -0.05478943 -0.04815306 0.03444106 -0.048405763 0.0659153
-0.0035158081 -0.04693931 0.029862683 -0.08553855 -0.11250255 -0.027726848 -0.06518279 -0.013709495
-0.036081746 0.045132365 0.021332454 0.0071456935 -0.056609295 -0.09586762 0.09848686 0.044085365
0.020070378 -0.05554469 0.07812608 0.029791897 0.013561899 -0.04420062 0.015026046 -0.026482197
-0.06770543 0.054515634 -0.008562598 0.033150114 -0.057874594 0.08764008 -0.034274828 0.037788387
0.049822222 -0.07886288 0.0067581767 -0.015203102 -0.009999466 0.09179673 0.028889112 0.027465196
-0.07590813 0.020643642 0.083877645 -0.019153535 0.0115808165 -0.10103048 0.097804375 0.0055661853
0.045839347 -0.011796321 -0.033298608 0.07830217 -0.018001363 -0.11026582 -0.022492724 0.0010418744
0.020547675 0.05426505 0.01494508 0.0129151875 0.045923516 0.056464266 -0.07630127 0.04846531

pi.mu_net.2.bias f4 [128]
00000000: 7ee0 16ba 84d9 9d3d d37e 453d 7bbf c7bb
00000010: 1171 d83d c7b8 fb3d 9b5d 713d 8b05 f5bc
00000020: 8bdf bebb dc53 95bd 9eac 14bd d1bd 61bd
00000030: 4918 d8bc de36 1d3d 2e65 05bd 478b 34bd
00000040: 8c20 173d c381 193d 0585 9f3c 87dd 433d
00000050: f5b3 023d d0cd 803c 3adc 09bc 9365 39bd
00000060: 5486 b2bd 1998 3f3d fc00 46bd f869 4ebd
00000070: 2432 983d ba23 92bd ae7c c43d c5e3 13bd
00000080: 9ee0 8f3c 11e3 fdbc 3bf8 1c3d 90c6 aabd
00000090: df31 5b3d cdad a83d 3cbb 2d3c ab04 59bd
000000a0: f056 08bd b0fb 7abd d8ad 983d b8ec 5d3d
000000b0: 3332 0c3c c4dc c63d 8881 f63c d6d4 463d
000000c0: 74c5 b13c 6153 0fbd 3633 c9bd 8aa2 8c3d
000000d0: 0f82 32bd 5c6e 343d 2a32 013e f1ba 6c3d
000000e0: 26d0 dbbc d021 8b3d cd64 6d3d 4253 f9bb
000000f0: 792a 7a3d 99e8 e7bc fca9 1abc 86dd 753b
00000100: 32ad 62bd 4ff8 073c ec56 0e3d b61f 0c3d
00000110: af99 b63d fcf2 2b3c 0db6 823c ae85 aabd
00000120: acf7 6b3d 7bfd b33d 4045 6e3d a912 853d
00000130: 5bb1 dc3c dd5e a53c 0e38 0b3d 9bd9 8f3d
00000140: e844 37bc 55db 8e3d ed8e 393d 9d74 013d
00000150: cda2 d0bc 50fb 373d a065 cc3b 20c9 e53c
00000160: 5cca 00bd 2cf3 a63c 9125 a43d 6d7b 2bbd
00000170: 1b71 c23d 658d 443d e178 a23b 8df5 963d
00000180: ad47 c6bc b63c ecbc 711a c33c b2e7 6c3c
00000190: 2681 47bc 8a03 26bc 5fdd bb3c d12d 9a3d
000001a0: 7738 9cbd c543 533d 1afc e43c 1261 a93d
000001b0: 6507 e83d 0951 423b 50cc 97bd 08c5 673d
000001c0: 0c94 f0bc fe78 a33d 50e0 e3bc 8adb f3bc
000001d0: db1b c63c 6a43 53bc 64ed d1bc 85ac f63d
000001e0: f051 8fbb 0f12 9c3c 3d26 9bbd 1019 953d
000001f0: 06bd d23d e487 933d 5ae2 bf3c 4407 b73d
-0.0005755498 0.077075034 0.048216652 -0.0060958243 0.10568441 0.12291103 0.05892716 -0.02990987
-0.0058249882 -0.072913855 -0.036297433 -0.055112664 -0.026378768 0.038382404 -0.032567196 -0.044078138
0.036896273 0.037477266 0.019472608 0.047818687 0.0319099 0.015723139 -0.0084143225 -0.045262884
-0.08717027 0.04677591 -0.048340783 -0.05039403 0.074314386 -0.071357206 0.09594093 -0.03610589
0.01756316 -0.030992063 0.03832267 -0.08338654 0.053514358 0.08236275 0.010603722 -0.052982967
-0.033286035 -0.061275184 0.07455033 0.05418083 0.00855689 0.097100765 0.030091062 0.04854282
0.021700598 -0.034991626 -0.09824221 0.06866939 -0.043581065 0.04405056 0.12616792 0.05779547
-0.026832651 0.067935586 0.05795746 -0.007608802 0.06107566 -0.028309153 -0.0094399415 0.0037516071
-0.055340953 0.0082989475 0.034750864 0.03420993 0.089160316 0.010494944 0.01595595 -0.083262786
0.057609245 0.08788582 0.05817151 0.064977 0.026940038 0.020186836 0.033989005 0.07023927
-0.011185862 0.06975428 0.04530232 0.03160535 -0.025468254 0.044917405 0.0062377006 0.028050005
-0.031442985 0.020379625 0.08014978 -0.041865755 0.094942294 0.047986407 0.0049582575 0.07371054
-0.0242041 -0.028837543 0.02381632 0.014459537 -0.0121767875 -0.01013268 0.022932706 0.0752827
-0.07627957 0.051578302 0.027952243 0.08270468 0.113295354 0.0029650351 -0.074120164 0.056584388
-0.02936747 0.07982062 -0.027816921 -0.02976777 0.024183204 -0.012894491 -0.025625892 0.12044624
-0.0043737814 0.01905158 -0.07575653 0.07280171 0.102899596 0.072036535 0.023423363 0.08936933

pi.mu_net.4.weight f4 [6, 128]
00000000: 50b7 bf3d 5e93 753d 30c9 7cbd 623b 03bc
00000010: 67c7 cfbd efb7 2e3d 406c a6bd f5ab b43d
00000020: a0fb 7d3d 0088 4ebd 98b0 bc3c b73b f33c
00000030: 02dd 9abd 14fb 0dbb ff63 f93d ea05 923d
00000040: 6d7a 97bd 7c2c c53d 6003 b4bd 1df9 e0bd
00000050: 4690 bcbb b63c f33d 7906 643c 68a4 a33d
00000060: 7671 9a3d 0ebf cb3d d89c 8ebd c70a a43d
00000070: ca18 80bb f368 f9bd f862 35bc 015c e4bd
00000080: e669 3bbd 8e3e c73d dc69 e43d 2419 ad3c
00000090: 5f84 f43d 1d6c bf3d 2829 973d 2836 5cbd
000000a0: a443 50bd 1507 3fbd ad3c 1d3c 7f79 b7bd
000000b0: b672 aa3d eadf d1bd 0b3b 18bd af68 913c
000000c0: 6ae0 3bbd 4bdb e73b 948a 4ebc 7bd4 23bd
000000d0: f275 8e3c e139 55bc aab4 91bd 076e 6ebd
000000e0: 9cb8 443c 249a 503d 8088 a6bd c6b1 c1bd
000000f0: cd6f 803d 657c 873d 0959 b2bc 8d5a da3d
00000100: 6fee e2bc fdc4 593d 7da3 88bd bf8a 5e3d
00000110: e114 7cbd 2052 f53d b1b1 b23d abae 61bd
00000120: ddb9 3dbd 81c0 93bd 35a0 53bd 4a4f 58bd
00000130: baae 98bb 25ba 553d 49fd 2dbd ae4d 973d
00000140: 3efb 36bd 61cf 263d 2411 c0bd 9bd1 9ebd
00000150: 4a1a b7bd 9010 8a3b 12e0 60bd 7947 30bd
00000160: 41ab 3dbc 96e9 06bd 02a9 a0bc f12f ce3d
00000170: 3059 993d 09ff c93d 184d 53bd 99b0 3cbd
00000180: b57f 9c3d 5bc0 063e 1860 8dbd da0b 063d
00000190: ef97 e03d 72c2 7d3c 5f38 89bd 27b0 a33d
000001a0: a912 1abd 84a9 4a3b 0174 41bd 1011 1dbc
000001b0: 632b b4bd 2b53 bdbd f9d5 a33d 9675 d53b
000001c0: 0cc9 9bbd a2e3 27ba fefe b7bd 8564 60bd
000001d0: 6694 43bd b118 cdbd 9745 523d e9b7 8e3d
000001e0: 2212 f6bd ca77 5fbd a83e 903d 4895 6f3d
000001f0: bc0f f23c 60ff cebc 93fc 913d 02e5 843d
00000200: 4a4b b0bd 14ee 9cbd 533d 9ebd 3a02 f13b
00000210: 7f65 1f3d 804f 3cbb 17ed 763c 4fce bebd
00000220: 8253 ec3c a046 9fbd 17f2 2e3d ab03 b1bd
00000230: 8b43 b83d ada6 28bd d783 8e3d 6dc3 80bd
00000240: 2b9c b2bd d7f4 4d3d c63f 1bbd 4ca5 d9bd
00000250: 48ff 153d 292f c23d 6635 a03d 9ca7 3dbd
00000260: a7ad c93d c7dc dfbd c784 b7bd 438b bdbc
00000270: f7ab 353d 71ad 15bc f198 87bd e76f 983c
00000280: 1b4e 25bd 2a88 8ebd a850 78bd 3289 97bd
00000290: eb6c a63c bdfd b0bd 6bc7 f03d eaae 603d
000002a0: eec5 23bd e4a9 1aba 3e1d bf3d c013 bebd
000002b0: 4f61 73bd be7f 883d bf83 aabd 5fd4 413d
000002c0: fa74 7dbd 5ab2 c53d 592c 253d 4d00 19bd
000002d0: 1ec2 95bd 98c3 9dbd 65bd ccbd 0dc4 763d
000002e0: 6463 a7bd 1e13 0fbe a2d5 91bd 44ef 083d
000002f0: 3e72 c63d 37d9 9dbd 4f42 693d dbed 8c3d
00000300: b8e4 fe3d 3b71 7c3d cbae 5e3c 0615 87bd
00000310: 7387 8b3d f0d1 bc3d 8673 653c b546 a13d
00000320: e868 89bc 70b8 02bd b8b8 65bd f06b fe3c
00000330: 1395 a4bc 5b51 a63d 0fc3 cfbd e37a ddbd
00000340: a81c bdba de88 6cbd 5cdd f4bd 84ea 573d
00000350: 1d0e ec3c 0ca2 5b3d 3538 953d 8545 d83d
00000360: 20ac d1bd 12b2 66bc ce5b 9b3d 4fa6 febc
00000370: aecf 8dbd 9459 83bd 5259 8dbc ccb0 c63d
00000380: c833 ffbd 705d 8b3d 427e bf3d 7618 1dbe
00000390: cf77 15be 8b06 1c3d a78d 56bc a50e d73c
000003a0: c801 77bd adaf aa3b e1de c3bd 5076 0cbc
000003b0: c14e 11bd e8af 843b 42e2 c53d f6e8 713c
000003c0: 5dbf bcbd d753 573d e1d2 c0bd 44e6 e8bd
000003d0: adf6 0bbd 50fd 863d dffa 3cbc 33d0 73bd
000003e0: a3dc 7cbd aca4 f73d 2f7c 98bd 434d 9abd
000003f0: 7581 52bd 2ae5 093d 00e7 fbbc 9232 943d
0.09361136 0.059954993 -0.061715305 -0.008009763 -0.10145455 0.04265588 -0.08126116 0.08821861
0.062007546 -0.05042267 0.023033425 0.02969156 -0.07561685 -0.0021664547 0.12177276 0.07130034
-0.07396398 0.09627625 -0.08789706 -0.109850146 -0.0057545034 0.11876814 0.013917559 0.079903424
0.07541172 0.0994855 -0.06963509 0.08009868 -0.003909205 -0.121782206 -0.011070959 -0.11150361
-0.04575529 0.09728728 0.111530036 0.021130152 0.1193931 0.09346793 0.07380897 -0.053762585
-0.050845757 -0.046637613 0.009596986 -0.089587204 0.083226606 -0.10247786 -0.037165683 0.017750112
-0.045868315 0.0070757023 -0.012606282 -0.03999756 0.017390225 -0.013014288 -0.07114537 -0.0582104
0.012006905 0.05092825 -0.08131504 -0.09457736 0.06271324 0.06615523 -0.02177097 0.106618024
-0.027701585 0.05316638 -0.06671808 0.054331537 -0.06154335 0.11978555 0.08725298 -0.055098217
-0.04631983 -0.072144516 -0.051666457 -0.05280999 -0.004659501 0.052179474 -0.04247788 0.07387863
-0.044673197 0.040725116 -0.09378269 -0.07754823 -0.08940561 0.0042134 -0.05490119 -0.04303691
-0.011576475 -0.03293761 -0.01961184 0.10067738 0.07487714 0.09863097 -0.051587194 -0.046066854
0.07641546 0.13159315 -0.06903094 0.032726146 0.10966479 0.015488254 -0.06700205 0.07992583
-0.037615452 0.0030923793 -0.04722977 -0.009586588 -0.08797338 -0.09244379 0.079997964 0.0065142615
-0.07606706 -0.00064044644 -0.08984183 -0.054783363 -0.047748946 -0.10014475 0.051335897 0.06968672
-0.12015177 -0.0545576 0.07043201 0.058491975 0.029548518 -0.025268257 0.07128253 0.06488992
-0.0860811 -0.07662597 -0.077265404 0.0073550018 0.038915154 -0.002873391 0.015071175 -0.09316694
0.028848413 -0.077771425 0.042711344 -0.08643278 0.08997258 -0.04117458 0.0695874 -0.062872745
-0.08721193 0.050282326 -0.037902616 -0.10627231 0.03662041 0.09481651 0.07822685 -0.046302423
0.09847575 -0.10930782 -0.08960872 -0.023137694 0.04435345 -0.00913559 -0.06620968 0.018608047
-0.04035769 -0.06959565 -0.060623795 -0.07399215 0.020315608 -0.08642147 0.11756786 0.05485431
-0.039983682 -0.00058999495 0.093317494 -0.09281111 -0.059418973 0.0666499 -0.0832591 0.047321673
-0.061879136 0.096531585 0.040325496 -0.037353802 -0.073124155 -0.07703322 -0.09997062 0.060245562
-0.08173254 -0.13972136 -0.07120825 0.033431306 0.09689759 -0.07707446 0.056948002 0.06881305
0.124459684 0.061631422 0.013591479 -0.06595807 0.06812944 0.0921973 0.014004594 0.078748144
-0.016773656 -0.031914175 -0.056084365 0.031057328 -0.020090615 0.08120986 -0.10144626 -0.108144544
-0.0014428096 -0.057747714 -0.119562835 0.052713886 0.028815323 0.053621337 0.07286111 0.10560135
-0.10237908 -0.014080541 0.0758587 -0.031085161 -0.069243774 -0.0641357 -0.017254505 0.0970169
-0.12461048 0.06804931 0.09350254 -0.15341362 -0.14596485 0.038092177 -0.013095296 0.0262521
-0.060304433 0.0052089305 -0.09563995 -0.00857313 -0.035475496 0.00404929 0.09662296 0.014765015
-0.09216187 0.05257019 -0.09415222 -0.11372045 -0.034170795 0.06591284 -0.011534422 -0.059524726
-0.061733853 0.120919555 -0.07445561 -0.07534268 -0.05139299 0.033665814 -0.030749798 0.07236208

pi.mu_net.4.bias f4 [6]
00000000: 25ba 373d b494 2ebd 30a4 c03c eaf9 22bd
00000010: 99ae 763b 4e55 603d
0.044855256 -0.042622283 0.02351579 -0.039789118 0.003764069 0.054768853

vf.v_net.0.weight f4 [128, 24]
00000000: 3e0b 833e c417 833e 1be3 aabd eda6 ca3d
00000010: fc50 0fbe 1dd3 483b 7b49 30be fcdc 73bd
00000020: f5c9 8f3e 9100 24be f454 66be 776b 223e
00000030: 04a0 513d dfba 9dbd 1ad1 4bbe dc8c 5e3e
00000040: f3ca c3bd 6730 053e 1c2e 873e 3ff5 a2be
00000050: 706f 82bd 4567 453e db8f 4dbe 2f13 163e
00000060: bb45 493d df3a c23e 2a39 423e af57 913d
00000070: 9e8f 47be f4fd 083e 1112 d4bd 2f61 17be
00000080: 1094 7fbd 4a40 9c3c 7080 78be 6e39 45bd
00000090: 3283 dd3c a505 58bc 952c 4f3e 5345 14be
000000a0: f852 413e c078 8a3e 6612 fa3d 5394 033e
000000b0: 0dec c5be 83f0 b03e 10de fb3d 5026 c6be
000000c0: 43a3 f9bc 0f93 f2bd 2e54 47be 2738 42be
000000d0: 8247 2d3c 4412 893c d38c 6d3d 5eef 74be
000000e0: c45c 7ebc 39bf 8abd e65d 4e3e 1800 83bc
000000f0: 31dd 793e d189 1cbe f959 c4be 4a65 7bbe
00000100: b8c7 3bbd ab99 5dbe 6861 99be 757d 6c3e
00000110: 0dad dc3d c80d 8bbe f4d2 51bb 2bc6 1b3e
00000120: 87c8 613e 379b bebc 777b 903e a571 bb3a
00000130: 1e9a 06bc 0c9b 0b3e d7ab bbbc 05c7 a4bb
00000140: e8f7 b53d f82b 2dbb bbb7 3dbe 098c 1c3e
00000150: 8c1a 5dbe eba6 3fbd a439 95be 4bba 843e
00000160: 0a7a 273d 97b5 f33d 20d9 6b3e 6c74 5bbd
00000170: ddcf 053e 7f0f ae3e 558c a2be b9db a5bc
00000180: ad8a 2f3e 473a d13d 610a 0e3e f84c 6ebc
00000190: 2657 afbd 7310 483e fc43 f3bd 9c1c 503e
000001a0: 20cf 133e a570 1b3e 42f7 2bbe 0282 053e
000001b0: 0fd9 85bd 8cb8 04bc b46e 15be b061 593e
000001c0: d656 15bc 1fca 2b3e 8643 893e 3723 67be
000001d0: 9d30 083e 5995 8e3e 20fa 6cbe 2863 81bd
000001e0: 1ff6 44bf a90d 0b3c 8757 6fbd 3ef5 763e
000001f0: e4b0 4ebe 5890 1b3d 675b 7ebd 1773 b0bd
00000200: c472 26be cbd8 d73e a4c7 643d de3d 86bd
00000210: 98ca d5bd d3b0 f53d 7641 003e 0f27 0cbf
00000220: 422d cbbd c6e6 58bd f779 e8bc 27bd 8e3c
00000230: a291 273c ab43 ca3d 30c5 dd3d 9be9 b03c
00000240: f016 81be 8643 0abd 6f91 bdbc 3034 acbc
00000250: 585d efbd e579 58be 6ce7 363e 901d 003e
00000260: 3462 9e3c 21d0 4b3e 6e6b 2e3e cc81 73bd
00000270: 004e 293d 6cb0 923d 596e 81be cc32 07bd
00000280: 8505 8abd 5962 8dbd 8cad 8dbd 8b0c f2bd
00000290: ed82 953c df7c d4bd 0371 2d3d 4547 2e3e
000002a0: 1157 1fbd 1602 04bc f1bb 4b3e 5e38 e03c
000002b0: bedd 2abe a414 a93d f08f 38be 5252 f6bc
000002c0: e4a5 b13e 86bb 93bd eda0 e3bd 388a 303e
000002d0: cc1f 95bd 92a3 6b3e bb0d cdbd c399 1c3d
000002e0: d131 c6bd 97d8 c9bd fe52 2a3e 6f3c 613d
000002f0: c6c1 2f3e 8b87 cbbd b0c4 04be 6e93 963c
00000300: 8a25 b13e be3e 003d 7df8 abbd aec8 94bd
00000310: 5e99 46bd 8f2c 3a3d cd28 61bc 535a 73be
00000320: ecbd 9ebd 0f9e 28be 5591 343e a96a 94bd
00000330: 39ff dd3d d60c 03bd 405b 6a3e 5eec a53d
00000340: 7121 46be 4f83 103e 1e12 e4bd 59e1 d9bd
00000350: e793 e43c cf10 25be 8ef4 1e3e 4fa4 32bd
00000360: c714 9f3e 3aa8 b9bc bf76 393e 36ed 79bd
00000370: 8d63 c7bd 12b6 0b3e fb70 ce3c e708 f03d
00000380: cb22 9c3e 2316 5dbc 9b6e a3bd ff2b 943d
00000390: cbf8 a4bd feb9 bc3d 10b2 f33d 894d b53e
000003a0: 146c d63d 00e5 9c3d 7330 853e 78af 91be
000003b0: 81f9 c43d e8f9 713e b41c 7cbe 8eea 413b
000003c0: 0913 60be 0a9a 81be 0e03 36be ba24 b93d
000003d0: 2eba f1bd c553 2dbe ccc7 f83d 8acf cabb
000003e0: fd69 a4be eb1c c8bc d6a2 683e ad2f 84be
000003f0: 1f78 5bbc f4a9 bbbd 3edf 2dbe beff 82be
0.25594515 0.2560407 -0.08344098 0.0989512 -0.13995737 0.0030643411 -0.1721553 -0.05953692
0.28083768 -0.16015841 -0.22493345 0.15861307 0.051177993 -0.077016585 -0.19903985 0.21733421
-0.09560194 0.13006745 0.26402366 -0.31827733 -0.06368911 0.19277675 -0.20074408 0.14655755
0.049138766 0.3793554 0.18967119 0.070968024 -0.1948838 0.13378125 -0.103550084 -0.14783166
-0.062397063 0.019073624 -0.24267745 -0.048150472 0.027040098 -0.0131849395 0.2023185 -0.1447957
0.18879306 0.2704525 0.122105405 0.1284955 -0.38656655 0.34558496 0.122982144 -0.38701105
-0.030473357 -0.118444555 -0.19465706 -0.18966733 0.010576131 0.016732343 0.05799563 -0.23919436
-0.015525047 -0.06774754 0.20153007 -0.015991256 0.24400784 -0.15286948 -0.38349894 -0.24550357
-0.045844764 -0.21640651 -0.29957128 0.23094733 0.10775194 -0.27158952 -0.0032016607 0.15212314
0.22049151 -0.023267372 0.28219196 0.0014300836 -0.008215455 0.13633364 -0.022909088 -0.005028608
0.08885175 -0.0026423912 -0.18527119 0.15287794 -0.21592158 -0.046790045 -0.2914554 0.2592338
0.04088787 0.1189987 0.23032045 -0.053577825 0.13067575 0.33996198 -0.3174769 -0.020246373
0.17142744 0.10216194 0.13871147 -0.014544718 -0.08561544 0.19537525 -0.11878201 0.20323414
0.1443448 0.15179689 -0.1679354 0.13037875 -0.06535541 -0.00810064 -0.14593011 0.21228671
-0.009114942 0.16776322 0.2680933 -0.22572027 0.13299794 0.27848318 -0.2314229 -0.06317741
-0.7693805 0.008487144 -0.058433082 0.2411699 -0.20184666 0.037979454 -0.062098887 -0.08615702
-0.16254717 0.42157587 0.055854455 -0.06554769 -0.10439032 0.11996617 0.12524971 -0.547471
-0.099207416 -0.052954458 -0.02837847 0.01742418 0.010227593 0.09876188 0.10828626 0.021595767
-0.25212812 -0.0337558 -0.023140637 -0.021020979 -0.11687726 -0.21140249 0.17861718 0.12511277
0.019333936 0.19903614 0.17033169 -0.059449956 0.041334152 0.07162556 -0.252795 -0.033007428
-0.06739334 -0.06903524 -0.06917867 -0.11818799 0.018250907 -0.1037538 0.042344104 0.17019375
-0.038901392 -0.008057138 0.19895913 0.027370628 -0.1668615 0.0825589 -0.18023658 -0.03006855
0.34696877 -0.07213502 -0.111146785 0.17240226 -0.072814554 0.23011616 -0.100123845 0.038232576
-0.096774705 -0.09855764 0.16633222 0.054989275 0.17163762 -0.09937962 -0.12965655 0.018380847
0.34598953 0.031309836 -0.08397005 -0.07264839 -0.048486106 0.04545265 -0.013742638 -0.23764925
-0.077510685 -0.16466545 0.17633565 -0.07246906 0.108396955 -0.031994663 0.22886372 0.08101724
-0.19348694 0.1411259 -0.11136268 -0.10638685 0.027902557 -0.16119693 0.15522978 -0.043613728
0.3107054 -0.022663224 0.18111704 -0.061017238 -0.09735785 0.13643673 0.025200358 0.11720448
0.30495295 -0.013494047 -0.07980081 0.07234954 -0.08055266 0.09215163 0.11899197 0.35410717
0.10469833 0.07660866 0.26013526 -0.28454185 0.096179016 0.23630488 -0.24620324 0.0029589268
-0.21882261 -0.25312835 -0.17774603 0.09040208 -0.11803089 -0.16926487 0.12147483 -0.0061892914
-0.32112113 -0.024427852 0.22718367 -0.25817624 -0.013395338 -0.09163275 -0.16979691 -0.2558574

vf.v_net.0.bias f4 [128]
00000000: 2066 11bf 1890 18be 9e28 c3be 6072 06bf
00000010: d1af 0cbf bc7e 643e 4185 dbbe c999 11be
00000020: 0c79 e73e 2d2b cc3e 6ab5 cd3e ce87 0a3c
00000030: 89d1 a03e 7814 f3bd 1d26 eabe 6ef6 b23e
00000040: ed5f a9be 3a87 87be b705 593d 67ec 233e
00000050: 5336 0dbf bf46 4b3e 3cfc 503d 19c6 aa3e
00000060: e66e c8be a34b a8bb 6ff0 143f 5abd 21be
00000070: aac2 183f bd75 b33e f2e2 873e 2f9b e8be
00000080: b15b 9b3e c82e d7bd bed2 69bd c8fa 6fbe
00000090: 35fb ab3c f8a3 413e 7f29 87be fef1 afbe
000000a0: e07b 80bd e537 033f 3ee7 22bf 5e60 97be
000000b0: 996d 023f 50d3 4a3e fdfd c1be 9598 a03d
000000c0: d1a8 aabe 8de0 1cbf f575 62be a515 03bf
000000d0: df21 8f3e 43d4 d73e 1bcd 27bf 9999 b13e
000000e0: 0c9d 72be 5110 243f 3c92 ac3e 130d 253f
000000f0: 39c2 d0be a090 4abd ec1f c73e 91de c7be
00000100: c60c 48be b559 073f 15ae a53e eae8 e33d
00000110: 95fc 93be 8cb7 70bb 902a 5abe c6a8 ddbd
00000120: 22c8 05bf 4580 e13e 1a52 a4be 3a42 d0be
00000130: 4a59 133e c2c5 ab3e 47eb aa3e 0308 993e
00000140: 2dde 623e 7a34 a5be dead 7f3e 6a43 afbd
00000150: 4d37 083d a47e c43e 8d4a e73e 61d8 fc3e
00000160: cfb6 43be 7c11 9c3d c4fb 1abd e89c 9a3e
00000170: 3286 1bbf d714 aabd 527e a9be 4e48 843e
00000180: c168 193d 76b2 fbbe 3106 193e abdd dc3e
00000190: e114 0f3e 780e bd3d 5282 95be d8d3 e7be
000001a0: 46e7 f8be f6b0 a73e 4078 ae3e 331a cebd
000001b0: 1ece ddbd 689d d6be fc62 393d 54ff 823e
000001c0: 4849 c23e 0b1d c5be 3c55 ee3e 944e 023f
000001d0: 517c ebbe 6a85 243e e576 a6bd 434c b9be
000001e0: 04ea da3e e3d2 16be 1385 093f 9d0d c9be
000001f0: 1361 02bf 0434 c8be afcd 963d 2377 6a3d
-0.56796455 -0.14898717 -0.38116926 -0.5251827 -0.54955775 0.2231397 -0.42875102 -0.1421882
0.4520954 0.3987669 0.4017747 0.00845523 0.31409863 -0.118691385 -0.45732203 0.34953636
-0.33080998 -0.26470357 0.052983966 0.16008149 -0.5516102 0.19851206 0.0510218 0.33354262
-0.3914711 -0.0051359697 0.5817937 -0.15794888 0.59672034 0.35050765 0.26540333 -0.45430896
0.30343392 -0.1050697 -0.057085745 -0.23435509 0.020993808 0.18910205 -0.26398847 -0.34364313
-0.06273627 0.51257163 -0.636341 -0.2956571 0.5094848 0.19807172 -0.3788909 0.07841603
-0.33331922 -0.6128014 -0.2211531 -0.512049 0.2795553 0.4215413 -0.6554734 0.34687498
-0.23692721 0.64087397 0.33705318 0.64473075 -0.4077318 -0.04945433 0.38891542 -0.39036992
-0.19536123 0.5287126 0.32359377 0.11128409 -0.28903642 -0.0036730496 -0.21305299 -0.108232066
-0.52258503 0.44043174 -0.3209389 -0.40675527 0.1438953 0.33549315 0.33382627 0.29888925
0.22155066 -0.322666 0.24968669 -0.0855778 0.033255864 0.3837787 0.45174065 0.49383834
-0.19112705 0.076205224 -0.03783776 0.30197835 -0.6075164 -0.08304756 -0.33104187 0.25836414
0.037453417 -0.49159592 0.14943768 0.4313787 0.13972808 0.09231275 -0.2920099 -0.4527881
-0.48613948 0.32752198 0.34076118 -0.10063591 -0.10830329 -0.41916966 0.045260414 0.25585425
0.37946534 -0.3849872 0.46549404 0.5090115 -0.45993283 0.16066518 -0.08128146 -0.36190996
0.42756665 -0.14728884 0.5371868 -0.392682 -0.50929374 -0.39102185 0.0736345 0.057242524

vf.v_net.2.weight f4 [128, 128]
00000000: a191 1e3c 14ef 12be 782b 47bd 01d4 a93d
00000010: f0ee 1d3e 8787 43be d131 1abe 278b cbbc
00000020: 07ec e93d 368d 4c3e d3c3 d7bd 1b80 fcbd
00000030: 0c03 e6bd c711 d6be 6471 2fbe cfcc efbc
00000040: 8953 f6bd 0df3 233c bfce 00bd 38d6 333e
00000050: b1ae acbd c452 af3b ab98 eb3d 61e9 35bd
00000060: ea3e 193e c475 bf3c afc0 393e c508 c0bd
00000070: 7760 463d be7c 1ebe 3c27 0d3e 3e1f 38be
00000080: e553 083d c112 88bc 12cf 4abd 4721 57be
00000090: 122c 013e 264e 10be de54 eebd 1d75 9b3c
000000a0: d152 403e 035e 1e3e 86cf 03bd 2308 dbbd
000000b0: 4a3a 043e 57e6 b63c 559f 82bd 3585 09be
000000c0: 21eb 693d 8500 43be 0887 3b3d 541f 593d
000000d0: b5bc d03d bbd0 343e 3886 a8bd f790 263e
000000e0: bf15 20be e5b6 423e eeff 54be 758c 9a3d
000000f0: c7f1 813b a502 a2bd fac4 f73c d74d febc
00000100: 03ff b93d 04a7 f53d 5295 503d 3265 6bbe
00000110: 4a6a 36be 8504 dd3d 5f90 48bd acb2 00bd
00000120: 31bf 72be 0804 f83d 0a86 5dbe 6291 a93b
00000130: 7e00 863d e2eb d2bb 8d5f 583e 5012 02be
00000140: 6c9e b33d 985b 8cbd edc7 e33d e640 56be
00000150: ed67 883d d199 1b3c 0495 6cbd 76b2 493d
00000160: 7988 c7bd e28e 71bb ad68 73bd 620d 473e
00000170: 9e37 35be aec8 78be bf97 e6bd 1948 be3d
00000180: 8723 48ba 9a1b 31be f13b 343e d661 523e
00000190: 5d33 133a 693e 5dbd b8cd 22be 28c5 523d
000001a0: 5bee 16be 0ea3 0ebd 2cde 3f3e e633 343e
000001b0: e00b 603e 7732 a1bd 3273 1dbe 4ded c9bd
000001c0: e8ab 1c3d fbd3 d9bc 026d 8a3e 30ff bc3d
000001d0: d89c 15be 3b20 27be b119 1ebe dc15 76bd
000001e0: 61e3 283d 4ea6 a9be efec 993d 22f9 0e3d
000001f0: 0763 bf3d ddcb 0c3d f1b2 783c 2932 803d
00000200: bfda 81bd 7c76 d8bc c10e dbbc 76c7 2abe
00000210: 2620 43be 477b 2dbe 8e90 c83b 936f a6bc
00000220: 72c0 633b 7339 0a3d 9613 16be fd9e a0bd
00000230: 3083 08bd 937a 93be b8f9 1dbd c968 303e
00000240: 277a 0a3c fa1b 143b 95f3 113d 6bdf 483e
00000250: 4749 82bd b3ca 38be d791 1d3d 70e2 8b3d
00000260: 7d3c 09be e50e cbbd ba7b 293e 4297 ddbd
00000270: e380 ea3d 1c07 13bc ee53 313e 6818 fdbd
00000280: ccf2 1b3e 5c94 e63b fa74 c63d 5243 0d3e
00000290: aa7d f6bc cd81 dfbd 007c 9ebc 9b81 00be
000002a0: 3d54 333d b581 14be fba4 343d dcda 89bd
000002b0: 9526 493d e095 e8bd 29fd 68bc fd37 70bc
000002c0: d2f7 d13b 3a1d 083e 027c f83d fd82 1cbe
000002d0: 5ebb 623e 3655 e5bd f358 3ebe 7eb7 4e3d
000002e0: 28d2 6ebe 0497 ca3d 96f9 843d c897 993d
000002f0: 98af c13d 6d09 1abe b552 f9bd 9e08 19bb
00000300: 9658 0d3d d3c4 093d 1fde 0d3d 9882 233e
00000310: 91ee 27bd 3823 683d 7564 90bc 8c04 37bc
00000320: 000b 3abd e586 523e c2f8 86bd f276 203e
00000330: fd30 f03d bf72 70bd 9176 af3d 5aab 483d
00000340: d5e3 413e bd60 1bbd 473c a6bd 608b 99bc
00000350: 0172 02bd 486f 1e3e d54c 2abe 15ee 853e
00000360: b253 19bb 2ed7 ffbd 8e8f 25bd 3a93 9cbd
00000370: 2f0c 8ebd a994 4fbe 1a64 81be 349e 313e
00000380: 2c00 573d 420d de3b 6a97 003e 4fa9 07bd
00000390: f33e 153c 8899 53be 5c51 e73d 0c26 4d3d
000003a0: 83f1 213e 7a16 cc3d 20f5 e5bd 6ca8 3ebd
000003b0: 8ab9 383d 3e3c 423e 065a 0bbe 7041 413e
000003c0: 0f13 44be 6bda f4bd 07cf 553c a26c eb3d
000003d0: dafb 203e 16cf aa3d d910 50be 37cf 153e
000003e0: 6eea 013e bab1 b2be 5328 443e 5623 26bd
000003f0: 198d 833c 4085 24be a908 6a3c 1ef7 35be
0.009678275 -0.14349014 -0.04862544 0.0829239 0.15423179 -0.19094668 -0.15058066 -0.024846626
0.11421972 0.19975743 -0.105353974 -0.12329122 -0.1123105 -0.41810438 -0.17133099 -0.029272465
-0.12027652 0.010006678 -0.03144717 0.17562187 -0.08431757 0.0053504426 0.115037285 -0.04441202
0.14965406 0.023371585 0.18139909 -0.09376673 0.04843184 -0.15477273 0.13784498 -0.17980668
0.033283133 -0.016610505 -0.049513884 -0.21008788 0.12614468 -0.14092311 -0.11637281 0.018976742
0.18781592 0.1546555 -0.03218033 -0.10694911 0.1291286 0.022326631 -0.063780464 -0.1342972
0.057109002 -0.19043167 0.045783073 0.053008392 0.10192243 0.1765775 -0.08228725 0.16266237
-0.15633295 0.19015081 -0.20800754 0.07546321 0.0039655897 -0.07910661 0.030245293 -0.031042976
0.09081843 0.11994746 0.050923653 -0.22987822 -0.17813984 0.10791878 -0.048965808 -0.031420395
-0.23705746 0.12110144 -0.21633163 0.0051748017 0.065430626 -0.006436811 0.211302 -0.12702298
0.08770451 -0.068534076 0.11122117 -0.20923194 0.06660447 0.009497122 -0.0577593 0.04924246
-0.09742827 -0.0036858846 -0.059426 0.19438699 -0.17696998 -0.24295303 -0.11259412 0.09291095
-0.00076346885 -0.17295685 0.17600991 0.20545134 0.00056152587 -0.054014597 -0.15898788 0.051457554
-0.14739363 -0.03482347 0.18737096 0.17597923 0.2187953 -0.078709535 -0.15375975 -0.09859715
0.03824988 -0.026590338 0.2703629 0.09228361 -0.14610612 -0.16320889 -0.15439488 -0.06007944
0.04123247 -0.33134693 0.075158946 0.03490556 0.0934506 0.034374107 0.015179382 0.06259567
-0.06340551 -0.026423685 -0.026740434 -0.16677651 -0.19055232 -0.16941558 0.006120748 -0.020316875
0.0034752158 0.033746194 -0.14655909 -0.078428246 -0.033328235 -0.28804454 -0.03856823 0.17227472
0.008451975 0.0022599683 0.03563269 0.19616477 -0.06361633 -0.18046074 0.03846916 0.06830299
-0.1340198 -0.0991495 0.16551104 -0.10819866 0.114503644 -0.008973863 0.17317173 -0.12358171
0.15229338 0.007036729 0.0969028 0.13795212 -0.030089218 -0.109134294 -0.019346237 -0.1254944
0.043781508 -0.14502604 0.04410265 -0.06731197 0.04910906 -0.113567114 -0.014220514 -0.014661786
0.0064077163 0.13292399 0.121330276 -0.15284343 0.22141787 -0.11197893 -0.18588619 0.05046796
-0.23322356 0.09892085 0.06492917 0.07499653 0.0945732 -0.15042658 -0.12173978 -0.0023351084
0.03450831 0.03363497 0.03463566 0.15967786 -0.040999 0.056674212 -0.017626027 -0.011170518
-0.045420647 0.2055927 -0.065904155 0.15670374 0.11728094 -0.05870318 0.085675366 0.04899154
0.18934567 -0.037934054 -0.08116966 -0.018743217 -0.031847004 0.15472138 -0.16630872 0.26158205
-0.0023395834 -0.12492214 -0.040420108 -0.07645269 -0.069359176 -0.20271553 -0.25271684 0.17345506
0.0524904 0.006776483 0.1255776 -0.03312045 0.009109247 -0.20664036 0.11294815 0.050085112
0.15814786 0.099652246 -0.112283945 -0.04654734 0.04509882 0.18968293 -0.1360856 0.18872619
-0.19147895 -0.119557224 0.013049847 0.114953294 0.15721074 0.0834028 -0.20318927 0.14629827
0.12687084 -0.3490122 0.19156007 -0.040561043 0.016058492 -0.16066456 0.014284291 -0.17770049

vf.v_net.2.bias f4 [128]
00000000: 08c8 663d 602e ed3d 9bd8 02be a1ca 6e3e
00000010: 33bd 013e 3f01 103e 113f 3e3d 910c 24be
00000020: ee78 063e 5015 8abc dfa4 403e 5ef1 323e
00000030: 1abf a93d 663c 17be 3c8c c9bd 11f9 823e
00000040: 58ac 893e 8e2f a9bd 6071 463e 0d29 de3d
00000050: f42c 88bd 5ec6 943d 1bbd 2b3e ca17 15be
00000060: 628a f63d 883e b1bc 3f12 493e 4be8 f0bd
00000070: 6076 b23d 7030 cc3d 9465 e5bd 431d 0d3e
00000080: bee0 a93d bab3 f33d a821 293e 6b14 393e
00000090: 3152 013e e539 1c3e a47a 233e 7905 67bd
000000a0: 7483 453e a01e b1bd 3046 f33d d53b 463e
000000b0: 11cb 80bd 1347 463e b573 b13d 3276 e9bd
000000c0: 6a96 cf3d 0915 f1bc 4f68 ec3d 34dc fd3d
000000d0: f406 58bd 1647 43bd 8ec1 403e 9729 073e
000000e0: f3cb 333e c523 cbbd 4129 69bd 5401 423e
000000f0: 476e 193e 27d1 1dbe bc0f 41be f39a 273e
00000100: f775 563e 1fa8 4c3e 2797 453e bb0a 98bd
00000110: b88c 2d3e a3b5 abbd eaa9 703e 05cb d2bd
00000120: c852 15be 5e9f 7a3e 66e5 2dbd bf1e ed3d
00000130: 54a3 503e 232e a23d 45a6 d3bd 02a7 233e
00000140: ab2e 32be b9a8 a0bc 5d48 223e bdee 513e
00000150: 3bd9 96bc 3c1f ac3d e6e4 06be dde6 703e
00000160: 5473 433e 0740 733e b33e c5bc 6329 0b3e
00000170: 44ae e9bd 7c2a 81bd 1e24 10be 3ecb 7f3e
00000180: 4467 833e 9599 63bd 7dfd 97bd 0d70 ea3c
00000190: f199 54bb 23d0 bc3c 464f fdbd fe27 1f3d
000001a0: 7858 0e3e 6c78 6e3e 0813 bebd 9584 503e
000001b0: b9e3 b4bd 33fc e3bd 05d3 00be a343 1fbe
000001c0: 6975 76bd 9c8e e6bd c65d cc3d fb9b d73d
000001d0: 6624 1fbd 1582 f73d 3f93 f1bd f21b 263e
000001e0: 1757 02bd 4ce3 073e f4e6 a4bd c2b9 d83d
000001f0: 0100 2bbd 65b9 803e d051 543e 132a 3b3e
0.05634311 0.11581111 -0.12777941 0.23319484 0.1266983 0.14062975 0.046446864 -0.16020419
0.13132069 -0.016855866 0.18812893 0.17474887 0.08288403 -0.14769134 -0.09841201 0.25580648
0.268893 -0.082610235 0.19379187 0.108476736 -0.06649199 0.07264398 0.16771357 -0.14559856
0.12038113 -0.021636263 0.19635867 -0.11763056 0.087139845 0.09970176 -0.11201015 0.13780694
0.08294819 0.118995145 0.16516745 0.18074195 0.1262901 0.1525646 0.15964752 -0.056401704
0.19288427 -0.086484194 0.118786216 0.19358762 -0.06288732 0.1936305 0.086646475 -0.11399497
0.10136111 -0.029428976 0.11543333 0.12395516 -0.052741006 -0.047675215 0.18823835 0.13199459
0.17558269 -0.09918932 -0.05692411 0.18945819 0.14983474 -0.15411817 -0.18853658 0.16367702
0.20943438 0.19986008 0.19295941 -0.07423922 0.16948211 -0.08384254 0.23502317 -0.10292629
-0.1458236 0.24474856 -0.0424551 0.1157813 0.20374805 0.07918956 -0.10334448 0.15981677
-0.17400615 -0.019611703 0.15847917 0.20501228 -0.01841413 0.08404395 -0.13173255 0.23525567
0.19086963 0.23754893 -0.024077749 0.13590007 -0.11410192 -0.063069314 -0.14076278 0.24979874
0.25664723 -0.05556639 -0.07421396 0.028617883 -0.003244039 0.023048466 -0.12368636 0.0388565
0.13900936 0.23288125 -0.09280974 0.20363076 -0.08832497 -0.111320876 -0.12580498 -0.15553145
-0.060170565 -0.11257669 0.09978823 0.10527798 -0.03885307 0.12085358 -0.11795663 0.16221598
-0.031821337 0.132703 -0.08051863 0.105823055 -0.04174805 0.25141445 0.20734334 0.18277769

vf.v_net.4.weight f4 [1, 128]
00000000: bc17 6c3e 28a5 243e 83ee a0bd 9b54 533e
00000010: faac 073e 2bb8 4a3e ddb2 063e 3f03 96bd
00000020: ae99 033e ddd1 a1bd 78ec 263e 8556 203e
00000030: 09f7 1e3e 90c2 efbd 125d f6bc 4b88 f33d
00000040: c4aa 2d3e 49f9 d4bd 1221 273e 1b92 0c3e
00000050: cf75 c4bd a345 2e3e 918f 6a3e bdf1 8fbd
00000060: aa47 e83d 4402 a0bd 490a 323e 47c0 dbbc
00000070: 3b0e 0c3e f97f 2e3e d32b e1bd 863e 4b3e
00000080: 59eb 473e 328b 3c3e d9ac 303e 6a26 6f3e
00000090: 95cf 483e f724 4f3e 7061 633e a47b 42bd
000000a0: cd0c 3d3e 3ba4 f5b9 0e37 433e 12c9 253e
000000b0: 0742 06bd 04e6 283e 3143 513e a45e c5bd
000000c0: 81ac 833d 3aed b9bd 897e 4a3e 1557 2f3e
000000d0: ae3f 933d 76c3 9ebd d1d2 443e cbab 3f3e
000000e0: e337 373e 286e 5fbd 96f6 d0bd e263 133e
000000f0: 50e5 2a3e 8b6c 003d 1387 bbbb 4775 293e
00000100: a21f 413e b9af 6c3e a724 153e 4d3e f8bd
00000110: deda 553e f8e0 abbd c6c8 4c3e 9a31 0bbe
00000120: 338b 21bd 0bd3 ed3d 42a3 ddbd 89cf 463e
00000130: a33a 3a3e 758d 3a3e 41f4 b4bd ddaf 1d3e
00000140: cb92 73bd 0a60 a73c 961b 2e3e 6dd1 e33d
00000150: b801 dbbd 8e2f 443e 285a 14be f800 473e
00000160: 1a9a 673e ab7f 343e 6ce5 16bd 1efa 563e
00000170: 8017 e1bd b6e0 5d3d f7e4 09be 7932 4a3e
00000180: e7f2 393e f0d2 d7bd 3dd1 c0bd 518e 2c3e
00000190: ee6c 903d 42be bd3d 2df5 eabd 5511 613e
000001a0: 67a4 ff3d 8c34 343e c574 06be 3ad3 4f3e
000001b0: 0bfe d03c ffbb f7bd 955c 9bbd 34d1 253d
000001c0: d79c c3bd 3b1a b6bd e54c 323e 5b8c 603e
000001d0: 39e0 62bd d8c9 4c3e bbbd 94bd c6df 2e3e
000001e0: 3c1b b0bd a159 263e 0d0a 79bd 3e28 463e
000001f0: 4000 3c3d 6baf 3c3e f7cb 4a3e 2908 623e
0.23055929 0.16078627 -0.078579925 0.20637743 0.13249579 0.19796817 0.13154168 -0.07324838
0.12851593 -0.07901356 0.16301143 0.15658005 0.15523924 -0.11707032 -0.030073676 0.1189123
0.16959673 -0.1039911 0.16321209 0.1372761 -0.09592783 0.17018752 0.22906329 -0.0702853
0.11341794 -0.07812932 0.17386736 -0.026825083 0.13677303 0.17041005 -0.10994687 0.1984807
0.19523372 0.18412474 0.17253436 0.23354498 0.19610436 0.20228945 0.22205138 -0.047481194
0.18461914 -0.00046852403 0.1906397 0.16189983 -0.032777812 0.16493994 0.20435788 -0.09637192
0.06429387 -0.090784505 0.19774832 0.17123063 0.0718988 -0.07752125 0.19221045 0.18717878
0.17892413 -0.054548413 -0.102032825 0.14393571 0.16689038 0.031353515 -0.005722889 0.16548644
0.18859723 0.23113908 0.14564763 -0.12121258 0.20884272 -0.08392519 0.19998464 -0.1359314
-0.03943939 0.11612519 -0.108221546 0.19415106 0.1818643 0.18218024 -0.0883565 0.15399118
-0.059466165 0.020431537 0.1700271 0.11123929 -0.10693687 0.19158766 -0.14487517 0.19433963
0.22617379 0.17626826 -0.036839887 0.2099385 -0.109908104 0.05416938 -0.1346625 0.19745816
0.18159066 -0.1053828 -0.09414909 0.16851164 0.07052027 0.092648044 -0.11472545 0.21979268
0.12482529 0.1759817 -0.13130482 0.2029542 0.025511762 -0.12096404 -0.07586018 0.040482715
-0.09551399 -0.08891722 0.17412145 0.21928541 -0.055389617 0.19998872 -0.07262751 0.1707755
-0.085989445 0.16245128 -0.0608006 0.19351289 0.045898676 0.18426292 0.19804369 0.22073425
