HW4/ppo_dm_control-master (2)/ppo_dm_control-master/training/walker/walk/best_ppo_ac_model.pth (torch, 166233 bytes, 12 tensors)

pi.log_std f4 [6]
000000 3b 23 50 bf 18 36 4b bf 21 c0 4a bf a0 7a 38 bf
       -0.8130376 -0.79379416 -0.79199415 -0.7206211
000010 91 95 42 bf 15 c2 40 bf
       -0.7600947 -0.75296146

pi.mu_net.0.weight f4 [128, 24]
000000 41 79 21 be 10 51 24 be 02 8a d9 bc 69 51 7b be
       -0.15768911 -0.16046548 -0.026555065 -0.24542774
000010 4e dd 3e 3e 30 a8 84 3d 29 22 cf ba b9 1e a1 bd
       0.18639109 0.06477392 -0.0015803027 -0.07867188
000020 cf 97 fe bb 56 07 b9 bd c3 0f 18 3e c8 f1 77 3c
       -0.007769562 -0.09034602 0.14849763 0.015133329
000030 21 ea 19 3d 4c ba 7a 3d 25 37 38 be 7c 79 50 3d
       0.0375768 0.061212823 -0.17989786 0.050897107
000040 78 60 6b bd a7 7e f5 bd 60 7e 81 3c 0f 1f 0e be
       -0.057465047 -0.11987048 0.01580733 -0.13879035
000050 1f 6a 30 bc a8 5d 13 3e a2 ca 8c bb 3b b0 d9 3d
       -0.010767489 0.14391196 -0.0042966167 0.106293164
000060 d2 15 1e 3e c2 43 aa bd c0 3c 81 3d b3 cc 6c 3e
       0.15438011 -0.08313705 0.06310415 0.23124962
000070 c1 d5 22 3e ae 3c 7f 3d e1 3f 31 bc a7 a1 29 be
       0.15901853 0.062313728 -0.010818453 -0.16565572
000080 83 f9 11 be ba ff 27 3d 1b 95 3d be f8 34 aa 3d
       -0.14255337 0.041015364 -0.1851391 0.08310884
000090 23 b7 73 3d 7f bf 2f 3e 4f 98 b5 bd d4 05 82 be
       0.059500825 0.17162894 -0.08866941 -0.25395072
0000a0 50 ec 9f 3c 63 d9 c8 3d 4b c8 e7 bc 37 7b 3f 3e
       0.019521862 0.09807088 -0.02829375 0.18699346
0000b0 32 08 85 3d e7 8d 24 3e 4e 00 bf 3d 00 ed dc bd
       0.06495704 0.16069756 0.0932623 -0.10787392
0000c0 b4 21 cc bc e5 1a 0c be e9 a7 9d bc 13 54 62 be
       -0.024918415 -0.13682134 -0.019245105 -0.22102384
0000d0 d8 09 68 bd d6 54 0b 3e 8e c6 25 3d 19 38 a1 3d
       -0.056650013 0.13606581 0.04047256 0.07872028
0000e0 91 6c 48 be 59 b9 41 bd 88 7b 4d 3e 46 b3 c5 bd
       -0.19572665 -0.047295902 0.20066655 -0.09653334
0000f0 bf 3c e9 3c 89 c3 fc bd e9 b6 28 3e e5 e9 2e be
       0.028471349 -0.12341983 0.16476025 -0.17081411
000100 79 c1 6d 3e 16 c9 7e 3d 85 48 63 be 5b 3f 52 3d
       0.23218335 0.06220349 -0.22195633 0.05132995
000110 46 ea 91 3d 84 fb 89 bd 15 af 14 bc 2f 94 a7 3d
       0.07124762 -0.06737426 -0.009074946 0.08182561
000120 ef fc af 3d 99 d4 7b bd 29 76 d3 3d 19 ad bd bb
       0.08593165 -0.061482046 0.10325272 -0.005788457
000130 15 32 56 bc 96 b0 e7 3d 88 7b 09 3e 5f 56 c8 bd
       -0.013073464 0.11312978 0.1342603 -0.09782099
000140 57 f5 c0 3d f4 d7 46 3c f4 62 42 bc 2e 90 f6 3d
       0.09421795 0.012136448 -0.011864413 0.12039219
000150 43 1f 1c 3e 3e a5 09 3e eb 46 c7 3d 07 d4 1c 3d
       0.152463 0.13441941 0.097303234 0.038288143
000160 b2 9a 40 be a9 82 12 3c 0a 0c 47 bd cf 01 3d 3e
       -0.18809012 0.008942285 -0.048595466 0.18457721
000170 a7 4e 94 bd 66 45 8f bd e2 5b 6d 3e 98 d5 fd bd
       -0.07241564 -0.069956586 0.23179582 -0.123942554
000180 16 23 0a 3b 6d 18 04 be 2c fd 03 3d a8 fe 97 bc
       0.0021078042 -0.12899943 0.032223865 -0.018554047
000190 d6 4f 2b be 69 eb a7 3d 11 3b 15 3e 38 7e bf 3c
       -0.16729674 0.08199198 0.14573313 0.023375615
0001a0 84 02 65 3e 07 21 e6 3d 78 cf 17 bd ee 62 b8 3d
       0.22364241 0.11236768 -0.037063092 0.09003244
0001b0 3b 1b 49 be bc d8 18 3e f8 29 ff 3d cc e0 d7 3d
       -0.19639294 0.14926428 0.12459177 0.105409235
0001c0 96 84 68 3e 5a 0f 89 3d 39 ba b1 3d 4e 4a a5 bd
       0.22706828 0.06692381 0.08678097 -0.08070813
0001d0 a9 c0 37 be d3 26 0b be 6a 91 89 3c ba 90 a0 bd
       -0.17944588 -0.13589029 0.016792972 -0.078401044
0001e0 c3 b3 33 be 0c 21 3a 3c 5e 92 02 be 53 4d e4 3d
       -0.17549042 0.011360418 -0.12751147 0.11147561
0001f0 f9 89 47 3d de 94 ab bc b4 2a 09 3e 28 77 0a be
       0.048715565 -0.020945009 0.13395196 -0.13522017
000200 71 90 3b bd 5b 87 16 be 23 be 05 be 63 a4 8b bc
       -0.045792047 -0.14700072 -0.13060813 -0.01704616
000210 b2 da d5 bd c3 cb 26 3d 27 34 d8 bd 52 42 f3 3b
       -0.104421034 0.040721666 -0.10556822 0.0074236775
000220 60 bd d9 3d 84 83 43 be 07 d2 1a 3e 0c 75 83 3d
       0.106318235 -0.19093138 0.15119182 0.06418809
000230 f2 21 88 bd 3f f4 70 bd 1a 0b 67 3c 97 65 46 be
       -0.066470996 -0.05882668 0.014101768 -0.19374691
000240 dc 12 90 3d 55 39 e9 bd 66 5f 91 bc 47 6f 4c 3e
       0.07034847 -0.11387888 -0.017745685 0.19964324
000250 5a 4e da bd 46 db ae bd 39 8a a8 bc 03 1c 1e 3d
       -0.106594756 -0.08537917 -0.020573722 0.038600933
000260 d5 37 38 3d a7 d2 2b 3e e8 13 56 be 2e 1b c9 3d
       0.04497512 0.16779576 -0.20906031 0.09819637
000270 af fb 9e 3d 6f ad a7 3d b4 2f 23 bc 1b 67 de 3d
       0.077628486 0.08187377 -0.009960104 0.108595096
000280 eb 1e ba 3c 8d c3 48 be 76 e8 ee 3c e9 c3 01 be
       0.022719821 -0.19605847 0.02916358 -0.1267239
000290 04 5f 8f bd ac 13 cc 3c ff 3f 79 3e 94 3a 94 bd
       -0.07000545 0.024911724 0.24340819 -0.072377354
0002a0 de 09 f0 3d 13 a8 a6 bd 2b f1 9d bd 2b 68 c1 bd
       0.11720632 -0.08137526 -0.07712015 -0.094436966
0002b0 e5 99 5d 3e 67 c8 da 3d 12 de 36 be 39 5e 6b bd
       0.21640737 0.10682755 -0.1785815 -0.057462905
0002c0 4f 79 6d 3d 14 09 bc 3d 3e ff cb 3d 0e bc 1b 3e
       0.057977017 0.09181419 0.09960793 0.15208456
0002d0 80 4b d5 bd f3 85 07 3d f7 7c 6b 3e 52 ac 4f be
       -0.10414791 0.03308673 0.22996889 -0.20280579
0002e0 1f 59 01 3d 51 d8 ab bd 7a 3f 88 3d 03 f2 7c bc
       0.031579133 -0.083908685 0.06652732 -0.015438559
0002f0 66 e7 82 bd 54 61 33 3c 65 29 12 3e 6d bb b1 3d
       -0.06391792 0.010948498 0.14273603 0.08678327
000300 34 ff 4b 3e a8 eb 6d 3e 9b 9d c2 3d 46 da f6 3d
       0.19921571 0.23234427 0.09502717 0.12053351
000310 21 2b 8f bd 46 36 2c 3e 28 2d 96 bd 3d df e8 bd
       -0.06990648 0.16817579 -0.073328316 -0.11370704
000320 73 a8 7e 3e ee 98 85 3e ed a3 85 bc 82 a2 05 be
       0.24868946 0.2609324 -0.016313517 -0.13050273
000330 ff 9e a1 3c 43 60 21 3d 89 31 3a be 32 69 0c 3e
       0.019729136 0.039398443 -0.18182959 0.13712004
000340 1e 42 4b 3c 32 96 5b 3d f8 75 f0 3d f7 84 1a 3e
       0.0124059 0.053610034 0.11741251 0.15089785
000350 c1 0c 30 be 07 68 12 3e 54 34 01 3e d7 27 42 bd
       -0.17192365 0.14297496 0.12617618 -0.047401275
000360 4e ed 4f 3e fb af 3d be b6 41 40 be b1 a3 ea 3d
       0.20305368 -0.18524162 -0.18775067 0.11457003
000370 97 81 20 3e f8 66 8c bd 71 20 73 bb d0 4c 05 be
       0.15674435 -0.06855577 -0.0037098194 -0.13017583
000380 49 fd 05 3d 29 78 14 3e f2 6e 28 be f6 e3 46 be
       0.032712255 0.14498962 -0.16448572 -0.19422898
000390 4c cc 12 3e 1f 6b b5 bd b8 0d c0 bc e6 ff 7e 3e
       0.14335746 -0.08858322 -0.023444042 0.24902305
0003a0 77 e1 a7 bd bb 08 07 3e 59 21 13 be c9 d8 b4 3d
       -0.08197301 0.13186924 -0.1436819 0.08830411
0003b0 6b 7f 90 bd cf 7b 30 be 3f 69 01 3e 06 5d f6 3d
       -0.07055553 -0.17234729 0.12637804 0.120294616
0003c0 31 85 f0 bd 1f 0c 91 bd be 66 1f 3c 1a 29 3b bd
       -0.11744154 -0.0708239 0.0097290855 -0.045693494
0003d0 2a 3b 38 be e3 9b 08 be 93 c6 fd 3d d6 df b0 3d
       -0.1799132 -0.13340716 0.12391391 0.08636443
0003e0 89 76 94 bd 14 c0 fa 3b 62 3d 0a be da 5b e6 bd
       -0.07249171 0.007652292 -0.13499978 -0.11247988
0003f0 02 e6 88 3d 3c a2 5d 3e 85 40 76 bd 4f 2b 83 3d
       0.066844955 0.21643919 -0.060120124 0.06404745

pi.mu_net.0.bias f4 [128]
000000 14 8c 99 3c 40 d9 ba 3d 3d 20 ac bc 5c a4 85 be
       0.018743552 0.091234684 -0.021011466 -0.2610196
000010 9c 05 a8 bd 49 d6 f8 bd 80 8b 31 be 5d e4 38 be
       -0.08204195 -0.12150247 -0.17338371 -0.18055864
000020 17 d0 04 3e 6e ca 6d bd 7b 41 76 bd cc df a0 bd
       0.12970005 -0.05805438 -0.06012104 -0.07855186
000030 84 f4 9f bd 3a fb 08 3e f6 5d 24 3e 8c 8a 3c 3d
       -0.078103095 0.13377085 0.16051468 0.046030566
000040 14 dc 30 3e 0c 79 91 3d 26 f4 be 3c 66 b2 de bd
       0.17271453 0.07103166 0.023309778 -0.108738706
000050 ef 6a 42 bc 2f 34 1e 3e 40 1e e6 bd dc bf 07 be
       -0.011866315 0.15449594 -0.112362385 -0.13256782
000060 98 35 d8 3d ca 9a 64 be 5d 92 48 3e 00 e3 08 3e
       0.10557097 -0.22324672 0.19587083 0.13367844
000070 b4 dd 58 3e e3 64 78 3d 75 49 c4 3d 8a a0 53 bd
       0.21178323 0.060643088 0.09584323 -0.051666774
000080 f4 d8 09 be ee 4d 59 bd e4 62 2b be 95 02 3d bd
       -0.13461667 -0.053052835 -0.16736943 -0.04614504
000090 e3 30 38 3e c5 81 8a bd 9b 63 00 be e0 93 1c 3e
       0.17987399 -0.06763033 -0.12537996 0.15290785
0000a0 66 c5 10 3e 42 ef 47 3d 97 7f 95 3d 61 e6 db bc
       0.14137802 0.04881216 0.072997265 -0.026843252
0000b0 4e f0 c4 3d 93 14 36 3e 0e 4a 6f 3e c6 ff 58 3c
       0.09616147 0.17781286 0.23368093 0.013244575
0000c0 21 1c 75 3b 48 68 3f 3e df 24 14 3d ab eb a3 3d
       0.00374008 0.18692124 0.036167976 0.080039345
0000d0 99 5f 29 be f8 61 26 3e 11 2d a8 3c 95 a2 e9 bd
       -0.16540374 0.1624831 0.020529302 -0.11407963
0000e0 3e d2 00 3d 2d 77 07 be 90 a7 1c 3e ec 3a bd 3d
       0.031450503 -0.13229056 0.15298295 0.09239754
0000f0 6b 1b 4d be 3f fd ef 3d 90 07 0f 3e 6a cc 6a 3d
       -0.2002999 0.11718225 0.13967729 0.05732385
000100 49 e9 08 3e fe 4e 13 3e 72 62 14 be 98 19 be bd
       0.13370241 0.14385602 -0.14490679 -0.09282225
000110 3a a5 33 3e df b4 60 3d c6 95 19 be b2 f3 8d 3d
       0.17543498 0.054859992 -0.1499854 0.06931247
000120 94 1b 61 3e 18 cf 35 be 74 96 00 3d 1a 00 06 bd
       0.21983176 -0.17754781 0.031393483 -0.03271494
000130 1b a8 01 be 2a 0f 3e 3e b2 79 49 3e 09 6c 58 be
       -0.12661783 0.18560472 0.1967533 -0.21134962
000140 05 c5 4f bc 53 bd c9 3d 12 55 3a 3e ed f5 d9 bd
       -0.01268125 0.09850564 0.18196514 -0.1064261
000150 3a ab 2a 3e a0 f1 25 3e a5 b5 14 be 50 85 fd 3d
       0.1666688 0.16205454 -0.14522417 0.12378943
000160 49 09 db 3c 34 57 92 3d 6f 49 bc 3b 8d b6 05 bd
       0.026737826 0.07145539 0.0057460587 -0.032644797
000170 22 26 3a be ca 42 d7 bd 1c f2 8c bd 0e 9e 4a be
       -0.18178609 -0.10510786 -0.06882116 -0.19786856
000180 3f da ce bd 29 c4 db 3d 6e 40 37 3c 5f d7 12 bd
       -0.10100221 0.10730774 0.011184795 -0.035849925
000190 85 7f 64 3e 41 56 ca 3d d7 b1 30 3e d7 d2 41 3e
       0.2231427 0.09879733 0.1725534 0.18928085
0001a0 f8 9a 9d 3d 03 cd 93 3d 95 e1 3e be 1e 03 16 3e
       0.076955736 0.07216837 -0.1864074 0.14649627
0001b0 70 eb 1b 3c 8a 32 cc 3d 3c c2 09 3d e2 d9 f3 3d
       0.009516582 0.09970577 0.033632502 0.11906792
0001c0 84 99 9b 3d 54 5d cb 3d bd 20 d8 3d 65 0f a5 bd
       0.0759764 0.0992991 0.10553119 -0.08059577
0001d0 c5 90 fa bc 44 0e 96 bd bb 8b ee bc 2a 1e 2e be
       -0.03058661 -0.0732694 -0.029119363 -0.17003694
0001e0 d3 af 47 be e1 68 f2 3d 05 94 81 3e 97 e6 ec bd
       -0.19500665 0.1183641 0.25308242 -0.11567419
0001f0 d3 82 33 bc bc 14 c2 bd b8 b5 1c 3e 15 16 46 3e
       -0.010956484 -0.09476611 0.15303695 0.19344361

pi.mu_net.2.weight f4 [128, 128]
000000 a0 c8 b7 bc f5 5d 82 bd 95 69 58 bc 56 a8 e0 bc
       -0.022434533 -0.06365577 -0.0132087665 -0.027424019
000010 1c 65 74 3c bf 1c 9c bd 2e 56 cd 3c bc 1c d5 bb
       0.0149166845 -0.076226704 0.025065508 -0.0065036695
000020 17 89 9e 3d d5 1b 76 bd 2f 15 f4 b9 32 25 79 3d
       0.077409916 -0.060085136 -0.0004655509 0.060826488
000030 83 8f 98 bb d7 67 62 bd 5c d1 81 3d a5 8f 8f bd
       -0.00465578 -0.05527481 0.0633876 -0.0700982
000040 00 d8 eb bb 5e c8 a1 bd dd 9f f8 bc d4 dd 60 bd
       -0.00719738 -0.07899545 -0.030349666 -0.05489905
000050 0f de 34 bd 65 e4 6f bc 72 90 16 bc 9b c5 88 bd
       -0.044157084 -0.014641856 -0.009189712 -0.06678315
000060 f4 3f 5e 3d f6 92 a6 bd 98 21 66 3d 25 7f db bc
       0.05426021 -0.08133499 0.05618438 -0.026794026
000070 35 15 68 bd af dc ab bd 60 07 0c 3d cd 73 37 bb
       -0.05666085 -0.083917014 0.03418672 -0.0027992607
000080 c3 09 98 bd ec 12 46 bd cd ec 75 3d 99 1b 34 bd
       -0.07423737 -0.04835789 0.060040284 -0.04397163
000090 c1 33 9d 3d 41 c3 0e bc 3e d8 aa 3d 76 25 4f bd
       0.07675887 -0.008713544 0.08342026 -0.050572835
0000a0 33 cf 15 3d 4f 53 aa bd 38 6b 63 bc 92 1e 63 3d
       0.036574554 -0.08316671 -0.013880543 0.055449076
0000b0 3a 96 dd 3d 5f 6e 48 bd b6 6e 29 bb 9c 85 bf bc
       0.10819669 -0.048933383 -0.0025853342 -0.02337914
0000c0 4b 33 82 3d 2f 04 c3 3d 80 ee 68 bc 80 e9 25 bd
       0.063574396 0.09522282 -0.014217019 -0.040505886
0000d0 dd 26 a9 3d 3a 9a 89 bd 18 2b 79 bd e3 bf bd 3d
       0.08259366 -0.067188695 -0.060832113 0.09265115
0000e0 ae 7f db bc d0 d9 6b bd da d1 bf 3d 32 66 b0 bd
       -0.02679428 -0.05758077 0.09366198 -0.08613242
0000f0 e1 fc a1 3d 6a 07 cc 3c 7a 7e bb 3c dd 4d 14 ba
       0.07909561 0.024905879 0.022887457 -0.00056573545
000100 ac 0f b7 3d 78 75 83 bd 0d a2 81 3d d2 d9 43 3c
       0.08938536 -0.0641889 0.06329737 0.011953788
000110 0b 76 85 3d 0a 11 69 3d fc 02 94 3d b6 1c 61 3d
       0.065166555 0.056901015 0.07227132 0.05495902
000120 29 c7 12 bd 7d 1f 9f 3d c9 26 69 3d 45 a0 32 bd
       -0.035834465 0.07769678 0.056921754 -0.043609876
000130 26 e8 80 bd 6e 20 88 3d bc ea 36 3c 55 05 7d 3d
       -0.06294279 0.066468105 0.0111643635 0.061772663
000140 69 c6 8c 3d 3f bd e8 3c d5 b6 3c 3d 01 89 85 bd
       0.06873781 0.028410552 0.0460728 -0.06520272
000150 07 88 21 bd 66 ee 83 3d 6f 8c 36 bd a7 8f ac 3d
       -0.039436366 0.06441955 -0.04456752 0.08425837
000160 c2 54 13 bd 8e 09 8b bd af ae 19 3c fc 11 de bd
       -0.035969503 -0.06788932 0.009380027 -0.10843274
000170 2b 25 7f bd 02 6e 52 bc c7 f0 4b bc 15 8d d4 bd
       -0.062291306 -0.012843611 -0.0124475425 -0.10378472
000180 39 cf 18 3d 3d 0e 90 bd 55 02 c8 bb 17 9c a8 bd
       0.037306998 -0.07033966 -0.0061037936 -0.08232897
000190 18 f1 a6 bd cc 44 ed bc 84 24 9a 3c f6 44 e9 ba
       -0.08151454 -0.028963469 0.01881624 -0.0017797041
0001a0 0d e9 18 3d 57 d2 0f 3d 08 83 c6 3d d1 56 f7 3c
       0.03733163 0.035112705 0.09692961 0.030192764
0001b0 60 f0 85 3c 78 63 9f bd d1 e4 fc 3c 05 c8 61 bd
       0.016349971 -0.07782644 0.030870827 -0.055122394
0001c0 96 df db bb 55 97 93 bd 5b b5 9e bd a0 42 a3 3c
       -0.006710003 -0.07206599 -0.077494346 0.01992923
0001d0 a7 ab f1 bc 8a 58 c0 3d 1d 05 af bd 17 9f 09 3d
       -0.029500796 0.093918875 -0.08545897 0.033598986
0001e0 38 eb 58 3d c8 63 97 3c 5c cb ea bc bc f5 d1 3d
       0.052958697 0.018480197 -0.028661422 0.10251948
0001f0 56 f7 5b 3d 2d 03 54 bb 80 62 1c 3c 76 02 8b bd
       0.053702675 -0.0032350526 0.009544969 -0.06787579
000200 ef da 6a bd 32 bb 84 3d b7 ca 6c 3d 82 2d 61 3d
       -0.057337698 0.06481017 0.05781051 0.05497504
000210 bb eb a4 bd cd 09 c1 bc c3 a9 b0 bc 67 0d 12 3d
       -0.080527745 -0.023564244 -0.021565324 0.035657313
000220 7c b8 d4 bd d6 a8 f0 bc 8e a5 2a bd 89 60 cb 3d
       -0.1038675 -0.029377382 -0.04166179 0.09930522
000230 7c 1c af bd 2f fe 77 bd 9e e0 0a bd 2a cf 8a 3c
       -0.08550355 -0.060545143 -0.033905618 0.016944487
000240 73 d7 24 3d fe 59 12 bd fc f0 8e 3d 9a 55 83 3d
       0.04024453 -0.035730354 0.06979558 0.064128116
000250 aa 9a bd bd d5 40 1d bd 8a c7 21 3c 68 3b 3b bd
       -0.092580155 -0.038391907 0.009874234 -0.04571095
000260 c2 f7 a8 3d 1f 3f 4c 3d 58 0b c7 3d a4 74 28 bc
       0.08250381 0.049864884 0.097189605 -0.010281716
000270 ba 1c b5 bd 28 47 4c 3d 04 b7 08 3d 4a e8 50 3d
       -0.0884337 0.049872547 0.033377662 0.051002778
000280 7c 82 77 bd 92 fa ab 3c 99 79 48 3d 44 76 7b bd
       -0.060427174 0.020993505 0.04894409 -0.061392084
000290 42 d2 7c 3d bc dd 87 3c 61 df cd 3b f1 8b e2 3d
       0.061723955 0.016585223 0.0062827324 0.11061848
0002a0 b8 4a ed bc 8f 2a c1 bb 5b 51 64 3c 20 74 63 3c
       -0.028966293 -0.005894966 0.013935412 0.013882667
0002b0 bf 0a 17 3c 3f d8 59 3d 1e 18 6d bc 73 4e c1 3b
       0.009218871 0.053184744 -0.014471082 0.0058992445
0002c0 87 15 a5 3d a8 53 be bc 3a 92 d8 3d 8a d4 14 bd
       0.08060747 -0.02323325 0.105747655 -0.036335506
0002d0 6e 31 ec bc dc 52 88 bd 42 d8 44 bd e8 30 d5 bd
       -0.028832164 -0.06656429 -0.048057802 -0.10409719
0002e0 a1 14 66 3c 5a ec f2 3c 80 d9 ad 3d db d9 06 bd
       0.014043004 0.029653717 0.084887505 -0.032922607
0002f0 a8 16 66 bd f9 8b 7e bc 85 78 c3 bd cc 8a ca 3b
       -0.05617395 -0.015536302 -0.09544472 0.0061810967
000300 71 12 e5 3d ff ba 7a bb 85 fe 7c 3d 3b 57 6b 3d
       0.11185158 -0.003825843 0.061766166 0.057456236
000310 6e d7 22 bd 89 0c 0f 3e 02 63 94 3c 5d bd 90 bd
       -0.03975623 0.13969626 0.018113617 -0.07067368
000320 83 76 09 3d 26 4b 00 3d e6 a2 ba 3c 27 a1 93 bd
       0.033560287 0.031321667 0.022782754 -0.07208472
000330 55 8e 25 3c e7 fa 5d 3d f0 6c 11 bd 28 9f 30 bb
       0.010104735 0.054194357 -0.03550428 -0.0026950333
000340 d9 02 a6 3c ce aa 19 3d 1e 2c a4 3d ee 30 41 3d
       0.02026503 0.037516408 0.08016227 0.047165804
000350 16 92 05 3d 64 23 dc bc 5b b6 d8 3b 6a ee 73 3d
       0.03261002 -0.026872344 0.0066135353 0.05955354
000360 62 2d fa ba a4 95 9d bc ad e9 de 3a 82 cb 6d bd
       -0.0019087011 -0.019236393 0.0017006897 -0.05805541
000370 af 6b 28 bd 55 0a 02 3d 29 21 ac 3c 20 93 ef bd
       -0.04111832 0.031748135 0.021011906 -0.11697984
000380 dd 75 bd bc 23 ed 02 3d 6b 3e 0f 37 4b 69 13 3d
       -0.02312749 0.031964432 8.537997e-06 0.035989087
000390 bc 8a 57 bd df 86 57 bd f0 74 d2 3d 3e 5e 3a 3d
       -0.05262254 -0.052618857 0.1027621 0.045500033
0003a0 a4 61 cb 3b a8 a8 e7 bb 49 37 93 bd 15 6a 5b bd
       0.006206708 -0.007069666 -0.07188279 -0.053567965
0003b0 93 45 77 3c 0f 73 05 be e6 0d d1 3c bd 13 54 bd
       0.015092271 -0.13032173 0.025519323 -0.051776636
0003c0 88 ee a1 3d 75 e7 1d 3d f2 32 ac bd 4a d4 0d bd
       0.07906824 0.038550813 -0.084081545 -0.034626283
0003d0 b7 25 1f bd 2b 65 d0 3a f0 89 c5 bd e4 93 7e bd
       -0.038854327 0.0015899291 -0.0964545 -0.06215276
0003e0 97 09 83 bd b8 24 94 3c 78 50 db 3d cb 22 9e 3d
       -0.063983135 0.018083915 0.107087076 0.0772148
0003f0 7b b7 9e bc ff 4e 05 3d eb 4e 5b bd c1 2c 03 bd
       -0.0193746 0.03254604 -0.05354206 -0.032025103

pi.mu_net.2.bias f4 [128]
000000 52 c5 2c 3d 70 2c 11 bd c1 4d 09 bd a5 0a 68 3c
       0.042180367 -0.03544277 -0.033521418 0.014162694
000010 5c e8 bb 3c a2 27 f1 bc 05 88 8b 3d 6e a7 78 bd
       0.022937946 -0.029437844 0.06813053 -0.06070655
000020 61 30 09 bd 53 6b 72 3d 34 49 e8 bc 56 37 6c 3c
       -0.033493403 0.059184384 -0.028355218 0.01441749
000030 77 00 4c bd e3 10 71 3c 20 ce b5 bc 1d 83 08 3b
       -0.04980513 0.014713499 -0.022193015 0.0020830103
000040 2d 2e 7c 3c 4b eb 7c 3d b3 6d 89 bd 9e f9 e0 3c
       0.015391869 0.06174783 -0.067103766 0.027462777
000050 ca fa 85 3b b1 26 53 3c 14 88 a2 bd 87 a5 68 bd
       0.0040887343 0.012887643 -0.07936111 -0.056798484
000060 17 73 6a bc e7 78 a2 bd b0 8e 62 bd ce 91 43 bd
       -0.014309666 -0.079332165 -0.05531186 -0.047746472
000070 69 64 d9 bb 2d 32 3e bc 1a 32 57 3d 14 21 ce bc
       -0.0066342843 -0.0116086425 0.052538015 -0.025162257
000080 e7 c2 83 bc ff 5b 19 bc 7a 6b 6c 3d a2 6f b7 3c
       -0.016084148 -0.0093603125 0.057719685 0.022392098
000090 79 3e 4e 3c da 5d 5a 3d e2 c2 96 bc 3a 62 96 bd
       0.012588137 0.05331216 -0.018403474 -0.07342954
0000a0 54 ee 61 3d 55 b1 a2 bc 09 7c 1e 3d 2a 5a 5d 3d
       0.055158928 -0.01985995 0.038692508 0.054041065
0000b0 90 bf 39 3d 97 1e d6 bc 40 0e a6 bd 6f d7 cf bb
       0.045348704 -0.026137633 -0.08108187 -0.0063428204
0000c0 6d 44 94 3d 60 a2 d5 3d b5 2f 76 bc d5 ac 83 bd
       0.07239614 0.10431361 -0.015026023 -0.064294495
0000d0 f9 9d db 3c 7c 0b 8c 3c e4 0f c9 3d 1a bd f2 bc
       0.026808726 0.01709532 0.09817484 -0.029631186
0000e0 0a 16 41 3d 6b eb 9f 3d 0d 7a 4b bd 71 92 47 bd
       0.04714016 0.07808574 -0.049676944 -0.04872364
0000f0 ad 7c 8d 3d 47 35 f1 bc 8f b2 9d bc 2d 94 8f 3d
       0.06908546 -0.02944435 -0.019250182 0.07010684
000100 cc 0f c9 bd ac 5a 2b 3d 39 88 14 3d 9e 85 95 bc
       -0.09817466 0.04183452 0.036262725 -0.01825219
000110 e5 99 4c 3d 97 ed e0 bb ec 35 2e 3d 48 6a 53 bd
       0.049951453 -0.0068642604 0.042531893 -0.05161503
000120 0c c6 a9 3d 46 60 42 bc 6e 1c 7e bc e5 99 33 bd
       0.082897276 -0.011863774 -0.015509708 -0.043847937
000130 8e 9c 96 3d 3c a6 21 bd f8 2c 99 3c 94 24 e9 3c
       0.07354079 -0.039465174 0.0186982 0.028459825
000140 7d 64 5b 3d fb 0e f1 bc 00 64 a7 bb ce 87 63 3d
       0.05356263 -0.029426089 -0.0051083565 0.055549435
000150 9b 22 a0 bd 54 56 1f 3d 2a 93 89 3d 3a 33 ea 3b
       -0.078191005 0.03890069 0.067175224 0.00714722
000160 b0 e9 50 bc bb 21 23 3c c8 24 2b 3d da 23 97 3d
       -0.012751028 0.009956772 0.041783124 0.07379885
000170 72 4e 84 3d cb f2 88 3d 31 eb 3a 3d 99 7e 01 bd
       0.06460275 0.06686934 0.045634452 -0.031614874
000180 26 0b 14 3d 51 1d 46 bd 2b 0f 9e bb 77 47 02 bd
       0.036143444 -0.048367802 -0.0048235855 -0.031806435
000190 c0 58 e0 3c fe f1 aa 3d 94 10 6a 3d d5 59 05 bc
       0.02738607 0.083469376 0.057144716 -0.008139093
0001a0 a4 14 ae bc 67 55 a4 3d a3 da 43 bd 11 bd 62 3d
       -0.021250077 0.08024102 -0.04781593 0.05535609
0001b0 68 24 47 3d 26 ea 94 3d 74 a3 8f 3d d8 77 a4 3c
       0.048618704 0.07271223 0.07013598 0.020076677
0001c0 11 d8 ed bc f2 4f 98 3d 01 ec 22 3d ce 69 b4 3d
       -0.029033693 0.07437123 0.039775852 0.08809243
0001d0 20 e1 fe 3c 48 bd 8d bd d3 e9 b3 3b 35 f6 61 bd
       0.031113207 -0.06920868 0.0054905205 -0.055166442
0001e0 e6 4f b0 3d 0a df 06 3b 3e 18 a5 3d c2 13 50 3c
       0.086089894 0.002057972 0.080612645 0.012700023
0001f0 4a 0c 08 bd 80 14 8b 38 7d 48 df bc 13 eb 6d 3d
       -0.033214845 6.631855e-05 -0.027256245 0.058085512

pi.mu_net.4.weight f4 [6, 128]
000000 5f cf e1 3c 57 f4 31 3d 7a 08 e2 bd 54 54 69 bd
       0.027564703 0.04344591 -0.11036773 -0.056965187
000010 43 ab e5 3d c0 ef f0 bd e9 85 74 3c ab 19 8a 3c
       0.11214306 -0.11764479 0.014924505 0.016857943
000020 1b 60 ec 3d 9b b3 c0 bd 6c fb fb bd 10 b3 fd bb
       0.11541768 -0.09409257 -0.12303814 -0.007742293
000030 3f 00 7b bd de 34 f6 3d 9d bc 02 3e b5 bb b7 3d
       -0.06127953 0.12021802 0.12767263 0.08971349
000040 18 33 da bd 8d 0f 9e bb 7d 18 2e bb de e8 46 bd
       -0.106542766 -0.004823631 -0.002656489 -0.048561923
000050 61 e0 48 bd 92 46 7f bd 76 0d 68 bc e3 eb 04 3c
       -0.04904211 -0.06232316 -0.014163366 0.00811288
000060 23 bf dd 3b b6 0b d0 bd b3 7a 28 3a f8 30 a4 bd
       0.00676717 -0.10158484 0.0006426975 -0.080171525
000070 dc 7f 8c bc e6 a7 45 3d 15 82 47 3c 0a 2e 26 bc
       -0.017150812 0.048255824 0.01217701 -0.0101428125
000080 54 bb de 3c 86 99 80 bd ff b7 c0 3d 6a 7b ea 3a
       0.027188934 -0.06279282 0.094100945 0.0017889563
000090 95 16 da bd 4f 87 de bb 86 1b 88 3d df db 21 bd
       -0.106488384 -0.0067910324 0.06645875 -0.039516326
0000a0 c8 24 85 3a b0 52 2c 3d 61 6d d8 3d 63 05 27 bd
       0.0010158056 0.042071044 0.10567737 -0.04077662
0000b0 d2 55 58 bd fd 1c cb bc b7 91 b8 3d 42 54 10 3c
       -0.05281622 -0.024794096 0.09012168 0.008809151
0000c0 e8 8d 17 3e cc 38 04 3d 39 1e 8a bd 16 a2 b4 bd
       0.14800227 0.03228073 -0.06744046 -0.08819978
0000d0 b8 f5 1b bd 62 d3 61 3d a7 5d d6 3d f2 e2 de bb
       -0.038076133 0.05513323 0.104670815 -0.0068019563
0000e0 38 43 f1 bd 9b d7 42 bd 04 9e 56 3d 22 53 ed 3a
       -0.11780399 -0.0475689 0.05239679 0.001810644
0000f0 02 11 a1 bb 38 41 56 bd a0 39 13 3e 33 60 dc 3b
       -0.0049153576 -0.05230829 0.14377451 0.006725335
000100 7d f4 8c bc 09 67 00 3d cf e3 33 bd 7e fa 7f bd
       -0.017206425 0.031348262 -0.043918427 -0.062494747
000110 90 a7 60 bd 10 22 ce 3d 58 1e 04 3c 59 38 5a bd
       -0.0548473 0.10065091 0.008063875 -0.053276394
000120 b5 70 0b bb 23 51 81 3d b3 65 f0 3c ae d1 e2 3c
       -0.0021276895 0.06314304 0.029345369 0.027687874
000130 02 a0 36 3c 91 85 10 bd 59 fa 5d bd 61 1f 7d 3a
       0.011146547 -0.03528363 -0.05419383 0.000965586
000140 a7 df 5b bd 13 1a 04 be 7e 19 d9 bd 2c 7b 09 3e
       -0.05368009 -0.12900572 -0.106005654 0.13425893
000150 05 89 12 3d 62 61 08 3e 3e eb 52 bc 6f eb 0e be
       0.035775203 0.13318399 -0.012873469 -0.13956998
000160 4c 67 8d 3c 59 52 00 3e 38 01 b2 3c 4e c6 fd 3d
       0.01726117 0.12531413 0.021729097 0.12391339
000170 3c 9a c7 3d ea e2 98 bd 09 cc 48 3d 1b 32 9b 3d
       0.09746215 -0.074651554 0.049022708 0.07577916
000180 13 64 b9 3d d3 93 02 bc ed c8 80 bd e2 48 4e 3d
       0.09052291 -0.007969814 -0.062883236 0.050362475
000190 89 91 04 bd e4 2c 8a 3d 37 79 a4 3b a5 57 5f 3c
       -0.032365356 0.067468435 0.0050193327 0.013631736
0001a0 87 e4 a6 bd 21 c0 7d 3d d3 f6 47 3d f0 24 94 bd
       -0.08149057 0.061950807 0.048819374 -0.07233608
0001b0 8c e2 4f 3a f5 cf 63 bd 96 5a e4 bd 2f 12 b1 bd
       0.00079301815 -0.055618245 -0.111500904 -0.08646046
0001c0 95 36 fd 3d 2d 3e 9d bd 65 bf ff bd df 3c 07 3d
       0.12363926 -0.07677875 -0.124876775 0.033017036
0001d0 83 15 45 bd b4 78 1b bd d8 ed fc 39 fe a6 da 3d
       -0.04811622 -0.03795691 0.00048242393 0.106763825
0001e0 94 75 90 3d 9e 05 b0 bc b0 65 4f bc e7 6f c4 3d
       0.07053676 -0.021487053 -0.0126585215 0.09591656
0001f0 97 45 6c 3c 20 9e 00 be 65 ae 90 3d 62 f9 3b bc
       0.014420888 -0.1256032 0.07064513 -0.011473032
000200 9e ce d7 bd 1d 28 25 bd fd d7 03 be f0 92 53 3d
       -0.10537456 -0.040321458 -0.12875362 0.051653802
000210 74 9e b3 bd a0 eb 38 bd 86 27 13 bc 85 20 01 3c
       -0.08770457 -0.045146585 -0.008981591 0.007881288
000220 a7 9e 9e 3c cd 8e 8b bd 7d 3b 88 3c 97 9f 99 3d
       0.01936276 -0.068143465 0.016629929 0.075011425
000230 c7 d3 03 bd 48 91 83 3d 4a 89 5d 3c 4e 97 91 3d
       -0.03218439 0.064241946 0.013521502 0.07108937
000240 a1 ec e2 3d 03 1e 27 bd 91 a1 d8 3d 00 1b 6f bd
       0.1108029 -0.040800106 0.10577691 -0.05837536
000250 20 b9 49 3d f1 02 91 3d 01 ff 31 3d 9f fc ab 3d
       0.049248815 0.07080639 0.04345608 0.08397793
000260 0f 63 ed 3c 81 b6 2a bd 6d 8c b5 3d 70 ec 30 bc
       0.028977899 -0.041677956 0.08864675 -0.010798559
000270 a9 e9 87 bd 1e 98 0d 3c df cf 53 3d b8 cd 16 3d
       -0.06636364 0.008642225 0.051711913 0.036817282
000280 7a d1 1d 3d 14 52 3d 3d a4 e1 86 bc 83 aa eb bd
       0.03852985 0.046220854 -0.016465016 -0.11507132
000290 26 f7 8c bd ea 58 80 bd dd 44 a0 bd ca ec 59 3d
       -0.06883077 -0.06266959 -0.07825635 0.053204335
0002a0 cb 50 43 3d 40 7b 76 bd 5c 1e 67 bd 6c b9 c1 bb
       0.047684472 -0.060176134 -0.056425437 -0.0059119966
0002b0 b2 08 70 3d bd 1c b5 bd 77 ff ea bb 53 ae 81 bd
       0.058602042 -0.08843372 -0.007171567 -0.06332078
0002c0 c2 b5 2f bc b8 10 5c 3d 83 fd bb bd d9 21 11 3c
       -0.010724487 0.05372688 -0.09179213 0.008858168
0002d0 fc ae 33 3d a2 07 3c 3c d5 bc ec bd 0e 9b a4 3d
       0.04386805 0.011476429 -0.11559454 0.08037387
0002e0 4b af f6 bc 62 28 83 bc 7c d1 05 3e 9e 6e 38 3d
       -0.030112883 -0.016010467 0.13068193 0.045027368
0002f0 b2 29 e5 bc df 27 b8 bd 39 93 c3 bd 75 18 9a bd
       -0.027973983 -0.0899198 -0.09549565 -0.07524196
000300 b4 21 d2 3d 31 6a a3 3d ec e8 d8 bc 7e d5 ed bd
       0.102603346 0.07979239 -0.026478253 -0.11612986
000310 09 30 4a 3d b1 c4 cb bc d2 7b 9f 3d 91 42 79 bd
       0.049362216 -0.024874063 0.07787289 -0.0608545
000320 ed 7e f7 bc 61 da a5 3d 86 e5 b6 3c ba 46 4e bd
       -0.03021189 0.08098293 0.022326242 -0.05036042
000330 90 d5 b1 bd 28 dd cc bd ec 91 f9 3d 7a 38 0a 3d
       -0.08683312 -0.1000312 0.121860355 0.033745266
000340 1b 6e fc bd 32 7e 8b 3c b3 54 4d bd 48 c7 e2 3d
       -0.123256885 0.017027948 -0.050129604 0.11073166
000350 57 19 17 3d 23 0e db 3d a9 ff c2 3d 44 b1 c6 bd
       0.0368894 0.10696056 0.095214196 -0.097017795
000360 35 f6 bc 3c 54 03 18 bb 6e 1b 96 3c 41 c4 99 bd
       0.02306662 -0.0023195343 0.018323626 -0.075081356
000370 24 81 fa 3d 00 be 07 3d 47 95 8c bd 8e 11 00 bd
       0.12231663 0.033140182 -0.0686441 -0.03126674
000380 fa 24 d2 bd b4 bf 2f bd ff 44 ea bc 04 b3 09 bd
       -0.10260959 -0.04290743 -0.028597353 -0.03361799
000390 95 cf 71 3c d6 01 83 3b 75 7c 45 bd 27 20 42 3d
       0.014758964 0.0039980216 -0.048214395 0.047393944
0003a0 d4 0b 20 bc 40 fc 9c 3d d6 10 0a 3d 3f 57 4e bd
       -0.009768445 0.076653 0.033707462 -0.050376173
0003b0 b8 d5 68 3d f6 34 96 bd bf 60 ca bd 09 15 4c bd
       0.056844443 -0.0733432 -0.09881734 -0.04982475
0003c0 86 0f 52 bd 33 69 a5 bd db f0 38 3d 22 c4 59 bc
       -0.051284336 -0.08076706 0.045151573 -0.013291391
0003d0 a1 f6 9c 3d 6e b9 cf bd 71 c7 93 3d 58 bc 84 bc
       0.07664228 -0.1014279 0.07215775 -0.01620309
0003e0 20 fd 79 bc a3 a1 e0 bb d0 82 c1 bc 6a 5f 56 3d
       -0.015258104 -0.006855206 -0.023621947 0.052337088
0003f0 2e 10 a9 3d 37 d5 c6 bd 37 21 83 bd 7d 14 86 3d
       0.08255039 -0.09708636 -0.064028196 0.065468766

pi.mu_net.4.bias f4 [6]
000000 0e aa 8e bb df 30 92 bd c9 7a 50 bd ec 4b 07 3d
       -0.004353768 -0.07138228 -0.050898347 0.03303139
000010 9b a7 8d bd 25 a6 ca bc
       -0.06916734 -0.024737427

vf.v_net.0.weight f4 [128, 24]
000000 d9 bf dc 3d 4c 5d 8f 3e e9 dd d8 3d 8f e0 35 3e
       0.107787795 0.28000867 0.10589201 0.17761444
000010 04 03 2d be 47 3f e6 bd 24 85 98 3d 38 05 74 3d
       -0.16895682 -0.11242538 0.074472696 0.05957529
000020 39 d0 52 be 2a b2 9b 3e bc b8 66 be bd 48 80 3e
       -0.20587243 0.30409366 -0.22531408 0.25055495
000030 98 31 39 3c 40 56 9c 3e 34 5b a4 be 1d 38 fa 3c
       0.011303328 0.30534554 -0.32100832 0.030544335
000040 df 63 eb be e9 56 bc 3d da 13 34 bd a1 5d e7 bc
       -0.45974633 0.09196264 -0.043964244 -0.028242888
000050 45 50 1a 3c 30 8f df 3c 82 2f 34 3d ba bc 35 bc
       0.009418552 0.027289957 0.04399062 -0.011092359
000060 6e be 59 bd 89 47 87 be da a6 c2 be 27 4d 82 bd
       -0.053160124 -0.26421764 -0.38017923 -0.06362372
000070 54 24 bd 3d 0c d3 0e be 0e ff 9b 3e 81 05 86 3b
       0.09235445 -0.13947695 0.3046803 0.0040900116
000080 98 d6 ac be 64 f3 83 3c fc 30 5a 3e ac f9 fe bd
       -0.33757472 0.016107269 0.21307749 -0.12449965
000090 89 27 0c bd 07 5c 71 3d 16 90 53 be 79 27 5e bd
       -0.03421739 0.058925655 -0.20660433 -0.054236863
0000a0 aa 9a e6 be 44 1c 44 be 18 fe 63 3d 89 0d 1c 3d
       -0.45039874 -0.19151407 0.055662245 0.038098846
0000b0 90 58 fc bb e4 04 3f 3d a0 29 da 3c 16 32 b4 3b
       -0.007700987 0.046635523 0.026631176 0.005499135
0000c0 71 41 ad 3e a4 22 10 3e 08 3a b4 3e cc 50 b9 be
       0.3383899 0.14075714 0.35200524 -0.36194456
0000d0 77 7e c7 3d 94 62 8c 3d d9 c9 cd 3d 45 e4 e4 bd
       0.09740918 0.0685474 0.10048265 -0.111763515
0000e0 2d 75 2e 3e d5 47 26 be 6c 93 c7 bd 15 6b 24 be
       0.17036887 -0.16238339 -0.09744915 -0.16056474
0000f0 9d 9a 05 3b d2 61 1f be 32 a8 7f 3b e5 8d c6 3e
       0.0020386346 -0.15564659 0.0039010164 0.38780132
000100 37 4b e7 3e 8f 5b b9 3d 8a ae 14 bb c0 b8 97 3b
       0.45174572 0.090506665 -0.0022687041 0.004630178
000110 b0 41 21 3c ac a8 27 bd 87 03 0b 3c b4 a0 e7 bb
       0.009842321 -0.040932342 0.008484728 -0.007068718
000120 5b 5f 16 3e fd 30 4a 3e f9 86 fb 3d dc 5e 02 be
       0.14684813 0.1974525 0.12281603 -0.12731498
000130 7d 6e 84 3e 3c 28 22 be c7 61 a1 bd 72 99 ea 3d
       0.25865546 -0.1583566 -0.07879978 0.114550486
000140 a3 cf 53 3d 54 1d 0a 3e 5f f3 7c 3e bd 8b 0e 3d
       0.05171169 0.1348775 0.24702214 0.034801234
000150 29 16 a9 39 12 a0 3e 3d 0f 2a 09 3e c1 d5 b4 3d
       0.00032250702 0.046539374 0.1339495 0.08829833
000160 c3 e0 9e 3e 84 80 8f bd 70 01 1b bd 4d 30 14 3e
       0.31030855 -0.07006934 -0.037843168 0.1447155
000170 9b 9f fb 3c 62 28 61 3d ae 44 77 be 83 95 97 3c
       0.030715754 0.054970153 -0.24147293 0.01850391
000180 4a e8 52 3e 74 63 09 be e9 d3 f3 3d 86 ef 34 3e
       0.20596424 -0.13416845 0.11905653 0.17669496
000190 68 63 05 3e 17 3f 59 3e e7 cf 9e bd 82 5d 25 3e
       0.13026202 0.21215473 -0.07754498 0.16148952
0001a0 c5 77 59 bd 21 c1 84 bc 6d c1 79 3d d0 c2 a6 bc
       -0.053092737 -0.016205372 0.06097548 -0.020356566
0001b0 c9 ae 06 3d 7b 18 54 bd 26 87 e7 3e b9 d6 a4 3d
       0.032881532 -0.05178116 0.45220298 0.080487676
0001c0 ac a3 1f 3e f0 a6 3a bd e3 1b 23 3e 55 05 75 3c
       0.1558978 -0.04556936 0.15928607 0.014954885
0001d0 7f ae 2f bd af 2b 5c 3e a8 19 c9 3d 6d 81 93 3d
       -0.04289102 0.21501039 0.09819347 0.072024204
0001e0 f2 be 90 be 27 3e e5 3c 37 8d bb 3d e7 10 04 3e
       -0.2827068 0.027983738 0.09157794 0.12897073
0001f0 39 a3 8b 3d 87 6c 80 3d 3b 9e ec 3c 5e 62 24 bd
       0.068182416 0.062707 0.028884044 -0.040132873
000200 fd de 85 be 8e 85 38 bc 45 70 1d be a4 ee 09 be
       -0.2614669 -0.011262311 -0.15374859 -0.1346994
000210 c3 f3 d6 bd 5f f3 2d be c7 00 f2 be 2b fd 81 bc
       -0.104957126 -0.1698737 -0.47266218 -0.01586779
000220 e6 0c bf be a1 e5 85 bb 6d a0 fd bd 11 b1 69 bd
       -0.37314528 -0.004086212 -0.123841144 -0.05705363
000230 f4 32 93 bc eb bd 52 be 51 59 fb 3d 4c cd 57 bd
       -0.017968632 -0.2058026 0.12272895 -0.05268602
000240 fd a6 f2 be 67 73 c1 bd cf aa af be 4b c0 ae 3e
       -0.47393027 -0.094458394 -0.34310004 0.34131083
000250 c3 ed 58 be 26 2b 0f be f2 5c 67 bd 4f 90 e1 bd
       -0.21184449 -0.13981304 -0.056485124 -0.11013853
000260 4f d7 6d be 26 04 73 3e 51 0f 38 be 52 3c d7 3d
       -0.23226665 0.23732051 -0.17974593 0.10509552
000270 08 27 2b bc f1 18 20 3c d5 ea 62 3b 8e b4 1c bf
       -0.0104463175 0.0097715715 0.0034624834 -0.61213005
000280 3e 32 98 3d f4 9a 48 be 5d bb 8e bd 61 8b 81 3c
       0.07431458 -0.1959036 -0.069693305 0.015813531
000290 01 1c 8e 3b 45 d7 0e 3e 74 25 a3 3d dd c0 db 3b
       0.0043368344 0.13949306 0.07966128 0.0067063407
0002a0 83 39 30 3e fb 2f 99 3c 4a be 3c bd 87 d6 88 bb
       0.17209439 0.018699637 -0.04607991 -0.0041759643
0002b0 82 8b 88 3e 3c de 26 be c6 ab 5b bd 60 54 50 3e
       0.26668936 -0.16295713 -0.053630613 0.20344687
0002c0 64 2c 78 3e e5 91 32 be 19 52 10 be 99 62 35 bc
       0.24235684 -0.17438467 -0.14093818 -0.011070871
0002d0 7f e1 26 be 81 34 39 3e 22 d9 07 3e 6c 90 09 3e
       -0.16296957 0.18086435 0.13266423 0.13433999
0002e0 e1 b8 bd bd 7a 85 6c 3d ff 32 ce bd e1 93 26 3e
       -0.092637785 0.05774448 -0.100683205 0.16267349
0002f0 74 d5 35 be 16 5a 50 bc d5 75 65 be d4 9a 61 3c
       -0.17757207 -0.012716791 -0.2240823 0.013769824
000300 52 98 80 be 96 8f 11 3e a6 d3 17 bc 57 38 90 3e
       -0.2511621 0.1421493 -0.0092667695 0.28167984
000310 3b a4 3f be 8b 19 54 be 70 94 46 be 96 f6 9a bb
       -0.18714993 -0.20712869 -0.19392562 -0.0047291024
000320 96 6d 7d bd 50 80 be 3e 9d 6a 8d be d8 d9 c4 3c
       -0.061872087 0.3720727 -0.27620402 0.024029657
000330 44 99 39 be 0e 83 00 3e b7 4d 8e be d0 57 81 be
       -0.18124872 0.12549993 -0.27793667 -0.25262308
000340 7f 13 31 3d 18 e6 d6 3d a8 ad 0a bd 23 f5 74 b9
       0.043231484 0.10493106 -0.033857018 -0.00023360974
000350 c0 69 73 3b 3e 75 09 bc 43 87 df 3c be 95 a1 b9
       0.003714189 -0.008389769 0.027286178 -0.0003081988
000360 cd 1e 74 3d 71 9c 07 be 25 3c cf 3d e5 c2 8e be
       0.059599686 -0.13243271 0.101188935 -0.27883068
000370 83 b7 b1 3d 0b 8c 89 3e 2d 0e 8c bd 83 8d cb 3d
       0.0867758 0.26864657 -0.06838641 0.099391006
000380 8d de 0a 3e a4 38 51 be ce 04 66 3e a3 70 38 be
       0.13561459 -0.20431763 0.2246277 -0.18011717
000390 44 b6 85 be 63 39 00 be d1 a7 a9 be 73 aa 59 3e
       -0.2611562 -0.12521891 -0.33135846 0.21256427
0003a0 1d ea 4c 3d 67 e6 77 be 88 04 68 be df b6 16 be
       0.050027955 -0.24208985 -0.22657979 -0.14718197
0003b0 a3 84 ec bb 96 86 06 be 55 99 61 be a6 84 98 bd
       -0.00721796 -0.13137278 -0.22031148 -0.07447176
0003c0 d5 e1 cb 3e b9 ed 1f 3e c5 7b 5c 3d fa 6f 3b be
       0.39820734 0.15618028 0.053828973 -0.18304434
0003d0 4f eb c7 39 f8 65 bb 3d 88 29 63 3d 40 54 03 bd
       0.00038131556 0.09150308 0.05545953 -0.03206277
0003e0 59 28 c5 3d cb f1 0e 3d a3 97 50 be 79 68 c1 bd
       0.09626836 0.03489856 -0.20370345 -0.09443755
0003f0 65 ca 25 be af 1b a8 be 3f 5c 05 3e 64 be 73 3e
       -0.16190489 -0.3283362 0.1302347 0.23803097

vf.v_net.0.bias f4 [128]
000000 1a 82 7a be cd 68 3d 3e fe cd 1b bf 4d f8 88 be
       -0.24463692 0.1849701 -0.60861194 -0.26751938
000010 c1 e1 83 3e c1 8d bf be 0d 32 ca 3e 34 04 95 3e
       0.25758174 -0.37412837 0.3949131 0.2910477
000020 32 81 e2 bd b4 05 ae be ff cd 99 3d f9 c5 c9 bc
       -0.11059798 -0.33988726 0.07509994 -0.024630534
000030 a3 20 f3 3d 8a 98 80 3e 99 a9 25 3e ad eb 81 3e
       0.11871459 0.25116378 0.16177978 0.2537512
000040 fe 68 74 be 76 c7 70 be 02 cf 9d 3e 73 1a 2a be
       -0.23868176 -0.23513588 0.30821997 -0.16611652
000050 69 58 d5 be 82 8e 32 3c 84 b3 0c 3d 43 54 ed 3e
       -0.41669014 0.010898234 0.034350887 0.4635335
000060 02 80 1b 3f 71 df 5e be 97 1b 8a 3e 08 db 0a 3e
       0.607422 -0.21764924 0.26974174 0.13560116
000070 73 b0 07 bf 99 23 8e be 25 bc c4 3e 54 59 24 be
       -0.53003615 -0.27761534 0.38424793 -0.16049701
000080 ff bd 65 be 5e b4 f5 3e 3d 48 8e 3d 28 ad fa be
       -0.22435759 0.47989172 0.06947372 -0.48960233
000090 58 a1 57 bd ac 14 27 3e 05 cf f8 be 6f 2a e5 3e
       -0.052644104 0.1631648 -0.48595443 0.44758937
0000a0 a3 81 ed be c2 88 dd bc cf 8d b5 3e ff dc aa 3e
       -0.46387967 -0.02704275 0.35459754 0.33371732
0000b0 c8 ad ea bd 36 d9 2b be d3 97 77 be 72 4c c3 be
       -0.114589274 -0.16782078 -0.2417901 -0.3814426
0000c0 3c 9a 77 3e fe ae e1 be 9b 86 b8 bd c6 30 c9 3e
       0.2417993 -0.4407882 -0.09010049 0.39295024
0000d0 be d0 e5 bc 8d 35 90 3e d7 fc 89 3d 1d fc 44 be
       -0.028053638 0.28165856 0.067376785 -0.19236799
0000e0 3d a0 a3 be fd 96 91 3e 58 5e c7 3e 14 c7 da 3e
       -0.3195819 0.28435507 0.38939166 0.4273001
0000f0 62 53 78 be a8 1c a7 bc 11 be 33 be 20 15 37 be
       -0.24250558 -0.020399407 -0.17552973 -0.17879152
000100 df 80 d8 bc 34 38 b7 bc 19 f5 86 bd 98 cb a0 be
       -0.026428638 -0.022365667 -0.065897174 -0.3140533
000110 cc ff 8e 3e 0a ca a0 3e 01 36 19 be 9f ba 49 be
       0.27929533 0.31404144 -0.14962007 -0.19700097
000120 1b f9 7b 3d af 4e c0 3e 0d fa b5 3e 5c b1 b0 3e
       0.061516862 0.3756003 0.35542336 0.34510314
000130 78 d7 7c 3e 6d fc f1 be f5 f9 2c bd 5a fa 82 3e
       0.2469157 -0.47262898 -0.042230565 0.25581628
000140 eb 7a 72 3e 3f 69 be be 94 18 34 ba 02 87 a2 be
       0.23679702 -0.3718967 -0.00068701175 -0.31743628
000150 01 2b 56 3e 06 b4 55 be 4e f4 b4 be 48 a5 b0 3d
       0.20914842 -0.20869455 -0.3534264 0.08625275
000160 b0 3e 38 be 2b f3 b6 be 8d 53 fc bd 6f 11 cf 3e
       -0.17992663 -0.35732397 -0.123206235 0.40442988
000170 d9 ea 3f be c2 71 a7 be 82 dd 8e 3e e9 aa 92 3e
       -0.18741931 -0.32703978 0.27903372 0.2864602
000180 55 d1 b8 3e cb cb d3 3c ea f1 8b be c5 a7 ac be
       0.36097208 0.025854012 -0.27333003 -0.33721748
000190 96 52 30 3e 65 df 29 3e 9e d0 10 3e 35 07 26 3d
       0.17219004 0.16589125 0.14142081 0.040534217
0001a0 78 6a 8c be 9a a9 61 3d df 24 12 be 8f 4e a0 be
       -0.2742498 0.055093385 -0.14271878 -0.31309935
0001b0 14 1f 90 be 49 18 7e 3e ed 0b fc bd 7c bd a7 be
       -0.2814871 0.24813952 -0.12306962 -0.32761753
0001c0 a4 43 0e 3e c4 16 2e 3e f5 00 c0 bd 5f 0d cb be
       0.1389299 0.17000872 -0.093751825 -0.3965864
0001d0 0d a5 db 3d e6 74 a5 3e d1 b2 af 3e 3b eb 45 3e
       0.1072484 0.3231575 0.34316114 0.19328015
0001e0 55 c7 7b be 8e fb c9 be 82 5d ae bd ee 56 6d 3d
       -0.24587758 -0.39449733 -0.08513929 0.05794423
0001f0 2a 65 15 3e 2f 6e b0 be 27 26 42 3e 94 01 87 3e
       0.14589372 -0.34459063 0.18959866 0.26368392

vf.v_net.2.weight f4 [128, 128]
000000 d0 67 e1 bd b7 f6 f6 bd dc 24 ff bd 36 27 95 bc
       -0.11006129 -0.12058776 -0.12458202 -0.018207174
000010 7a 28 35 3e b2 78 bc bc ce 8d d8 3d bc 7f 1a 3e
       0.17691222 -0.02300677 0.10573922 0.1508779
000020 d3 8b 33 be 5e d8 b7 bc 48 c6 33 3d c9 f8 30 bd
       -0.17533807 -0.02244204 0.043890268 -0.04320601
000030 77 77 95 bc ee b6 ba bd 3d 23 79 3b 90 cc ac 3d
       -0.018245442 -0.09116922 0.0038015388 0.08437455
000040 2a 9b 03 3e fe 80 32 bd 1d 02 96 3d 92 1f 2d 3d
       0.12852159 -0.043580048 0.07324622 0.042266436
000050 16 78 14 be ce ea ec 3d 50 fc d5 bd 59 e6 2b 3e
       -0.14498934 0.11568223 -0.104485154 0.1678709
000060 02 44 42 3c cf e8 14 be a2 31 d5 bd 58 37 26 3e
       0.011857035 -0.14541934 -0.10409857 0.1623205
000070 f4 d1 90 bc 4c e9 34 be b1 e4 58 bd 05 b6 c3 3c
       -0.017678238 -0.1766712 -0.052952472 0.023890505
000080 15 cd 3d bc d1 f2 9d bc fa be 99 3d 0b f9 1a be
       -0.01158454 -0.019280823 0.07507129 -0.15134065
000090 09 c0 8b 3d 21 bc f5 bd 9c 4b 35 be df de 40 3e
       0.06823737 -0.11998773 -0.17704624 0.18835019
0000a0 9b 9b 29 be 13 b3 d6 bd ad a7 5e 3e eb dd 42 3e
       -0.16563265 -0.104833744 0.2174365 0.19029967
0000b0 63 73 f2 bd cf dd 1b bd fd 04 12 be da 51 b4 bd
       -0.118384145 -0.03805333 -0.14259715 -0.088046744
0000c0 09 3f 0e 3d ef bf 1e 3e 6a 84 90 bc c5 c5 05 3e
       0.034728084 0.15502904 -0.017641265 0.13063724
0000d0 72 e1 6d bd ef 03 7b 3d cb 22 98 bd 58 5d 3f 3d
       -0.05807633 0.06128305 -0.07428511 0.04671988
0000e0 5c f8 45 bd cb 88 95 3c 27 92 ad bd c9 5a 92 bd
       -0.048332557 0.018253705 -0.08475142 -0.07146222
0000f0 4d c1 13 3e 03 47 be bd 65 27 b1 bc fa c5 2e be
       0.14429207 -0.09290888 -0.02162523 -0.1706771
000100 b1 8a a2 3d df 5c 31 3e 27 06 ae 3d 44 64 b6 bd
       0.079366095 0.17320584 0.08497267 -0.08905843
000110 8f f6 b7 3d c6 d2 c6 3d 44 70 cd bd 20 ae 08 bd
       0.08982574 0.097081706 -0.100311786 -0.033369184
000120 dd 3d 8e 3d 91 87 10 3e 90 d6 1f 3e 04 7c 12 3e
       0.06945393 0.14114214 0.15609193 0.1430512
000130 2b fb 8f bd 49 3e 88 be dc d5 ff bd a0 ff 18 3e
       -0.07030328 -0.2661002 -0.12491962 0.14941263
000140 0b 93 14 bd 4f 32 09 bd c6 1e 74 3e 72 a6 82 3d
       -0.036273044 -0.033495244 0.23839864 0.06379403
000150 99 21 44 3e e6 eb 42 be c3 c7 d6 bd aa ef 09 be
       0.19153441 -0.190353 -0.1048732 -0.13470331
000160 dc 90 e6 3d 17 0e 39 be 3c 01 3b 3e d2 79 e6 3d
       0.112580985 -0.18071781 0.1826219 0.11253704
000170 27 a1 2c be d5 7e c8 bd 80 e6 86 3d 37 17 c7 bd
       -0.1685835 -0.09789816 0.06586933 -0.09721225
000180 d5 04 64 3d a1 c3 f7 bd 6b 0b 10 3e 59 52 ef bd
       0.05566867 -0.1209786 0.14066856 -0.116856284
000190 c6 5d 2e be d2 91 3c bd 17 33 6b bd 5c db 93 3c
       -0.17027959 -0.046037503 -0.05742177 0.018048935
0001a0 4a cf 8e 3d 72 a7 da 3d 5b 36 f4 bc ee c0 b2 ba
       0.06973131 0.10676469 -0.029811075 -0.001363782
0001b0 b2 3c 9c 3c 7e cc ef bc c8 e3 fb bc 2b 47 25 3e
       0.01907191 -0.029272314 -0.030748263 0.1614043
0001c0 39 0a 21 3e 73 16 2d 3e 62 ee 0c be 92 bd c1 bd
       0.15726556 0.16903095 -0.13762811 -0.09459986
0001d0 29 b0 19 3e ee 9b 0f be 9d 10 3a 3e 3a d9 3e 3e
       0.15008606 -0.14024326 0.181704 0.18637553
0001e0 1d b1 95 3d 3e 6c 33 be 44 55 c2 bd 04 e9 3c 3e
       0.07309172 -0.1752176 -0.094889194 0.18448263
0001f0 be 53 2b 3e 80 2f 74 be f0 ce 6d bb 09 02 1a be
       0.16731164 -0.23846245 -0.0036286674 -0.15039839
000200 f1 48 f7 bd 08 48 0f be d6 a7 0c 3e df 82 6d be
       -0.12074459 -0.13992321 0.137359 -0.23194455
000210 c7 a7 bc 3c ba 0e 91 3d a0 47 8b 3d cb d2 de bd
       0.023029221 0.07082887 0.06800771 -0.10880049
000220 f4 00 2a be 97 5a 21 bd ae 88 eb bc 75 e7 4f be
       -0.16601926 -0.039393034 -0.028751697 -0.20303138
000230 67 12 29 3e 70 ac 4b 3e 2d 1d a2 bc 09 4d ba bc
       0.16510926 0.19889998 -0.019789303 -0.022741811
000240 b6 1d 16 3e f4 82 8b 3d 47 85 09 3e 1a 1a 42 bd
       0.14659771 0.06812087 0.13429748 -0.047388174
000250 0d ac 9f 3d cb bc 28 3e 74 bb d3 bd bb d0 80 3d
       0.07796488 0.16478269 -0.10338488 0.06289812
000260 35 f9 f9 3b b3 43 37 be 2b 81 6f 3d 7a d5 4c 3e
       0.0076285847 -0.17896919 0.058472794 0.2000331
000270 ae b1 41 3e ce cf 69 be 26 b5 10 3e 0c 70 2c be
       0.18915436 -0.22833177 0.14131603 -0.16839617
000280 bf 77 ba bd 62 09 0b bd cd e9 18 bd c8 69 aa 3c
       -0.09104871 -0.033944495 -0.037332345 0.020802394
000290 ad 11 54 bd 44 e3 ac 3d 4c 7a 89 bd 86 53 4b 3e
       -0.05177467 0.08441785 -0.067127794 0.1985608
0002a0 ad ca 1a be 04 d3 32 3d 2a 1d cd 3d db 70 7e bd
       -0.15116377 0.04365827 0.10015328 -0.062119346
0002b0 1c e7 fa bd 29 ac ab bd ab 46 e3 bd 2c 02 5b bd
       -0.12251112 -0.08382446 -0.11097463 -0.053468868
0002c0 8c ea 86 3d a4 90 62 be 04 d1 6a 3d a1 14 90 3e
       0.06587705 -0.22125489 0.05732824 0.2814074
0002d0 9f c9 d2 bc cc fe 20 be f9 50 76 3e 26 b4 92 be
       -0.025730906 -0.15722197 0.24054326 -0.28653067
0002e0 a0 d9 28 3e f0 71 06 3e a4 03 8c bd 19 cf 46 3c
       0.16489267 0.13129401 -0.06836632 0.012134337
0002f0 05 56 3c be 05 d1 36 3d 4d 1b 12 be d3 48 41 3c
       -0.18392189 0.04463293 -0.14268227 0.011797148
000300 ee 59 c9 3c 26 f5 3c 3e fc 08 39 3d 66 ec 5b bc
       0.024579015 0.18452892 0.045174584 -0.013423061
000310 9b 55 a1 3e dd a0 76 3d c4 77 8e bd 93 43 38 3e
       0.31510624 0.060212005 -0.06956437 0.17994528
000320 2b 36 1c 3c 7f 7b 10 3e d1 9b 66 bd ac 9c ec bd
       0.009534399 0.1410961 -0.05630094 -0.1155332
000330 a3 f6 62 3e e1 9d 39 be 8b ef 1a be c5 24 f9 bc
       0.22164397 -0.18126632 -0.15130441 -0.03041304
000340 95 1f 1d be 73 bf 9b bd 87 47 3f bd a1 f1 52 be
       -0.15344079 -0.076048754 -0.046699073 -0.20599987
000350 4a eb 36 3e ab 72 65 be 7d 7c 6f 3c 67 63 2e be
       0.17863193 -0.22407024 0.014617083 -0.17030106
000360 e8 0e 62 bd 76 3f 4a be 03 a6 6f 3d e2 34 14 3e
       -0.055189997 -0.19750771 0.05850793 0.14473298
000370 74 d1 42 be 6c 40 1b bd e6 8b 5f bc 14 97 07 be
       -0.19025213 -0.037903234 -0.013644194 -0.13241225
000380 12 c5 d6 bd b4 75 02 be 04 2f 7e 3a 1e 7c 40 be
       -0.10486807 -0.12740213 0.0009696337 -0.18797347
000390 5b 5e 42 be 21 3c c1 bd a9 02 a8 bd 55 b8 6f 3e
       -0.18981306 -0.09435297 -0.082036324 0.23410161
0003a0 d3 64 ad bc 21 e2 2a be d2 52 11 be d7 ce b0 bd
       -0.02116624 -0.16687824 -0.1419175 -0.086332016
0003b0 0b 11 25 bc 9e 60 83 3e 67 ad a9 bb 3c 80 d7 bd
       -0.010074864 0.2565965 -0.005178142 -0.10522506
0003c0 13 36 99 3d f1 1d 85 bc 85 dd f5 bd 35 53 53 3e
       0.07481017 -0.016249629 -0.12005142 0.2063721
0003d0 68 65 34 3d 5e 43 03 3e 2a cd 88 3d 92 9d 3a 3e
       0.04404202 0.12818667 0.06679757 0.18224171
0003e0 5b 1c 4c 3c 5d 8c 24 bd 6d 89 29 be d6 b4 85 3e
       0.012457932 -0.040172923 -0.1655633 0.2611453
0003f0 74 09 95 3d 60 dd a7 bd 82 7a 67 3e e8 c7 9f bd
       0.07277194 -0.08196521 0.22605327 -0.07801801

vf.v_net.2.bias f4 [128]
000000 64 01 27 3e 4c b6 03 3e a1 5d e7 bd d3 e2 15 3e
       0.16309124 0.1286251 -0.11297155 0.14637308
000010 3f 0b 06 be d2 f5 0a be da be ad bc 80 0a e4 bd
       -0.13090228 -0.13570336 -0.02120917 -0.11134815
000020 62 8d 86 3d 78 9b 72 3e 29 48 0b be dd a7 5a 3e
       0.065699354 0.23692119 -0.13601746 0.21353097
000030 fd 18 6f bd 78 ad b3 bd b1 59 37 3e 2b fc 29 3e
       -0.05837344 -0.08773321 0.17905308 0.166001
000040 7e 82 17 3e ab 8a 2c 3e 95 d1 33 3e f4 5f 3a 3e
       0.14795873 0.16849773 0.17560418 0.18200666
000050 a5 73 72 3e f0 b9 63 3e 47 37 c1 bd d7 cd 02 be
       0.23676927 0.22238898 -0.094343714 -0.12773834
000060 04 bf 60 3d 65 df 9d 3d be 15 70 3d 36 aa f9 3d
       0.054869667 0.07708625 0.058614485 0.12190668
000070 76 dd bb bd 4f 89 af 3d 37 1e 35 3e 18 12 7b 3e
       -0.091731 0.085711114 0.17687307 0.24518621
000080 76 9c 72 3e 3d 4c 07 be 68 63 67 3d 69 58 9f 3d
       0.23692498 -0.13212676 0.056491286 0.07780535
000090 49 76 53 3e 9c 8b 0f 3e 96 3f f5 bd 3e a9 68 3e
       0.20650591 0.140181 -0.11975019 0.22720811
0000a0 a6 f2 20 be c0 8a 23 be f1 bd 1b 3e f3 01 b3 3d
       -0.15717563 -0.15970898 0.15209176 0.08740606
0000b0 b1 23 1e 3e 46 3a af bd 47 a3 b9 3d 4e 06 67 3e
       0.15443303 -0.08556037 0.09064346 0.22560999
0000c0 dc b5 0d bd d3 02 11 3e b6 48 e3 3d 76 f1 8a 3d
       -0.034597263 0.14161234 0.11097853 0.06784336
0000d0 04 42 8c 3d 25 dc 2b be 7e 57 a0 3d 87 16 ba 3b
       0.06848529 -0.16783197 0.07829188 0.005678955
0000e0 8d 50 64 3e 67 6e 98 3d b0 fa d1 3d 3c 6d 7e 3e
       0.22296353 0.074429326 0.10252893 0.24846357
0000f0 a3 54 24 3e af ba 9f bd 6f d9 00 be 2a 49 50 bd
       0.16047911 -0.07799279 -0.12582944 -0.050851025
000100 b4 ef 63 3e 63 31 98 3c 32 92 e4 3d e8 6b 28 bd
       0.22259408 0.018578237 0.11160697 -0.041118532
000110 4c c8 25 3c 0b e8 ab 3d b0 6e 35 3d 63 fa 1b 3e
       0.010118555 0.08393868 0.044295013 0.15232234
000120 dd 21 61 3e e1 47 18 3e 87 b8 f0 bd 58 f8 ea 3d
       0.21985574 0.1487117 -0.11753946 0.11473149
000130 68 81 10 3e 29 db af 3d f8 f1 b5 3d 0d a1 64 bd
       0.14111865 0.08586723 0.088840425 -0.055817652
000140 2b a4 05 3e 7b b8 a8 3c f6 a1 f7 bd 5b 5f 11 3e
       0.13050906 0.02059578 -0.120914385 0.14196531
000150 e5 20 ad bc 0d d8 71 3d 02 d4 3f bd 38 63 72 bc
       -0.02113385 0.059043933 -0.046833046 -0.014794163
000160 f6 a9 42 3e 72 7e 53 3e 92 da e3 3d 5e 06 ff bd
       0.19010147 0.20653704 0.11125673 -0.12452386
000170 99 8d 1c 3d 8c 79 c1 3d 1d eb 09 3e 15 63 dc bd
       0.038220976 0.09447011 0.13468595 -0.10761086
000180 47 6d e8 bc 24 2a a9 3d 30 b7 97 3d 15 c4 9d 3d
       -0.02837242 0.08259991 0.07407987 0.07703415
000190 d6 67 3b be 73 25 d6 bd 18 c4 57 3e 6f 01 4b 3e
       -0.18301329 -0.104563616 0.21070898 0.19824766
0001a0 84 df 9e bc 41 4b ec 3d 31 a4 73 3e 2d d0 3b 3e
       -0.01939369 0.11537791 0.23793103 0.18341132
0001b0 a3 2c bb bd 4a 35 a6 bd 68 b4 91 bc e3 46 5a 3e
       -0.09139373 -0.08115633 -0.01778622 0.21316104
0001c0 32 f1 8b 3d c9 c4 4f 3d b9 7c b4 3d 44 75 83 3d
       0.06833114 0.05072478 0.088128515 0.06418851
0001d0 98 fd 98 bc 27 64 ec 3d 61 f9 2f 3e ba d9 39 3e
       -0.01867561 0.1154254 0.17184974 0.18149462
0001e0 03 d5 6f 3e ae 9b 76 3e 48 37 1d 3e 32 db c2 bd
       0.23421101 0.24082825 0.1535312 -0.095144644
0001f0 8a 6c 16 3e c3 23 d6 3d 7a 5e be bb 38 ae 82 3d
       0.14689842 0.1045604 -0.0058096023 0.06380886
