HW4/ppo_dm_control-master (2)/ppo_dm_control-master/training/walker/walk/ppo_ac_model.pth (torch, 166148 bytes, 12 tensors)

pi.log_std f4 [6]
-0.81387365 -0.79298943 -0.78936654 -0.7242969 -0.7627011 -0.75188506
00000000: 065a 50bf 5b01 4bbf ed13 4abf 866b 39bf
00000010: 6140 43bf 8a7b 40bf

pi.mu_net.0.weight f4 [128, 24]
-0.15590736 -0.16094857 -0.025671832 -0.24621508 0.1871101 0.063731566 -0.002596299 -0.08129158
-0.009902559 -0.09002091 0.15181322 0.016772483 0.03998775 0.06370926 -0.17990783 0.049586255
-0.059577476 -0.12250637 0.012902918 -0.13780084 -0.012367108 0.14414722 -0.0050944914 0.10511129
0.15667316 -0.08738778 0.062329527 0.23161821 0.16199784 0.06661565 -0.008946634 -0.16412342
-0.14443174 0.039799776 -0.18143149 0.083039716 0.061785527 0.1715432 -0.090762 -0.2570037
0.022137523 0.0999372 -0.027006235 0.18502115 0.06401001 0.15958449 0.09712811 -0.10510706
-0.020501822 -0.13394307 -0.018050397 -0.21963657 -0.058877744 0.13832824 0.038595513 0.083413914
-0.1917635 -0.046496823 0.19592862 -0.094771884 0.022526609 -0.12399219 0.16839638 -0.16578257
0.23467132 0.06387816 -0.22169746 0.054391634 0.071144104 -0.06874211 -0.006474761 0.085093744
0.08528558 -0.065818734 0.101378195 -0.007879592 -0.008974861 0.11381439 0.1344852 -0.09881015
0.09222742 0.010022725 -0.010361794 0.11853306 0.15066132 0.13332167 0.0940529 0.0377155
-0.19048041 0.0068775527 -0.048406318 0.17779912 -0.073798716 -0.07287987 0.23353747 -0.123772524
-0.0017548375 -0.12832 0.03231821 -0.014669358 -0.17171107 0.08556859 0.1444327 0.026680129
0.22388878 0.11515966 -0.03931026 0.0901368 -0.19959804 0.1478908 0.12383449 0.10649848
0.22892621 0.06747248 0.086159214 -0.077836014 -0.17928387 -0.13571379 0.017040085 -0.081957504
-0.17805389 0.011569186 -0.12752259 0.11473383 0.04733307 -0.017969275 0.13245055 -0.1307477
-0.046963077 -0.14676645 -0.1326904 -0.019558016 -0.10564357 0.037483696 -0.10928701 0.008424756
0.102630444 -0.19222395 0.15251409 0.059472572 -0.06870144 -0.057576336 0.0100355875 -0.19300489
0.07229393 -0.11479785 -0.015704142 0.2008047 -0.10575933 -0.07906739 -0.019256953 0.04431457
0.04529521 0.16902289 -0.21139464 0.09791645 0.076529674 0.08112097 -0.010460778 0.106499024
0.026028253 -0.19536927 0.029239973 -0.12485387 -0.07016934 0.026411075 0.24446356 -0.0715178
0.11876303 -0.08479325 -0.07914206 -0.09675623 0.21856944 0.106604755 -0.1774271 -0.061908934
0.054971714 0.08976562 0.101595014 0.1518719 -0.10424771 0.034897383 0.2286941 -0.20140672
0.031885453 -0.08542472 0.06327432 -0.012803695 -0.062182885 0.009565357 0.14462756 0.08668474
0.19961104 0.22924802 0.095375955 0.12221103 -0.06978501 0.17189349 -0.07320825 -0.11111871
0.2486599 0.257924 -0.013615242 -0.13061975 0.021108922 0.038199555 -0.18060906 0.13687113
0.014348424 0.05501655 0.11901177 0.14666758 -0.17269513 0.14435968 0.12564866 -0.049089108
0.20055366 -0.18782385 -0.19053744 0.11250113 0.15889901 -0.07121745 -0.004433841 -0.13298081
0.031732563 0.14308633 -0.162897 -0.19329567 0.14122277 -0.08760655 -0.02171602 0.2533608
-0.07981562 0.13009633 -0.14406261 0.085447334 -0.07103645 -0.17504184 0.1263173 0.11977559
-0.11945281 -0.07099017 0.009192068 -0.04258141 -0.18131928 -0.13378088 0.122400634 0.08711536
-0.07395784 0.009731812 -0.13492271 -0.11485429 0.06812302 0.21505168 -0.06245758 0.059670206
00000000: 2ea6 1fbe b4cf 24be bc4d d2bc ce1f 7cbe
00000010: ca99 3f3e b285 823d ab26 2abb 337c a6bd
00000020: 583e 22bc e25c b8bd ed74 1b3e 7266 893c
00000030: 32ca 233d 007a 823d c239 38be f51a 4b3d
00000040: 8307 74bd 9fe4 fabd c366 533c aa1b 0dbe
00000050: 699f 4abc 549b 133e b1ef a6bb 9744 d73d
00000060: ee6e 203e 5df8 b2bd 3f4d 7f3d 532d 6d3e
00000070: c3e2 253e c96d 883d e794 12bc f80f 28be
00000080: eae5 13be 1705 233d 2dc9 39be ba10 aa3d
00000090: d212 7d3d 05a9 2f3e 6de1 b9bd fd95 83be
000000a0: c059 b53c e0ab cc3d 2e3c ddbc 2f76 3d3e
000000b0: ae17 833d 1e6a 233e 1aeb c63d 5f42 d7bd
000000c0: 70f3 a7bc 5f28 09be 6dde 93bc 69e8 60be
000000d0: ca29 71bd eba5 0d3e 5416 1e3d ead4 aa3d
000000e0: a75d 44be 7473 3ebd 83a1 483e c317 c2bd
000000f0: b989 b83c 9eef fdbd 1a70 2c3e e8c2 29be
00000100: ae4d 703e 8ed2 823d a904 63be c3c9 5e3d
00000110: 00b4 913d aac8 8cbd 3b2a d4bb a145 ae3d
00000120: 35aa ae3d f9cb 86bd 5f9f cf3d 6719 01bc
00000130: 4c0b 13bc 8517 e93d 7db6 093e fa5c cabd
00000140: bbe1 bc3d 5b36 243c 84c4 29bc 76c1 f23d
00000150: f646 1a3e 7a85 083e cf9e c03d 917b 1a3d
00000160: 4c0d 43be 185d e13b b445 46bd f910 363e
00000170: c823 97bd 0b42 95bd 7224 6f3e 737c fdbd
00000180: 9302 e6ba 5166 03be 1960 043d bf57 70bc
00000190: 07d5 2fbe 963e af3d 2ae6 133e 4990 da3c
000001a0: 1a43 653e d4d8 eb3d cc03 21bd a599 b83d
000001b0: 6e63 4cbe b070 173e f09c fd3d e01b da3d
000001c0: a26b 6a3e 032f 8a3d 3e74 b03d 7d68 9fbd
000001d0: 3196 37be 8ef8 0abe a697 8b3c 56d9 a7bd
000001e0: c253 36be af8c 3d3c 4895 02be 92f9 ea3d
000001f0: 52e0 413d 4d34 93bc 1ea1 073e bae2 05be
00000200: 5b5c 40bd f249 16be fedf 07be 2238 a0bc
00000210: a85b d8bd 8188 193d ded1 dfbd fd07 0a3c
00000220: e92f d23d 5bd6 44be a72c 1c3e 8399 733d
00000230: 57b3 8cbd 2ad5 6bbd 4e6c 243c 13a3 45be
00000240: d70e 943d 231b ebbd f9a5 80bc bf9f 4d3e
00000250: 5998 d8bd 15ee a1bd c2c0 9dbc 3283 353d
00000260: 7887 393d 5614 2d3e d677 58be 6b88 c83d
00000270: 97bb 9c3d c022 a63d af63 2bbc 291c da3d
00000280: 3439 d53c e20e 48be ab88 ef3c 63b3 ffbd
00000290: f1b4 8fbd 0a5c d83c a854 7a3e ed77 92bd
000002a0: 083a f33d 15a8 adbd 3b15 a2bd 2128 c6bd
000002b0: abd0 5f3e 9853 da3d 73af 35be 3994 7dbd
000002c0: 052a 613d 0ad7 b73d 0c11 d03d 4f84 1b3e
000002d0: d37f d5bd 8ff0 0e3d c92e 6a3e 903d 4ebe
000002e0: 529a 023d 28f3 aebd f795 813d 97c6 51bc
000002f0: 7bb3 7ebd 04b8 1c3c 3f19 143e c587 b13d
00000300: d666 4c3e febf 6a3e 7854 c33d c749 fa3d
00000310: 71eb 8ebd d904 303e 35ee 95bd 3592 e3bd
00000320: b3a0 7e3e 9d0e 843e 7712 5fbc 2fc1 05be
00000330: 9eec ac3c 2377 1c3d 95f1 38be f227 0c3e
00000340: a715 6b3c 0959 613d 71bc f33d 0730 163e
00000350: fed6 30be 06d3 133e 0baa 003e a911 49bd
00000360: f05d 4d3e e554 40be 3f1c 43be fe66 e63d
00000370: 6cb6 223e 74da 91bd c149 91bb 1f2c 08be
00000380: 01fa 013d 3985 123e 79ce 26be 4def 45be
00000390: b49c 103e 106b b3bd cbe5 b1bc 82b8 813e
000003a0: 5f76 a3bd f937 053e 2685 13be 03ff ae3d
000003b0: 8f7b 91bd 2b3e 33be 5359 013e e84c f53d
000003c0: ada3 f4bd 4b63 91bd 549a 163c d869 2ebd
000003d0: c3ab 39be dbfd 08be 2fad fa3d 8a69 b23d
000003e0: 3577 97bd 2e72 1f3c 2e29 0abe ba38 ebbd
000003f0: 1584 8b3d 8236 5c3e 85d3 7fbd bf68 743d

pi.mu_net.0.bias f4 [128]
0.01882983 0.089305796 -0.019736651 -0.2643955 -0.08267305 -0.1228433 -0.17306735 -0.18188661
0.13010304 -0.056800406 -0.061538164 -0.077952646 -0.080444895 0.13290164 0.1666693 0.04630108
0.17031932 0.07111296 0.022821832 -0.10889618 -0.012150193 0.15120745 -0.11007363 -0.13335708
0.10623643 -0.22064024 0.19315812 0.13187616 0.21170704 0.060141742 0.09905266 -0.050536193
-0.13281447 -0.053283423 -0.16868632 -0.048220888 0.18321027 -0.068072125 -0.12434684 0.15042053
0.14314947 0.047767807 0.072528146 -0.025684522 0.09564301 0.18050055 0.23367016 0.01315191
0.0006332185 0.18977942 0.03360089 0.08052973 -0.16906005 0.1633848 0.0198189 -0.11439932
0.03555572 -0.12917353 0.15451363 0.093778916 -0.20074345 0.11473844 0.138589 0.06077925
0.1340756 0.14271414 -0.14498465 -0.09140654 0.17590742 0.05607389 -0.15319502 0.06668352
0.21821079 -0.17848165 0.034971774 -0.030219719 -0.124698035 0.18440549 0.19781783 -0.21291655
-0.015660178 0.0968657 0.1829171 -0.10842516 0.17037323 0.16299102 -0.14608039 0.12688915
0.025620865 0.071097925 0.0057742083 -0.033013985 -0.18244214 -0.10479281 -0.06959012 -0.2001936
-0.10017784 0.106143855 0.015518025 -0.037828393 0.22355987 0.10003834 0.17211413 0.18957809
0.07604565 0.075852804 -0.18672405 0.14512196 0.009819828 0.09954174 0.034992307 0.12124151
0.0760363 0.09677897 0.10402568 -0.08241088 -0.028351907 -0.07082365 -0.029462142 -0.17097448
-0.19394642 0.11795543 0.25195432 -0.11598333 -0.012043596 -0.096697845 0.15174614 0.19649783
00000000: 0441 9a3c f5e5 b63d c2ae a1bc d95e 87be
00000010: 7d50 a9bd 4595 fbbd 9138 31be 7c40 3abe
00000020: bb39 053e 8ba7 68bd 710f 7cbd a3a5 9fbd
00000030: 4bc0 a4bd 5e17 083e 5bab 2a3e 34a6 3d3d
00000040: 3068 2e3e aca3 913d daf4 ba3c f604 dfbd
00000050: 9a11 47bc 20d6 1a3e 496e e1bd c28e 08be
00000060: 7c92 d93d 84ef 61be 3ecb 453e 8b0a 073e
00000070: bbc9 583e 3057 763d 1fdc ca3d 0aff 4ebd
00000080: 8400 08be b83f 5abd 1bbc 2cbe 4483 45bd
00000090: 799b 3b3e 6669 8bbd 8ea9 febd d707 1a3e
000000a0: c695 123e 2da8 433d a389 943d 5968 d2bc
000000b0: 7ce0 c33d 23d5 383e 3b47 6f3e 1c7b 573c
000000c0: 93fe 253a 8955 423e 16a1 093d c5ec a43d
000000d0: 141e 2dbe 584e 273e 3f5b a23c 314a eabd
000000e0: e0a2 113d 1146 04be d238 1e3e 290f c03d
000000f0: b18f 4dbe fdfb ea3d 46ea 0d3e aaf3 783d
00000100: 1d4b 093e a823 123e db76 14be 5a33 bbbd
00000110: 1321 343e bcad 653d 28df 1cbe 5f91 883d
00000120: a672 5f3e e5c3 36be 903e 0f3d 588f f7bc
00000130: af61 ffbd cbd4 3c3e c290 4a3e cc06 5abe
00000140: c649 80bc 8661 c63d 9f4e 3b3e 030e debd
00000150: 5276 2e3e 1ee7 263e 1996 15be 3bef 013e
00000160: d9e2 d13c ca9b 913d 9235 bd3b ac39 07bd
00000170: 1dd2 3abe 9d9d d6bd 4485 8ebd 8dff 4cbe
00000180: 0a2a cdbd f361 d93d 503f 7e3c f2f1 1abd
00000190: e1ec 643e e7e0 cc3d b03e 303e c220 423e
000001a0: d2bd 9b3d b758 9b3d 9734 3fbe da9a 143e
000001b0: 58e3 203c 8adc cb3d 1854 0f3d 784d f83d
000001c0: ebb8 9b3d 0d34 c63d 6a0b d53d 09c7 a8bd
000001d0: 4242 e8bc fd0b 91bd 975a f1bc ef13 2fbe
000001e0: e499 46be 9e92 f13d 2800 813e ab88 edbd
000001f0: 8152 45bc 8509 c6bd 5763 1b3e ba36 493e

pi.mu_net.2.weight f4 [128, 128]
-0.024672078 -0.066146545 -0.008581506 -0.025563726 0.014070151 -0.07794716 0.02504951 -0.007709594
0.077862434 -0.05872531 -0.0032383965 0.0627053 -0.007388664 -0.05531311 0.064301684 -0.06900874
-0.0050571887 -0.07893637 -0.03146507 -0.055356607 -0.04371764 -0.015036223 -0.0103152795 -0.0655527
0.0545737 -0.08136628 0.05339134 -0.026821658 -0.054765206 -0.08190748 0.035706047 -0.0016241843
-0.074908555 -0.048413634 0.061655775 -0.04809962 0.078120954 -0.007457456 0.08460589 -0.047086947
0.034388002 -0.080970466 -0.014923201 0.056351088 0.107772134 -0.050687406 -0.004754158 -0.021268688
0.063159704 0.09402056 -0.012579428 -0.038327925 0.08323208 -0.06813402 -0.05957281 0.09302519
-0.025190243 -0.059806112 0.09541872 -0.08686497 0.080672786 0.023248004 0.02616807 0.0007329626
0.08928657 -0.0640067 0.06273151 0.010963307 0.06579471 0.056448627 0.073445946 0.05215501
-0.03453662 0.07551448 0.056599095 -0.046720117 -0.06425217 0.06590447 0.00978826 0.06021578
0.07022692 0.02916565 0.04911849 -0.06549506 -0.039320488 0.0627284 -0.044123907 0.083831854
-0.03464662 -0.06782916 0.009876023 -0.11199739 -0.060891528 -0.01206353 -0.012578631 -0.10466481
0.038000446 -0.07117805 -0.0063186474 -0.08547832 -0.07977351 -0.030685447 0.018906744 -0.002642351
0.03986878 0.03797617 0.09894529 0.0272026 0.015227461 -0.07684793 0.032305628 -0.053918876
-0.008618196 -0.07148538 -0.07806818 0.016610108 -0.032232795 0.093527436 -0.085119486 0.032965977
0.055234358 0.014528067 -0.030670559 0.10283793 0.052344866 -0.0072609466 0.01033889 -0.06417579
-0.059324678 0.06465141 0.05989758 0.05868274 -0.08220269 -0.024071371 -0.020874334 0.03401346
-0.10158687 -0.031380218 -0.041529194 0.09955284 -0.08561262 -0.060218204 -0.034170225 0.018970257
0.040892027 -0.034071907 0.0701167 0.063184306 -0.09019059 -0.037595417 0.010047869 -0.044752352
0.08601211 0.04919312 0.09934258 -0.0100923255 -0.085882984 0.050051462 0.031530265 0.04976211
-0.058815856 0.02061012 0.047451463 -0.06255148 0.062695205 0.017589018 0.0077786576 0.11238498
-0.026723422 -0.0065224874 0.01274757 0.010143352 0.009609205 0.05167199 -0.016411899 0.006390831
0.08245691 -0.023322346 0.10720025 -0.03583499 -0.02732806 -0.06551762 -0.0488579 -0.10404227
0.015131027 0.027167663 0.08445146 -0.034162607 -0.05552874 -0.012949228 -0.093442194 0.0053544403
0.11149005 -0.004973723 0.058805782 0.056436364 -0.037190422 0.13947362 0.01437406 -0.07299286
0.03466473 0.032298747 0.021748235 -0.07294147 0.010122289 0.05612289 -0.037230004 -0.004816478
0.021952033 0.038286414 0.07995422 0.046559766 0.032209493 -0.026458727 0.0026915101 0.060773436
0.0009075773 -0.017386751 -0.000274311 -0.054919977 -0.04093741 0.027957255 0.02099663 -0.1179917
-0.025891706 0.03345471 0.00048312522 0.0362458 -0.050136317 -0.054518126 0.10166017 0.044404473
0.0070748464 -0.009062368 -0.072916016 -0.051090077 0.01654512 -0.12847705 0.024739595 -0.052108146
0.07639692 0.03844836 -0.08489227 -0.03442498 -0.038452934 0.0024660819 -0.09614064 -0.060909074
-0.06449603 0.017230514 0.10911738 0.07836047 -0.018944556 0.032043777 -0.05327926 -0.033552893
00000000: 191d cabc d777 87bd 7299 0cbc 056b d1bc
00000010: 7e86 663c c3a2 9fbd a134 cd3c c3a0 fcbb
00000020: 5776 9f3d f389 70bd 473b 54bb a36b 803d
00000030: 9b1c f2bb 0090 62bd 9ab0 833d 7454 8dbd
00000040: c6b6 a5bb 64a9 a1bd 84e1 00bd 9cbd 62bd
00000050: 4511 33bd 7e5a 76bc 6b01 29bc 7e40 86bd
00000060: ac88 5f3d 5da3 a6bd e1b0 5a3d 18b9 dbbc
00000070: 7b51 60bd 1cbf a7bd 8140 123d 95e2 d4ba
00000080: a869 99bd 604d 46bd c48a 7c3d 1b04 45bd
00000090: e1fd 9f3d ad5d f4bb da45 ad3d 3ede 40bd
000000a0: 6fda 0c3d d8d3 a5bd 7180 74bc 66d0 663d
000000b0: a3b7 dc3d 999d 4fbd c5c8 9bbb ac3b aebc
000000c0: e059 813d da8d c03d f219 4ebc befd 1cbd
000000d0: 9575 aa3d d989 8bbd 9e02 74bd fe83 be3d
000000e0: c55b cebc 41f7 74bd e46a c33d 43e6 b1bd
000000f0: c637 a53d 9972 be3c 6c5e d63c 4a24 403a
00000100: e1db b63d f215 83bd 6179 803d 719f 333c
00000110: 60bf 863d ad36 673d d46a 963d 7ea0 553d
00000120: 4576 0dbd 56a7 9a3d 74d4 673d 985d 3fbd
00000130: a496 83bd ecf8 863d f05e 203c d2a4 763d
00000140: 22d3 8f3d cdec ee3c 7830 493d 4622 86bd
00000150: 850e 21bd bf77 803d 45bb 34bd 09b0 ab3d
00000160: 9de9 0dbd 04ea 8abd 0bcf 213c e35e e5bd
00000170: 6569 79bd 1da6 45bc 9a16 4ebc 815a d6bd
00000180: 5ba6 1b3d ccc5 91bd a80c cfbb 420f afbd
00000190: 4b60 a3bd 0c60 fbbc 51e2 9a3c 4b2b 2dbb
000001a0: 724d 233d e78c 1b3d d4a3 ca3d fdd7 de3c
000001b0: 9a7c 793c 7362 9dbd e852 043d 0ada 5cbd
000001c0: 5533 0dbc ed66 92bd 36e2 9fbd ec11 883c
000001d0: 8906 04bd 508b bf3d 2053 aebd 5507 073d
000001e0: 6c3d 623d 2107 6e3c d340 fbbc b19c d23d
000001f0: 9267 563d 3ced edbb 7364 293c 996e 83bd
00000200: 6ffe 72bd f567 843d 2a57 753d 505d 703d
00000210: e259 a8bd 5331 c5bc a700 abbc b351 0b3d
00000220: c70c d0bd 8b88 00bd 841a 2abd 5ce2 cb3d
00000230: ab55 afbd 5da7 76bd 14f6 0bbd 8367 9b3c
00000240: 667e 273d fc8e 0bbd 5899 8f3d c666 813d
00000250: d8b5 b8bd a7fd 19bd d19f 243c 3e4e 37bd
00000260: 1e27 b03d ba7e 493d 1f74 cb3d 485a 25bc
00000270: 6be3 afbd c302 4d3d e125 013d 5bd3 4b3d
00000280: e5e8 70bd 8ed6 a83c 775c 423d fe1a 80bd
00000290: 5866 803d d816 903c 1ce4 fe3b 192a e63d
000002a0: 14eb dabc 97ba d5bb 2fdb 503c 4d30 263c
000002b0: ed6f 1d3c 02a6 533d 3f72 86bc 2d6a d13b
000002c0: 2bdf a83d 810e bfbc ce8b db3d b6c7 12bd
000002d0: 18df dfbc 1a2e 86bd 391f 48bd 1d14 d5bd
000002e0: 21e8 773c b88e de3c e3f4 ac3d 17ee 0bbd
000002f0: 1b72 63bd 0029 54bc 9f5e bfbd 4d74 af3b
00000300: e554 e43d 9dfa a2bb 55de 703d d129 673d
00000310: fc54 18bd 2cd2 0e3e 2d81 6b3c 487d 95bd
00000320: 9bfc 0d3d b14b 043d 5b29 b23c 5662 95bd
00000330: f5d7 253c 1ee1 653d 7d7e 18bd 8cd3 9dbb
00000340: c0d4 b33c 37d2 1c3d 0abf a33d 74b5 3e3d
00000350: 1aee 033d f9bf d8bc 0c64 303b 91ed 783d
00000360: 7bea 6d3a a96e 8ebc 66d1 8fb9 c5f3 60bd
00000370: fcad 27bd 9d06 e53c 2001 ac3c a2a5 f1bd
00000380: d81a d4bc ce07 093d f84b fd39 7a76 143d
00000390: bd5b 4dbd 664e 5fbd 3533 d03d 77e1 353d
000003a0: 1dd4 e73b 547a 14bc fe54 95bd d443 51bd
000003b0: a289 873c 7d8f 03be b1aa ca3c 5a6f 55bd
000003c0: fd75 9c3d 077c 1d3d 00dc adbd 3501 0dbd
000003d0: d380 1dbd fd9d 213b 62e5 c4bd cb7b 79bd
000003e0: 7f16 84bd 0227 8d3c ef78 df3d 747b a03d
000003f0: 9d31 9bbc 5640 033d 5a3b 5abd c26e 09bd

pi.mu_net.2.bias f4 [128]
0.044930298 -0.0341257 -0.032755006 0.013100079 0.02468305 -0.029196877 0.06976099 -0.058507517
-0.032486014 0.06048746 -0.028506823 0.012561585 -0.050656673 0.014844598 -0.020978734 -7.287318e-05
0.015415044 0.061313495 -0.06556027 0.02594948 0.0050428472 0.012695157 -0.07749601 -0.05587778
-0.014902704 -0.078030735 -0.056994732 -0.05008481 -0.00632429 -0.010011082 0.051540546 -0.023284674
-0.013232072 -0.009977933 0.056549374 0.019453762 0.012239773 0.05709257 -0.017342666 -0.072878
0.05521898 -0.02033184 0.0381281 0.053957324 0.041770574 -0.02633477 -0.08208536 -0.004805858
0.07146625 0.104938805 -0.012556703 -0.06286421 0.027424192 0.016604729 0.098417066 -0.029721452
0.046587165 0.08074693 -0.051173232 -0.050124988 0.068059765 -0.029560741 -0.020259902 0.06847525
-0.09888577 0.040835313 0.037758257 -0.018072871 0.052385177 -0.007916828 0.04270692 -0.05130408
0.08239689 -0.011450691 -0.015649064 -0.04277093 0.07269101 -0.03972592 0.019534599 0.02808121
0.05278826 -0.02877357 -0.0054761143 0.056296483 -0.07810843 0.03878175 0.067822926 0.008931468
-0.010605904 0.008954987 0.042207994 0.07293537 0.06460605 0.067381114 0.046161868 -0.03108879
0.035565607 -0.048332684 -0.004288854 -0.031555306 0.026839556 0.0837313 0.05789025 -0.009133467
-0.022604967 0.08149905 -0.04956256 0.055067923 0.04811509 0.07031409 0.06956113 0.018438665
-0.029666131 0.072685316 0.040753566 0.08880089 0.030387545 -0.06930243 0.003808618 -0.05679812
0.087468855 0.004196558 0.0798259 0.010846009 -0.034919526 -0.0026294447 -0.029097518 0.058611285
00000000: d508 383d 64c7 0bbd 1d2a 06bd b7a1 563c
00000010: 1c34 ca3c 4a2e efbc dade 8e3d 94a5 6fbd
00000020: 0e10 05bd b3c1 773d 2487 e9bc 1bcf 4d3c
00000030: 5f7d 4fbd c236 733c 98db abbc 7ed3 98b8
00000040: 618f 7c3c dc23 7b3d 7644 86bd 0194 d43c
00000050: 783e a53b 59ff 4f3c 3ab6 9ebd 19e0 64bd
00000060: 792a 74bc 94ce 9fbd 4f73 69bd bb25 4dbd
00000070: fd3b cfbb 8505 24bc 2e1c 533d 80bf bebc
00000080: 55cb 58bc 7c7a 23bc 51a0 673d 7f5d 9f3c
00000090: 5489 483c e6d9 693d 3512 8ebc 1041 95bd
000000a0: 4c2d 623d f58e a6bc 362c 1c3d 5b02 5d3d
000000b0: 9f17 2b3d 04bc d7bc 5f1c a8bd 757a 9dbb
000000c0: e65c 923d 28ea d63d a1ba 4dbc f3be 80bd
000000d0: b3a8 e03c a406 883c e38e c93d 677a f3bc
000000e0: 2fd2 3e3d a55e a53d 069b 51bd dc4f 4dbd
000000f0: eb62 8b3d 5e29 f2bc 18f8 a5bc c03c 8c3d
00000100: 9f84 cabd ee42 273d 67a8 1a3d 8f0d 94bc
00000110: d791 563d 95b5 01bc 74ed 2e3d 3a24 52bd
00000120: b3bf a83d ae9b 3bbc 7732 80bc 9230 2fbd
00000130: 06df 943d a5b7 22bd 0607 a03c 910a e63c
00000140: 8138 583d 8db6 ebbc fa70 b3bb 2497 663d
00000150: 50f7 9fbd 9dd9 1e3d bfe6 8a3d 4b55 123c
00000160: 63c4 2dbc f0b7 123c 4ae2 2c3d 245f 953d
00000170: 2d50 843d 1cff 893d 3a14 3d3d ebad febc
00000180: 3ead 113d 7ef8 45bd 8489 8cbb 2340 01bd
00000190: a1de db3c 517b ab3d 541e 6d3d 8aa4 15bc
000001a0: 0d2e b9bc f9e8 a63d 1c02 4bbd e78e 613d
000001b0: 5414 453d d500 903d 1176 8e3d af0c 973c
000001c0: 6306 f3bc 0adc 943d 36ed 263d 3edd b53d
000001d0: 4def f83c 6fee 8dbd 029a 793b 25a5 68bd
000001e0: df22 b33d 4883 893b c37b a33d 75b3 313c
000001f0: c707 0fbd c352 2cbb eb5d eebc 6312 703d

pi.mu_net.4.weight f4 [6, 128]
0.03016516 0.04369988 -0.11058484 -0.05718724 0.11273617 -0.117920436 0.014764579 0.016933817
0.11452431 -0.094366275 -0.12400746 -0.007901898 -0.06211889 0.11955583 0.12864713 0.08925411
-0.106176384 -0.004302042 -0.004155126 -0.047757383 -0.050690405 -0.06343546 -0.0138838515 0.008046589
0.007219795 -0.10131633 0.0018076397 -0.079030685 -0.016415667 0.047684938 0.013075987 -0.009402356
0.027430136 -0.063004 0.093776844 0.0016299324 -0.10724636 -0.0075814268 0.06733925 -0.040498577
0.0022928382 0.042839058 0.10679145 -0.04013964 -0.052803088 -0.024809293 0.089790836 0.009943561
0.14751227 0.03169761 -0.06848929 -0.088676564 -0.03771081 0.05722926 0.10330415 -0.00818632
-0.11741503 -0.047075924 0.05205842 0.0018508099 -0.0042363345 -0.05220963 0.14229292 0.008921194
-0.017532026 0.031375982 -0.04402377 -0.062935926 -0.054986805 0.10001871 0.008497129 -0.05384179
-0.0017016616 0.061757196 0.030510008 0.02900296 0.011846612 -0.033490956 -0.054404143 0.0017116314
-0.053937484 -0.12958409 -0.10567919 0.1334189 0.038142838 0.13287175 -0.013761496 -0.13926852
0.017696949 0.12479093 0.022289943 0.12504861 0.09859612 -0.07301699 0.049188983 0.075291425
0.08894009 -0.008957442 -0.06211801 0.051353063 -0.031872008 0.06668456 0.003925669 0.013009387
-0.08263396 0.06352439 0.04870882 -0.07110971 -0.002236365 -0.054718126 -0.11042202 -0.08678575
0.12230457 -0.07800962 -0.12535472 0.032653067 -0.04622985 -0.036976542 -0.00032294146 0.10833921
0.071658604 -0.020946601 -0.013057474 0.0972056 0.015030452 -0.12548506 0.07019154 -0.011732054
-0.10744763 -0.040699594 -0.12892649 0.050893765 -0.08676301 -0.04427724 -0.009405577 0.0066639213
0.01899861 -0.06782927 0.01418669 0.077171646 -0.031069439 0.06382982 0.0142175 0.071399994
0.109984085 -0.041464794 0.10391233 -0.05910019 0.049652837 0.07043344 0.04182676 0.08353246
0.029643798 -0.042803288 0.08748321 -0.009380946 -0.06520549 0.010759818 0.053734183 0.036548454
0.038197238 0.046281774 -0.01658397 -0.11570461 -0.06940881 -0.06472705 -0.07799467 0.050749294
0.04710789 -0.061535668 -0.05636593 -0.0045436164 0.058875572 -0.08847295 -0.0053578136 -0.06289235
-0.009604505 0.0537035 -0.09193212 0.008505312 0.043268505 0.010875229 -0.11423269 0.08043355
-0.02926717 -0.015476532 0.13028325 0.04491094 -0.028806955 -0.088853665 -0.09532765 -0.075182185
0.10422379 0.077072084 -0.025261592 -0.11556219 0.048420977 -0.024685115 0.07661326 -0.061266035
-0.029177485 0.079947315 0.020829657 -0.050179992 -0.08719876 -0.09983231 0.12218231 0.035163563
-0.122630715 0.01690405 -0.048525043 0.1092617 0.035545263 0.10785479 0.09560018 -0.09592572
0.023433411 -0.0026614154 0.01827078 -0.07493973 0.12140968 0.035089348 -0.06927723 -0.030863253
-0.10219574 -0.04087176 -0.029061098 -0.033706885 0.015096487 0.005612291 -0.048383668 0.046517614
-0.0097221555 0.07601843 0.03444189 -0.050278656 0.05736207 -0.07230774 -0.09930961 -0.05333064
-0.05306275 -0.07908879 0.045618538 -0.013539893 0.07531876 -0.10314244 0.07116939 -0.016628122
-0.015679779 -0.007918035 -0.022085432 0.050338253 0.08299407 -0.09784778 -0.06473852 0.064390644
00000000: ed1c f73c a5fe 323d 4e7a e2bd 2b3d 6abd
00000010: 39e2 e63d 4580 f1bd 22e7 713c cab8 8a3c
00000020: b98b ea3d 1b43 c1bd a0f7 fdbd f676 01bc
00000030: 6170 7ebd b0d9 f43d 13bc 033e dcca b63d
00000040: 0173 d9bd 25f8 8cbb b927 88bb 3f9d 43bd
00000050: bea0 4fbd 73ea 81bd 1879 63bc d7d5 033c
00000060: 0894 ec3b f07e cfbd 53ee ec3a d7da a1bd
00000070: 267a 86bc 4851 433d aa3c 563c 570c 1abc
00000080: 2ab5 e03c 3e08 81bd 130e c03d 75a3 d53a
00000090: fba3 dbbd 9e6d f8bb 29e9 893d d6e1 25bd
000000a0: 7143 163b 0278 2f3d 7ab5 da3d 7769 24bd
000000b0: 0d48 58bd dc3c cbbc 42e4 b73d 51ea 223c
000000c0: 750d 173e 5ad5 013d 1d44 8cbd 0f9c b5bd
000000d0: a676 1abd 3b69 6a3d 2091 d33d ea1f 06bc
000000e0: 4b77 f0bd afd2 40bd 363b 553d e096 f23a
000000f0: f3d0 8abb c4d9 55bd 3cb5 113e 332a 123c
00000100: 539f 8fbc 1a84 003d 4552 34bd 8de4 80bd
00000110: d839 61bd 9cd6 cc3d 8b37 0b3c 3589 5cbd
00000120: 4a0a dfba 1df5 7c3d 20f0 f93c 9e97 ed3c
00000130: 4b18 423c d02d 09bd e1d6 5ebd d258 e03a
00000140: 8ded 5cbd b1b1 04be 556e d8bd f79e 083e
00000150: aa3b 1c3d 880f 083e e677 61bc 689c 0ebe
00000160: 31f9 903c 6392 ff3d 6699 b63c be0c 003e
00000170: c3ec c93d ef89 95bd 637a 493d 6432 9a3d
00000180: 3926 b63d 3cc2 12bc 746f 7ebd 9757 523d
00000190: 398c 02bd ea91 883d e6a2 803b 5325 553c
000001a0: fe3b a9bd 1319 823d e682 473d f8a1 91bd
000001b0: fb8f 12bb 1d20 60bd f124 e2bd babc b1bd
000001c0: d27a fa3d 82c3 9fbd fd5c 00be 39bf 053d
000001d0: 835b 3dbd b774 17bd 7850 a9b9 f3e0 dd3d
000001e0: bfc1 923d 3598 abbc 04ef 55bc bb13 c73d
000001f0: 4942 763c 287f 00be 95c0 8f3d cd37 40bc
00000200: 810d dcbd 9eb4 26bd 4e05 04be fb75 503d
00000210: ceb0 b1bd 0d5c 35bd d919 1abc 065d da3b
00000220: f9a2 9b3c 13ea 8abd 4a6f 683c 2b0c 9e3d
00000230: 5685 febc 35b9 823d 84f0 683c 293a 923d
00000240: 563f e13d fdd6 29bd fdcf d43d 0a13 72bd
00000250: c660 4b3d 683f 903d 8952 2b3d 1113 ab3d
00000260: 8dd7 f23c 8052 2fbd 662a b33d 8ab2 19bc
00000270: 758a 85bd f349 303c 6018 5c3d d5b3 153d
00000280: b574 1c3d f591 3d3d 1bdb 87bc 8af6 ecbd
00000290: 3526 8ebd 9e8f 84bd abbb 9fbd 7ede 4f3d
000002a0: 34f4 403d d30c 7cbd f6df 66bd 9ee2 94bb
000002b0: 8327 713d 4e31 b5bd 9990 afbb b4cd 80bd
000002c0: 375c 1dbc 34f8 5b3d e846 bcbd dd59 0b3c
000002d0: 513a 313d 042e 323c d4f2 e9bd 58ba a43d
000002e0: b4c1 efbc 4891 7dbc f968 053e 89f4 373d
000002f0: 90fc ebbc e9f8 b5bd 253b c3bd 1ef9 99bd
00000300: 4873 d53d f8d7 9d3d 66f1 cebc dfab ecbd
00000310: 1355 463d 7038 cabc 6ae7 9c3d 18f2 7abd
00000320: 9f05 efbc 6bbb a33d f5a2 aa3c 8989 4dbd
00000330: 4395 b2bd e274 ccbd b83a fa3d ab07 103d
00000340: d025 fbbd 5d7a 8a3c 32c2 46bd 99c4 df3d
00000350: e997 113d f9e2 dc3d 07ca c33d b474 c4bd
00000360: 6df7 bf3c 246b 2ebb 9aac 953c 007a 99bd
00000370: a3a5 f83d d9b9 0f3d 38e1 8dbd efd4 fcbc
00000380: 004c d1bd 2669 27bd 8a11 eebc 3b10 0abd
00000390: 4157 773c 4fe7 b73b f42d 46bd 4189 3e3d
000003a0: ad49 1fbc 8daf 9b3d f012 0d3d fef0 4dbd
000003b0: 7df4 6a3d 1516 94bd d662 cbbd 3b71 5abd
000003c0: 5358 59bd 4ef9 a1bd 81da 3a3d 6dd6 5dbc
000003d0: b940 9a3d 583c d3bd 42c1 913d b337 88bc
000003e0: e172 80bc a5ba 01bc 82ec b4bc 7c2f 4e3d
000003f0: ccf8 a93d 6b64 c8bd a195 84bd 3edf 833d

pi.mu_net.4.bias f4 [6]
-0.004879625 -0.071739055 -0.050887715 0.033296306 -0.069795445 -0.024998613
00000000: 43e5 9fbb edeb 92bd a36f 50bd b561 083d
00000010: eaf0 8ebd e4c9 ccbc

vf.v_net.0.weight f4 [128, 24]
0.10881483 0.28028697 0.10349866 0.17817906 -0.16556153 -0.11234969 0.074072234 0.061675414
-0.20384122 0.30050713 -0.2182044 0.25526038 0.012925787 0.30961397 -0.31681687 0.035030365
-0.44524646 0.09817885 -0.03894768 -0.036750235 0.027791193 0.03728105 0.04682832 0.0012959152
-0.05094248 -0.26712903 -0.38116112 -0.06751361 0.10009238 -0.13713846 0.308118 0.0061071613
-0.33408538 0.010544304 0.22262563 -0.11969985 -0.032884233 0.06431049 -0.20224898 -0.042710885
-0.4382709 -0.1966545 0.058162894 0.03379875 -0.008528723 0.05109442 0.021623129 0.0025427665
0.3306503 0.12979743 0.34555066 -0.35092172 0.08185618 0.0735357 0.08550659 -0.111805595
0.15926169 -0.16787592 -0.105241 -0.17193684 0.00034566355 -0.16611837 -0.0020123366 0.37851647
0.4512586 0.10334221 0.008151468 0.0008995096 0.020150023 -0.029986244 0.011064577 0.008128031
0.1620894 0.19360235 0.12206804 -0.14133222 0.26123428 -0.16348127 -0.07312871 0.11035935
0.054897193 0.13467567 0.24502088 0.04402611 -0.0028042495 0.051195864 0.15042892 0.08220006
0.3275896 -0.06928309 -0.03482879 0.13367933 0.02053387 0.04901673 -0.2364785 0.031442072
0.20603949 -0.13131313 0.123406515 0.17677999 0.12475571 0.21254641 -0.07853269 0.16287336
-0.05395279 -0.01385301 0.05249843 -0.022234935 0.03091582 -0.053452667 0.44905153 0.06759108
0.14628395 -0.043925043 0.16291389 0.0016429002 -0.04953263 0.2223944 0.08452253 0.082306124
-0.28766266 0.026738562 0.083788976 0.13224232 0.07070985 0.061676737 0.023776304 -0.0403799
-0.26549098 -0.018265087 -0.14113142 -0.13536406 -0.09391197 -0.17004898 -0.47154674 -0.010878012
-0.36191645 -0.008728594 -0.12767412 -0.05803536 -0.0125846425 -0.2118814 0.12932721 -0.05334024
-0.47662154 -0.09226323 -0.33959168 0.3423267 -0.21498682 -0.13434382 -0.056709763 -0.10421885
-0.23373435 0.23853347 -0.17720671 0.09951574 -0.006610179 0.0035702363 -0.0015056335 -0.6215761
0.059571754 -0.19975169 -0.07590704 0.022317048 -0.009122056 0.13002276 0.07771184 0.0036383087
0.19036454 0.041383673 -0.02772558 -0.02290909 0.28232357 -0.17467013 -0.03613387 0.20041424
0.26035535 -0.16451204 -0.14529996 0.008714934 -0.16428345 0.20235142 0.14948396 0.13389012
-0.08138047 0.067028835 -0.09268035 0.18166226 -0.17039078 -0.011803041 -0.20941247 0.02422485
-0.25025743 0.14277859 -0.009589311 0.28414306 -0.18658495 -0.20890695 -0.19476148 -0.0029705658
-0.059949588 0.3716943 -0.27478546 0.027275763 -0.18124983 0.12744759 -0.27472657 -0.24351777
0.05447918 0.09111553 -0.04302027 0.007818311 0.0060691964 -0.016594907 0.020429673 -0.0010076696
0.05735392 -0.13598436 0.10118885 -0.2839289 0.09410419 0.2647813 -0.06444807 0.09517981
0.13330749 -0.21463518 0.2307289 -0.17900622 -0.26315123 -0.12106248 -0.32754892 0.22399408
0.05298885 -0.2431342 -0.2243795 -0.14628108 -0.014247758 -0.14079551 -0.21606487 -0.06148398
0.40010378 0.15984735 0.050899234 -0.1859109 -0.0035619547 0.08195484 0.05728142 -0.041557536
0.094192974 0.04028286 -0.22213371 -0.09642126 -0.17168912 -0.3240807 0.12990227 0.2214414
00000000: 4fda de3d c681 8f3e 1bf7 d33d 9274 363e
00000010: f688 29be 9817 e6bd 2fb3 973d 5c9f 7c3d
00000020: c1bb 50be 12dc 993e f970 5fbe 7db1 823e
00000030: aec6 533c b985 9e3e d235 a2be 007c 0f3d
00000040: 58f7 e3be fe11 c93d 9a87 1fbd 6a87 16bd
00000050: 5baa e33c 04b4 183d 0dcf 3f3d b3db a93a
00000060: 10a9 50bd 23c5 88be 8d27 c3be 9344 8abd
00000070: 3cfd cc3d 066e 0cbe a4c1 9d3e 951e c83b
00000080: 3d0d abbe 04c2 2c3c f9f7 633e 3225 f5bd
00000090: 9eb1 06bd 38b5 833d 5b1a 4fbe 9cf1 2ebd
000000a0: 0b65 e0be cc5f 49be 373c 6e3d 8f70 0a3d
000000b0: 0fbc 0bbc 6248 513d fd22 b13c 8ba4 263b
000000c0: ff4a a93e 9ee9 043e 04ec b03e 03ac b3be
000000d0: 37a4 a73d e399 963d 141e af3d 55fa e4bd
000000e0: 7f15 233e aae7 2bbe 9888 d7bd 3610 30be
000000f0: 2d3a b539 ef1a 2abe 68e1 03bb e9cc c13e
00000100: 5e0b e73e 15a5 d33d bc8d 053c 11cd 6b3a
00000110: a911 a53c b6a5 f5bc 3348 353c 6f2b 053c
00000120: c4fa 253e b23f 463e cffe f93d 65b9 10be
00000130: 80c0 853e a267 27be 81c4 95bd 1504 e23d
00000140: e1db 603d 6be8 093e c1e6 7a3e b954 343d
00000150: 80c7 37bb c1b2 513d 0a0a 1a3e 8158 a83d
00000160: d3b9 a73e 4be4 8dbd a2a8 0ebd 3ce3 083e
00000170: a636 a83c c4c5 483d 6b27 72be 67c9 003d
00000180: 04fc 523e f376 06be 8ebc fc3d d005 353e
00000190: ec7f ff3d c4a5 593e bfd5 a0bd 46c8 263e
000001a0: 9afd 5cbd bcf7 62bc 9808 573d 0a26 b6bc
000001b0: 2c43 fd3c 2ff1 5abd 15ea e53e 316d 8a3d
000001c0: 76cb 153e bfea 33bd e6d2 263e 9556 d73a
000001d0: bae2 4abd 5cbb 633e 261a ad3d 1d90 a83d
000001e0: 8548 93be d40a db3c 8e99 ab3d 886a 073e
000001f0: 53d0 903d bfa0 7c3d 86c6 c23c 6565 25bd
00000200: 6fee 87be aaa0 95bc c184 10be e09c 0abe
00000210: eb54 c0bd 5221 2ebe 936e f1be b039 32bc
00000220: 1d4d b9be 6002 0fbc 01bd 02be 7cb6 6dbd
00000230: d12f 4ebc 70f7 58be 5a6e 043e 4c7b 5abd
00000240: bd07 f4be 81f4 bcbd f6de adbe 7245 af3e
00000250: 8125 5cbe 6d91 09be 7f48 68bd b170 d5bd
00000260: 0f58 6fbe 1e42 743e ad75 35be e9ce cb3d
00000270: 339a d8bb a0fa 693b ad58 c5ba 9c1f 1fbf
00000280: 8301 743d b58b 4cbe 2675 9bbd 3ed2 b63c
00000290: ad74 15bc b024 053e 6327 9f3d b170 6e3b
000002a0: ecee 423e ed81 293d c120 e3bc d8ab bbbc
000002b0: b78c 903e badc 32be 1c01 14bd 6439 4d3e
000002c0: 4c4d 853e d875 28be 83c9 14be 15c9 0e3c
000002d0: ec39 28be 3635 4f3e 5312 193e 7e1a 093e
000002e0: ceaa a6bd 6a46 893d 32cf bdbd ac05 3a3e
000002f0: ec7a 2ebe 8b61 41bc 3970 56be 3173 c63c
00000300: be21 80be 8d34 123e 7c1c 1dbc 337b 913e
00000310: 2010 3fbe b4eb 55be 8e6f 47be d3ad 42bb
00000320: b38d 75bd b74e be3e aeb0 8cbe 6c71 df3c
00000330: 8e99 39be 9f81 023e f6a8 8cbe b95c 79be
00000340: 9025 5f3d c79a ba3d 0636 30bd 6018 003c
00000350: 1ce0 c63b 0bf2 87bc 215c a73c c813 84ba
00000360: f2eb 6a3d 7c3f 0bbe 1a3c cf3d 215f 91be
00000370: b3b9 c03d 6a91 873e 5afd 83bd a2ed c23d
00000380: c281 083e 53c9 5bbe 3244 6c3e 684d 37be
00000390: c2bb 86be 9bef f7bd 7eb4 a7be b45e 653e
000003a0: d60a 593d 2cf8 78be bdc3 65be b5ca 15be
000003b0: 6e6f 69bc b32c 10be 1c40 5dbe a0d6 7bbd
000003c0: 67da cc3e 06af 233e b77b 503d 6d5f 3ebe
000003d0: af6f 69bb f0d7 a73d ec9f 6a3d 3c38 2abd
000003e0: 3fe8 c03d a4ff 243d 0577 63be 8278 c5bd
000003f0: 46cf 2fbe e8ed a5be 1a05 053e 89c1 623e

vf.v_net.0.bias f4 [128]
-0.2397865 0.18962681 -0.6149861 -0.25219852 0.2546246 -0.37183392 0.388974 0.30936614
-0.10705811 -0.33750454 0.075162336 -0.02698027 0.11967638 0.24725462 0.16814145 0.25466686
-0.23611252 -0.22686107 0.30516666 -0.16742009 -0.4143 0.0031510477 0.03088087 0.4631085
0.605743 -0.21304622 0.26489046 0.12614448 -0.5428006 -0.27311927 0.38363972 -0.15542296
-0.22043549 0.4824229 0.06758581 -0.49046966 -0.047985137 0.16287316 -0.4847069 0.4446829
-0.46810183 -0.018821528 0.35079488 0.33602 -0.10137994 -0.17347074 -0.24311866 -0.37922004
0.23690715 -0.43318805 -0.087965004 0.39233312 -0.030678099 0.27556458 0.05515821 -0.18262996
-0.33812413 0.2880051 0.38635564 0.4230408 -0.23864569 -0.016575007 -0.16996422 -0.17101924
-0.038716886 -0.027876832 -0.061514206 -0.32780638 0.27365342 0.3127467 -0.14831267 -0.20079444
0.058623265 0.35961938 0.3558648 0.34235367 0.23618951 -0.46422386 -0.0470677 0.26343763
0.23964813 -0.36476958 -0.002354092 -0.30901927 0.20418 -0.2021895 -0.3472985 0.09211638
-0.17140645 -0.35431293 -0.1368709 0.4028374 -0.17994039 -0.32582045 0.27721193 0.2928574
0.3618833 0.028967442 -0.26806206 -0.32688102 0.17085905 0.16421029 0.14675619 0.03418776
-0.26852462 0.055828635 -0.14115107 -0.31082612 -0.27109554 0.23019189 -0.1214745 -0.323653
0.14129491 0.16604361 -0.09998849 -0.3995082 0.10054674 0.3149481 0.34085745 0.18921663
-0.23344383 -0.39462274 -0.07973239 0.05399756 0.129556 -0.3361592 0.17670304 0.2661174
00000000: 988a 75be 882d 423e bb6f 1dbf 2a20 81be
00000010: 285e 823e 0461 bebe 9a27 c73e 3d65 9e3e
00000020: 4841 dbbd 65cd acbe b6ee 993d ba05 ddbc
00000030: e418 f53d 5130 7d3e 462d 2c3e b263 823e
00000040: 7bc7 71be 454e 68be ce3e 9c3e 2c70 2bbe
00000050: 211f d4be cf81 4e3b e1f9 fc3c 8f1c ed3e
00000060: f911 1b3f ca28 5abe b99f 873e 052c 013e
00000070: fbf4 0abf 4ad6 8bbe 6d6c c43e 3227 1fbe
00000080: d7b9 61be 2200 f73e 6e6a 8a3d d71e fbbe
00000090: 108c 44bd 39c8 263e 812b f8be 7aad e33e
000000a0: 0bab efbe 9b2f 9abc 639b b33e d00a ac3e
000000b0: 49a0 cfbd 50a2 31be 19f4 78be 2129 c2be
000000c0: ca97 723e d3ca ddbe ff26 b4bd e3df c83e
000000d0: a350 fbbc cd16 8d3e 93ed 613d 5903 3bbe
000000e0: 9b1e adbe 6875 933e 68d0 c53e ce98 d83e
000000f0: 895f 74be 4fc8 87bc 1a0b 2ebe ab1f 2fbe
00000100: 9995 1ebd f45d e4bc 52f6 7bbd 3dd6 a7be
00000110: 4d1c 8c3e 5620 a03e 47df 17be 0f9d 4dbe
00000120: f31e 703d 0820 b83e e933 b63e fb48 af3e
00000130: aadb 713e c0ae edbe 10ca 40bd 4ce1 863e
00000140: 5266 753e 14c3 babe 1c47 1abb c637 9ebe
00000150: 9014 513e c40a 4fbe 1cd1 b1be 83a7 bc3d
00000160: 2c85 2fbe 8168 b5be e327 0cbe b440 ce3e
00000170: 4b42 38be f0d1 a6be b9ee 8d3e 68f1 953e
00000180: c548 b93e 214d ed3c 6e3f 89be f35c a7be
00000190: adf5 2e3e be26 283e 4147 163e 7708 0c3d
000001a0: 0f7c 89be 91ac 643d e889 10be 9a24 9fbe
000001b0: 09cd 8abe 6cb7 6b3e 9fc7 f8bd d9b5 a5be
000001c0: 9daf 103e 5607 2a3e c4c6 ccbd 578c ccbe
000001d0: 73eb cd3d e140 a13e de84 ae3e 01c2 413e
000001e0: e60b 6fbe fe0b cabe bc4a a3bd 8c2c 5d3d
000001f0: 54aa 043e 0f1d acbe a4f1 343e 8a40 883e

vf.v_net.2.weight f4 [128, 128]
-0.0982254 -0.116058 -0.12711348 -0.016032994 0.1667185 -0.01689817 0.10172146 0.14810048
-0.1708785 -0.018301738 0.050496895 -0.037926875 -0.0078738 -0.08109662 0.009775748 0.07238134
0.117304265 -0.060347427 0.06088743 0.04472872 -0.13929905 0.11257313 -0.09906273 0.15622333
0.016691368 -0.1392394 -0.09749395 0.16002621 -0.020476742 -0.16382556 -0.056722112 0.01469325
-0.003243694 -0.011460214 0.06275416 -0.14359738 0.061082266 -0.12884377 -0.16971336 0.18214418
-0.15592895 -0.08783815 0.20728754 0.19789445 -0.11817324 -0.031150931 -0.13511844 -0.07945609
0.04201622 0.14991996 -0.02463122 0.1204448 -0.048258293 0.06300975 -0.086496666 0.046727795
-0.04866334 0.034573633 -0.070770934 -0.06640374 0.1617325 -0.09748858 -0.030104179 -0.16953169
0.068013646 0.17157763 0.08780101 -0.09488631 0.1024426 0.11359329 -0.107481554 -0.03274082
0.06739351 0.133221 0.15105112 0.13536601 -0.06015985 -0.2571166 -0.12650938 0.14039323
-0.04400314 -0.014296148 0.24076153 0.057209153 0.18715404 -0.1875215 -0.10955984 -0.12979156
0.10340823 -0.17269672 0.17273751 0.10120511 -0.15636969 -0.08787624 0.057544634 -0.083282664
0.042105235 -0.121790975 0.13308841 -0.10201366 -0.16470794 -0.035728693 -0.058784235 0.008300053
0.061521873 0.099077925 -0.027355982 0.009590974 0.012963129 -0.017572606 -0.0534794 0.15147696
0.15527219 0.16758655 -0.15194742 -0.08656678 0.16212928 -0.1468912 0.1763795 0.17733629
0.072310776 -0.1731521 -0.08971158 0.17816268 0.15026134 -0.23537849 -0.019397972 -0.13832094
-0.104762055 -0.13706657 0.13029711 -0.22700165 0.012147208 0.0777424 0.06605197 -0.11800335
-0.15785043 -0.029695686 -0.034683365 -0.19541945 0.159325 0.19081467 -0.014924333 -0.018111827
0.14208066 0.059220884 0.12316903 -0.03901413 0.07511011 0.1578103 -0.09783815 0.06501246
0.011826865 -0.17137018 0.055729993 0.19338194 0.18043283 -0.2258055 0.13610071 -0.17257747
-0.08689167 -0.026647737 -0.037880525 0.008527978 -0.06149732 0.07608597 -0.05926319 0.18538703
-0.1481981 0.051193636 0.105780184 -0.074035645 -0.12309103 -0.08154024 -0.108677685 -0.04723522
0.064308695 -0.2092523 0.054613736 0.27512896 -0.021846255 -0.14900182 0.23034656 -0.27435604
0.14862888 0.12952231 -0.07109248 0.007278145 -0.17389695 0.050577063 -0.13213244 0.020567544
0.017623968 0.18563157 0.04359345 -0.008008713 0.31262243 0.05581972 -0.08231561 0.17166023
0.01733764 0.13022035 -0.05584673 -0.12487526 0.21547116 -0.17757638 -0.15101282 -0.039167535
-0.14806174 -0.059577767 -0.05039419 -0.20498328 0.17424972 -0.2157104 0.010688941 -0.16556844
-0.05189023 -0.18854089 0.049267165 0.12546356 -0.18198867 -0.031508427 -0.0027866159 -0.12256693
-0.10087472 -0.118705705 -0.0011555929 -0.17468669 -0.18193594 -0.09029787 -0.077588916 0.22418234
-0.017882077 -0.16206057 -0.13533603 -0.08244395 -0.00728965 0.24890323 -0.014303667 -0.0939256
0.065830216 -0.0055273133 -0.12691842 0.20438491 0.042319212 0.12140155 0.06916399 0.17644261
0.025829181 -0.030015215 -0.15937856 0.2548315 0.05371851 -0.073423415 0.2165666 -0.076273166
00000000: 662a c9bd d1af edbd 092a 02be a057 83bc
00000010: 41b8 2a3e 086e 8abc 5753 d03d a7a7 173e
00000020: c6fa 2ebe 87ed 95bc d5d5 4e3d 3659 1bbd
00000030: 1c01 01bc fc15 a6bd 752a 203c ab3c 943d
00000040: 383d f03d dd2e 77bd 1965 793d 7635 373d
00000050: 69a4 0ebe be8c e63d 67e1 cabd 02f9 1f3e
00000060: 56bc 883c c694 0ebe e8aa c7bd e9dd 233e
00000070: d7be a7bc e3c1 27be 7255 68bd f5bb 703c
00000080: 2894 54bb 9fc3 3bbc 4185 803d 310b 13be
00000090: 6631 7a3d 9fef 03be 57c9 2dbe 0184 3a3e
000000a0: d7ab 1fbe 7de4 b3bd 2f43 543e d8a4 4a3e
000000b0: d004 f2bd 3d30 ffbc 7d5c 0abe e0b9 a2bd
000000c0: 3319 2c3d 9e84 193e 6ac7 c9bc c3ab f63d
000000d0: 7daa 45bd 410b 813d 2a25 b1bd a565 3f3d
000000e0: 3653 47bd 159d 0d3d 5af0 90bd affe 87bd
000000f0: 349d 253e 18a8 c7bd 0a9d f6bc b799 2dbe
00000100: bd4a 8b3d 0cb2 2f3e 04d1 b33d c153 c2bd
00000110: 6dcd d13d 99a3 e83d 4a1f dcbd 3d1b 06bd
00000120: 9c05 8a3d 166b 083e 25ad 1a3e 639d 0a3e
00000130: 2d6a 76bd c9a4 83be ad8b 01be 3ec3 0f3e
00000140: a33c 34bd 643a 6abc 318a 763e 2554 6a3d
00000150: 4fa5 3f3e a305 40be e960 e0bd 14e8 04be
00000160: b2c7 d33d 69d7 30be 1ae2 303e a044 cf3d
00000170: 601f 20be 75f8 b3bd ecb3 6b3d 1a90 aabd
00000180: 8a76 2c3d 8c6d f9bd 5448 083e 8aec d0bd
00000190: 33a9 28be 4058 12bd bdc7 70bd f2fc 073c
000001a0: 5cfe 7b3d 5ee9 ca3d a719 e0bc 7623 1d3c
000001b0: 4e63 543c 6df4 8fbc 370d 5bbd c71c 1b3e
000001c0: acff 1e3e cf9b 2b3e 1b98 1bbe ed49 b1bd
000001d0: 3805 263e a66a 16be d49c 343e a597 353e
000001e0: ac17 943d c94e 31be b4ba b7bd 4770 363e
000001f0: 1cde 193e 0f07 71be 7fe8 9ebc 01a4 0dbe
00000200: 7d8d d6bd 2e5b 0cbe 9b6c 053e 1f73 68be
00000210: 1505 473c 6837 9f3d 4146 873d beab f1bd
00000220: 8ba3 21be 5e44 f3bc 2510 0ebd 091c 48be
00000230: 1826 233e ec64 433e 3185 74bc 415f 94bc
00000240: 987d 113e 9991 723d 0b40 fc3d 48cd 1fbd
00000250: 54d3 993d 0699 213e 5e5f c8bd 4125 853d
00000260: 78c5 413c aa7b 2fbe 2245 643d ea05 463e
00000270: 62c3 383e 8f39 67be fc5d 0b3e 26b8 30be
00000280: 43f4 b1bd 5b4c dabc 9c28 1bbd efb8 0b3c
00000290: 9de4 7bbd f6d2 9b3d f5bd 72bd 19d6 3d3e
000002a0: 3ec1 17be 6bb0 513d 48a3 d83d 00a0 97bd
000002b0: 2617 fcbd 92fe a6bd 6892 debd b879 41bd
000002c0: 47b4 833d 3c46 56be a7b2 5f3d b4dd 8c3e
000002d0: ebf6 b2bc ef93 18be f8df 6b3e 6578 8cbe
000002e0: 2b32 183e 7fa1 043e ef98 91bd 817d ee3b
000002f0: 0b12 32be e529 4f3d ba4d 07be 447d a83c
00000300: 2460 903c 3416 3e3e 0c8f 323d fa36 03bc
00000310: 0c10 a03e 38a3 643d 1695 a8bd b3c7 2f3e
00000320: ab07 8e3c 7c58 053e 8abf 64bd 9abe ffbd
00000330: 79a4 5c3e 95d6 35be 1ba3 1abe 236e 20bd
00000340: 7f9d 17be d107 74bd 236a 4ebd 23e7 51be
00000350: 856e 323e 30e3 5cbe ab20 2f3c c68a 29be
00000360: da8a 54bd dd10 41be 5ecc 493d 8579 003e
00000370: 3d5b 3abe fb0e 01bd a89f 36bb 5f04 fbbd
00000380: 6897 cebd fa1b f3bd 4377 97ba 11e1 32be
00000390: 6a4d 3abe 17ee b8bd f0e6 9ebd 0e90 653e
000003a0: 6f7d 92bc 35f3 25be 8795 0abe 60d8 a8bd
000003b0: 04de eebb 7de0 7e3e ed59 6abc 115c c0bd
000003c0: fed1 863d 771e b5bb e7f6 01be 474a 513e
000003d0: e956 2d3d 60a1 f83d daa5 8d3d 5fad 343e
000003e0: b897 d33c 78e2 f5bc 2234 23be 4679 823e
000003f0: f107 5c3d 045f 96bd a3c3 5d3e 1b35 9cbd

vf.v_net.2.bias f4 [128]
0.15712534 0.1186293 -0.110231645 0.13593726 -0.12709847 -0.13174778 -0.032679524 -0.12142684
0.058313847 0.22927214 -0.12866725 0.2065838 -0.071711496 -0.084624656 0.17153889 0.15965989
0.13882165 0.159047 0.16996086 0.17128171 0.2265561 0.21523154 -0.086150065 -0.14330994
0.048175152 0.064262144 0.05231673 0.11557211 -0.10662876 0.07595366 0.16787753 0.23539305
0.22617781 -0.12857313 0.047158558 0.06757759 0.19624795 0.13408005 -0.116384104 0.21817277
-0.15631767 -0.1558078 0.14549023 0.08018135 0.14737509 -0.09689691 0.08430594 0.21884377
-0.045358907 0.13472977 0.10341536 0.060814317 0.06137792 -0.16741467 0.070500016 -0.003535852
0.21237646 0.06471692 0.09696787 0.23831634 0.15318747 -0.099045634 -0.120498076 -0.064792804
0.21288718 0.0122426525 0.100465484 -0.038578246 0.0031941163 0.075310044 0.03771148 0.14200781
0.21250133 0.14221989 -0.11496859 0.1047329 0.13542858 0.07936922 0.082061656 -0.05509819
0.120913155 0.004474853 -0.1316676 0.13464978 -0.033796348 0.04709652 -0.061732173 -0.028750323
0.1827992 0.19609882 0.101802334 -0.13409103 0.031397298 0.088198535 0.12606682 -0.11786362
-0.025781333 0.072978854 0.06324969 0.06662393 -0.19475889 -0.11411229 0.2034714 0.18735711
-0.033866648 0.1052493 0.23194692 0.1729772 -0.10560052 -0.07632705 -0.02479082 0.20646316
0.063540734 0.04043804 0.080544636 0.054386068 -0.024998263 0.10775332 0.16434172 0.17146137
0.22496463 0.23159947 0.14675403 -0.11181941 0.13833287 0.09440674 -0.0016708275 0.053611223
00000000: 77e5 203e ebf3 f23d 21c1 e1bd 2333 0b3e
00000010: 1a26 02be e4e8 06be f7da 05bd a3ae f8bd
00000020: 80da 6e3d 51c6 6a3e 59c1 03be b48a 533e
00000030: 7add 92bd b14f adbd e4a7 2f3e e27d 233e
00000040: 4327 0e3e 37dd 223e 380a 2e3e 7964 2f3e
00000050: 53fe 673e a865 5c3e 726f b0bd d7bf 12be
00000060: 4f53 453d df9b 833d 114a 563d 12b1 ec3d
00000070: 2e60 dabd 988d 9b3d 16e8 2b3e e00a 713e
00000080: 289b 673e ada8 03be 5529 413d 1f66 8a3d
00000090: 39f5 483e 484c 093e ca5a eebd af68 5f3e
000000a0: bd11 20be 148c 1fbe 64fb 143e 1f36 a43d
000000b0: 7fe9 163e e371 c6bd 98a8 ac3d 9518 603e
000000c0: 43ca 39bd 9af6 093e 6fcb d33d 6f18 793d
000000d0: 6a67 7b3d c06e 2bbe 5062 903d c1b9 67bb
000000e0: 3779 593e 4e8a 843d 1797 c63d 3309 743e
000000f0: 2ddd 1c3e 70d8 cabd b2c7 f6bd 17b2 84bd
00000100: 19ff 593e 6895 483c d9c0 cd3d 3904 1ebd
00000110: 6154 513b 273c 9a3d 5a77 1a3d 7f6a 113e
00000120: f399 593e 17a2 113e a774 ebbd 347e d63d
00000130: caad 0a3e 548c a23d f10f a83d a4ae 61bd
00000140: 51a1 f73d caa1 923b dfd3 06be a2e1 093e
00000150: 0a6e 0abd 48e8 403d e0da 7cbd cc85 ebbc
00000160: b72f 3b3e 21ce 483e be7d d03d 294f 09be
00000170: 749a 003d 6fa1 b43d a917 013e 7b62 f1bd
00000180: 6033 d3bc f075 953d 0e89 813d 2172 883d
00000190: e06e 47be b4b3 e9bd cf5a 503e 8bda 3f3e
000001a0: c1b7 0abd f28c d73d 7e83 6d3e ef20 313e
000001b0: 1645 d8bd 5b51 9cbd 1e16 cbbc 146b 533e
000001c0: a521 823d 5ca2 253d 96f4 a43d edc3 5e3d
000001d0: 28c9 ccbc c6ad dc3d 3249 283e 9293 2f3e
000001e0: 215d 663e 6928 6d3e b046 163e 9301 e5bd
000001f0: 22a7 0d3e 5258 c13d abff daba 7197 5b3d

vf.v_net.4.weight f4 [1, 128]
0.15961736 0.13301751 -0.042066973 0.10154783 -0.023145253 -0.04694382 0.09555852 0.12887377
0.096116304 0.13386783 -0.055960707 0.16013214 0.06616258 -0.06178921 0.16246144 0.15426728
0.1833885 0.14047974 0.114740185 0.09767707 0.09252378 0.15261452 -0.055244833 0.0507272
0.16312325 0.1268583 0.11914018 0.17408851 0.09630392 0.17525506 0.18821335 0.17265591
0.16026653 -0.05495135 0.18014412 0.1095124 0.19012277 0.1307375 -0.04613417 0.13822085
-0.03323529 -0.06240989 0.12519889 0.12608907 0.16036119 0.16173925 0.109699704 0.17479111
0.12332872 0.13692614 0.14340939 0.14460002 0.13005078 -0.02459422 0.13469306 0.13859938
0.16752568 0.13441005 0.13199246 0.20002586 0.1258176 0.019312687 -0.019723477 0.116450675
0.15616049 0.11417261 0.15273139 -0.030107701 0.15403005 0.18410851 0.18393669 0.11384309
0.16842645 0.09315794 -0.06345891 0.18849838 0.15511198 0.12512486 0.18944483 -0.004926078
0.14906019 0.10450558 0.11705432 0.13260628 0.21825403 0.07679906 0.021816373 0.10076199
0.09155557 0.09827884 0.13983819 0.017535947 0.15518726 0.15881048 0.18902564 0.029570354
-0.023898069 0.18311407 0.1482764 0.15051934 0.010679206 0.21788448 0.123347305 0.12622827
0.0905635 0.17819922 0.16054916 0.14889461 0.020174813 -0.049428582 0.2071092 0.12845485
0.15178882 0.10807356 0.10309294 0.20476398 0.20311691 0.13744555 0.16156423 0.16972186
0.11005496 0.16668019 0.14712307 0.17161804 0.12727134 0.13962299 -0.055533793 0.15923212
00000000: bc72 233e be35 083e 6b4e 2cbd 4ff8 cf3d
00000010: 1d9b bdbc 2a48 40bd 2fb4 c33d 7cf7 033e
00000020: a0d8 c43d a614 093e 0e37 65bd aef9 233e
00000030: 3f80 873d af16 7dbd 4b5c 263e 3ef8 1d3e
00000040: 32ca 3b3e ecd9 0f3e e7fc ea3d ea0a c83d
00000050: 1c7d bd3d fb46 1c3e 6848 62bd 53c7 4f3d
00000060: c809 273e 24e7 013e c4ff f33d 4244 323e
00000070: fd3a c53d 1076 333e 00bb 403e b6cc 303e
00000080: e91c 243e ab14 61bd b377 383e 0a48 e03d
00000090: 8baf 423e 0de0 053e 2ff7 3cbd c489 0d3e
000000a0: ba21 08bd 83a1 7fbd 2334 003e 7e1d 013e
000000b0: b935 243e f99e 253e 3daa e03d 71fc 323e
000000c0: c593 fc3d 5e36 0c3e e9d9 123e 0712 143e
000000d0: 082c 053e d179 c9bc faec 093e ffec 0d3e
000000e0: da8b 2b3e caa2 093e 0829 073e 94d3 4c3e
000000f0: 54d6 003e a435 9e3c 2193 a1bc b17d ee3d
00000100: 89e8 1f3e 54d3 e93d 9e65 1c3e 6da4 f6bc
00000110: 0eba 1d3e f186 3c3e e659 3c3e 9126 e93d
00000120: fc77 2c3e 97c9 be3d bff6 81bd b805 413e
00000130: add5 1e3e bb20 003e d3fd 413e f06a a1bb
00000140: 3ca3 183e 0607 d63d 2dba ef3d f1c9 073e
00000150: fc7d 5f3e d348 9d3d 40b8 b23c 4d5c ce3d
00000160: 7d81 bb3d 6b46 c93d be31 0f3e 8ca7 8f3c
00000170: 69e9 1e3e 379f 223e f08f 413e 873d f23c
00000180: e2c5 c3bc 4182 3b3e c5d5 173e be21 1a3e
00000190: d6f7 2e3c 1c1d 5f3e 839d fc3d fc41 013e
000001a0: 5b79 b93d db79 363e 0067 243e d477 183e
000001b0: a645 a53c a075 4abd 6f14 543e ab89 033e
000001c0: 876e 1b3e ac55 dd3d 6422 d33d a6ad 513e
000001d0: e1fd 4f3e 87be 0c3e 1871 253e 91cb 2d3e
000001e0: 7f64 e13d 36ae 2a3e 6ea7 163e a4bc 2f3e
000001f0: 6b53 023e 54f9 0e3e 6777 63bd bf0d 233e
