HW4/ppo_dm_control-master (2)/ppo_dm_control-master/training/walker/walk/ppo_ac_model.pth (torch, 166148 bytes, 12 tensors)

pi.log_std f4 [6]
-0.7697525 -0.74151474 -0.72965544 -0.7729868 -0.72587025 -0.75403583
00000000: 800e 45bf e9d3 3dbf b3ca 3abf 77e2 45bf
00000010: a2d2 39bf 7e08 41bf

pi.mu_net.0.weight f4 [128, 24]
0.13342716 -0.12875183 0.13755846 0.027985424 0.1562257 -0.04673817 -0.17200445 -0.16551656
-0.07711696 -0.09528133 -0.009641641 0.00223638 0.1328798 -0.051604286 0.13264595 0.06265944
-0.011317256 0.07295619 0.11180491 0.11264712 0.013719042 0.097273484 0.18744186 -0.15635192
-0.121789396 0.21160512 -0.05148341 -0.02765775 0.16969538 0.13638026 -0.115328796 -0.004006383
0.071199216 -0.20068747 0.04303084 -0.07014078 -0.06423577 0.1770182 0.1534934 0.13936114
0.2878254 0.017892398 0.09674046 -0.16459134 0.18658455 0.06501802 0.12012665 0.115159824
0.10855315 0.16445407 -0.18960232 -0.1665077 -0.072939344 -0.04390963 -0.08206716 -0.021112248
0.049158122 -0.044292673 -0.23834555 -0.03745526 0.05891787 0.12771843 -0.013308577 -0.21883947
-0.21136916 -0.17817432 -0.042379737 0.06023105 -0.04449579 0.15843232 0.08789141 -0.047988072
0.21838622 -0.09808965 0.08456847 -0.005328572 -0.013972665 -0.07737732 0.0740656 -0.005040716
0.0438736 0.13191552 0.09172644 0.045213796 0.23053698 -0.005882585 0.07618819 0.021635752
0.03515751 0.029518424 0.07050499 -0.06482179 -0.12716804 -0.078181766 -0.08288128 -0.12863664
-0.2634649 -0.09462056 -0.047261253 -0.06569503 0.2612959 0.15859237 0.044751275 0.098923236
0.13302734 -0.17904413 0.07148447 -0.21936002 -0.11936234 0.14420073 -0.063423425 -0.083551325
-0.1845242 -0.2237406 -0.059846625 -0.019848833 -0.08154589 -0.15093419 0.07065262 -0.13706896
0.26778746 0.13467139 0.15023004 0.13365881 -0.17571619 -0.09842837 0.0577659 0.04433167
-0.032865364 -0.13645187 -0.027882282 0.19537638 -0.16173252 0.016796708 0.13240817 -0.21518075
-0.22185883 0.12321626 0.123152584 -0.061894163 -0.11177916 -0.078000076 -0.019620627 -0.102168284
0.13044712 -0.15226248 0.07212961 0.015717937 0.13454299 0.01678463 0.039943885 -0.19898582
-0.035112552 0.12864232 0.042575084 0.061411142 0.18285589 -0.16894457 -0.16543965 0.11350179
-0.22590733 0.016733438 0.19375172 0.12257371 -0.12263412 0.23001315 -0.07453563 0.11437678
-0.18305565 0.13462499 -0.0474169 0.026192171 0.17016304 -0.051527314 -0.12361956 -0.22518685
0.13640863 0.0649515 0.01135311 -0.14302853 0.1049144 -0.0049403314 0.07410001 0.08889776
-0.056903716 0.16874903 -0.050666984 0.030953327 0.041588146 -0.16233449 -0.050981786 -0.16629498
0.13112858 0.03518179 -0.09629869 -0.06377405 0.16922098 0.16164039 -0.043125838 0.030321766
-0.02110267 0.054008383 -0.0052276244 0.23375529 -0.09234061 0.22708225 -0.14156081 -0.22700034
-0.14879787 0.19225481 0.08185377 -0.042219885 -0.036151424 0.070483506 0.10172899 -0.008479988
0.2036705 0.059630293 -0.1819322 -0.21542093 0.17583647 -0.0039908253 -0.032729227 0.052109115
0.012098446 -0.016124606 0.19055746 0.12615333 -0.025209384 0.19511439 0.17793262 0.073842265
-0.11866459 -0.14719176 0.19297661 0.086448446 -0.009492406 -0.17360976 -0.12753731 -0.12644961
-0.16909316 -0.16855724 -0.09745611 0.0183965 -0.06317085 0.048169058 0.06041371 -0.0121202525
-0.1921949 0.21600142 0.012576115 -0.16836333 0.10004825 -0.038801033 -0.018295482 -0.031449236
00000000: 21a1 083e 85d7 03be 20dc 0c3e b041 e53c
00000010: a1f9 1f3e 8670 3fbd ef21 30be 2c7d 29be
00000020: 7fef 9dbd dc22 c3bd f9f7 1dbc 3b90 123b
00000030: a411 083e 045f 53bd 57d4 073e 9853 803d
00000040: 036c 39bc 0e6a 953d f9f9 e43d 89b3 e63d
00000050: d5c5 603c 5237 c73d c2f0 3f3e b81a 20be
00000060: b86c f9bd 03af 583e 45e0 52bd 8192 e2bc
00000070: a0c4 2d3e 44a7 0b3e 8131 ecbd fa47 83bb
00000080: e5d0 913d 0481 4dbe 1b41 303d f8a5 8fbd
00000090: 0b8e 83bd 4244 353e 602d 1d3e b0b4 0e3e
000000a0: da5d 933e 1493 923c dd1f c63d a28a 28be
000000b0: 0510 3f3e 2b28 853d f604 f63d ead8 eb3d
000000c0: 1d51 de3d a666 283e 1c27 42be ff80 2abe
000000d0: 3961 95bd 96da 33bd d412 a8bd 98f3 acbc
000000e0: 075a 493d 3c6c 35bd db10 74be b06a 19bd
000000f0: dd53 713d 9fc8 023e 380c 5abc 7417 60be
00000100: 2871 58be 5473 36be 6096 2dbd d5b4 763d
00000110: 3841 36bd 153c 223e 6900 b43d 248f 44bd
00000120: a3a0 5f3e 3ae3 c8bd 3c32 ad3d 4d9b aebb
00000130: 9bed 64bc 0078 9ebd b5af 973d 972c a5bb
00000140: ceb4 333d dd14 073e 12db bb3d 1a32 393d
00000150: e311 6c3e b3c2 c0bb 8e08 9c3d 763d b13c
00000160: 5201 103d 9fd0 f13c ec64 903d 49c1 84bd
00000170: 5738 02be c31d a0bd a9bd a9bd 53b9 03be
00000180: dfe4 86be 6dc8 c1bd 0495 41bd 1e8b 86bd
00000190: 94c8 853e 0a66 223e 1d4d 373d 4498 ca3d
000001a0: 5238 083e 5857 37be 7366 923d ea9f 60be
000001b0: 3e74 f4bd 5ba9 133e 24e4 81bd f51c abbd
000001c0: e9f3 3cbe 411c 65be bc21 75bd 059a a2bc
000001d0: 8801 a7bd 7e8e 1abe 52b2 903d ce5b 0cbe
000001e0: 701b 893e 4ce7 093e e7d5 193e dbdd 083e
000001f0: f2ee 33be d094 c9bd f09b 6c3d 2095 353d
00000200: d59d 06bd 0aba 0bbe 6269 e4bc bf10 483e
00000210: 369d 25be 4099 893c 0296 073e 5858 5cbe
00000220: f62e 63be ce58 fc3d 6c37 fc3d bc84 7dbd
00000230: 79ec e4bd 81be 9fbd 70bb a0bc 9b3d d1bd
00000240: ee93 053e b2ea 1bbe b0b8 933d e7c2 803c
00000250: a3c5 093e ec7f 893c 339c 233d f0c2 4bbe
00000260: 2ed2 0fbd d0ba 033e 3663 2e3d 408a 7b3d
00000270: 933e 3b3e ceff 2cbe 0369 29be a073 e83d
00000280: 4054 67be 9014 893c da66 463e ed07 fb3d
00000290: 9927 fbbd 9188 6b3e 23a6 98bd 603e ea3d
000002a0: f172 3bbe 22db 093e 3938 42bd f790 d63c
000002b0: 383f 2e3e 4e0e 53bd 402c fdbd 6297 66be
000002c0: b4ae 0b3e 4b05 853d 6502 3a3c 1276 12be
000002d0: 5cdd d63d 81e2 a1bb bfc1 973d 0710 b63d
000002e0: df13 69bd 8ccc 2c3e 2f88 4fbd d591 fd3c
000002f0: 5558 2a3d 033b 26be 47d2 50bd 3b49 2abe
00000300: 9246 063e c81a 103d 3f38 c5bd f89b 82bd
00000310: 4448 2d3e 0f85 253e b8a4 30bd 5a65 f83c
00000320: 82df acbc e537 5d3d 7e4c abbb 8c5d 6f3e
00000330: 131d bdbd 4088 683e 51f5 10be c772 68be
00000340: 785e 18be 72de 443e f3a2 a73d c2ee 2cbd
00000350: 8413 14bd a859 903d 4a57 d03d a6ef 0abc
00000360: 008f 503e e53e 743d 6f4c 3abe 4e97 5cbe
00000370: 7a0e 343e 78c5 82bb 150f 06bd 5e70 553d
00000380: 8f38 463c c017 84bc 7f21 433e 572e 013e
00000390: e983 cebc 11cc 473e f833 363e 9d3a 973d
000003a0: 6c06 f3bd 70b9 16be a99b 453e e20b b13d
000003b0: 0986 1bbc c2c6 31be 2499 02be 027c 01be
000003c0: c226 2dbe 459a 2cbe 1297 c7bd 42b4 963c
000003d0: b85f 81bd eb4c 453d 5e74 773d 0694 46bc
000003e0: bdce 44be 7a2f 5d3e 0d0c 4e3c 7067 2cbe
000003f0: 19e6 cc3d d5ed 1ebd 68e0 95bc ead0 00bd

pi.mu_net.0.bias f4 [128]
-0.16697913 -0.004394944 -0.13252638 -0.059991088 -0.12701038 -0.070869334 -0.026403742 0.16305369
0.039006524 -0.13081762 0.17233053 -0.1658839 -0.10752548 0.050761648 0.045165148 -0.039947737
-0.15917991 0.14717522 -0.1658916 -0.040396467 -0.05995386 0.16676526 0.21598418 0.108967915
-0.103889786 0.16004606 0.20722935 0.015170279 -0.17242764 0.14158967 0.003701473 -0.041889433
-0.21583587 -0.13481928 -0.06468472 -0.056173544 -0.20567267 0.21519987 0.13108861 0.20897104
0.17859906 -0.13006173 0.1880631 -0.05267365 0.12377045 -0.15655138 0.011827093 -0.12658659
0.028874854 0.09110004 -0.060459923 -0.067802384 0.18057734 0.071161464 0.19720769 -0.0067256684
-0.14887223 -0.037941158 0.03855333 -0.054275196 -0.008100713 -0.054424714 0.068336084 0.21683258
-0.05499079 0.070462346 -0.12190555 0.1278178 0.063680075 -0.23022732 -0.011681343 0.061022673
0.08060821 0.024440574 0.040114287 -0.12279177 0.1763345 0.1714873 -0.1419619 0.06563821
-0.1431197 -0.037855335 0.07636142 0.006564516 -0.09837701 -0.011996473 -0.029652953 -0.1984088
-0.19689506 0.0873986 -0.110898614 -0.123531125 -0.14562626 0.015202118 -0.052716747 0.1462093
0.10370393 -0.046419177 -0.13368772 0.0039565843 0.11376121 0.11713944 -0.17827737 -0.114117
-0.14732926 -0.09150844 0.066684544 0.13680314 -0.14343561 -0.0037673991 -0.033121016 -0.06343948
0.0029155903 0.18689956 -0.040773965 0.14013776 -0.017064994 0.005948721 -0.14953014 -0.06593027
-0.15640219 0.03939589 0.0318113 -0.13493638 0.15496573 0.008102685 -0.084437124 0.10216919
00000000: 94fc 2abe 7603 90bb ffb4 07be 37b9 75bd
00000010: 020f 02be f123 91bd a94c d8bc 8cf7 263e
00000020: 4ec5 1f3d 0ef5 05be 6a77 303e 78dd 29be
00000030: 5236 dcbd 72eb 4f3d 17ff 383d 3da0 23bd
00000040: 0f00 23be 1ab5 163e 7ddf 29be c476 25bd
00000050: 2e92 75bd 83c4 2a3e f52a 5d3e 922a df3d
00000060: 2bc4 d4bd 1de3 233e ee33 543e c38c 783c
00000070: df90 30be e2fc 103e 6994 723b 4194 2bbd
00000080: 1404 5dbe 110e 0abe 6c79 84bd 3b16 66bd
00000090: db9b 52be 5b5d 5c3e 183c 063e 81fc 553e
000000a0: ace2 363e e72e 05be 9d93 403e 53c0 57bd
000000b0: 5d7b fd3d 014f 20be 6cc6 413c ea9f 01be
000000c0: f58a ec3c a892 ba3d d3a4 77bd fadb 8abd
000000d0: 44e9 383e 1abd 913d d0f0 493e ff62 dcbb
000000e0: f671 18be 3068 1bbd 19ea 1d3d ab4f 5ebd
000000f0: dab8 04bc 73ec 5ebd caf3 8b3d 5c09 5e3e
00000100: 063e 61bd 904e 903d 9ea9 f9bd abe2 023e
00000110: b36a 823d b6c0 6bbe 1b63 3fbc e9f2 793d
00000120: eb15 a53d 9937 c83c e14e 243d 407a fbbd
00000130: 0891 343e 5e9a 2f3e 765e 11be 536d 863d
00000140: f88d 12be 320e 1bbd 6063 9c3d 271b d73b
00000150: e379 c9bd db8c 44bc c0ea f2bc ad2b 4bbe
00000160: dc9e 49be 0afe b23d d01e e3bd e3fd fcbd
00000170: 0d1f 15be 4e12 793c 84ed 57bd e4b7 153e
00000180: ba62 d43d 0922 3ebd 6fe5 08be 3ca6 813b
00000190: a3fb e83d cde6 ef3d 588e 36be 2cb6 e9bd
000001a0: 7bdd 16be c768 bbbd e891 883d 1f16 0c3e
000001b0: c9e0 12be 78e6 76bb e7a9 07bd 8fec 81bd
000001c0: 7d13 3f3b 9962 3f3e 9a02 27bd 4680 0f3e
000001d0: e3cb 8bbc 7ded c23b 6e1e 19be 7306 87bd
000001e0: e527 20be 965d 213d 914c 023d c32c 0abe
000001f0: 56af 1e3e 20c1 043c 5fed acbd 153e d13d

pi.mu_net.2.weight f4 [128, 128]
0.017900577 -0.03703355 -0.0785478 -0.07808283 0.014600369 -0.100259 0.05331067 0.048789978
0.081963584 -0.11007199 0.006234568 -0.084188186 0.023892948 -0.03729962 -0.04462514 0.08286292
0.02000497 0.11441376 -0.048946094 0.0323235 0.02807824 0.0672612 -0.0744498 -0.039703142
-0.050425764 0.10489955 -0.010027888 -0.03458619 0.0335674 0.04518356 -0.09439267 -0.038840894
-0.07344692 0.0028952404 0.011291919 -0.0018419188 0.023270559 0.032847926 -0.0076155746 0.025505366
-0.072757006 -0.044037554 0.081820205 -0.06781043 -0.022958394 0.031739626 0.043904662 0.030785758
0.027502634 -0.07945426 0.070446424 -0.06430296 -0.012052613 0.06681477 -0.0725112 -0.05220418
-0.0028700791 -0.08179434 0.046379857 0.056240078 -0.0541696 0.04578447 0.068803065 0.017843662
0.02731145 0.03479342 0.050639004 0.08936855 -0.07907571 -0.054093726 0.026156956 0.033215452
0.0494656 0.091442764 -0.05018103 0.04213345 -0.07666599 0.025844203 0.121733986 -0.049925998
-0.12481837 0.08186571 0.007855255 0.06504002 0.044626422 -0.046949554 -0.087928616 -0.015537914
0.011761037 -0.038070958 0.03668529 -0.050073866 -0.001784494 -0.010763126 0.035449896 -0.058295865
0.006062382 -0.0010913317 0.02570584 0.08870551 -0.04399081 -0.012435754 0.06323072 0.06357581
-0.022680607 0.035630967 0.023845013 -0.019080326 0.038747262 -0.029249586 0.0972185 0.034301706
-0.06987247 0.074348114 0.084715754 0.035495307 0.038236853 -0.017576966 -0.027367681 -0.08864849
0.04254216 0.057194572 0.048953246 -0.018742695 -0.09258298 -0.06252567 0.077688515 0.040478744
-0.012302086 0.03244288 -0.072891384 0.080827124 0.06630024 0.03275084 0.005620684 -0.108685516
-0.040440284 -0.057055317 0.0057522566 0.00890262 0.092658505 -0.11216708 -0.034673084 -0.073959574
0.027795056 -0.06405986 -0.0007485155 0.004960033 0.0068308264 0.07515178 0.098721415 0.029645251
-0.03890654 -0.055791233 0.0037342566 0.044414297 -0.13068114 -0.08488261 0.062217783 -0.0008114838
0.00081516267 0.022608658 0.026905444 -0.0009118166 0.022853363 0.022517055 0.078263305 0.058094587
-0.05985463 0.024607325 -0.0065402864 0.015403591 0.056342255 0.021175101 0.09247604 -0.07090472
0.042919125 0.08711671 -0.0494535 -0.07324962 -0.0015755004 -0.039612476 0.021910477 0.036086656
-0.0069990293 -0.048316315 -0.040586438 -0.055998247 -0.04817167 0.032172 -0.049705118 0.06691838
-0.00197273 -0.04145249 0.029322844 -0.08440001 -0.11275893 -0.02872914 -0.063114904 -0.014013017
-0.04120309 0.04345351 0.021671845 0.004689758 -0.056082536 -0.09058181 0.09744227 0.045646917
0.02304883 -0.057496108 0.07441338 0.030363062 0.010982515 -0.04390656 0.013044893 -0.02454549
-0.06934216 0.05723082 -0.008551888 0.03250156 -0.058996543 0.08719786 -0.034132354 0.034021713
0.049959067 -0.0789905 0.0054314784 -0.017277397 -0.0067993593 0.090715304 0.02846734 0.02569309
-0.0738195 0.016962666 0.0845873 -0.025102304 0.01231228 -0.10685812 0.09714437 0.0069697965
0.043104522 -0.010366811 -0.03324785 0.0812008 -0.016679754 -0.109046645 -0.012829221 -0.0015483919
0.025127983 0.05142754 0.013267822 0.012156542 0.042795748 0.055184256 -0.072604105 0.045128908
00000000: 3ba4 923c 7eb0 17bd abdd a0bd e4e9 9fbd
00000010: 6336 6f3c 9754 cdbd 4a5c 5a3d 00d8 473d
00000020: 86dc a73d 6c6d e1bd 594b cc3b db6a acbd
00000030: 25bb c33c 7dc7 18bd dac8 36bd 09b4 a93d
00000040: 76e1 a33c c351 ea3d b37b 48bd a565 043d
00000050: 5604 e63c 3dc0 893d 2379 98bd c39f 22bd
00000060: 3f8b 4ebd 93d5 d63d 034c 24bc 40aa 0dbd
00000070: f87d 093d 6612 393d f250 c1bd a117 1fbd
00000080: 576b 96bd 13be 3d3b be01 393c 8a6c f1ba
00000090: e6a1 be3c 8c8b 063d 128c f9bb a1f0 d03c
000000a0: a001 95bd b960 34bd 5a91 a73d 32e0 8abd
000000b0: 3e13 bcbc 6901 023d 60d5 333d 6a32 fc3c
000000c0: 344d e13c eab8 a2bd 3746 903d 45b1 83bd
000000d0: 5378 45bc 2fd6 883d c180 94bd 0dd4 55bd
000000e0: f017 3cbb ca83 a7bd cef8 3d3d ff5b 663d
000000f0: f1e0 5dbd 7f88 3b3d 9fe8 8c3d df2c 923c
00000100: 43bc df3c 8c83 0e3d d86a 4f3d dc06 b73d
00000110: 72f2 a1bd 6291 5dbd 1d47 d63c ed0c 083d
00000120: 719c 4a3d 5846 bb3d a08a 4dbd 2094 2c3d
00000130: 0f03 9dbd 39b7 d33c ab4f f93d 347f 4cbd
00000140: c6a0 ffbd 36a9 a73d 54b3 003c b433 853d
00000150: 32ca 363d 2d4e 40bd eb13 b4bd bc92 7ebc
00000160: 5db1 403c 4bf0 1bbd 5143 163d 411a 4dbd
00000170: afe5 e9ba d357 30bc e933 113d a5c7 6ebd
00000180: f2a6 c63b 040b 8fba 0e95 d23c 3cab b53d
00000190: b52f 34bd 55bf 4bbc 1c7f 813d 0934 823d
000001a0: aecc b9bc c7f1 113d 9e56 c33c 584e 9cbc
000001b0: 73b5 1e3d d49c efbc 7e1a c73d f27f 0c3d
000001c0: 4c19 8fbd d343 983d 747f ad3d 8763 113d
000001d0: 3f9e 1c3d 92fd 8fbc 3032 e0bc 578d b5bd
000001e0: b040 2e3d db44 6a3d 3383 483d 488a 99bc
000001f0: 259c bdbd 750d 80bd 281b 9f3d 0acd 253d
00000200: b08e 49bc d3e2 043d 1448 95bd b188 a53d
00000210: 6cc8 873d bf25 063d b72d b83b 8396 debd
00000220: b6a4 25bd d6b2 69bd 6d7d bc3b 4bdc 113c
00000230: bec3 bd3d dbb7 e5bd 5d05 0ebd 1e78 97bd
00000240: 75b2 e33c d131 83bd 0638 44ba c687 a23b
00000250: 20d5 df3b 2de9 993d 742e ca3d 99da f23c
00000260: 775c 1fbd 5985 64bd 6eba 743b c4eb 353d
00000270: 47d1 05be efd6 adbd 13d8 7e3d c2b9 54ba
00000280: a4b0 553a cb35 b93c ce68 dc3c fa06 6fba
00000290: fa36 bb3c b075 b83c 8348 a03d 97f4 6d3d
000002a0: 212a 75bd 4d95 c93c e64f d6bb 585f 7c3c
000002b0: 23c7 663d 6877 ad3c 1464 bd3d 7e36 91bd
000002c0: f7cb 2f3d 3f6a b23d c18f 4abd e603 96bd
000002d0: 0581 ceba b140 22bd 9a7d b33c 9acf 133d
000002e0: 1d58 e5bb 54e7 45bd f73d 26bd 6b5e 65bd
000002f0: a84f 45bd c9c6 033d 9897 4bbd 810c 893d
00000300: eb48 01bb 16ca 29bd 7636 f03c ead9 acbd
00000310: 27ee e6bd 6059 ebbc 6342 81bd da96 65bc
00000320: 92c4 28bd 4ffc 313d 2789 b13c 8bac 993b
00000330: cdb6 65bd f582 b9bd d08f c73d 43f8 3a3d
00000340: e6d0 bc3c 0a81 6bbd 0b66 983d f5bb f83c
00000350: 02f0 333c 5dd7 33bd 3fba 553c a013 c9bc
00000360: 4303 8ebd dd6a 6a3d 381d 0cbc 5b20 053d
00000370: 5ca6 71bd cb94 b23d 5ece 0bbd 5a5a 0b3d
00000380: e1a1 4c3d c5c5 a1bd 8bfa b13b 5489 8dbc
00000390: 29cd debb f2c8 b93d 5734 e93c 517a d23c
000003a0: ae2e 97bd 4af5 8a3c 1b3c ad3d 59a3 cdbc
000003b0: 72b9 493c 6ed8 dabd a1f3 c63d e462 e43b
000003c0: 5e8e 303d 8fd9 29bc e62e 08bd 9b4c a63d
000003d0: fba3 88bc d953 dfbd a731 52bc 69f3 caba
000003e0: 33d9 cd3c afa5 523d 4761 593c 3c2c 473c
000003f0: 984a 2f3d e308 623d 76b1 94bd 17d9 383d

pi.mu_net.2.bias f4 [128]
0.0026553054 0.07439111 0.05303911 -0.0071729026 0.10260848 0.1213391 0.05855435 -0.031661928
-0.0074046985 -0.07016876 -0.040617403 -0.053263545 -0.025467075 0.03642617 -0.03322253 -0.04051714
0.04040584 0.03883783 0.022012668 0.048567247 0.0332835 0.015713539 -0.007466121 -0.04071018
-0.08505484 0.047190107 -0.049206447 -0.050044373 0.078575075 -0.07139499 0.09812041 -0.035005283
0.015623837 -0.027514262 0.03905246 -0.081560135 0.05436018 0.0821535 0.012130985 -0.053077117
-0.03551728 -0.060220353 0.07354393 0.053379558 0.01073661 0.09803761 0.028458405 0.049776748
0.019252256 -0.033869598 -0.09969493 0.06962339 -0.04498849 0.045750335 0.12762997 0.058235884
-0.028111722 0.07131343 0.057966627 -0.011022083 0.060589857 -0.03195733 -0.008609412 0.0054656747
-0.05446165 0.007809483 0.034942973 0.030753775 0.089486495 0.010268337 0.017977301 -0.084368475
0.057738084 0.08676107 0.0579411 0.065695316 0.026049847 0.023461835 0.035758786 0.067670636
-0.011317551 0.067946166 0.048178196 0.031867024 -0.024985708 0.04761439 0.004821053 0.026958559
-0.026932111 0.019311521 0.07853319 -0.038613018 0.09436943 0.04629343 0.008051081 0.079293385
-0.0237024 -0.028115917 0.02623553 0.011651478 -0.011711721 -0.00979523 0.023213878 0.07465372
-0.075045206 0.052157015 0.02865235 0.08063709 0.11448913 0.0022231666 -0.074307956 0.054430492
-0.032993253 0.075537875 -0.02910213 -0.0312468 0.021845622 -0.011787131 -0.024565015 0.11868659
-0.0011289205 0.018970402 -0.07966495 0.07124583 0.10422413 0.07246669 0.025222871 0.08730413
00000000: a204 2e3b 5e5a 983d 8a3f 593d ab0a ebbb
00000010: 6524 d23d a280 f83d b0d6 6f3d f0af 01bd
00000020: 1da3 f2bb a4b4 8fbd 6f5e 26bd e02a 5abd
00000030: 54a0 d0bc 9c33 153d 5914 08bd 4df5 25bd
00000040: 9880 253d 6b14 1f3d e953 b43c 73ee 463d
00000050: 4754 083d aeb9 803c 5da6 f4bb b8bf 26bd
00000060: 3b31 aebd 6a4a 413d b38c 49bd 54fb 4cbd
00000070: f8eb a03d 8937 92bd 5bf3 c83d b361 0fbd
00000080: 1ffb 7f3c 9765 e1bc 79f5 1f3d 0009 a7bd
00000090: c8a8 5e3d 1840 a83d 0ac1 463c 6467 59bd
000000a0: 917a 11bd 9ea9 76bd 339e 963d 86a4 5a3d
000000b0: 9be8 2f3c f1c7 c83d 9a21 e93c b4e2 4b3d
000000c0: e8b6 9d3c d9ba 0abd db2c ccbd b596 8e3d
000000d0: da45 38bd b464 3b3d 6eb1 023e c088 6e3d
000000e0: 8e4a e6bc c70c 923d 6a6e 6d3d f895 34bc
000000f0: 122d 783d b0e5 02bd 7e0e 0dbc 6719 b33b
00000100: 2e13 5fbd b1e6 ff3b 5d20 0f3d 57ef fb3c
00000110: b244 b73d 873c 283c 2245 933c 61c9 acbd
00000120: c57e 6c3d caaf b13d a653 6d3d 448b 863d
00000130: 7d66 d53c 0933 c03c ce77 123d e796 8a3d
00000140: 406d 39bc 5c27 8b3d 8056 453d ff86 023d
00000150: d4ae ccbc 4e07 433d ecf9 9d3b 32d8 dc3c
00000160: bba0 dcbc 3233 9e3c 02d6 a03d af28 1ebd
00000170: c244 c13d 2e9e 3d3d aee8 033c 9264 a23d
00000180: 892b c2bc 5a53 e6bc e5eb d63c d7e5 3e3c
00000190: 85e2 3fbc 2c7c 20bc 082b be3c 0de4 983d
000001a0: 4db1 99bd 98a2 553d 55b8 ea3c 0f25 a53d
000001b0: 4779 ea3d 8cb2 113b c52e 98bd 82f2 5e3d
000001c0: ef23 07bd 9ab3 9a3d 9767 eebc 4af9 ffbc
000001d0: 97f5 b23c d01e 41bc 923c c9bc f411 f33d
000001e0: 49f8 93ba d167 9b3c 6127 a3bd 55e9 913d
000001f0: 7673 d53d 6a69 943d 32a0 ce3c 82cc b23d

pi.mu_net.4.weight f4 [6, 128]
0.09613544 0.059819687 -0.06052016 -0.007663127 -0.10313786 0.04336693 -0.08092244 0.08873744
0.062071726 -0.050948173 0.020625282 0.0291077 -0.08119012 0.00040151662 0.1221111 0.06873811
-0.07501124 0.0972291 -0.0869292 -0.10928139 -0.0045563052 0.11827288 0.014278442 0.08072078
0.07434033 0.1006473 -0.07135284 0.08040789 -0.00615907 -0.11760891 -0.013324873 -0.11433529
-0.042720962 0.09742008 0.11400793 0.020359937 0.11922532 0.093512855 0.074581094 -0.053407036
-0.053039316 -0.047994748 0.0074026496 -0.09203225 0.08432355 -0.1022723 -0.038259305 0.021308715
-0.04404594 0.00769552 -0.012722564 -0.042480532 0.018505856 -0.013259876 -0.070326716 -0.058664683
0.011724532 0.04928524 -0.08062388 -0.09542133 0.06382478 0.06426396 -0.02245827 0.10856905
-0.02597254 0.0546916 -0.06688462 0.052492045 -0.060473673 0.123697475 0.085709736 -0.05499364
-0.048225205 -0.07001831 -0.052867945 -0.055607446 -0.0062891557 0.0548737 -0.043268327 0.07141752
-0.043819696 0.040113866 -0.096863866 -0.07631466 -0.08910323 0.0052187103 -0.05433063 -0.046050645
-0.010682812 -0.030121395 -0.019991124 0.10183465 0.075345166 0.09859812 -0.053131796 -0.044772107
0.07727464 0.13275976 -0.068730816 0.03551535 0.11135747 0.017689118 -0.06340955 0.07735922
-0.038998514 0.004563629 -0.04790695 -0.010440439 -0.088928625 -0.09188256 0.080188446 0.008709567
-0.07575276 0.0011064336 -0.090644784 -0.053193726 -0.04834312 -0.09777662 0.052024 0.07101769
-0.120858625 -0.05649786 0.07129887 0.05950734 0.028468855 -0.023810048 0.07297016 0.0655351
-0.08465286 -0.075244956 -0.08000059 0.007078059 0.039939344 -0.0007353021 0.015409994 -0.09473683
0.028428886 -0.07763052 0.04154629 -0.08680776 0.09253199 -0.039445076 0.072368294 -0.062072374
-0.08782585 0.051739473 -0.03599939 -0.109472506 0.038070876 0.09435302 0.078028955 -0.04861812
0.10160095 -0.11057511 -0.08771065 -0.02065826 0.042226225 -0.013374518 -0.066827916 0.017939566
-0.0387181 -0.07094851 -0.05924607 -0.07049164 0.019838413 -0.08553739 0.11991225 0.05524394
-0.03826172 -0.0017408204 0.09510216 -0.09314495 -0.05968261 0.06688737 -0.0827756 0.047857955
-0.06345462 0.09724623 0.040223133 -0.038618766 -0.074730985 -0.077304624 -0.10349773 0.060133796
-0.081018664 -0.14225991 -0.07201626 0.034346115 0.09714684 -0.07844025 0.056763824 0.07000153
0.12622073 0.062382754 0.013890868 -0.0633453 0.06958644 0.09356199 0.019268865 0.0780302
-0.019529503 -0.03242809 -0.056609716 0.031934332 -0.019809283 0.0833975 -0.10266678 -0.10970389
-0.00059761317 -0.057912987 -0.123831 0.053983252 0.029305972 0.055617563 0.07472288 0.10586915
-0.10369617 -0.012350583 0.075048804 -0.030535832 -0.06750514 -0.06504999 -0.016251935 0.09768418
-0.12483848 0.06796022 0.093647756 -0.15568778 -0.1470219 0.039345495 -0.011589948 0.028238881
-0.063389145 0.00816895 -0.0945631 -0.009400233 -0.03489967 0.005013792 0.09794279 0.0146336565
-0.09361554 0.052311163 -0.0962041 -0.11220981 -0.035462163 0.066766635 -0.012613114 -0.059164032
-0.06253719 0.12294184 -0.07018366 -0.07318888 -0.052547112 0.037441544 -0.030752249 0.07951696
00000000: a8e2 c43d 7d05 753d fde3 77bd f81a fbbb
00000010: f139 d3bd 86a1 313d aaba a5bd fabb b53d
00000020: ec3e 7e3d 08af 50bd 5af6 a83c 4573 ee3c
00000030: 0147 a6bd a682 d239 6215 fa3d 91c6 8c3d
00000040: 7e9f 99bd 0d20 c73d f007 b2bd ecce dfbd
00000050: 0f4d 95bb 0d39 f23d 20f0 693c f050 a53d
00000060: be3f 983d 2c20 ce3d 7021 92bd e4ac a43d
00000070: 06d2 c9bb f1dc f0bd 9150 5abc 9f28 eabd
00000080: 2dfc 2ebd 2e84 c73d fd7c e93d e2c9 a63c
00000090: 682c f43d ab83 bf3d f9bd 983d 56c1 5abd
000000a0: c13f 59bd 2496 44bd ed91 f23b 677b bcbd
000000b0: d3b1 ac3d 2474 d1bd cab5 1cbd 9d8f ae3c
000000c0: 8469 34bd b32a fc3b 4d72 50bc 1100 2ebd
000000d0: 9899 973c f33f 59bc 7407 90bd 614a 70bd
000000e0: 4018 403c 52df 493d 221e a5bd 426c c3bd
000000f0: 91b6 823d d39c 833d 68fa b7bc 7359 de3d
00000100: 5dc4 d4bc 4d04 603d cefa 88bd e601 573d
00000110: 3eb3 77bd 1a55 fd3d 9688 af3d 0341 61bd
00000120: cb87 45bd c265 8fbd 0f8c 58bd a2c4 63bd
00000130: 4315 cebb 3fc3 603d 213a 31bd 5943 923d
00000140: 487c 33bd 704e 243d 9060 c6bd dc4a 9cbd
00000150: c17b b6bd b701 ab3b cb89 5ebd 9a9f 3cbd
00000160: f606 2fbc 25c1 f6bc 6dc4 a3bc af8e d03d
00000170: 914e 9a3d d0ed c93d baa0 59bd f562 37bd
00000180: 2b42 9e3d 2df2 073e bec2 8cbd 8b78 113d
00000190: 630f e43d c5e8 903c dedc 81bd 836e 9e3d
000001a0: e8bc 1fbd 7f8a 953b 143a 44bd 600e 2bbc
000001b0: 3620 b6bd ec2c bcbd d739 a43d 92b2 0e3c
000001c0: 4324 9bbd c005 913a f9a3 b9bd aae1 59bd
000001d0: 6f03 46bd 1c3f c8bd 1e17 553d b971 913d
000001e0: ba84 f7bd 4d6a 67bd 2405 923d f8bd 733d
000001f0: 8437 e93c 4a0d c3bc 6171 953d 4437 863d
00000200: 7b5e adbd 071a 9abd 59d7 a3bd 10ef e73b
00000210: 7097 233d 4ac1 40ba 337a 7c3c 6205 c2bd
00000220: b2e3 e83c c0fc 9ebd 712c 2a3d 44c8 b1bd
00000230: 6981 bd3d 2991 21bd d435 943d 9a3f 7ebd
00000240: 0ade b3bd c5ec 533d 1974 13bd 1f33 e0bd
00000250: 35f0 1b3d 283c c13d a5cd 9f3d cb23 47bd
00000260: 2914 d03d 3475 e2bd a4a1 b3bd 833b a9bc
00000270: 68f5 2c3d cb20 5bbc 13dd 88bd fff5 923c
00000280: df96 1ebd 744d 91bd 02ac 72bd ec5d 90bd
00000290: 2b84 a23c 3a2e afbd 8e94 f53d 7847 623d
000002a0: 52b8 1cbd 3d2c e4ba ecc4 c23d c8c2 bebd
000002b0: c175 74bd 3ffc 883d 4186 a9bd b406 443d
000002c0: 7ff4 81bd 0829 c73d 03c1 243d b62e 1ebd
000002d0: 8f0c 99bd e351 9ebd 9ef6 d3bd db4e 763d
000002e0: 1ded a5bd 95ac 11be 437d 93bd 83ae 0c3d
000002f0: ecf4 c63d 48a5 a0bd 2f81 683d f65c 8f3d
00000300: 0240 013e 0f85 7f3d 8696 633c 2ebb 81bd
00000310: 5683 8e3d 6e9d bf3d bdd9 9d3c 4cce 9f3d
00000320: 56fc 9fbc 51d3 04bd 97df 67bd 93cd 023d
00000330: 1447 a2bc 4fcc aa3d f642 d2bd 6fac e0bd
00000340: 24a9 1cba 2b36 6dbd 1b9b fdbd 8b1d 5d3d
00000350: 1413 f03c 3ecf 633d 4f08 993d edd1 d83d
00000360: a85e d4bd 1a5a 4abc 30b3 993d 4826 fabc
00000370: 2340 8abd ee38 85bd c722 85bc a50e c83d
00000380: 51ab ffbd ba2e 8b3d 65ca bf3d 9e6c 1fbe
00000390: e98c 16be be28 213d c4e3 3dbc 3a55 e73c
000003a0: 2bd2 81bd 0fd7 053c 4caa c1bd 6f03 1abc
000003b0: f5f2 0ebd bc4a a43b 3b96 c83d 01c2 6f3c
000003c0: 81b9 bfbd 3b44 563d a806 c5bd 42ce e5bd
000003d0: c640 11bd f2bc 883d 3ca7 4ebc fc55 72bd
000003e0: 8013 80bd eec8 fb3d 73bc 8fbd 0de4 95bd
000003f0: a43b 57bd 4e5c 193d 24ec fbbc cad9 a23d

pi.mu_net.4.bias f4 [6]
0.044671513 -0.042177174 0.024251388 -0.04017537 0.0041348184 0.055070344
00000000: 7af9 363d f9c1 2cbd d9aa c63c ee8e 24bd
00000010: 5f7d 873b 7191 613d

vf.v_net.0.weight f4 [128, 24]
0.26809764 0.25802875 -0.07412166 0.0870169 -0.14268158 0.011769866 -0.17470783 -0.04644875
0.2896843 -0.17704181 -0.21141152 0.17698574 0.046090774 -0.051979918 -0.18420322 0.23485282
-0.0855773 0.13354667 0.26968637 -0.3373732 -0.08160267 0.16846472 -0.17137583 0.18039094
0.05655912 0.3719744 0.18326189 0.07266153 -0.18892907 0.12948813 -0.0925879 -0.14963356
-0.061310258 0.016594902 -0.22485255 -0.047781102 0.050774306 0.004772543 0.21119757 -0.1240719
0.18454847 0.2795524 0.1236244 0.11935685 -0.37827045 0.3480704 0.14901534 -0.3887709
-0.012623508 -0.11801347 -0.19161397 -0.20248517 0.0067496123 0.023519237 0.061736494 -0.22551425
-0.009803275 -0.06913467 0.21570723 -0.003791911 0.2520329 -0.13166195 -0.3681462 -0.24464206
-0.03904717 -0.22735035 -0.30237088 0.23210996 0.122145265 -0.28148854 0.018895661 0.13521211
0.2373994 -0.023826515 0.28928375 -0.01338538 -0.010924626 0.14488599 -0.017115237 0.0049364218
0.09954975 -0.012796663 -0.17760986 0.17081271 -0.22333312 -0.021674149 -0.27325746 0.26146123
0.04873162 0.12512891 0.22282907 -0.05242212 0.15458721 0.3332416 -0.30003488 -0.0137755675
0.18922357 0.108926944 0.15056632 -0.024430726 -0.094655246 0.20671256 -0.118964285 0.2149757
0.15943941 0.14573666 -0.16410643 0.15083404 -0.078323595 0.01759328 -0.13039565 0.23132317
-0.0013614352 0.17124115 0.2664065 -0.23183945 0.1473395 0.26535016 -0.20844866 -0.047170077
-0.77672154 0.02591714 -0.05300606 0.26573434 -0.21541353 0.03953421 -0.06506768 -0.08385818
-0.15692146 0.4480231 0.043832917 -0.059932403 -0.11620712 0.12799469 0.12157497 -0.5446304
-0.10382344 -0.059893128 -0.03319912 0.020818207 0.015523208 0.09205221 0.11235847 0.019225875
-0.24349846 -0.030092547 -0.012704658 -0.027742315 -0.12730433 -0.20380732 0.17757851 0.13318306
0.03164594 0.198014 0.16990837 -0.045942985 0.027999923 0.08709738 -0.24027508 -0.01805885
-0.06054591 -0.068403706 -0.06732456 -0.12716901 0.021898508 -0.099088885 0.04252077 0.18506545
-0.03078675 -0.008736835 0.20177454 0.017652264 -0.16863266 0.08624691 -0.1844911 -0.021816056
0.35250542 -0.08238307 -0.10486017 0.18214777 -0.07829335 0.24151763 -0.08882583 0.045343835
-0.089642845 -0.1062998 0.16724934 0.061389003 0.1623467 -0.10553069 -0.10676238 0.02471183
0.3339912 0.02588088 -0.08877686 -0.05978237 -0.04080875 0.041337777 -0.012599758 -0.2456887
-0.08231661 -0.16232206 0.17393002 -0.08319914 0.11348951 -0.04781425 0.21936554 0.0701807
-0.19998233 0.1402464 -0.104611255 -0.1107108 0.0113312565 -0.16571999 0.16546692 -0.032596994
0.2990477 -0.026210656 0.17818362 -0.050181206 -0.09356698 0.13270472 0.025680585 0.11050734
0.30005878 -0.0072622546 -0.09125254 0.06120943 -0.07555795 0.07431532 0.1071702 0.34732905
0.097777165 0.08108145 0.27412722 -0.29396778 0.080955304 0.24077733 -0.23881064 -0.016293382
-0.21695153 -0.25005183 -0.18809184 0.09376228 -0.117711335 -0.1724408 0.117349334 -0.003392796
-0.3335554 -0.016966809 0.22658528 -0.26664862 -0.009239131 -0.10301239 -0.17487007 -0.2696801
00000000: 1844 893e 581c 843e 19cd 97bd eb35 b23d
00000010: 1f1b 12be 65d6 403c 9ce6 32be 0b41 3ebd
00000020: 8051 943e 734a 35be 437c 58be c03b 353e
00000030: aec9 3c3d e5e8 54bd c59f 3cbe 427d 703e
00000040: 2743 afbd 75c0 083e 5514 8a3e 2ebc acbe
00000050: 4d1f a7bd 0482 2c3e 257d 2fbe 67b8 383e
00000060: 89aa 673d 6e73 be3e 01a9 3b3e 91cf 943d
00000070: 9f76 41be 8998 043e ba9e bdbd 8a39 19be
00000080: 7720 7bbd 08f2 873c bf3f 66be 1eb6 43bd
00000090: b8f8 4f3d fe62 9c3b 2d44 583e 6919 febd
000000a0: 46fa 3c3e 7e21 8f3e ca2e fd3d 5d71 f43d
000000b0: aaac c1be 4936 b23e 7a97 183e fb0c c7be
000000c0: d5d2 4ebc 0cb1 f1bd 7436 44be 4658 4fbe
000000d0: da2b dd3b 6aab c03c 68df 7c3d 35ed 66be
000000e0: ea9d 20bc 7a96 8dbd 5be2 5c3e b681 78bb
000000f0: 750a 813e 64d2 06be a97d bcbe 7383 7abe
00000100: edef 1fbd 88ce 68be 5bd0 9abe 3cae 6d3e
00000110: 4c27 fa3d 441f 90be 13cb 9a3c 0b75 0a3e
00000120: d418 733e d32f c3bc 001d 943e 5a4e 5bbc
00000130: 34fd 32bc fe5c 143e 4135 8cbc b5c1 a13b
00000140: bde0 cb3d 18a9 51bc 5cdf 35be 87e9 2e3e
00000150: 70b1 64be fc8d b1bc 67e8 8bbe 3fde 853e
00000160: cf9a 473d cb21 003e 4e2d 643e 94b8 56bd
00000170: 1c4c 1e3e a59e aa3e 2c9e 99be ebb2 61bc
00000180: d3c3 413e 1715 df3d 0f2e 1a3e f222 c8bc
00000190: 9cda c1bd 75ac 533e 8ca3 f3bd 9722 5c3e
000001a0: 1644 233e fe3b 153e 840b 28be 3d74 1a3e
000001b0: 1f68 a0bd c81f 903c 7086 05be fbdf 6c3e
000001c0: 2f72 b2ba d759 2f3e 6f66 883e 5267 6dbe
000001d0: 2ae0 163e fadb 873e 9173 55be 6935 41bd
000001e0: 39d7 46bf 2f50 d43c e21c 59bd 550e 883e
000001f0: 5d95 5cbe a0ee 213d 3442 85bd d6bd abbd
00000200: 05b0 20be 4963 e53e 258a 333d ae7b 75bd
00000210: 00fe edbd 0a11 033e 4cfc f83d e66c 0bbf
00000220: 62a1 d4bd 7f52 75bd cdfb 07bd f28a aa3c
00000230: 0e55 7e3c de85 bc3d 331c e63d 957f 9d3c
00000240: a957 79be a584 f6bc 3327 50bc da43 e3bc
00000250: 115c 02be deb2 50be 24d7 353e 2461 083e
00000260: 2c9f 013d 2fc4 4a3e 76fc 2d3e b62e 3cbd
00000270: 1860 e53c 1c60 b23d ac0a 76be 27f0 93bc
00000280: fdfe 77bd 3e17 8cbd 75e1 89bd 9838 02be
00000290: 8064 b33c 1def cabd 422a 2e3d cc81 3d3e
000002a0: 7f34 fcbc f124 0fbc fc9d 4e3e 7b9b 903c
000002b0: 0aae 2cbe 38a2 b03d 3ceb 3cbe 96b7 b2bc
000002c0: 977b b43e 74b8 a8bd eec0 d6bd f284 3a3e
000002d0: 4458 a0bd 6650 773e 51ea b5bd 75ba 393d
000002e0: ab96 b7bd b6b3 d9bd 6943 2b3e 0973 7b3d
000002f0: 373e 263e 7920 d8bd 3ca6 dabd 7770 ca3c
00000300: e500 ab3e 2404 d43c a4d0 b5bd 5cde 74bd
00000310: 1327 27bd cd51 293d 376f 4ebc d295 7bbe
00000320: 9c95 a8bd c137 26be b61a 323e 5064 aabd
00000330: 306d e83d e0d8 43bd 5ca1 603e e6ba 8f3d
00000340: 2bc8 4cbe c19c 0f3e 6d3e d6bd 58bc e2bd
00000350: bca6 393c 80b2 29be 2970 293e 6d84 05bd
00000360: c81c 993e bbb7 d6bc c475 363e cf8a 4dbd
00000370: 0ba0 bfbd bfe3 073e 1760 d23c ac51 e23d
00000380: 4ea1 993e 35f8 edbb 9de2 babd bdb6 7a3d
00000390: 20be 9abd a132 983d 0d7c db3d 1dd5 b13e
000003a0: 653f c83d 080e a63d 675a 8c3e f282 96be
000003b0: e5cb a53d 558e 763e c78a 74be b379 85bc
000003c0: 8b28 5ebe cb06 80be 269b 40be 7006 c03d
000003d0: a412 f1bd 5294 30be d954 f03d ac59 5ebb
000003e0: c6c7 aabe fafd 8abc f905 683e 2b86 88be
000003f0: b95f 17bc 29f8 d2bd 2411 33be 8313 8abe

vf.v_net.0.bias f4 [128]
-0.55807006 -0.14329717 -0.3723569 -0.5134716 -0.54113376 0.22207679 -0.41973233 -0.13206415
0.44667518 0.39234278 0.4083149 0.012132605 0.3068599 -0.11567018 -0.44802472 0.3415634
-0.3139494 -0.25658998 0.04658025 0.15157515 -0.54016006 0.19743861 0.047129 0.3268292
-0.38466224 -0.013128362 0.5689687 -0.14741516 0.59019464 0.34249604 0.25632635 -0.44518587
0.29344302 -0.09957888 -0.05589204 -0.22635458 0.018043287 0.17458232 -0.24971144 -0.32875374
-0.055089552 0.5041421 -0.6263578 -0.28320315 0.50112015 0.20049222 -0.36534905 0.08668348
-0.32893828 -0.6026976 -0.21578108 -0.5047219 0.28094283 0.41466522 -0.65154386 0.33834916
-0.22013469 0.63053507 0.33168244 0.6375694 -0.39631417 -0.056381207 0.388352 -0.38518932
-0.19274555 0.5172955 0.31627715 0.12186166 -0.2732965 0.0033217738 -0.20537409 -0.10415418
-0.5217828 0.43583897 -0.3136577 -0.4018753 0.1379037 0.3373189 0.32220963 0.28526297
0.2166927 -0.31630716 0.2390175 -0.08211569 0.035645615 0.38109106 0.44881544 0.4847391
-0.18061832 0.09391458 -0.041100074 0.3012279 -0.59692556 -0.07068831 -0.3265234 0.24245678
0.048031654 -0.48276186 0.14151017 0.41857183 0.14116395 0.0876774 -0.288113 -0.4419789
-0.4830881 0.31974792 0.34327942 -0.08680321 -0.107494846 -0.41488737 0.043631475 0.25384998
0.3763299 -0.37343824 0.45775247 0.5017009 -0.45481813 0.14319372 -0.07495367 -0.35803774
0.4226453 -0.13899933 0.5239353 -0.38302946 -0.49753374 -0.37921658 0.06775282 0.053646628
00000000: aedd 0ebf 7ebc 12be 90a5 bebe e072 03bf
00000010: be87 0abf 1968 633e 28e7 d6be d33b 07be
00000020: 9cb2 e43e 27e1 c83e a70e d13e d5c7 463c
00000030: be1c 9d3e 7de4 ecbd 7f63 e5be 66e1 ae3e
00000040: fabd a0be c35f 83be efca 3e3d 8436 1b3e
00000050: ee47 0abf 592d 4a3e 570a 413d 2856 a73e
00000060: 73f2 c4be 5718 57bc efa7 113f 00f4 16be
00000070: ff16 173f a45b af3e 353d 833e 67ef e3be
00000080: 2a3e 963e 03f0 cbbd 0def 64bd 7fc9 67be
00000090: 84cf 933c b5c5 323e 5bb4 7fbe 6952 a8be
000000a0: 95a5 61bd 750f 013f fc58 20bf 0100 91be
000000b0: 6949 003f d54d 4d3e 080f bbbe 1c87 b13d
000000c0: 996a a8be 644a 1abf b7f5 5cbe 7435 01bf
000000d0: bdd7 8f3e 004f d43e 94cb 26bf 1a3c ad3e
000000e0: fd6a 61be bf6a 213f 48d2 a93e c037 233f
000000f0: b1e9 cabe fbef 66bd 13d6 c63e 8937 c5be
00000100: 175f 45be 7a6d 043f 14ef a13e 9b92 f93d
00000110: 85ed 8bbe 1eb2 593b 964d 52be c94e d5bd
00000120: 8f93 05bf 4926 df3e be97 a0be 99c2 cdbe
00000130: a136 0d3e 10b5 ac3e a9f8 a43e fd0d 923e
00000140: b1e4 5d3e 03f3 a1be 01c1 743e 452c a8bd
00000150: 2301 123d 5e1e c33e 23cb e53e b92f f83e
00000160: 02f4 38be 4a56 c03d 8d58 28bd 8b3a 9a3e
00000170: 1dd0 18bf 08c5 90bd 132e a7be 9746 783e
00000180: d7bc 443d 902c f7be 0be8 103e 0c4f d63e
00000190: 488d 103e 3590 b33d 8c83 93be 0f4b e2be
000001a0: 5357 f7be 00b6 a33e 52c2 af3e e2c5 b1bd
000001b0: 4226 dcbd 1e6c d4be ebb6 323d a0f8 813e
000001c0: 50ae c03e 4c33 bfbe 885e ea3e 786f 003f
000001d0: ecdd e8be 60a1 123e 4f81 99bd b950 b7be
000001e0: f764 d83e d755 0ebe a020 063f 701c c4be
000001f0: bebc febe ad28 c2be fec1 8a3d 91bc 5b3d

vf.v_net.2.weight f4 [128, 128]
0.017462045 -0.13416576 -0.04798974 0.07917585 0.15237363 -0.18848719 -0.14749561 -0.033644106
0.10589144 0.18825394 -0.1095764 -0.111902386 -0.11759247 -0.41209254 -0.16221447 -0.02623992
-0.12639165 0.0029088634 -0.024533335 0.16487214 -0.07646079 -0.018172776 0.10779534 -0.050902277
0.14217658 0.03267769 0.17398496 -0.08465332 0.04297251 -0.14656179 0.12973763 -0.16988929
0.02632212 -0.012927586 -0.05592892 -0.21272214 0.12074252 -0.1312182 -0.111736186 0.010115211
0.18021287 0.15571979 -0.038100116 -0.095935896 0.11464976 0.016352337 -0.05670154 -0.1313156
0.054851953 -0.18688138 0.041365158 0.044723008 0.111847945 0.16527016 -0.07844345 0.1538224
-0.15239462 0.18103354 -0.1962474 0.06732869 0.013239104 -0.07422633 0.030823847 -0.022699034
0.08154582 0.12322007 0.04251394 -0.21774495 -0.17333707 0.09789988 -0.04431891 -0.024898935
-0.23043633 0.13053647 -0.20564285 0.01777184 0.056776058 -0.009480639 0.20289448 -0.12107333
0.091506526 -0.06041941 0.10018631 -0.19940987 0.07220739 0.0060336473 -0.066937774 0.040158924
-0.09126859 -0.026508708 -0.048634395 0.18827593 -0.16876505 -0.23873278 -0.10690099 0.08840005
-0.0065182867 -0.17176522 0.1766862 0.20209362 0.004864717 -0.058255352 -0.16057514 0.04856767
-0.13858405 -0.043966226 0.17594452 0.1661324 0.21087243 -0.0729987 -0.14735167 -0.10521607
0.027306668 -0.02886575 0.26300412 0.08462242 -0.14008814 -0.15568507 -0.15124045 -0.060915537
0.031065004 -0.32625553 0.07582459 0.044488993 0.08593917 0.028219234 0.023946147 0.06453844
-0.057905693 -0.01891419 -0.033497766 -0.15646364 -0.18026006 -0.16809486 -0.0043782764 -0.0145506775
-0.0072663743 0.04296839 -0.1506453 -0.06806028 -0.040369947 -0.28147358 -0.02736727 0.15019664
0.00070108566 -0.0029121104 0.040263064 0.18733774 -0.05502398 -0.16831678 0.03491636 0.05340194
-0.123323776 -0.099435136 0.15592094 -0.09837077 0.10558988 -0.0055968566 0.16365767 -0.11508406
0.14358768 -0.0024271389 0.08074602 0.12613986 -0.02996248 -0.101153985 -0.007982665 -0.13312288
0.038065497 -0.13454367 0.03604918 -0.064394645 0.057766464 -0.118265234 -0.0025877869 -0.013965179
-0.0006828675 0.12434023 0.11294892 -0.12400338 0.20123288 -0.11864237 -0.17660011 0.05297072
-0.23187466 0.08912192 0.0560496 0.06752747 0.089926355 -0.1392424 -0.11186863 -0.022368394
0.03465667 0.041749105 0.025665874 0.14921978 -0.038588595 0.063089766 -0.019261014 -0.018592255
-0.036711145 0.20672673 -0.057970606 0.1416834 0.107839085 -0.06252905 0.07796766 0.055010684
0.18882756 -0.031522904 -0.07237174 -0.034323502 -0.019514142 0.14485158 -0.16567835 0.2650323
0.0012748828 -0.11084509 -0.036944915 -0.05906207 -0.061800834 -0.2008042 -0.25037885 0.17124636
0.061903004 -0.0007380712 0.12976088 -0.026374659 0.0012594913 -0.21201906 0.10099619 0.04184909
0.16306452 0.090010546 -0.11726547 -0.054565493 0.036663245 0.16919334 -0.12676176 0.17884172
-0.18111104 -0.12365022 0.004300585 0.103416346 0.14649607 0.08660981 -0.20248975 0.14517993
0.12285664 -0.33831826 0.19251175 -0.031948477 0.009048933 -0.16264947 -0.0016606343 -0.16492625
00000000: 900c 8f3c c062 09be e490 44bd f326 a23d
00000010: d507 1c3e c902 41be 1709 17be 67ce 09bd
00000020: 9cdd d83d a4c5 403e 9769 e0bd 142d e5bd
00000030: 52d4 f0bd cbfd d2be 8d1b 26be 1af5 d6bc
00000040: d06c 01be a1a2 3e3b 22fa c8bc 3ed4 283e
00000050: 7a97 9cbd 13df 94bc cec3 dc3d e87e 50bd
00000060: bd96 113e 0bd9 053d 1d29 323e b85e adbd
00000070: f103 303d 4b14 16be f1d9 043e 75f7 2dbe
00000080: 7da1 d73c 3ace 53bc b915 65bd d5d3 59be
00000090: db47 f73d 105e 06be f1d5 e4bd 45ba 253c
000000a0: b989 383e 0275 1f3e de0e 1cbd 0a7a c4bd
000000b0: 7ecd ea3d 56f5 853c e03f 68bd 9977 06be
000000c0: 71ac 603d d55d 3fbe 836e 293d 792f 373d
000000d0: 8910 e53d 953c 293e f6a6 a0bd 9f83 1d3e
000000e0: 560d 1cbe db60 393e 14f5 48be a0e3 893d
000000f0: d4e8 583c f903 98bd 4b82 fc3c 53f3 b9bc
00000100: 7f01 a73d ce5a fc3d 1923 2e3d 88f8 5ebe
00000110: 467f 31be bb7f c83d bf87 35bd daf8 cbbc
00000120: 80f7 6bbe 5aab 053e 0a94 52be 4096 913c
00000130: 038e 683d af54 1bbc 92c3 4f3e 4bf5 f7bd
00000140: c667 bb3d 587a 77bd 7b2e cd3d 1a32 4cbe
00000150: 78e1 933d e7b5 c53b ac16 89bd af7d 243d
00000160: 07eb babd ca28 d9bc dc34 47bd 68cb 403e
00000170: bfd0 2cbe 5e76 74be e8ee dabd 160b b53d
00000180: 5a97 d5bb 39e3 2fbe 3aed 343e a1f1 4e3e
00000190: 3468 9f3b 2a9d 6ebd cf6d 24be e5ee 463d
000001a0: fae8 0dbe ee15 34bd cd2a 343e 9d1e 2a3e
000001b0: f1ee 573e 5880 95bd 5be3 16be 867b d7bd
000001c0: 3cb2 df3c de77 ecbc 7aa8 863e 854e ad3d
000001d0: 4473 0fbe e86b 1fbe c7de 1abe 9282 79bd
000001e0: 097c fe3c f70a a7be ec49 9b3d 173a 363d
000001f0: e000 b03d 062c e73c b62a c43c bb2c 843d
00000200: 852e 6dbd eef1 9abc f434 09bd 0138 20be
00000210: 1896 38be 0f21 2cbe a577 8fbb f765 6ebc
00000220: c41a eebb 9fff 2f3d c342 1abe 3063 8bbd
00000230: f55a 25bd 4e1d 90be 5331 e0bc 26cd 193e
00000240: 10c9 373a 1bd9 3ebb e2ea 243d 77d5 3f3e
00000250: d360 61bd 3c5b 2cbe 7504 0f3d febb 5a3d
00000260: 2d91 fcbd a6a4 cbbd bda9 1f3e 9d76 c9bd
00000270: 823f d83d d665 b7bb e095 273e 31b1 ebbd
00000280: a608 133e a210 1fbb 2b5e a53d cf2a 013e
00000290: e073 f5bc d229 cfbd b9c9 02bc 5d51 08be
000002a0: 91ea 1b3d d1c5 09be 4ea8 133d 57e1 83bd
000002b0: 879c 6c3d 0b35 f2bd dc97 29bb 35ce 64bc
000002c0: 7602 33ba 17a6 fe3d c351 e73d 7cf5 fdbd
000002d0: fe0f 4e3e c5fa f2bd a9d6 34be d3f7 583d
000002e0: 8d70 6dbe 8e85 b63d 4494 653d d84b 8a3d
000002f0: 4f2b b83d 8f95 0ebe 611b e5bd ec3d b7bc
00000300: 27f4 0d3d 1c01 2b3d 3d41 d23c 12cd 183e
00000310: 130f 1ebd 3535 813d 46c9 9dbc c94e 98bc
00000320: 6d5e 16bd 2cb0 533e 9672 6dbd 7415 113e
00000330: bdda dc3d 3b0f 80bd 82ad 9f3d e252 613d
00000340: 035c 413e 291e 01bd a337 94bd cd96 0cbd
00000350: 1fdc 9fbc f953 143e 96a7 29be 50b2 873e
00000360: f819 a73a c002 e3bd 8d53 17bd 12eb 71bd
00000370: df22 7dbd 9e9f 4dbe a831 80be 355b 2f3e
00000380: 018e 7d3d 1f7b 41ba 09e0 043e ab0f d8bc
00000390: 8415 a53a 861b 59be 17d7 ce3d f469 2b3d
000003a0: 63fa 263e 7357 b83d e128 f0bd 1180 5fbd
000003b0: 332c 163d 0541 2d3e d6cd 01be 4922 373e
000003c0: 2c75 39be 543c fdbd eceb 8c3b f3cb d33d
000003d0: 1103 163e 7c60 b13d 7959 4fbe 0caa 143e
000003e0: 439c fb3d 0d38 adbe cd21 453e 68dc 02bd
000003f0: fa41 143c 958d 26be a4a9 d9ba 6de2 28be

vf.v_net.2.bias f4 [128]
0.0475281 0.107551545 -0.11948314 0.22472358 0.117648445 0.1308037 0.03699914 -0.1517334
0.121880755 -0.0067946627 0.17871733 0.16539492 0.07627175 -0.1388843 -0.090138786 0.24562989
0.26050374 -0.07508552 0.1874135 0.09947538 -0.05862883 0.06448649 0.1593992 -0.1365825
0.11069601 -0.011206056 0.18747303 -0.10474586 0.077649385 0.09014797 -0.10155319 0.13051575
0.07379251 0.10925729 0.15638961 0.17355616 0.11742416 0.14594018 0.1513104 -0.045585196
0.18346207 -0.07532095 0.11199639 0.18407449 -0.056625914 0.18405272 0.07721347 -0.10360074
0.088978976 -0.016035097 0.10651265 0.11658985 -0.0656555 -0.038935803 0.17847666 0.12281282
0.16735435 -0.08706288 -0.048643835 0.18003358 0.14065629 -0.17082758 -0.17734852 0.15472922
0.20063426 0.1917616 0.18536212 -0.06525375 0.1621301 -0.073366225 0.22506075 -0.09316713
-0.13163088 0.23603463 -0.031812303 0.10753324 0.19513683 0.070566244 -0.090101846 0.15136726
-0.16420984 -0.03582154 0.14986427 0.19522339 -0.010864889 0.07591566 -0.12463086 0.22625585
0.18280753 0.2277215 -0.013737909 0.12773412 -0.10354597 -0.080205575 -0.12782726 0.24142699
0.24711955 -0.04570797 -0.06670266 0.019990383 -0.012924229 0.011749703 -0.114261724 0.030798504
0.12911604 0.22414486 -0.08372482 0.19386011 -0.10211647 -0.10359895 -0.11401582 -0.17511503
-0.04702704 -0.09998878 0.090626605 0.09794847 -0.02771596 0.1113939 -0.10386518 0.1557185
-0.022206645 0.12513182 -0.07079632 0.09691238 -0.054340374 0.24342446 0.1989829 0.17490155
00000000: d3ac 423d fc43 dc3d 94b3 f4bd f01d 663e
00000010: abf1 f03d 68f1 053e 698c 173d 0060 1bbe
00000020: 9e9c f93d c3a5 debb ad01 373e 495d 293e
00000030: 5d34 9c3d b037 0ebe af9a b8bd 6786 7b3e
00000040: bf60 853e 70c6 99bd 53e9 3f3e bfb9 cb3d
00000050: c924 70bd 7e11 843d 8b39 233e 48dc 0bbe
00000060: 97b4 e23d 9b99 37bc eef8 3f3e ff84 d6bd
00000070: a406 9f3d 809f b83d 1efb cfbd eca5 053e
00000080: 8720 973d 49c2 df3d 9924 203e b5b8 313e
00000090: 147c f03d 5871 153e 1df1 1a3e 8bb7 3abd
000000a0: 7bdd 3b3e df41 9abd 5d5e e53d 067e 3c3e
000000b0: 93f0 67bd 5178 3c3e 1922 9e3d a02c d4bd
000000c0: 9c3a b63d 095c 83bc 4e23 da3d a9c6 ee3d
000000d0: 6476 86bd 267b 1fbd 96c2 363e 4a85 fb3d
000000e0: f05e 2b3e 064e b2bd c23e 47bd b95a 383e
000000f0: 3408 103e 6ded 2ebe da9a 35be 5671 1e3e
00000100: 1173 4d3e 275d 443e 91cf 3d3e c2a3 85bd
00000110: 6f05 263e 0841 96bd 5376 663e 69ce bebd
00000120: 3fca 06be 10b3 713e 9e4d 02bd 633a dc3d
00000130: f3d1 473e 0985 903d 5187 b8bd 0500 1b3e
00000140: a026 28be 9bb9 12bd 0576 193e a4e8 473e
00000150: a602 32bc ab79 9b3d 773e ffbd 9daf 673e
00000160: e631 3b3e d32f 693e f714 61bc bccc 023e
00000170: e90f d4bd d242 a4bd 26e5 02be a338 773e
00000180: e80c 7d3e 4838 3bbd 679b 88bd dfc2 a33c
00000190: 25c0 53bc d481 403c 0d02 eabd 254d fc3c
000001a0: ff36 043e 3b86 653e eb77 abbd 4483 463e
000001b0: 7122 d1bd b02b d4bd 2081 e9bd 5b51 33be
000001c0: 6d9f 40bd ebc6 ccbd 719a b93d 3599 c83d
000001d0: 950c e3bc 7c22 e43d 44b7 d4bd ac74 1f3e
000001e0: b6ea b5bc 8e22 003e a9fd 90bd ff79 c63d
000001f0: 0394 5ebd 4344 793e 2cc2 4b3e 6419 333e

vf.v_net.4.weight f4 [1, 128]
0.22188064 0.15071094 -0.09343981 0.19751005 0.124933556 0.18929952 0.12414017 -0.089724444
0.1189338 -0.095224865 0.15432824 0.14792055 0.14580092 -0.13347028 -0.038872495 0.10980782
0.15864444 -0.121282704 0.15285084 0.12935871 -0.11157273 0.16145602 0.21858992 -0.08593728
0.1052346 -0.09830196 0.16403179 -0.04657831 0.12840188 0.16152927 -0.12616591 0.18824875
0.1869768 0.1758079 0.16651388 0.22239211 0.18874589 0.19166826 0.21271111 -0.066872776
0.1762235 -0.018319195 0.17996316 0.1532652 -0.04276606 0.15631205 0.19568588 -0.11487824
0.052928265 -0.097691484 0.18948992 0.16198926 0.05815898 -0.09637953 0.18345805 0.17852415
0.1708983 -0.061045706 -0.1182629 0.1345485 0.15937732 0.010008562 -0.016282085 0.15806541
0.18114872 0.22242847 0.1374658 -0.13970372 0.19977811 -0.10184445 0.19112936 -0.15217975
-0.04679858 0.10828415 -0.12402243 0.18419358 0.17157757 0.17385362 -0.096387476 0.1462548
-0.07612628 -0.0006358228 0.16226724 0.102741346 -0.12395175 0.18275978 -0.16008335 0.18543868
0.21804564 0.16637357 -0.05502304 0.20199306 -0.12736973 0.034183428 -0.14778855 0.18740796
0.17310178 -0.12142407 -0.11168767 0.1627716 0.05503418 0.077680945 -0.13307375 0.21340501
0.11620912 0.16621067 -0.14746594 0.19392066 0.00840823 -0.13734533 -0.08817811 0.017077738
-0.109422594 -0.09664827 0.16564524 0.21083933 -0.07389135 0.1913705 -0.090922095 0.1611178
-0.10156011 0.15284218 -0.079192035 0.18123199 0.041600525 0.17557603 0.18980476 0.21319339
00000000: ae34 633e f853 1a3e 5f5d bfbd 1340 4a3e
00000010: 2add ff3d bcd7 413e 343d fe3d 73c1 b7bd
00000020: 9093 f33d 4105 c3bd 3908 1e3e 7c78 173e
00000030: d64c 153e 6fac 08be c438 1fbd ece2 e03d
00000040: b073 223e 1163 f8bd ee84 1c3e 9c76 043e
00000050: 3e80 e4bd ba54 253e 09d6 5f3e e2ff afbd
00000060: 3d85 d73d 8a52 c9bd f3f7 273e e6c8 3ebd
00000070: c87b 033e ee67 253e a331 01be 48c4 403e
00000080: d976 3f3e fc06 343e 9d82 2a3e c2ba 633e
00000090: 9a46 413e af44 443e f1d0 593e 98f4 88bd
000000a0: ef73 343e 2312 96bc 4348 383e 8df1 1c3e
000000b0: 772b 2fbd 4410 203e e161 483e 4845 ebbd
000000c0: 4fcb 583d 7912 c8bd a509 423e 83e0 253e
000000d0: 1c38 6e3d a262 c5bd 6ddc 3b3e 09cf 363e
000000e0: f7ff 2e3e 100b 7abd d233 f2bd 15c7 093e
000000f0: cf33 233e f4fa 233c 0262 85bc e6db 213e
00000100: 0d7f 393e 4ac4 633e d6c3 0c3e 7e0e 0fbe
00000110: a292 4c3e d393 d0bd 6ab7 433e 02d5 1bbe
00000120: deaf 3fbd 15c4 dd3d 79ff fdbd 3e9d 3c3e
00000130: 08b2 2f3e af06 323e cc66 c5bd d1c3 153e
00000140: 18e8 9bbd 59ad 26ba 6229 263e 0e6a d23d
00000150: 6ada fdbd 6125 3b3e e4ec 23be a3e3 3d3e
00000160: 5b47 5f3e d55d 2a3e d75f 61bd 45d7 4e3e
00000170: 366d 02be ec03 0c3d e255 17be dfe7 3f3e
00000180: 9841 313e 2fad f8bd 81bc e4bd 99ad 263e
00000190: 856b 613d 3017 9f3d 7c44 08be d886 5a3e
000001a0: 0cff ed3d 2133 2a3e 5001 17be 2393 463e
000001b0: acc2 093c 41a4 0cbe ba96 b4bd 9de6 8b3c
000001c0: f418 e0bd 87ef c5bd e89e 293e 44e6 573e
000001d0: 5954 97bd a1f6 433e 5d35 babd 11fc 243e
000001e0: bffe cfbd a982 1c3e 6f2f a2bd e194 393e
000001f0: 5065 2a3d 34ca 333e 2e5c 423e 5e4f 5a3e
