HW4/Zhanqian Wu_HW4_PPO_walker/training/walker/walk/best_ppo_ac_model - 915.pth (torch, 52825 bytes, 12 tensors)

pi.log_std f4 [6]
000000 fe 75 05 c0 35 e5 f6 bf 05 14 ce bf d2 fb e3 bf
       -2.0853267 -1.9288698 -1.609986 -1.7811224
000010 44 ed e2 bf 8a e9 ad bf
       -1.7728658 -1.3586895

pi.mu_net.0.weight f4 [64, 24]
000000 d2 39 de 3e 91 52 a4 be 6d 6f 54 be ea 40 b0 be
       0.43403488 -0.32094243 -0.2074563 -0.34424525
000010 df 2b 7e 3b b5 1a 5f be 2e 59 9f 3d ef 71 89 be
       0.0038783473 -0.21787532 0.077806816 -0.26844737
000020 e6 27 d5 3c ad ef d8 bd d4 8f 52 3d 27 ee d6 3d
       0.026020002 -0.105925895 0.051406696 0.10494643
000030 22 2e 9c be 6c 2f 10 be b6 e8 ae 3d 66 e5 5e be
       -0.30503947 -0.1408059 0.0854048 -0.21767196
000040 58 7b 86 be 45 26 f0 bd 0a 3d 02 be ba d9 af 3c
       -0.2626598 -0.11726049 -0.12718597 0.021466125
000050 91 6f a1 bd 43 14 55 be 66 17 8a 3e 6c 5b be bb
       -0.07882608 -0.2080851 0.26970977 -0.005809238
000060 44 18 bb 3c cd 1f 29 3c c8 e1 e1 3e c0 b4 b6 be
       0.02283872 0.010322523 0.4411757 -0.35684776
000070 14 a6 6c be 8c 38 29 3d 67 0d 12 bd f7 af 67 3e
       -0.23110229 0.041313693 -0.035657313 0.22625719
000080 02 4e 9c bd 79 12 2a 3e 46 77 ca bd 4c ae f9 3e
       -0.07632066 0.1660861 -0.09886031 0.4876579
000090 94 50 f5 3e 9b cf 5e 3e 3e 3c 88 3d c3 60 17 be
       0.4791304 0.21758883 0.06652115 -0.14783005
0000a0 62 c0 ae 3e c0 0a 9c bd 0c 12 28 be f5 8a 72 bd
       0.3413115 -0.07619238 -0.16413134 -0.05921455
0000b0 7b 68 db bd 16 51 c6 3c 83 d0 4f 3e 97 73 d5 3d
       -0.107132874 0.024208587 0.20294385 0.10422438
0000c0 11 f8 f8 3d f2 b7 11 be 49 82 53 be 82 1d 0d be
       0.1215669 -0.14230326 -0.20655169 -0.13780788
0000d0 0c 9d 64 bb 02 6d e3 bb db 6f ff bd e6 cd ee 3d
       -0.0034883646 -0.006940485 -0.124725066 0.11660366
0000e0 ff 15 c8 bd e9 1c 57 3c 97 a4 06 3d 5e 9e e0 3d
       -0.097698204 0.013129451 0.03287181 0.10967706
0000f0 fd e4 17 be 15 e8 03 be 5f 4f 04 3e 59 45 3f 3e
       -0.14833446 -0.12881501 0.12920903 0.18678798
000100 e2 a4 f7 be f0 48 4b be c7 2f dc 3c 1a 29 94 be
       -0.48367983 -0.19852042 0.02687825 -0.28937608
000110 c4 75 2c be 0c 5f 87 3e 5e f6 15 bc 06 b7 40 be
       -0.16841799 0.26439703 -0.009152977 -0.18819818
000120 af 87 9b be 01 1f 04 bd 73 1a a8 be d9 be dd 3d
       -0.30376956 -0.03225613 -0.3283268 0.10827417
000130 7a 6f 74 be c3 31 cc be 39 e5 2e 3d b2 9d df bd
       -0.2387065 -0.39881715 0.042699073 -0.1091875
000140 75 38 64 3d 12 39 84 3e c2 37 83 3b e7 1e ed 3c
       0.055717904 0.2582479 0.0040044496 0.0289454
000150 11 00 35 be 0d ed 29 bd 45 f8 68 be 55 6c c8 bd
       -0.17675807 -0.041485835 -0.22750957 -0.09786288
000160 ee 38 01 be 6b 59 10 3e 42 cc 68 be e1 a1 61 3e
       -0.12619373 0.1409661 -0.22734168 0.22034408
000170 74 83 cf 3c 65 4b c9 3d 4e 2a 63 be 23 55 0c 3e
       0.025331236 0.098288335 -0.22184107 0.13704352
000180 03 97 ea 3e 59 1a 01 3e a2 62 e6 3e 6f 0e d1 3c
       0.45818338 0.12607707 0.44997126 0.025519578
000190 55 26 6a be 2f 7e 73 3e 9a e1 b5 bd 2b 2c 65 be
       -0.22866185 0.23778604 -0.08880921 -0.2238013
0001a0 9e 12 92 3e be bd 88 3e dd 28 25 3c fb a6 90 3d
       0.2852983 0.26707262 0.010080543 0.07063099
0001b0 9b eb 2d 3e b4 7b 54 be 0c d0 14 3f 9b 93 98 3d
       0.16984408 -0.20750314 0.58129954 0.074500285
0001c0 ef 32 d7 3e 04 eb 39 3d aa 3c 1c 3e 04 04 09 be
       0.42031047 0.045390144 0.15257517 -0.13380438
0001d0 22 16 77 bc bd c9 39 be 2b a1 cc bc 8d a6 64 bc
       -0.0150809605 -0.18143363 -0.024979195 -0.013955724
0001e0 96 37 17 3e 86 e7 99 3e ef a9 b7 3e 41 82 0b be
       0.14767298 0.3005945 0.35871837 -0.13623907
0001f0 80 95 f8 3c de 0c 48 3d 02 c6 c5 3d 26 48 b4 bd
       0.030344725 0.048840396 0.096569076 -0.08802824
000200 f9 0d 45 3e fe 1f a2 3c 0e 23 93 3d 3e 3e ab 3d
       0.19243611 0.019790646 0.071844205 0.08361481
000210 5e 36 4f bd 50 e3 bb 3d d7 58 64 bd 55 fd a1 bb
       -0.050588958 0.09174216 -0.055748787 -0.0049435296
000220 27 5a d3 3e 18 2f 5a 3e e4 70 11 3e 7e 4c 04 3e
       0.41279718 0.21307027 0.1420322 0.12919804
000230 4e 7c e6 bc b5 11 39 be cb a4 4d 3e 5d 8b 0a be
       -0.028135445 -0.18073161 0.20082395 -0.13529725
000240 a9 83 54 3d 07 c5 4c 3d da 48 0d 3f 87 94 31 be
       0.051883373 0.049992587 0.5518929 -0.17341815
000250 69 2f 12 3e 2a fe 8d be 7c 2a c9 bd 01 34 c8 be
       0.14275898 -0.27732974 -0.098225564 -0.39102176
000260 be ae 1c 3b 94 4a 88 3e bd fb 14 bd 0a c1 51 be
       0.0023907865 0.266194 -0.03637289 -0.20483795
000270 53 11 6a 3e 16 23 8a bd 9c df d6 3e 3d a1 a9 3e
       0.22858171 -0.06744973 0.41967475 0.33130828
000280 a7 24 7e 3e e2 8f 52 be 0d 91 b6 bc 2e 5c 8a bc
       0.2481867 -0.205627 -0.022285962 -0.016889658
000290 be 86 08 be 85 9c ad 3d 98 52 8f 3d 05 5d 0f 3e
       -0.1333265 0.08477119 0.069981754 0.14000328
0002a0 c7 fe 58 bd 55 6c 2f 3d bf 11 fd 3e 76 02 fe bd
       -0.05297735 0.042827923 0.49427602 -0.12402813
0002b0 bb 26 6f 3e 86 fc a2 3e 67 c5 66 3e 57 d2 b0 3e
       0.23354618 0.31833285 0.2253624 0.34535477
0002c0 f1 e1 16 3f ef 52 df bd e1 6f 67 be 67 cd 0b 3f
       0.5893851 -0.1090449 -0.22601272 0.54610294
0002d0 8c b0 0d 3e 67 b2 93 3e 83 cb 27 3e 58 fa 93 3d
       0.13836879 0.28847048 0.16386227 0.07225484
0002e0 d1 2a df 3c 99 b0 4d be c1 db 0d bd 48 50 69 bd
       0.027242096 -0.20086898 -0.0346334 -0.056961328
0002f0 47 1b 48 3d 56 65 07 3e 18 69 0f 3c af 15 92 3c
       0.04885414 0.1322225 0.008753084 0.017832605
000300 a1 f3 ce be f8 ee 9e bd 7b 20 34 bc 5d 8d 3f be
       -0.4042025 -0.077604234 -0.010994072 -0.1870627
000310 e5 a4 0e 3e 3b 27 a2 be 77 d7 b5 be b9 8e 8d 3e
       0.1393009 -0.31670555 -0.3551595 0.2764795
000320 29 9b 57 bd 94 2a 79 3e db d4 cc 3e 61 e6 30 bd
       -0.052638207 0.24332649 0.40006146 -0.043188456
000330 56 76 ce 3e dc f6 15 bd c3 a8 b0 bd 2a 55 b4 3d
       0.40324658 -0.036612377 -0.08625939 0.08805306
000340 77 6a 84 be e5 a0 dd be a4 8a 38 be c0 9f 85 bd
       -0.25862476 -0.43286815 -0.18021637 -0.065246105
000350 d1 d7 d4 3d e7 74 a0 bd 70 fc ce 3c ad ce 41 bd
       0.10392726 -0.07834797 0.025266856 -0.047316242
000360 9e e9 e3 3d 09 d4 c9 bd 26 98 44 be 87 0d 11 3f
       0.11128543 -0.098548956 -0.19198665 0.56661266
000370 89 47 83 be 17 f1 04 3f 08 4b 36 bd 3c bd 7a 3e
       -0.25640514 0.51930374 -0.04450515 0.2448625
000380 63 7d 96 bd c0 20 ab 3e 3e b7 92 be 5e 9d 36 3d
       -0.07348134 0.33423424 -0.28655428 0.04458367
000390 1e 3b 12 bf a4 d9 25 3e cd ba 14 be fc 34 e1 be
       -0.57121456 0.16196305 -0.14524384 -0.43985736
0003a0 e6 58 16 be e8 76 17 3c 62 1a 03 3d 1a 79 2b 3d
       -0.1468235 0.009244658 0.032007582 0.04186354
0003b0 a8 8e 65 bd c4 70 f1 3d e4 75 af bb 45 c2 ca bd
       -0.05604425 0.117890865 -0.00535463 -0.09900335
0003c0 69 7a a1 3d a3 20 3c 3e 09 e9 05 3f 33 dd 94 3d
       0.07884676 0.18371825 0.5230871 0.07268753
0003d0 0e de 08 bd 5b af 35 3e 80 45 13 be 52 ee b2 3e
       -0.033414893 0.17742674 -0.14381981 0.3494745
0003e0 a3 f1 91 3e f9 9c 69 3e 81 12 b2 bd 73 1e a2 3d
       0.28504667 0.22813787 -0.086949356 0.07915964
0003f0 18 a0 b7 3d c4 66 9e bd 08 fd 02 3f 26 b0 ce 3d
       0.08966082 -0.07734445 0.51167345 0.100921914

pi.mu_net.0.bias f4 [64]
000000 a5 43 36 3e e8 e4 8d be fe bc 47 be 5b 52 32 3e
       0.17799242 -0.27713704 -0.19505689 0.17414229
000010 28 9c 66 3e a1 79 b9 bd 33 05 34 3e ac 27 81 3d
       0.22520506 -0.09056402 0.17580108 0.06306395
000020 1e 90 a6 3d 4b 2b 73 3d 91 57 94 3d c0 88 d0 bd
       0.08132957 0.05936746 0.072432645 -0.10182333
000030 f4 e9 29 be 4f cb af 3d 98 2e 9b bd 28 99 c2 3e
       -0.16593152 0.085837 -0.075772464 0.38007474
000040 9f 2d 1a 3d 4b 35 27 3d 7d 22 47 be a6 63 f9 3d
       0.037641164 0.04082231 -0.1944675 0.121772096
000050 65 1c 9a bd 68 fd 86 be 27 22 08 3e 94 15 9a 3e
       -0.07524947 -0.2636521 0.13294278 0.30094588
000060 04 49 52 3e 2e 8c 9e 3e b4 c5 64 bd 66 1a c7 bd
       0.20535666 0.30966324 -0.055852607 -0.09721832
000070 8b ed 74 3e 72 94 9f bd 5a 8c 2e 3e 75 bd 96 3e
       0.2391874 -0.077919856 0.17045727 0.2944142
000080 9f c5 bc 3d c1 93 90 be 8b eb d4 bd 43 76 50 3e
       0.09217381 -0.28237727 -0.10396489 0.20357613
000090 b2 79 9b bd a0 d4 73 3d 92 8f 3e be 5a 10 87 be
       -0.07591571 0.059528947 -0.18609455 -0.26379663
0000a0 43 96 3d 3e 78 a1 a4 bd c1 0d 01 3e 73 90 37 3e
       0.18514352 -0.0803861 0.12602903 0.17926197
0000b0 73 cb 14 3e 0d a7 bd 3e b2 59 53 3e 9a 0d 7e be
       0.14530735 0.37041512 0.20639685 -0.24809876
0000c0 11 a7 83 bc 35 7d 43 3e 48 df 8b 3e 70 fc 0d be
       -0.016070874 0.19090731 0.27318788 -0.13865829
0000d0 b2 35 0a 3d 62 db c8 be 10 01 0f be 04 73 e1 bd
       0.033742614 -0.39229876 -0.13965249 -0.110082656
0000e0 27 f6 de 3b 0d 50 04 3e a0 e9 23 be 46 58 c5 bd
       0.006804246 0.12921162 -0.1600709 -0.096359774
0000f0 37 4a 03 be 2a 64 95 3e c0 a7 eb 3c 6e 0a 8b 3e
       -0.1282128 0.29177982 0.028766513 0.27156395

pi.mu_net.2.weight f4 [64, 64]
000000 48 3c 18 3e 74 4a 15 bc 8b b9 07 3e 9a d3 55 bd
       0.14866745 -0.009111989 0.13254373 -0.052203752
000010 c6 6e 6b 3e c6 10 cf 3d d8 9f 7e bc 93 ba 26 3e
       0.22991475 0.10110621 -0.015541039 0.1628211
000020 11 38 3e 3d 1c b9 8a be a0 ba 3f 3e 2b 59 20 bd
       0.046440188 -0.27094352 0.18723536 -0.039147537
000030 4f 5d cc 3d de 25 6b 3e 51 a1 4b 3e 61 68 91 bd
       0.09978735 0.22963664 0.19885756 -0.07099987
000040 0c 42 1a bd 90 27 1d 3d da ab 2a bd 70 ff 3e bd
       -0.037660643 0.038367808 -0.041667797 -0.046630323
000050 fa 93 33 bc a3 f2 a0 bd fc 8e 9a bd 44 ec 0c be
       -0.010960573 -0.07858779 -0.07546803 -0.13762003
000060 98 93 d3 3c 87 34 76 be c2 59 78 bd 8e af e4 bd
       0.025827214 -0.24043475 -0.060632475 -0.11166297
000070 26 25 22 3c 0c ef be 3d b9 70 f2 3b e3 3b 08 3d
       0.009896552 0.09322938 0.0073986915 0.033260237
000080 7a e1 0a 3e 0e 63 49 3d b1 52 3e 3c b5 1f 3b be
       0.13562575 0.04916673 0.011616395 -0.18273814
000090 1e 37 eb bd 88 a6 9b 3d 37 e1 74 bc a5 7a e5 3d
       -0.11485122 0.07600123 -0.0149462735 0.11205033
0000a0 19 4f 31 3d 96 06 24 3e 6a 8d 27 be 44 07 75 bd
       0.043288324 0.16018137 -0.16362539 -0.059821382
0000b0 b6 bf c2 bd 7f c5 3e 3d 3d 5c e0 3d 52 2b ef bc
       -0.09509222 0.046575066 0.10955093 -0.029195461
0000c0 59 3e 30 3e c1 f2 9c bd 40 43 13 3d 73 7c 49 be
       0.17211284 -0.07663489 0.035952806 -0.1967638
0000d0 61 1a 4d be a8 2c 6c 3d 17 b2 f1 b8 17 65 3a be
       -0.20029594 0.057659775 -0.00011524947 -0.18202625
0000e0 14 7f 2b 3d 5d 1c e5 bc 12 0f b7 3d e4 5a 1f 3d
       0.041869238 -0.027967626 0.08938421 0.03890504
0000f0 80 a3 b2 3d d3 ed bd be e1 21 8e 3d 10 9c 7d bc
       0.087225914 -0.37095508 0.06940056 -0.015479103
000100 d8 ed 68 bd ab fd 18 be f5 76 70 be 1a c4 10 3e
       -0.05686745 -0.14940517 -0.23482879 0.14137307
000110 d1 27 86 bd 73 40 d8 3d 66 67 a9 bd ac 4a 17 be
       -0.06550563 0.10559168 -0.08271675 -0.14774579
000120 f7 6e 53 3e bc 85 95 3c cd 58 c7 3b b0 cb 0d be
       0.20647798 0.018252246 0.006083584 -0.13847232
000130 46 c8 37 3e 4b ab 41 3c b8 b2 0b be 0b 6f 30 be
       0.17947492 0.011820625 -0.13642395 -0.1722986
000140 73 58 36 3d 4f 73 ab bd 95 ca a4 3d 43 7b 09 3e
       0.044517945 -0.08371603 0.08046452 0.13425927
000150 f2 49 eb 3d e3 6f 31 3e dc 3a 3d 3d 5f d4 0a bd
       0.11488713 0.17327838 0.04619871 -0.03389394
000160 7e 06 e0 bd 96 8b c6 bd 82 72 db bc ff a2 a8 3e
       -0.10938738 -0.09694593 -0.026788 0.32936856
000170 3c 50 d3 3d a1 87 28 be 72 28 f8 3d 5c f7 2b be
       0.10318038 -0.16457988 0.12117089 -0.16793579
000180 8f b0 2b be 3a 00 90 3b d8 2e b7 3d e7 25 43 be
       -0.1676657 0.0043945583 0.089444816 -0.19057427
000190 58 e5 80 be 82 1a cc 3d c5 0f 3a bc e6 c0 8f be
       -0.25174975 0.099659935 -0.011356299 -0.28076857
0001a0 ac 97 f4 bd a7 0b d7 3d d3 54 12 3e b7 e4 3d 3c
       -0.119429916 0.105002694 0.1429017 0.011590174
0001b0 31 ab 3d be ec 5c 95 be 7e ad 0b 3d 71 79 20 3e
       -0.18522336 -0.29172456 0.034101002 0.15671326
0001c0 f9 b3 60 3d 8e 53 6e be 0b 96 ea bc 08 a0 7b bd
       0.054859135 -0.23274061 -0.028636 -0.061431915
0001d0 1f 56 57 3c cb cc 85 3d ec dd 28 3e 75 64 b3 3d
       0.013143091 0.06533202 0.16490906 0.08759395
0001e0 f5 db 23 3d d0 78 70 3e 48 21 c1 bc 01 63 82 3d
       0.04000469 0.23483586 -0.02357544 0.0636654
0001f0 eb 58 f2 bd 70 39 c4 bd 6b 2e 71 be 38 bb 0e 3e
       -0.11833366 -0.09581268 -0.23552863 0.13938606
000200 74 c6 09 3e e5 fd 9c 3d 28 0a 23 3e 65 9d 39 3d
       0.1345461 0.07665614 0.15921843 0.04531612
000210 bd 3a c2 3d 17 a2 b6 3d fa 9a 6d 3d ae 21 3b 3d
       0.0948386 0.08917635 0.058009125 0.045686416
000220 bf 2a 14 bd 7e 6a bd bc 6b 47 1f 3e 32 19 2b 3e
       -0.03617358 -0.023122068 0.15554588 0.1670883
000230 d7 fa 01 3d a2 88 ef 3d 79 49 f7 bd 45 2b 56 bd
       0.03173336 0.116959825 -0.12074561 -0.05228736
000240 a2 58 fb bd 66 08 89 3e 20 20 11 be d6 b1 0f be
       -0.12272765 0.2676422 -0.14172411 -0.14032683
000250 64 a9 a8 bd 84 cf e9 3a 02 59 9a bd 57 29 74 be
       -0.08235434 0.0017838334 -0.07536508 -0.23843895
000260 12 42 81 bb 1f ef 71 bd 80 a6 9d bd 43 62 41 bd
       -0.003944644 -0.059065934 -0.07697773 -0.04721285
000270 e8 44 4d 3d b8 09 2d 3e c7 66 3a bd de 4a 7c 3d
       0.050114542 0.16898239 -0.045508172 0.061594836
000280 ac 7a 67 3e d7 ea 0f 3e 4a 06 82 3d 2c c9 20 3d
       0.2260539 0.14054428 0.06348856 0.039254352
000290 ee 58 3b 3e df 09 46 3e 1d 55 5a 3d ef d3 26 3e
       0.18295643 0.19339703 0.053303827 0.16291784
0002a0 7c 45 1f be 4d 94 d3 bd 58 b9 a6 bd b0 b1 04 3d
       -0.1555385 -0.103310205 -0.0814082 0.03239602
0002b0 2d e8 10 3e 39 e6 04 3e cd 59 45 be 5e b9 d4 3b
       0.14151068 0.12978448 -0.19272538 0.006491824
0002c0 54 8f 99 bd df 76 82 3e cd 18 84 3d 01 88 43 be
       -0.07498041 0.25481316 0.06450043 -0.1909485
0002d0 a7 a0 88 be 29 c6 6b 3e 73 50 02 be cc df 19 be
       -0.26685068 0.23024811 -0.12726001 -0.15026778
0002e0 76 e1 8d 3d c3 f6 bf bd d6 2c 58 be c4 4a f8 3d
       0.06927769 -0.09373238 -0.21110854 0.121236354
0002f0 fd 0e d2 bc 80 bc 87 be 05 2a 96 bb 6f 4d 3c bc
       -0.025641913 -0.26511002 -0.004582646 -0.011493071
000300 94 0d 2f 3d 83 53 78 bd f4 6e 92 3d bc 0f 4e 3e
       0.04273756 -0.060626518 0.07150069 0.2012319
000310 85 af 3f bd 19 b1 46 3c 17 22 06 3b 1c a3 15 3e
       -0.046798248 0.012127184 0.0020467096 0.14613003
000320 18 05 4e 3d b4 d1 1f bd 54 1b 23 bd 4e af 83 be
       0.050297827 -0.039018348 -0.039820984 -0.25719684
000330 22 5a 75 be 6e b4 4b 3d 7a b5 67 bd 48 09 16 be
       -0.23960164 0.049732618 -0.056569554 -0.14651978
000340 fe 5f 5d be 0f db 12 bd 23 ca 9d bd 76 60 73 bd
       -0.2161865 -0.03585344 -0.0770457 -0.059418164
000350 af 9d d7 bd 26 84 3a bd 60 8e 2c be 5f 98 24 3c
       -0.10528123 -0.045536183 -0.16851187 0.010046094
000360 66 74 1c 3e d4 e8 c5 bd 8f 04 f3 3d 83 8a 87 bd
       0.15278777 -0.09663549 0.11866104 -0.06618216
000370 4d 9d e9 3d 8b bb 84 3d dc 63 c8 3d 36 81 f3 3d
       0.11406956 0.064810835 0.09784672 0.118898794
000380 6d 3a 12 bd 40 42 f0 bd 79 21 18 3e f1 2c 55 be
       -0.03570025 -0.11731386 0.14856519 -0.20817925
000390 cc f8 41 3e f3 45 04 bc 1f d1 fd 3d 04 c1 52 bd
       0.18942565 -0.008073318 0.12393402 -0.051453605
0003a0 d5 e7 56 3d ca a6 a2 3c c9 7e ac 3d af 14 03 bd
       0.052467186 0.019854922 0.0842262 -0.032002147
0003b0 0a 95 8b be ed ac 97 bd 5a 86 1f be fc 5c 60 be
       -0.27262145 -0.0740603 -0.15578595 -0.2191047
0003c0 3b da 44 bd 04 6a ec bd 0d 82 70 3d 7e 42 02 be
       -0.048059683 -0.115436584 0.058717776 -0.12720677
0003d0 93 44 24 3d d1 7c 0c 3e d8 9b e6 3d 3f c7 92 3c
       0.04010446 0.13719489 0.112601936 0.017917274
0003e0 e3 29 18 bd 59 37 05 3d b5 08 26 3d 88 1d 2e 3d
       -0.03714932 0.032523487 0.040535647 0.042508632
0003f0 4f 95 94 3c fc b0 1a be 9c 78 28 3e c4 96 06 be
       0.018137602 -0.15106577 0.16452259 -0.1314345

pi.mu_net.2.bias f4 [64]
000000 77 0f f0 bc 11 4c 8f bd 11 eb 8e bd 93 81 33 3d
       -0.02930425 -0.069969304 -0.06978429 0.043824743
000010 3f bc 13 be f0 6f 1c bc 06 85 63 3d 51 fd 6a 3d
       -0.14427279 -0.009548172 0.055546783 0.057370488
000020 e1 71 c6 bd 64 da 40 3d 45 d9 56 bb 36 37 7e bd
       -0.096896894 0.047083274 -0.0032783311 -0.062064372
000030 39 e0 49 3e 05 b8 35 3e 67 be 8c 3d 10 98 04 3c
       0.1971444 0.17745979 0.06872254 0.008092895
000040 d7 5c ea 3d 1c 23 14 be 2b 3f 30 be 6c b0 64 3d
       0.11443489 -0.14466518 -0.17211597 0.05583231
000050 2f b0 e0 3c 62 de 00 3e 04 a5 77 3d d6 91 58 be
       0.02742776 0.12584832 0.060460106 -0.21149382
000060 2b 81 ea 3d 29 ab e6 3d 37 1a 8a 3d 36 30 bb 3d
       0.11450418 0.11263115 0.06743281 0.09140055
000070 53 5e 86 bd 5e 66 8c be 75 5a 5f bd 74 89 a3 3d
       -0.0656096 -0.2742185 -0.054529626 0.079852015
000080 d5 8d 5e 3d 6b b9 66 3d 54 39 13 3c 8b de a8 3d
       0.05433448 0.056329172 0.008985836 0.08245572
000090 37 53 55 bd eb 49 0e 3c 1c 2d c6 bc b9 a2 3b be
       -0.052081313 0.008684616 -0.024191432 -0.18323793
0000a0 91 9d 25 3e 2f 01 55 be ea c5 72 3d 61 d2 29 3d
       0.16173388 -0.20801233 0.059270777 0.0414604
0000b0 9f cf ec 3c 1e cf 63 bc ea 3d b5 bc d1 00 10 bd
       0.028907595 -0.013904361 -0.02212425 -0.03515703
0000c0 b7 92 4b 3d 7e 5a 81 3d 9c a0 76 bb 1d 12 09 bc
       0.049700465 0.06316088 -0.0037632352 -0.008366135
0000d0 f8 b5 64 3d f9 18 a2 be c4 df 62 3e ad 2b e1 3d
       0.0558376 -0.31659678 0.22155672 0.109946586
0000e0 9f 05 d8 bd 4b 99 07 bd ce 0e 12 be b1 c1 1e 3e
       -0.10547947 -0.033105176 -0.1426346 0.15503575
0000f0 9c 19 57 be 49 0f 44 3d 15 b5 1f 3e 72 7e 97 bd
       -0.21005863 0.04786614 0.15596421 -0.073971644

pi.mu_net.4.weight f4 [6, 64]
000000 73 03 05 3e 31 2e 1c be 86 02 74 3d f0 5a 5b 3d
       0.12989597 -0.15251996 0.05957272 0.05355352
000010 c3 87 99 bd a6 fd 1b be d0 6b 82 be d5 ea 03 3d
       -0.074965976 -0.15233478 -0.2547288 0.032206375
000020 e4 48 18 3e 6e d1 c9 3d 1a 3c 58 be d7 95 5a 3e
       0.14871556 0.09854399 -0.21116677 0.21346222
000030 36 b1 b0 3d cb 3e 3d bc f0 91 6d 3e a6 c0 cb 3d
       0.0862755 -0.011550616 0.23200202 0.09948854
000040 22 03 19 bb f2 82 19 bd 55 83 38 3e 79 e4 13 3e
       -0.0023347815 -0.037478395 0.18018849 0.14442624
000050 51 3a fe bc 28 69 26 3e ec fe 6d 3e 6d 1c ef 3d
       -0.031033667 0.16251051 0.23241776 0.11675344
000060 42 99 b1 be 62 6a 94 bd a0 06 b7 bd 6c d5 2b be
       -0.3468724 -0.072468534 -0.089368105 -0.16780633
000070 32 41 c9 3d 76 99 36 3e 92 fe 24 bd 86 e0 de 3d
       0.09826888 0.17831978 -0.04028184 0.10882668
000080 8a 75 cd 3d ec f4 48 3e 64 7c 5b 3e 5c 5d 82 3d
       0.100321844 0.1962468 0.2143417 0.06365463
000090 54 76 fd bd b0 a8 51 be 41 30 f1 bd 54 a2 83 3e
       -0.12376085 -0.20474505 -0.11776782 0.25709784
0000a0 63 95 1b 3e 3e 89 17 be 61 6b 4e be 69 00 7b be
       0.15193705 -0.14798447 -0.2015815 -0.24511875
0000b0 c7 bc bc 3d 24 60 25 be 9a 95 63 bd 16 8f be 3d
       0.09215694 -0.16149956 -0.055562593 0.09304635
0000c0 83 81 2b 3e 69 5b 43 3e 5c 4b 8f bd f4 b8 04 be
       0.16748624 0.19077839 -0.069967955 -0.12961179
0000d0 76 26 81 be e0 d3 04 3d 04 34 e8 bd e4 cd 88 be
       -0.25224656 0.032428622 -0.11338046 -0.26719582
0000e0 23 e2 41 3d f4 a6 94 3e f9 b2 d2 bd c9 ef 3c bd
       0.0473348 0.29033625 -0.102880426 -0.046127114
0000f0 58 4f 48 3d bc e6 d5 3c 63 a4 c5 bd d2 dc 96 3d
       0.048903793 0.026111 -0.09650495 0.07366337
000100 78 8c eb 3b 77 ed be 3d f6 6b 55 be c7 c6 57 bc
       0.007188376 0.093226366 -0.20841965 -0.013169951
000110 46 05 bb bc 4a 51 62 be 8f 4c 3d 3e ab 27 e8 bd
       -0.022829663 -0.22101322 0.18486236 -0.11335691
000120 ca f7 16 3d 1f 1c 53 be 89 c8 0d be 89 44 08 3e
       0.036857404 -0.20616196 -0.1384603 0.13307394
000130 3d 4f 9b 3d 09 89 cb bd 79 55 78 3e e1 72 40 3e
       0.07583473 -0.09938247 0.24251355 0.18793823
000140 74 16 1e 3e e5 d8 f3 bd 53 9b ce 3d b3 83 3e 3e
       0.15438253 -0.11906604 0.100882195 0.18604927
000150 72 9a 43 be 86 e1 57 be 79 c8 25 be f4 e1 93 3d
       -0.19101885 -0.21082124 -0.16189755 0.072208315
000160 95 6b 58 3d cc 75 5d 3e 76 6e 4a 3e e1 ff 33 3c
       0.052836973 0.21626967 0.197687 0.010986299
000170 34 49 29 be 93 4f 5d 3d c8 f4 99 3e ac 01 30 3c
       -0.16531831 0.054030966 0.30069566 0.010742586
000180 2c 52 88 3c f8 6b 73 3d 99 04 a6 be a3 90 19 be
       0.016640745 0.05942914 -0.32425383 -0.14996581
000190 0d 60 95 3e 8f 14 72 be 6e 9b 48 bd 99 0f 98 3d
       0.29174843 -0.23640655 -0.048976354 0.0742485
0001a0 90 54 30 3d 5b 15 51 be 87 26 7e be 25 47 90 3d
       0.043049395 -0.20418303 -0.24819385 0.0704482
0001b0 fa c7 78 be a1 41 c5 bc d8 32 7d be 13 f4 fa 3d
       -0.24295035 -0.024079146 -0.24726427 0.12253585
0001c0 11 38 37 3e 98 c2 f9 3d 01 33 f9 3d ae 90 1e be
       0.17892481 0.12195319 0.12167931 -0.15484878
0001d0 ce be cd bc 4f e0 db bd 6e 10 f9 3d c3 ba 5d 3e
       -0.025115397 -0.10736143 0.12161337 0.21653275
0001e0 95 91 1d be db 7c 05 be 6c d1 68 be fb 54 34 bd
       -0.15387566 -0.1303591 -0.22736138 -0.044026356
0001f0 57 44 f5 bd 76 ac 95 bd 7e 2d 62 3e 11 e2 82 3e
       -0.119759254 -0.07308285 0.22087666 0.255631
000200 d7 24 28 3e 6b bb 86 3d a5 6c 2e 3c 20 18 26 be
       0.16420303 0.06578716 0.01064602 -0.1622014
000210 4f 51 31 3e 6d 9b 50 3d 60 28 08 bd ae 90 28 3e
       0.17316173 0.050929476 -0.03324163 0.16461441
000220 98 53 99 bd c8 69 78 3d 50 05 30 be ba d3 e6 3d
       -0.07486647 0.060647756 -0.17189527 0.112708524
000230 3c ad 0c 3e 11 50 59 3d 7f d7 76 3e 6d c9 da bc
       0.13737959 0.053054873 0.24105643 -0.026707375
000240 a1 b7 e6 bd 73 46 3b be 26 31 87 3c 2c 66 96 3d
       -0.11265493 -0.18288593 0.016502928 0.073437065
000250 bf b6 45 3e f8 71 c6 3d b2 97 48 bd 0a fd 63 bc
       0.19307993 0.096897066 -0.048972793 -0.01391531
000260 75 e7 1d 3e 29 ce b0 bd b0 5d e5 3d ab 6c db bd
       0.15420325 -0.08633072 0.1119951 -0.10714086
000270 3d 18 b1 bd a9 c2 e7 bd 3c af e8 bd eb 07 e4 3c
       -0.08647201 -0.11316425 -0.11361548 0.027835807
000280 75 3f 8a b9 78 6b 33 bd 44 61 83 be 9e ed 63 be
       -0.0002636869 -0.043803662 -0.25660145 -0.22258613
000290 76 f6 ac 3c 88 51 bf 3c 1a 42 28 be 60 5d a7 3e
       0.021113615 0.023354307 -0.16431466 0.32688427
0002a0 dc 38 72 be f9 70 84 3e 5d 86 92 3d f6 42 14 be
       -0.23654503 0.2586744 0.07154534 -0.14478669
0002b0 c0 b8 75 bd c2 54 8d ba aa f0 a4 bd e2 00 7d 3d
       -0.059990644 -0.0010782706 -0.080537155 0.06176842
0002c0 8a fb 2a 3e f2 fb 87 bd 70 d2 01 3e ac 29 a7 bd
       0.16697517 -0.06639852 0.12677932 -0.08162245
0002d0 bb 19 34 be df 71 61 3d 88 f8 c3 3d 08 79 1b be
       -0.1758794 0.055040237 0.09568888 -0.15182889
0002e0 20 93 35 3c 30 f0 f9 3d ea b0 6a 3d 2d f5 34 3d
       0.011082441 0.12204015 0.057297625 0.04417913
0002f0 8e 1d 8a bd 11 2e 1c bd 1b 4c 10 be a3 eb 82 3d
       -0.06743918 -0.03812987 -0.14091532 0.063926004
000300 c1 26 9b bd b1 74 51 be 0b bf cc bd 64 4e dc bd
       -0.07575751 -0.2045467 -0.09997376 -0.10757139
000310 d4 96 37 be 39 2d fb 3d d9 4c dc bd 23 5e b2 3b
       -0.1792863 0.12264485 -0.10756845 0.005443351
000320 ea eb e8 3b d9 09 a1 3c 44 9f 51 bb 78 f4 7d 3e
       0.0071082013 0.019658016 -0.00319858 0.24800289
000330 68 c6 19 be b3 60 0a 3e de a3 44 3e 37 a2 37 3e
       -0.15017092 0.1351345 0.19203135 0.17932974
000340 61 e9 1e be f6 79 b3 3c 9f 85 30 be eb 06 d4 bd
       -0.15518714 0.021908741 -0.17238472 -0.10352882
000350 e6 6f a4 3d 38 8e 66 bd 40 60 64 3e 5e fd 58 bd
       0.080291554 -0.056287974 0.22302341 -0.052976005
000360 57 f9 03 3e f0 13 b9 bd 4e 66 eb 3c e5 eb 23 be
       0.12888084 -0.09037006 0.028735306 -0.16007955
000370 1c 85 8a 3e a2 8a 82 3d ce 6f b0 bc 56 29 2c be
       0.2705468 0.06374098 -0.021537688 -0.16812643
000380 34 86 70 bc db d4 61 3e 7f f2 02 3e a5 9d 58 bd
       -0.014680434 0.22053854 0.12787817 -0.052884717
000390 59 bd a2 3d 34 a4 83 3c aa ab fd 3d f7 cf 82 3d
       0.079462714 0.01606951 0.12386258 0.063873224
0003a0 5b e5 a8 3d 5a d1 24 3c a6 ae 1d be a2 1f ae 3d
       0.08246871 0.010059679 -0.15398654 0.08502127
0003b0 d5 a9 7a be 1f 77 73 be 27 9b 8a be 7a af 82 3d
       -0.24478848 -0.2377591 -0.27071497 0.06381126
0003c0 f1 08 57 3e 87 d4 d5 bd 98 a5 11 be 1e 3a 51 be
       0.20999505 -0.10440927 -0.14223325 -0.20432326
0003d0 ed 71 15 be bb 66 0d 3e 61 4b 1d 3e a7 f9 37 bd
       -0.1459424 0.1380872 0.15360786 -0.04491582
0003e0 72 50 0c bd 9f fe f1 3d 79 56 99 bd ed 75 2c be
       -0.034256406 0.11816143 -0.074871965 -0.1684186
0003f0 2a 0f fc 3d 13 99 1f 3e 3b fd 08 3e ba 2b 94 bd
       0.1230758 0.15585737 0.1337785 -0.07234903

pi.mu_net.4.bias f4 [6]
000000 2c 9e 97 3d 9e 9b c2 3d 1e 23 98 3d 8f da 29 bd
       0.07403216 0.09502338 0.07428573 -0.0414682
000010 e6 b3 05 bc b3 6d 03 3e
       -0.008160567 0.12834816

vf.v_net.0.weight f4 [64, 24]
000000 9a 96 e8 3f 81 83 13 c0 4d 54 e4 bf 8a 59 50 bf
       1.817096 -2.3049014 -1.7838227 -0.81386626
000010 7b 2a 68 bf ca 80 1a bf 3c 6d 29 3a 70 ff 4c 3f
       -0.9068982 -0.60352767 0.00064631156 0.80077267
000020 9e be 23 bf c2 cd 49 3e 79 2d 9d bf 2e 7a 8b bf
       -0.63962734 0.19707397 -1.2279502 -1.0896661
000030 a5 03 12 bd 2e d9 51 3d 14 2a 38 bf cd f6 22 bf
       -0.035648007 0.05123251 -0.71939206 -0.6365784
000040 c0 a2 48 bf 7d fc 38 3e c7 38 1a be 8b cd a3 bd
       -0.78373337 0.18065067 -0.15060721 -0.079981886
000050 f9 7a a2 bc 87 20 00 3d 7b 23 41 3d 82 cd 82 bc
       -0.019834029 0.03128102 0.047152977 -0.015967134
000060 9a 9b ad bd 1a 60 9e be 77 6d 0a c0 db 81 9f 3f
       -0.08476944 -0.30932695 -2.1629312 1.2461504
000070 50 15 79 bf 5f 00 b9 be 96 0b 0d bf 0e f1 32 3e
       -0.97298145 -0.36133096 -0.55095804 0.17474768
000080 71 b3 51 bf eb c3 8e 3f d5 77 79 bd ca 17 84 3f
       -0.8191443 1.115354 -0.060905296 1.031976
000090 5c 2f 06 3f ea 81 1d be b6 3a 20 3f de 7f 7c 3f
       0.52416015 -0.1538159 0.62589586 0.9863261
0000a0 45 06 d1 3f be fc 01 bf 46 a7 03 3f 1a 49 1a 3e
       1.6330038 -0.5077628 0.51427114 0.15066949
0000b0 88 4a 2f 3c 97 e0 63 be d8 37 d6 bd 92 d3 99 3a
       0.010698922 -0.22253643 -0.1045987 0.0011736026
0000c0 90 7e 2b 3e 75 a1 b9 3d 8c 18 fc be f2 ca 6d 3c
       0.16747499 0.090639986 -0.49237478 0.014513718
0000d0 08 35 1f 3f 34 90 8a bf 1d f1 6c 3f dc 5a 60 bf
       0.62190294 -1.0825257 0.9255541 -0.8763864
0000e0 f2 14 32 3e 5b ce 3d 3f 11 8e 82 3e 0e 89 07 3f
       0.17390803 0.74143 0.25499013 0.52943504
0000f0 16 c7 2a 3f a9 f5 fd 3e 9f 7a c7 be 96 b6 b5 be
       0.6671003 0.49601486 -0.3896074 -0.35490865
000100 ba b3 81 bf 3f ca b1 bd 89 80 79 bd 89 de 31 3d
       -1.0132973 -0.086811535 -0.060913596 0.043425117
000110 f0 f9 f3 3e b5 97 6b be 91 2d 50 be 34 58 d2 3f
       0.47651625 -0.2300709 -0.20329882 1.6433167
000120 ba b3 20 3f 04 19 01 c0 82 93 4a bf 70 31 24 be
       0.6277424 -2.0171518 -0.7913133 -0.16034484
000130 8a 64 19 3f 5c ea ae 3d 41 c4 37 3f d4 e4 a2 3d
       0.59919035 0.08540794 0.71783835 0.07953802
000140 01 7c 0e bc ba 56 84 bf 2f 18 93 be fa 2a b0 3e
       -0.008696557 -1.0338967 -0.28729388 0.3440779
000150 5b e8 2a 3f 4c d3 d6 bd 8b c2 71 3f c4 2d f8 3e
       0.66760796 -0.104895204 0.94437474 0.48472416
000160 4a 61 38 3f 20 0b 8d 3e 13 e1 c2 be 0a db 5d be
       0.7202345 0.2754755 -0.38062343 -0.21665588
000170 42 8e 10 bc 94 24 ea 3d c0 da 22 3d 4b c9 ef 3a
       -0.008822979 0.11432758 0.039759398 0.0018294243
000180 8d 3d d3 be c2 d8 da be 09 6e a1 3f 0f ac 9a be
       -0.41257897 -0.42743498 1.2611705 -0.30209395
000190 0e 40 54 bf 6b 33 79 bd 57 9a 7e be e1 eb 11 3f
       -0.8291024 -0.06084005 -0.24863563 0.5700055
0001a0 4b 23 70 3f 31 28 40 3f 26 1b b6 bf 51 6e 68 3f
       0.9380385 0.7506133 -1.4227035 0.9079333
0001b0 3b 93 e9 bf 18 aa 47 3f 46 c0 73 bf 1e b5 73 bf
       -1.8248056 0.7799392 -0.9521526 -0.9519824
0001c0 84 26 db bd a7 b2 11 bd 49 61 ea be ee c3 0e 3f
       -0.10700706 -0.035570767 -0.45777348 0.55767715
0001d0 17 d6 a1 bc dd c2 3c be fb 53 04 bf 88 ac 91 bd
       -0.019755406 -0.1843371 -0.51690644 -0.07112986
0001e0 b4 62 cd bf 5e 70 8a 3f 3f 04 08 bf f8 42 c7 3e
       -1.6045747 1.0815542 -0.5313148 0.3891828
0001f0 48 9f f1 3f 0e 48 97 3f 71 84 5e 3e 91 7c 7d 3e
       1.8876734 1.1818864 0.2173021 0.2475455
000200 5a 17 0f 3f 9b 7b 1b 3e 32 31 93 3f 9d c4 8d bf
       0.55895007 0.1518387 1.1499388 -1.1075627
000210 78 ce 0d bf b9 6c 41 3e 76 e9 9d bf 70 b6 48 3e
       -0.5539317 0.1888913 -1.2336872 0.19600844
000220 53 3b e2 3e 46 f4 53 bd 02 62 07 3e 0a b0 9a 3d
       0.44185886 -0.05174663 0.13220981 0.07553108
000230 6e 8a c0 3b 18 04 84 bc 56 2f e8 3b 96 5c 2b bd
       0.005875877 -0.016115233 0.007085721 -0.041836344
000240 35 eb a2 bd c2 96 34 c0 59 82 fc bd 0e 3c 32 3f
       -0.079550184 -2.8217015 -0.12329549 0.69622886
000250 dd a8 24 3f 24 a2 19 3f 6e 15 7c 3f 8a ad 5f 3e
       0.64320165 0.6001303 0.984702 0.21843544
000260 08 b4 ed 3e e8 07 6f be c3 ae dc 3d 9b 9a b9 3e
       0.46426415 -0.2334286 0.10775521 0.36250767
000270 28 af eb 3d 5d ad 8d 3e 72 2d c0 3e 08 55 3b 3e
       0.11508018 0.27671328 0.37534672 0.18294156
000280 b3 64 8c be 03 7a c0 be db 77 67 3e 5e 5f de 3d
       -0.27420577 -0.37593088 0.22604315 0.108580336
000290 c0 97 9b bb fc c6 5a be 14 1e ec 3c 9f 01 87 bc
       -0.0047483146 -0.21364969 0.028822936 -0.016480265
0002a0 59 8b e1 bf aa 0d b8 3e 28 d4 01 c0 41 7d 69 bf
       -1.762065 0.35947925 -2.028574 -0.9120675
0002b0 e6 96 9d bd 0e b0 05 c0 d3 8e 51 3f fb 45 11 bf
       -0.07694797 -2.0888705 0.8185856 -0.56747407
0002c0 42 84 20 bf 70 83 25 bf 28 1b 42 3f 90 39 4d 3f
       -0.6270181 -0.6465368 0.7582269 0.8016596
0002d0 3a a3 31 be be 34 84 be 77 1a 4d bd 78 79 a2 bf
       -0.17347422 -0.2582149 -0.050074067 -1.2693319
0002e0 bf d9 2e bf 5f 5b 0f 3f 1d eb a6 be dd 08 25 be
       -0.68301004 0.55998796 -0.32601252 -0.16116662
0002f0 10 97 61 bc 95 99 8c be 9e b1 59 bd 31 ae 34 3c
       -0.013768926 -0.27460924 -0.053147905 0.011027859
000300 0f b0 6e c0 12 00 81 bc 78 30 88 3f 25 09 4c 3d
       -3.7294958 -0.015747104 1.0639791 0.04981341
000310 f7 1b cb 3e 71 bb 11 3f 0a dd ce 3e ca ff 10 3e
       0.39669773 0.5692664 0.40403014 0.14160076
000320 60 1e c6 3e 69 d9 bc bf 9e a0 0f 3f 29 41 29 3f
       0.3869505 -1.4753848 0.5610446 0.6611505
000330 1f 01 01 3f 30 4b cb be 1e cb c3 3f 74 f1 8e bf
       0.50392336 -0.397058 1.5296361 -1.1167436
000340 82 8d 09 3f 94 1a b2 be 4e dc 75 3d 32 d6 0f bd
       0.5373155 -0.34785903 0.060024552 -0.035116382
000350 1b 89 4c 3b 51 91 63 3c 3d a9 60 bd 0e 6b b7 bc
       0.003120965 0.013889627 -0.0548489 -0.022389915
000360 dc 5c fb be d1 7d e4 bf 42 ec dd bc 27 e1 8d 3e
       -0.49094284 -1.7850896 -0.027090196 0.2771084
000370 6e 6a 4a 3f d6 b0 c3 be 97 d6 30 3f 3d 2d e4 3e
       0.7906865 -0.38220853 0.6907744 0.44565764
000380 7c 56 9c 3d a7 07 d4 3f f4 c7 8b 3c 50 23 ae 3f
       0.07633683 1.6564835 0.017063119 1.3604527
000390 09 8f a5 3e 17 ab db 3f a7 34 5d 3f 5c a5 5f be
       0.3233569 1.7161587 0.86408466 -0.21840423
0003a0 6b 3e 4a 3d 73 da f1 3e dc c4 b0 be f1 5b 1f 3e
       0.049375933 0.47236976 -0.34525192 0.15562417
0003b0 52 67 bb 3c 24 51 48 be 6f ad 3a bf 13 75 b1 3c
       0.022876415 -0.19562203 -0.7292089 0.02166227
0003c0 c9 b6 47 bf 8b 8d 56 3f 8b 09 ae 3e 21 91 be bf
       -0.78013283 0.8380973 0.33991656 -1.488804
0003d0 d7 07 74 3e 79 9b 38 bf bb 85 db 3d 79 c4 62 bf
       0.23831116 -0.7211223 0.107188664 -0.88581043
0003e0 40 b0 c6 bd 71 ff bf 3e e8 04 62 bf 79 1d 44 3f
       -0.09701586 0.37499574 -0.88288736 0.7660747
0003f0 3b ae 01 3e 91 41 86 3f 4d 80 48 3f c7 bc d6 3f
       0.1266412 1.0488759 0.7832077 1.677636

vf.v_net.0.bias f4 [64]
000000 bf 0f df 3f 43 c9 76 3f 22 7f 87 bf 66 17 db bf
       1.742668 0.9640085 -1.0585673 -1.7116516
000010 0a 56 1a be 74 18 0e c0 3b 35 0e c0 ff 57 d1 3e
       -0.15071884 -2.2202425 -2.221999 0.40887448
000020 64 84 9e 3e 51 46 61 3e 5b 91 e1 bf dc 25 af 3e
       0.3096038 0.2199948 -1.7622484 0.34208572
000030 a8 a2 0d c0 5c 11 e6 bf 7a 55 9f bf 4d 8a 11 3f
       -2.2130527 -1.7974048 -1.244796 0.56851655
000040 ec a9 3f bf 26 de 7d 3f d8 c0 39 3d 94 8c ed be
       -0.74868655 0.99167097 0.045349926 -0.46396315
000050 45 7d 00 be 35 5f 1c 40 8b 1d 2a bf cb f1 f0 be
       -0.12547787 2.443311 -0.6645133 -0.47059473
000060 8a 2d a2 3f 12 05 8f 3f 46 a3 8b bf d8 51 fe bf
       1.2670147 1.1173422 -1.0909202 -1.9868727
000070 34 b5 3d 3f e2 cb ae 3f 75 eb b7 bd cc aa cd bf
       0.7410462 1.365597 -0.08980457 -1.6067748
000080 a7 db c3 3f 27 e2 f3 3f 5b 38 7c bd 62 ba 82 3f
       1.5301408 1.9053391 -0.061577182 1.021313
000090 f5 23 24 bf c9 4f e2 bf da 09 d8 bf 88 34 71 be
       -0.64117366 -1.7680598 -1.6878006 -0.23555195
0000a0 ca e0 53 bf ea db cd 3e d9 66 e7 3f ed 80 25 3d
       -0.82764876 0.40206844 1.8078262 0.040406156
0000b0 9a d2 95 be a3 ea 36 3f 25 ed a6 3f a8 1b a4 3f
       -0.2926224 0.7145178 1.3041121 1.282094
0000c0 78 fa 9a 3f bb 03 94 be c2 1d d1 3e 87 67 ce be
       1.2107687 -0.28909096 0.40843016 -0.4031336
0000d0 92 f9 4c 40 9c 70 23 3f 62 db 30 40 b1 68 b3 3f
       3.2027326 0.63843703 2.76339 1.4016324
0000e0 1c 7a 70 3f 60 a5 5f bf 14 64 f6 3d 97 e3 ef bf
       0.93936324 -0.8736172 0.12030807 -1.874133
0000f0 26 0c 4b 3f 79 09 c8 be 2f 97 1d 3f c6 0e cc be
       0.7931541 -0.39069727 0.6155881 -0.3985502

vf.v_net.2.weight f4 [64, 64]
000000 5f 1d 05 3f b9 0a 5f be 8d fe ea 3e 2c 31 7a be
       0.5199794 -0.21781434 0.45897332 -0.2443282
000010 a9 05 c8 3e c4 12 0c 3f cd 37 63 3f b7 e3 c2 be
       0.39066818 0.54716134 0.8875702 -0.38064358
000020 05 23 7e be 56 e0 94 be 73 f4 03 3f 40 a0 90 be
       -0.24818046 -0.29077405 0.51544875 -0.2824726
000030 b1 de 15 3f 0f 6b 93 3d d4 1b f6 3d 17 8d 4b 3e
       0.58542925 0.07198154 0.120170265 0.1987804
000040 41 be e2 3e 74 25 8c 3f 22 be 79 be 1f 51 8d bf
       0.44285777 1.094893 -0.24388936 -1.1040381
000050 51 1e 7b bf b3 f9 54 3e 49 d0 95 be cf d6 e1 be
       -0.98093134 0.20798378 -0.2926047 -0.44109198
000060 ac 67 3c 3f 95 6c 59 3f 34 1e cc be 9e b4 e5 be
       0.7359569 0.8493131 -0.39866793 -0.44864362
000070 8c 7d 58 bf 67 a6 a0 3e e7 b0 93 be ee 99 f3 3e
       -0.8456657 0.31376955 -0.28845903 0.47578377
000080 11 15 9e 3d f8 57 9c 3e 21 51 50 3e 84 3c 41 3e
       0.07718862 0.30535865 0.20343448 0.18870741
000090 9e b9 78 be 12 ba 54 bf 53 5c a2 bd 8d cc 64 be
       -0.24289557 -0.8309642 -0.07927766 -0.22343655
0000a0 e9 f6 4c 3f 72 c2 86 be 05 ee 1e be e2 1e 0e be
       0.80064255 -0.26320225 -0.15520485 -0.13878968
0000b0 5e a3 6a bc 67 01 e2 bc d0 cc 80 3e d1 4c 5a 3d
       -0.014321176 -0.02758856 0.2515626 0.053295914
0000c0 ce 1a 32 be 36 75 8c 3e 0a 7d 31 bf f0 fe 6c 3e
       -0.17393038 0.27433175 -0.6933142 0.23144126
0000d0 4c 2e 8c bf e3 46 15 3e ef c0 a0 bf 38 23 10 bf
       -1.0951629 0.14577822 -1.2558879 -0.5630374
0000e0 d8 0e 13 3f 4e 5f e7 be 47 1a a8 bd e3 7b 2b 3e
       0.57444525 -0.451899 -0.08208137 0.16746478
0000f0 86 a8 d2 3e 35 de d2 bd 2d be 27 3f 22 73 f6 3e
       0.41144198 -0.10296289 0.6552456 0.48134714
000100 9f a6 46 bf 17 a2 a6 3e 90 aa 07 bd d3 66 bc bc
       -0.77597994 0.3254554 -0.033121645 -0.02299825
000110 7a 30 04 be e9 42 25 3e 03 2d 02 3f 02 5f 95 be
       -0.12909117 0.16138805 0.5084993 -0.29174048
000120 3f 18 bd 3e a3 81 06 be d3 83 29 3f 27 3f dc be
       0.3693256 -0.1313539 0.6621677 -0.4301693
000130 68 e6 00 3f 06 95 80 3d db 40 0e 3d 5f 59 7a be
       0.5035157 0.06278424 0.03472982 -0.24448155
000140 ce 7c b7 be bb a6 ce 3e 92 68 8f be e8 ac 03 bf
       -0.35837406 0.4036158 -0.28009468 -0.5143571
000150 90 d9 ad 3e 4f e6 66 3e 63 41 6c bd b0 1a a7 3e
       0.3395505 0.22548793 -0.057679545 0.32637548
000160 2a 9f 35 be dc 92 0d 3f 54 76 92 be 40 03 f2 bc
       -0.17736498 0.55302215 -0.28605902 -0.029542565
000170 b6 49 09 bf 35 6c f3 3d 3b 13 f0 bd 40 35 bf be
       -0.536281 0.11885873 -0.11722418 -0.37345314
000180 79 d0 0c bf 2c b8 ee 3d 0d d9 9d be f4 b9 53 3e
       -0.55005604 0.11656222 -0.3082966 0.20676404
000190 d5 8f eb bd 21 cc c1 bd 50 92 72 3d 20 63 85 be
       -0.11502043 -0.094627626 0.059221566 -0.2605219
0001a0 aa a0 1f 3e c6 6b df 3d 34 3f 0d bf 61 f4 82 be
       0.15588632 0.10909228 -0.55174565 -0.2557707
0001b0 36 ac 72 3e 34 92 70 3e 27 a7 e0 be ed 22 f0 3e
       0.23698506 0.23493272 -0.43877527 0.46901646
0001c0 8b 09 08 3e b7 16 26 3d fd 31 41 bf a4 8d 86 3e
       0.1328489 0.040549006 -0.754669 0.26279938
0001d0 12 17 cc be ec 65 01 3f 87 87 01 3f c6 6a 82 be
       -0.3986135 0.50546145 0.50597423 -0.25472087
0001e0 12 1b 68 3e 61 eb 3d be 42 73 4a 3f fe c7 69 3a
       0.22666577 -0.18546821 0.7908212 0.0008918046
0001f0 34 40 68 bd 3e 7b 1d be ac 6f be 3d 6f 1b cb bd
       -0.056701854 -0.15379044 0.092986435 -0.09917342
000200 bd 0f 63 3e 50 2f 1f be fb 9b 1e 3f e5 35 6d 3e
       0.22173972 -0.15545392 0.6195676 0.2316509
000210 61 f9 49 3e ae 1e 3b 3f 41 11 a2 3e 5f 30 04 3e
       0.19724037 0.7309369 0.3165379 0.12909077
000220 b0 a6 7a 3e ca d0 ba be 66 4e ca 3d 3c 6a 45 bb
       0.24477649 -0.36487418 0.098782346 -0.0030123135
000230 00 d4 9b bd 71 35 d6 3e 56 cd 43 be 97 2a db 3c
       -0.07608795 0.41837648 -0.19121298 0.026753707
000240 0c b8 04 3f 7f db 88 be bc c3 5d 3e 98 fc 42 bf
       0.51843333 -0.26729962 0.21656698 -0.7616668
000250 24 0a 47 3f 91 49 45 bf c6 50 f0 be 51 f4 31 3e
       0.7774985 -0.7706538 -0.46936625 0.17378356
000260 29 d2 b5 3f 2f 56 29 3e a0 f0 dd be ed b7 4e bd
       1.4204761 0.16536783 -0.43347645 -0.050468374
000270 8e 1f 4d be 87 e8 e4 be 7c d4 14 bf e3 7d 43 be
       -0.20031568 -0.44708654 -0.58136725 -0.1909099
000280 16 d0 2d bf 30 9a c1 3e dc 78 b9 3e 66 bb 39 3f
       -0.6789564 0.37812948 0.3622502 0.7255157
000290 63 6a a1 be a3 ab 6e be e6 1d ff 3e 3d 50 18 bf
       -0.3152648 -0.23307662 0.49827498 -0.59497434
0002a0 4b fa 7c 3e bc b3 49 3e 31 96 5c be c0 e4 21 bf
       0.24704854 0.1969747 -0.21541668 -0.6323967
0002b0 83 6f fa be bb 3e 8a be b4 d2 40 bd 0f e0 9f be
       -0.48913202 -0.27000985 -0.047075942 -0.3122563
0002c0 03 d9 ac bc be d5 46 3e 9b 98 c2 3e e9 a1 53 be
       -0.021099573 0.19417474 0.38007054 -0.20667233
0002d0 cd 54 1b bf ef 04 46 3f e6 f7 6b be 2d aa 34 3e
       -0.6067627 0.7735128 -0.23043784 0.17643042
0002e0 6d ec 04 bf 13 2f 12 bf 12 d6 89 3d a8 b2 8a 3d
       -0.5192326 -0.5710308 0.06730284 0.06772357
0002f0 df 35 23 3f 85 fc f4 bd 4e 65 0b 3e 8d a1 72 be
       0.63754076 -0.11962227 0.13612863 -0.23694439
000300 72 65 45 bf 02 62 09 3e d4 ae f8 bd 28 f3 b7 3d
       -0.7710792 0.13416293 -0.12142721 0.08981925
000310 c0 72 78 3c 60 e8 50 3e c1 69 f4 be e8 d2 d0 3d
       0.015164077 0.20401144 -0.47736934 0.10196477
000320 8c 43 51 3e b7 68 70 be da e7 98 3f d3 5b 5a be
       0.20435923 -0.23477446 1.1945755 -0.2132409
000330 3c 97 09 bf 26 db 3c 3e 16 e3 ad be 59 c4 08 3e
       -0.5374639 0.18442973 -0.33962315 0.1335615
000340 31 9b c3 3e d2 24 d1 3d f8 e1 59 3b 00 5c 35 3f
       0.3820434 0.10212101 0.003324626 0.70843506
000350 50 21 9c be c7 c9 25 bf fe 6a ad bb aa ff 82 3e
       -0.30494165 -0.6476101 -0.0052922955 0.2558568
000360 9d 59 98 bf cb b5 14 bf 36 8f ea 3e 5a 1b bc 3e
       -1.1902348 -0.58089894 0.45812386 0.36739618
000370 0e e7 0c be bb 79 78 3e 83 a4 00 be 42 fa 4f 3f
       -0.13760015 0.24265186 -0.12562756 0.8124124
000380 55 e4 7e be 0b 5d 40 bf b2 2e 42 be 13 36 15 3e
       -0.2489179 -0.7514197 -0.18963125 0.14571409
000390 6f 31 32 bd 11 1f 35 be 9c a4 a3 3e 20 d4 08 3e
       -0.043504175 -0.17687632 0.31961524 0.1336217
0003a0 82 d4 b1 3e de c6 8a be 88 e9 dd be 0b 96 d1 bd
       0.34732443 -0.2710485 -0.43342233 -0.102336966
0003b0 e8 ac 91 3e e0 50 ce bd 21 1f 09 be bb 8d 07 3f
       0.2845223 -0.100740194 -0.13390781 0.5295064
0003c0 0c a7 65 3d 1c e8 d6 3d f5 12 c9 3e c7 9c ee bc
       0.05606751 0.1049349 0.39272276 -0.029127492
0003d0 62 90 38 3e 4f 0a f8 be 01 f5 5c 3e e5 d6 67 be
       0.18023828 -0.48445365 0.21577837 -0.2264057
0003e0 5c 59 9a be 71 5f b9 3d a2 61 ec 3d a0 b9 ca 3e
       -0.301463 0.09051407 0.115420595 0.39594746
0003f0 4d 9c 30 bf 48 84 e7 3d 27 6e 16 3f db 09 ee be
       -0.68988496 0.113045275 0.5876183 -0.46491894

vf.v_net.2.bias f4 [64]
000000 d9 6c a2 bf 21 da 07 bf 95 cc f9 bf f8 c1 2a bd
       -1.2689468 -0.53067213 -1.9515558 -0.04168889
000010 8c 4d 85 bf b2 e3 bb bf d7 f4 ca bf a4 52 af bf
       -1.041429 -1.4678862 -1.5855969 -1.3697095
000020 68 3a af 3d 66 3d e4 bf 3f 8e c5 bf e8 43 8d bf
       0.08556062 -1.7831237 -1.5434035 -1.1036348
000030 5e 4d ba bf 42 fe ea bf b2 c4 9d bf 0e 7f 4a bf
       -1.455486 -1.8358843 -1.2325652 -0.7910012
000040 d8 08 42 bf 2f 70 ed bf a4 74 ec be 4e eb ca bf
       -0.75794744 -1.8549861 -0.4618274 -1.5853059
000050 66 d2 c5 bf c4 8e 93 bf 51 90 b2 bf 2f 5f b7 bf
       -1.5454834 -1.1527944 -1.3950292 -1.4325923
000060 8c f4 b3 bf 65 02 6f bf fe 35 9e bf ef 2f c4 bf
       -1.4059005 -0.9336303 -1.2360227 -1.5327128
000070 b2 74 f2 be 14 ce 78 bf 80 8e d5 bf 74 cd af bf
       -0.47354656 -0.9718945 -1.6684113 -1.3734574
000080 37 b4 c6 bf 9a 11 02 c0 26 75 44 bf dc f5 6a bf
       -1.5523747 -2.0323243 -0.76741254 -0.917814
000090 16 5b 02 c0 5a b5 ca bf 17 65 48 bf e6 46 d5 be
       -2.0368094 -1.5836594 -0.7827925 -0.41655654
0000a0 19 3e 94 bf 69 a6 af bf fb be 30 be 35 66 03 be
       -1.1581451 -1.3722659 -0.17260353 -0.12831958
0000b0 2f 28 fa bf fa d6 62 bf d9 9f b1 bf cf f1 a5 bf
       -1.9543513 -0.8860928 -1.3876907 -1.2964419
0000c0 14 b3 e0 bf 29 7a 82 3e a1 a4 11 3f ee 1e af bf
       -1.755465 0.25483826 0.5689183 -1.3681314
0000d0 ea f1 98 bf b6 56 fc bf 75 6b c0 bf 9d b3 b3 bf
       -1.1948826 -1.9713962 -1.5032793 -1.4039189
0000e0 79 b9 96 bf 26 28 7e bf ec 75 a3 bf d3 0b c7 bf
       -1.1775352 -0.9928001 -1.2770362 -1.5550483
0000f0 0a 62 7b bf 3b 2f 74 bf e0 2a aa bf 54 79 b0 bf
       -0.9819647 -0.9538457 -1.3294334 -1.3787026

vf.v_net.4.weight f4 [1, 64]
000000 78 b9 9b be 31 0f 06 3e 9d c0 7a be b4 9e 5a 3e
       -0.3041494 0.13091733 -0.24487539 0.21349603
000010 09 04 62 3e 2b 0d 82 3e f8 83 9a be b8 ac 8c 3e
       0.22071852 0.2540067 -0.3017881 0.27475524
000020 e4 8d ee 3d 33 3a fd 3e 0b 04 55 be 12 24 a9 be
       0.11648157 0.49458465 -0.20802324 -0.33035332
000030 46 d9 17 3e 87 da aa be e0 c2 86 be 9d 3d 37 3e
       0.14828977 -0.33369848 -0.26320553 0.17894597
000040 02 b0 a1 be c2 82 d6 3e 9a 59 1c 3e 96 a0 c0 be
       -0.31579596 0.41896635 0.15268555 -0.37622517
000050 00 65 99 3e 23 3c 1e 3e 2c fa 2b be 3c 84 71 3e
       0.2995987 0.15452628 -0.16794652 0.235856
000060 93 3e 3f be 48 75 d4 3e 9a 03 5e 3e e2 0e 43 3e
       -0.18676214 0.41495728 0.21681061 0.19048646
000070 cc 6f 2c 3e 2e 58 5b 3e c3 15 d2 3e c7 79 45 be
       0.16839522 0.21420357 0.41032228 -0.19284736
000080 61 93 1d 3e 30 d0 9f be b1 35 4d 3e e8 26 85 3e
       0.15388252 -0.31213522 0.20040013 0.26006246
000090 01 57 0d bf 96 46 84 3e 65 40 8d 3e 16 c6 e9 3e
       -0.5521088 0.25835103 0.27588192 0.4565894
0000a0 54 70 40 3e 69 4a 43 3e aa 0c 51 3e 29 a2 8c 3d
       0.1879285 0.19071354 0.20414987 0.06866867
0000b0 35 a2 48 3f bd 66 25 3e 36 cd c9 be 73 d9 c6 3e
       0.7837251 0.16152473 -0.39414376 0.38837776
0000c0 72 86 8a 3e 16 e9 21 3e 37 56 88 3e ce 8b b9 3e
       0.270557 0.15811571 0.26628277 0.36239475
0000d0 69 dd 37 3e a7 44 a5 3e 89 3e 8a be ad b6 e3 be
       0.17955555 0.3227894 -0.27000836 -0.44475308
0000e0 85 35 21 be e2 98 31 3e 6d 84 86 3e b1 ec 5f 3e
       -0.15743072 0.17343476 0.26272908 0.21867634
0000f0 d3 5b 09 3e 35 b1 7c be 76 6c a2 be 16 ff 36 be
       0.13413934 -0.24676974 -0.31723374 -0.17870745
