HW4/ppo_dm_control-master/training/walker/walk/best_ppo_ac_model - Copy (2).pth (torch, 166233 bytes, 12 tensors)

pi.log_std f4 [6]
000000 73 72 16 c0 30 a9 13 c0 1d 90 0a c0 df b8 32 c0
       -2.3507354 -2.3072014 -2.165046 -2.7925336
000010 e6 62 36 c0 e3 5f 22 c0
       -2.8497863 -2.5371025

pi.mu_net.0.weight f4 [128, 24]
000000 f0 2e 15 be 60 37 da bb 89 fc 6a 3e 7f 6f 17 be
       -0.14568686 -0.0066594332 0.22947897 -0.14788626
000010 b5 d4 90 3e 2d ee 12 be ec 71 ae bc 00 a4 27 be
       0.28287283 -0.1434867 -0.021294557 -0.16371155
000020 5d 0f 32 3d 90 31 8f 3d 39 f5 d7 bc f4 f2 33 3e
       0.043471683 0.06991875 -0.026362048 0.17573148
000030 16 2d 33 3e e4 2b 31 be dc 00 4f be 3f ea 8d bb
       0.17497668 -0.17301899 -0.20215172 -0.004330903
000040 b4 19 ff bb 92 a0 5e 3d c7 68 0b be 6a 46 db 3d
       -0.0077850465 0.05435235 -0.13614188 0.1070679
000050 43 59 18 bc f1 aa 91 bd e5 ff 40 bd 5f e2 9b 3e
       -0.009298625 -0.071126826 -0.04711904 0.30446145
000060 6e 90 55 3e 4d f2 3b be 9e b1 5d 3d 29 48 88 be
       0.20855877 -0.18354149 0.054124467 -0.26617554
000070 1f 11 d1 3d 54 3d 4d 3e a4 9e 55 3e 62 06 63 3e
       0.10208344 0.20042926 0.20861298 0.22170404
000080 7a d2 51 be bd fb b5 be 31 d1 84 3e 53 26 7c bc
       -0.20490447 -0.35543624 0.2594085 -0.015389997
000090 6e ef 10 be df cd 46 3e 70 43 aa bd 8c 79 82 3e
       -0.14153835 0.19414471 -0.08313644 0.25483358
0000a0 7c 4a 4d be ff a9 8f 3d c8 f5 18 3d da db a6 be
       -0.20047945 0.07014846 0.03734377 -0.32589608
0000b0 9b 14 10 3e 0f 6b c0 bd f4 5e 17 be ba 34 1e 3e
       0.1407036 -0.0939542 -0.14782315 0.15449801
0000c0 f8 ae 3b 3e e3 9f 5e bd a5 ff ad bd ec 6a 85 3c
       0.18328464 -0.0543517 -0.08496026 0.016286336
0000d0 4a 2e d6 be ba 61 2d be 99 a2 3c be cd 09 ea 3d
       -0.4183219 -0.16931811 -0.18421401 0.114276506
0000e0 11 83 2a be 68 7a 57 3e 91 69 ca be ae 32 38 bd
       -0.1665156 0.21042788 -0.39533666 -0.044970207
0000f0 3d a7 6e be 55 09 76 bd fb 8e 00 be 66 f8 2e be
       -0.23305984 -0.060067493 -0.12554543 -0.17086944
000100 c5 ea 4e be 4e c5 80 3d 49 13 2e be c1 56 02 bc
       -0.20206745 0.06287633 -0.16999544 -0.007955254
000110 72 21 d8 bc ac 61 83 3d 64 fb 0e be de 09 67 3d
       -0.026383135 0.06415114 -0.13963085 0.056405894
000120 02 36 d8 bd 17 f3 96 be 9f 35 6b 3e 13 da 41 bd
       -0.10557176 -0.29482338 0.22969674 -0.047327112
000130 f3 8c 5c 3e bb b5 98 3e 4e 1a 39 be 1a bf 3d 3d
       0.21538143 0.2982615 -0.1807644 0.046324827
000140 c8 af b9 3d cf 74 0b bd a1 43 eb 3d 14 05 22 3e
       0.09066731 -0.034046944 0.114875086 0.1582225
000150 12 68 1a 3d e5 5c 64 3e 3e 46 9b 3e 07 75 e8 3d
       0.037696905 0.22301061 0.30327028 0.11350446
000160 74 da 0e be 85 62 f0 bd fd b0 dc 3d bb b0 fc bd
       -0.13950521 -0.11737541 0.10775945 -0.12338396
000170 04 a2 29 bd 8f 90 2e 3e 32 8c 52 3d 1d c0 89 be
       -0.041414276 0.17047332 0.051403232 -0.26904383
000180 90 fc 3a 3e bc ef 2a 3d 04 de 40 3e a5 30 65 3a
       0.18260407 0.041732535 0.18834692 0.00087429053
000190 74 a8 d7 bd 01 db 7d bd e4 3e 69 be 4d 0c 32 3e
       -0.10530177 -0.061976437 -0.22777897 0.17387505
0001a0 fd ca 35 be bf 79 59 bc b6 78 17 3e 26 e3 b5 bc
       -0.17753215 -0.013273655 0.14792141 -0.02220304
0001b0 8a 96 58 3e bb 92 4f 3e 63 75 99 bd df 1d 02 3e
       0.21151176 0.20270817 -0.07493093 0.12706707
0001c0 3a 0b 71 be 69 cc 41 3d 14 9b ac bc e7 50 83 3e
       -0.23539439 0.04731408 -0.02107004 0.2564766
0001d0 64 f2 2e 3e 1f 5a 06 3e 53 d0 47 be 58 ea b7 3d
       0.17084652 0.13120316 -0.19513063 0.089802444
0001e0 57 3d 39 be 83 6b 9e bd a1 3d 01 3d 5e 0c d0 3c
       -0.18089806 -0.0773535 0.031552915 0.025396522
0001f0 c7 d4 6e bd a1 b3 45 bd 6f d1 c7 3d bd 9f fe bd
       -0.05830839 -0.04826701 0.09756743 -0.124328114
000200 bc 47 5c bb 8e cb 09 3e d6 23 7a bd 88 a3 c5 bc
       -0.0033612093 0.13456556 -0.061069332 -0.02412583
000210 80 20 79 bd 1f e8 99 3d 6b 67 63 3e 40 5d 40 3e
       -0.06082201 0.07514977 0.2220742 0.18785572
000220 8d fa df bc 1d f5 20 bd 96 76 82 3c c0 e6 3a bd
       -0.027341152 -0.03929626 0.015925687 -0.045630217
000230 70 88 63 3e de 8d 53 bd fe cd 8e 3c 58 5f 7d 3e
       0.22220016 -0.051648967 0.01743221 0.24743402
000240 10 f8 15 3e c0 fe af 3e c2 95 63 3e 65 63 08 be
       0.1464541 0.34374046 0.22225097 -0.13319166
000250 87 6e 22 bd 4f da 9a 3d 19 d2 7e be 34 a3 ee 3d
       -0.03965619 0.0756117 -0.24884833 0.11652222
000260 ec 89 20 3e 39 18 f6 3d f7 0d f6 bd 14 ff f7 3d
       0.15677613 0.12016339 -0.12014382 0.12109199
000270 1f 80 e5 bc 2a 29 09 be 48 2c d4 3d 94 05 ce 3c
       -0.028015194 -0.13394609 0.103600085 0.025149144
000280 21 aa 01 3f a7 ea a0 bc 01 7b 59 3b cc ae 0b be
       0.5065022 -0.019643141 0.0033184888 -0.13640898
000290 b5 62 53 bd 66 75 8e 3d 43 ca f1 3d 1a ab d5 3d
       -0.051607806 0.06955986 0.118061565 0.10433026
0002a0 5c 03 eb bd 54 97 00 3d b6 8d 04 3e b9 6d 3e 3d
       -0.1147525 0.031394318 0.12944683 0.04649136
0002b0 85 94 8a 3e d2 12 7a bd 1f 65 2a 3c c6 39 6d bd
       0.27066436 -0.061053105 0.010400086 -0.057916425
0002c0 6d ce 60 3e b3 f7 68 3d a2 57 b4 bd c9 81 b4 bd
       0.21953745 0.05687685 -0.08805777 -0.08813817
0002d0 ef 31 09 3e ce 8e 10 be 55 72 e2 3d 15 d2 c2 3e
       0.13397954 -0.14116976 0.11056963 0.38050905
0002e0 ba 9a 87 be bb f1 64 be 13 02 9c bd 4e 93 19 bd
       -0.26485234 -0.22357838 -0.07617583 -0.037493996
0002f0 e5 df ba ba cd 9b ca 3d 5f 72 4b be d1 5c fd bd
       -0.00142574 0.09892998 -0.19867848 -0.12371219
000300 ea e4 8f be 71 ce b9 bd d9 2f 96 3e d1 46 5b 3e
       -0.28104335 -0.09072579 0.2933338 0.21413733
000310 a2 28 a7 bd bb 78 37 3e 8a 36 2a 3c 26 eb 65 3d
       -0.08162047 0.17917149 0.01038898 0.05613246
000320 15 35 2e 3e a0 04 1a 3c 0a 01 a3 be 3f 03 bd 3d
       0.17012437 0.009400517 -0.3183673 0.09229135
000330 97 bc ba bc 1d ff 20 3e 44 32 2f 3d 1f ba 4a 3e
       -0.022795005 0.15722318 0.042772546 0.19797562
000340 e1 53 ce bd a7 42 40 3e bc a5 02 bd ef ea 68 bd
       -0.100745924 0.18775426 -0.031896338 -0.056864675
000350 b2 a6 01 3e aa 27 67 bd 2d a3 49 3d 59 ce 5c bd
       0.12661245 -0.05643431 0.049227882 -0.053907726
000360 80 56 01 be d3 c2 94 be 88 e2 89 bd ad 6b 3b 3e
       -0.12630653 -0.2905489 -0.067326605 0.18302794
000370 13 5e 8b 3d 41 41 4c be 9a c8 fb 3d ad 7c 67 be
       0.068050526 -0.19946767 0.12294121 -0.22606154
000380 1d 90 a4 bc 4a 75 87 3e f8 7c 08 be 8d f9 11 3e
       -0.02008825 0.26456672 -0.13328922 0.14255352
000390 6b de 3d 3d 47 0d 3c 3e e3 3b 53 be f5 86 2d 3e
       0.046354692 0.1836444 -0.20628314 0.16946013
0003a0 d4 2b 19 3d b1 e2 66 3e 9e 60 7e 3e 86 db 3e 3d
       0.037395313 0.22547413 0.24841544 0.046596073
0003b0 0d a0 52 be 64 83 05 3d e1 5c 1c 3d 53 fb 34 bc
       -0.20568867 0.032596007 0.038174514 -0.0110462485
0003c0 88 b0 fc bd ea c2 b3 bd 2f 84 30 3c c7 3f 8e be
       -0.12338358 -0.08777411 0.0107737025 -0.27783033
0003d0 ee 56 6e 3e f7 84 b3 be 40 9e 9b 3d 17 24 d1 be
       0.23275349 -0.35062382 0.07598543 -0.40847847
0003e0 3d 00 33 3d c9 b7 90 bd cf ec 42 3d a1 45 65 3d
       0.0437014 -0.07066304 0.04758912 0.055974606
0003f0 b2 d0 1d bd 65 ef 7a be c1 d6 50 be f0 69 1c bb
       -0.038529105 -0.24505384 -0.20394422 -0.0023866855

pi.mu_net.0.bias f4 [128]
000000 ca 73 2d be b1 fd 00 be b0 d5 d5 bd 80 d1 87 3e
       -0.16938701 -0.12596776 -0.10441148 0.26527023
000010 5a 42 66 3e f4 68 72 3e 37 0d 97 bd ff cb 81 3c
       0.22486249 0.23672849 -0.073755674 0.015844343
000020 84 34 8f 3e 41 27 37 be a8 ce 20 be 7b eb 45 be
       0.27969754 -0.17886068 -0.15703833 -0.1932811
000030 75 72 c2 bd 36 d0 b4 3d d7 ee 25 3d 55 fb 01 bd
       -0.09494487 0.088287756 0.04051098 -0.03173383
000040 f3 c3 0f be 7d 53 73 3e eb f2 ba bd ca 4d 6f be
       -0.14039592 0.23762317 -0.09128364 -0.23369518
000050 e7 5c ef bd b4 a3 5d be 7c a6 5a 3e d6 ad 04 3e
       -0.116876416 -0.21644479 0.21352571 0.12956938
000060 a3 6d 08 be ca 73 24 be ee 3c da 3d 2f 7e f5 3d
       -0.13323073 -0.16059795 0.10656153 0.11986958
000070 5b 03 49 be 0e e0 a9 be 7f 24 3d be 93 dc f2 bd
       -0.19630186 -0.33178753 -0.18470953 -0.118584774
000080 09 fc 14 3e 13 9e bf 3b e4 a8 19 be 56 98 37 3e
       0.14549269 0.0058477013 -0.15005833 0.17929205
000090 02 23 26 be 01 57 f5 3b f0 b7 41 3e b8 f7 6f bd
       -0.16224292 0.0074871783 0.18917823 -0.058585852
0000a0 04 1e 33 be 64 2a be bd 7a e2 de bb f4 a8 a8 bd
       -0.17491919 -0.09285429 -0.0068019005 -0.0823535
0000b0 8b 3f 58 be 6f 11 d3 bc 5f dd 77 3e 8e 0a 10 be
       -0.2111799 -0.025765149 0.2420554 -0.14066526
0000c0 23 61 c5 bc 01 37 76 3d a0 de 1d 3e 86 95 cf 3d
       -0.02409417 0.06011105 0.15416956 0.10135941
0000d0 91 e3 5b 3e 1f 61 a8 3c 4e fb 9b bd 62 e0 35 3d
       0.21473528 0.020554123 -0.07616292 0.04440344
0000e0 e9 1f 0c be 03 21 98 3d 4d 76 4e bd fc 8e e6 3d
       -0.13684048 0.074281715 -0.05040579 0.11257741
0000f0 3f 68 38 be 80 17 2f bb e6 d5 a8 bb 1d b6 56 be
       -0.18008517 -0.0026716888 -0.005152452 -0.20967908
000100 e9 8d 49 bd e0 c8 82 3d 44 ae 66 3d 98 5a 48 be
       -0.0492076 0.0638597 0.056318536 -0.19565809
000110 76 07 86 bd d6 9e 10 bc 02 20 7e bd ad 66 8e be
       -0.06544392 -0.008826932 -0.062042244 -0.2781271
000120 21 ab b4 bc ad 69 5d be 16 ba 35 be e1 12 b3 be
       -0.022054257 -0.21622343 -0.17746767 -0.3497534
000130 da 55 34 be 9a a1 4a 3e c5 41 d5 3d 24 0f 41 be
       -0.17610875 0.19788209 0.10412935 -0.18853432
000140 ef d0 cd 3c 5c 12 cf bd 83 d2 14 be c4 ea 9b 3d
       0.025124041 -0.10110924 -0.14533429 0.07613137
000150 75 0a dc 3d ef 0a 2a be 04 09 ab 3d a0 66 47 3e
       0.10744182 -0.16605733 0.08351329 0.19472742
000160 be 50 10 bd 92 9e 40 bd 2b 64 db bd cc 32 96 3d
       -0.03523325 -0.047026224 -0.10712465 0.073339075
000170 ab 33 b6 3d 52 28 14 3d 7d e4 ec 3d 62 89 f3 bd
       0.08896574 0.036171265 0.11567018 -0.11891438
000180 a6 5b b8 bc e2 51 74 3d c7 df e6 3d 5d a5 03 be
       -0.022504639 0.059648402 0.11273151 -0.1285605
000190 f2 17 25 bd 1a 54 83 3e 35 84 33 be 6c 0f 20 3e
       -0.04030604 0.25650102 -0.17530902 0.15630883
0001a0 f2 5f 3a be 40 4c 25 bd 2a 5a 0d 3e 0e 14 14 3e
       -0.18200663 -0.04035592 0.13803926 0.14460775
0001b0 64 a0 83 be 14 bb 0e bd 71 20 d0 3d 4e 24 34 bd
       -0.25708306 -0.03484638 0.10162438 -0.043979935
0001c0 b7 87 98 3e fd 9d 4c bd 52 80 7f be f9 2c 1d be
       0.29791042 -0.049955357 -0.24951294 -0.15349187
0001d0 89 30 91 3e 4a 9e e5 3d 21 40 94 3d 6b 01 22 3e
       0.28357342 0.11211832 0.07238794 0.15820853
0001e0 0a 75 d6 bd f2 20 17 3e 47 06 f0 bc 66 90 3f be
       -0.10471542 0.14758661 -0.029299868 -0.18707427
0001f0 c3 82 c3 3c 3d ca 48 3c c7 19 68 be d5 bf 86 3e
       0.023866063 0.012255249 -0.22666083 0.2631823

pi.mu_net.2.weight f4 [128, 128]
000000 aa 2c 40 bd af 74 c5 bd fc 79 5e 3d e8 bd 6e 3d
       -0.046917595 -0.09641396 0.054315552 0.058286577
000010 f4 16 87 3c 4c 70 1c bd 54 9f 9e bc 61 3d 83 bd
       0.016490437 -0.038193032 -0.019363083 -0.064081915
000020 e8 a3 f4 bd 61 67 cd 3d 08 b1 4a 3d 9f c6 d9 bd
       -0.11945325 0.100294836 0.049485236 -0.10633587
000030 01 a5 cd bc ab 80 fb bc b4 34 96 bc 5d 46 10 3d
       -0.025103094 -0.030701002 -0.018335678 0.035223354
000040 b1 fd ef bb c0 a7 68 3c c5 e5 9f 3c da 34 20 3d
       -0.0073239435 0.014200151 0.019518742 0.039112903
000050 11 92 c9 bc 31 31 cc 3c 8c 59 8c bd 6b fb cd bd
       -0.024605783 0.0249258 -0.06853017 -0.1005772
000060 76 3e 69 3c 40 3d 1c bd 63 fd 5b 3d d8 b4 43 3d
       0.014236083 -0.03814435 0.053708445 0.047779888
000070 db bd b1 3c 47 89 98 3d 74 92 da bd 35 c4 a3 bd
       0.021696975 0.074480586 -0.10672465 -0.07996408
000080 52 b8 e4 bd 23 75 df bd 86 19 ac 3d 40 70 97 bb
       -0.11167969 -0.10911014 0.08403306 -0.0046215355
000090 0e 37 46 bd 94 25 30 bd 14 f7 da 3d 89 7f 66 3c
       -0.048392348 -0.043004587 0.10691658 0.014068493
0000a0 f2 71 89 bd ee c4 7e bd 9c 72 d2 3d 40 31 a9 bd
       -0.067111865 -0.062199526 0.10275766 -0.08261347
0000b0 6c d8 f9 bc 27 e7 2f 3d d1 3f 3c bd cf ee fc 3b
       -0.030498706 0.042945053 -0.045959298 0.007718898
0000c0 77 c3 8d bd b0 46 ca bd 33 72 d0 bc 07 1d f7 bc
       -0.069220476 -0.09876764 -0.02544508 -0.030165209
0000d0 31 7d 8d 3d 51 d2 90 3b 88 d0 f1 bc 80 bb 91 3c
       0.06908644 0.004419603 -0.02951838 0.017789602
0000e0 da ed d4 3d 5d dd a5 3d 4c 76 e8 bc 12 de 0c 3b
       0.10396929 0.08098862 -0.02837672 0.002149467
0000f0 9a 91 42 bd ee 3e c6 3d c8 3c 85 bd 55 2e b7 3d
       -0.047502138 0.09679972 -0.06505734 0.08944384
000100 32 07 25 3d 54 c7 54 bd 73 46 65 bd 57 25 e1 bc
       0.040290065 -0.051947907 -0.05597539 -0.027483625
000110 5a 47 58 bd 32 62 b0 3d 22 b9 7d 3c 4c ac e9 bd
       -0.05280242 0.08612479 0.015486034 -0.11409816
000120 e0 26 22 bb b3 fb 6e 3d ca 4f 9b 3d cb 1a fe bc
       -0.002474241 0.058345508 0.07583578 -0.031018635
000130 8e a3 d7 bc 61 e3 a6 bc e5 d7 e1 3d aa 16 15 bc
       -0.026323106 -0.020372095 0.11027507 -0.009099642
000140 a8 f0 8e bd 83 6d 35 bd 8b 60 bb bd bf d0 42 bc
       -0.06979495 -0.04429389 -0.091492735 -0.011890589
000150 20 a1 b6 3d 0e 83 7d bd 6d d5 37 3c 30 09 17 bd
       0.08917451 -0.06189256 0.011220318 -0.036873996
000160 9d a3 0f 3d 39 9b ce 3c 52 75 9e bc 46 3c 1b be
       0.035068143 0.0252205 -0.019343052 -0.15159711
000170 b7 4b 76 bc 1d 2e 54 bd 72 c3 6f 3d 5c c9 04 be
       -0.0150327 -0.05180179 0.058536 -0.12967438
000180 42 a0 c8 bb f2 1c 23 3d 56 7c db bd e9 2f ad bd
       -0.00612262 0.039822526 -0.107170746 -0.08456404
000190 3f a2 42 bd 80 50 04 3d 8f ec ac bc 43 25 81 3d
       -0.04751801 0.032303333 -0.021108894 0.06305935
0001a0 7f f2 31 bd 11 d4 d3 bb 2e 4e 12 bd a7 ce 68 bd
       -0.043444153 -0.0064644893 -0.03571909 -0.056837704
0001b0 0c 56 a0 bd 02 ca 9a bd c5 0a ae bd f7 0f c9 3d
       -0.07828912 -0.07558061 -0.08498148 0.09817498
0001c0 9c d2 ac bd 8f 6a 0c 3e 11 ad 95 3c 58 4b 5e 3c
       -0.08438608 0.13712524 0.018271001 0.013567768
0001d0 a5 45 b7 3c fd 97 12 3e 66 4e 9f 3c 65 c2 47 3c
       0.022372076 0.14315791 0.019446563 0.012192343
0001e0 5f c8 62 3c bf f6 0e 3e 7a 60 39 bd 9c 64 f4 3c
       0.0138417175 0.13961314 -0.045258023 0.02983313
0001f0 9a 46 b3 3b 27 89 41 3d 2c b2 07 bb 67 e2 eb 3d
       0.005471063 0.04724994 -0.0020705564 0.11517792
000200 eb 1d ba 3d d6 07 a1 bd e8 4f f1 3c 6b c9 a4 3d
       0.09087738 -0.07862823 0.029457048 0.0804623
000210 1b 5d c3 3c 91 4f 86 bd 9a 17 7a 3d e7 68 0a 3e
       0.023848107 -0.06558145 0.061057664 0.1351658
000220 6c c2 58 be 46 fd 05 3e 9e 60 8f 3c ac 2b a2 3c
       -0.21167916 0.13084897 0.017502125 0.019796215
000230 96 b0 ca bc a6 22 4f bd 80 fa 85 bb 1a 88 19 3d
       -0.024742406 -0.050570153 -0.0040887 0.037483312
000240 9a 22 d4 bd d4 76 21 3d 21 78 1d 3e c8 d1 fe 3d
       -0.10358162 0.039419964 0.15377857 0.12442356
000250 86 81 30 3e 4f a6 db bb de 02 65 3d bc 3c 17 be
       0.1723691 -0.006703175 0.055910937 -0.14769262
000260 9b 52 ed 3c c9 cb b7 3d 82 f6 8f 3d 24 09 af bc
       0.028970053 0.08974416 0.070294395 -0.021366663
000270 99 05 79 bd 4e 7f dc bc a6 bc b6 3d 42 54 a7 bd
       -0.060796354 -0.026916172 0.089227006 -0.08170368
000280 59 01 38 bd bd 40 73 ba f8 4c 06 3e 76 6a 3f ba
       -0.04492316 -0.0009279361 0.13115299 -0.00073019357
000290 03 6e a2 bc 3b e3 05 be 61 8a 63 3d 02 99 aa bd
       -0.019827848 -0.13074963 0.05555189 -0.08329965
0002a0 e1 52 97 bc 29 90 b5 bc d2 44 91 bd aa 4c c9 bd
       -0.018472137 -0.022163467 -0.070932046 -0.09829076
0002b0 a6 af 2a bd d9 71 51 bd 91 ae a9 3d 0d db 88 3d
       -0.041671418 -0.051133964 0.08285249 0.066824056
0002c0 4a 9f d0 bc 98 ea 3a 3d 44 c0 0b be 5b b4 9e bd
       -0.02546658 0.045633882 -0.13647562 -0.07749244
0002d0 2c a3 53 bd b2 7f 8f 3c c5 ea 9c bd 38 1b 01 bd
       -0.051669285 0.017516945 -0.07661966 -0.0315201
0002e0 3d ca 5f bd 22 8c 30 ba c3 6c 9a 3b f6 75 65 bd
       -0.05463623 -0.00067347486 0.0047126724 -0.0560207
0002f0 14 3f 1c 3e 39 65 70 ba dc af 02 3d 23 5b b6 3c
       0.15258437 -0.0009170357 0.031905994 0.022260254
000300 f9 04 96 bd f6 35 bd bb 81 42 c6 bd fd f7 e5 3d
       -0.07325167 -0.005774255 -0.09680653 0.11228941
000310 73 8e ae 3b 65 42 50 bb 9b ea 77 3b fb 12 98 bd
       0.00532704 -0.0031777855 0.0037829045 -0.07425495
000320 fa 9d ca 3d 50 9a e0 3b 54 bf 61 3d eb a9 5e 3d
       0.09893413 0.006854333 0.055114105 0.054361265
000330 83 90 28 3d 1a da b9 bc 6d 0c f2 3c 60 b2 ae 3d
       0.041153442 -0.022687007 0.02954694 0.08530116
000340 65 38 aa 3b 2e d4 03 3e 2d 53 e7 3d 7c 59 dd 3c
       0.005194711 0.12873909 0.112951614 0.027020209
000350 aa 05 8a 3d 09 0a 40 bd 67 e4 69 bd 66 2d 07 3d
       0.067393616 -0.04688457 -0.057102587 0.03300228
000360 6d 49 65 3d 9a 0d 70 bc af 5f 63 bd c0 69 96 3a
       0.055978227 -0.01465168 -0.055511173 0.0011475608
000370 9d 99 ca 3a 61 d0 1f bd 67 f7 cd bd 3d 98 67 3d
       0.0015457157 -0.039017085 -0.10056954 0.05654167
000380 3b 68 8c bd 2d e4 97 bb 5b 81 74 bd fd 2e eb 3b
       -0.06855818 -0.004635355 -0.059693675 0.0071772323
000390 1e 93 12 bd 92 05 50 bd be 98 1b 3d 1f 3f bb 3d
       -0.035784833 -0.050786562 0.037987463 0.09142899
0003a0 f5 2d 44 3d 9b 6d a7 bd 26 48 6d bc fb 88 45 bd
       0.04789539 -0.081752025 -0.014482534 -0.048226338
0003b0 44 90 8a bc d5 38 be 3d 70 9f 99 3c 86 52 cc bc
       -0.016914494 0.092881836 0.018752784 -0.024941694
0003c0 2f 61 f6 3d 3d 4d 8a 3d f6 46 4e 3d b2 a8 2a bc
       0.12030255 0.06753013 0.050360642 -0.010416197
0003d0 2d fb b6 bd 0f d3 98 bd 89 76 ad 3c 3c 7a 8d bd
       -0.08934627 -0.07462131 0.021174686 -0.0690808
0003e0 98 10 76 bd 7e f7 dd bd 84 76 f1 3d dd 84 4e 3d
       -0.06007442 -0.10838221 0.11790183 0.050419677
0003f0 36 5d bd 3b 92 02 25 3d 24 e4 d7 3d 4b d3 12 bd
       0.005778934 0.040285654 0.10541561 -0.035846036

pi.mu_net.2.bias f4 [128]
000000 09 5b 64 3c 5e 27 b9 3b ab e2 2a bd 46 9f 91 bc
       0.01393772 0.005650445 -0.041720074 -0.017776143
000010 25 7b ec 3c 09 54 93 bc 08 6b cd 3d db b2 7b bd
       0.028867314 -0.017984407 0.1003018 -0.061449867
000020 35 c3 72 3d 4f f2 df 3c 30 a0 93 3d 7d 4c aa 3d
       0.059268195 0.027337221 0.07208288 0.0831537
000030 45 bf fd ba 8b 50 5b 3d 5e 6e 52 bd d8 64 b2 3d
       -0.0019359371 0.05354361 -0.051374786 0.08710641
000040 b3 16 6d 3d e9 e7 8c bd a5 2b 11 3d 07 eb 24 bc
       0.057882976 -0.06880171 0.035442013 -0.0100658005
000050 49 8e a1 bd 7a b6 1d be 9f f1 73 bc a8 d9 9e 3d
       -0.07888467 -0.1540164 -0.01488915 0.077563584
000060 33 ac 23 3d 7f a3 9e 3d b5 f1 c4 3d 9d 76 a4 bc
       0.039959144 0.07746028 0.096164145 -0.02007609
000070 1f 7c 4b 3d 4c d4 d3 ba 2b 92 86 bd 9d 05 2c 3d
       0.049678918 -0.0016161292 -0.06570848 0.04199754
000080 11 88 8e bc 12 48 b3 3d 4b 54 2a 3c 7b eb d9 bc
       -0.017398866 0.08753981 0.010396074 -0.026601544
000090 3a 1c 8f 3c 25 07 d9 bd 19 c7 26 bd aa b1 16 bd
       0.017469514 -0.10597066 -0.040717218 -0.036790527
0000a0 cf 4e 1b bd b4 11 4f 3d 1d cd 14 be 66 e0 89 bc
       -0.037916955 0.050553992 -0.1453137 -0.016830634
0000b0 73 de 9d bd cc 19 bf 3d 10 ca 26 ba 35 e0 f2 3d
       -0.077084444 0.09331092 -0.0006362507 0.1185917
0000c0 54 18 db 3d 90 0c c5 bd 6d 77 5a bd da 90 a1 3d
       0.106979996 -0.09621537 -0.05333655 0.07888956
0000d0 4e be 5c bd 9c 24 29 bd 12 a0 06 be 12 81 ac 3d
       -0.053892426 -0.04129468 -0.13147 0.08423056
0000e0 87 ad 86 3d 00 22 50 3d d5 53 90 3c 6c 4a 9e 3d
       0.065760665 0.050813675 0.0176181 0.077290386
0000f0 89 86 98 3c 61 97 16 3d fa 18 dc 3b 55 6b 7c 3d
       0.018618839 0.03676546 0.0067168446 0.061625797
000100 ac da 02 3e dc cf df bb 53 e8 e2 3c 6a 28 34 bd
       0.12778729 -0.0068301987 0.027698671 -0.043983854
000110 43 ee e6 3c 46 ce 92 3c 13 32 9f bd 0d 56 aa bd
       0.028189784 0.017920624 -0.07773223 -0.08317194
000120 41 29 a7 bc f3 3f 88 bd c3 44 80 3d d5 0c 99 bd
       -0.020405414 -0.06652822 0.06263115 -0.07473151
000130 7d 47 bc 3d 87 04 a8 bc ea 3c a8 3d 42 5b 3d bd
       0.09193323 -0.020509971 0.082147434 -0.04622961
000140 63 5c a0 bd c1 f2 88 bc e4 5d 70 3d e1 41 c4 3d
       -0.07830121 -0.016717317 0.05868329 0.09582878
000150 1e 3b 99 bd fb 13 fa 3d 7a 77 c8 bb ba 5e 1b bb
       -0.07481979 0.12210842 -0.0061177583 -0.0023707584
000160 54 ae 9a 3d 1b 15 27 bc ad 2a 74 3d 8e 8c 81 3c
       0.07552782 -0.010197903 0.05961101 0.015814092
000170 36 d2 67 bd 1f 6f 0b be 4c 87 30 3c de 40 e2 3d
       -0.056596957 -0.13616608 0.010774445 0.11047529
000180 fd da 00 3b 69 06 00 3e b9 d7 19 bd 72 45 8b 3d
       0.0019661777 0.12502445 -0.037559245 0.06800355
000190 cf 11 23 3b 5d d0 11 bb dc e5 71 3d 3d 39 05 bd
       0.002488244 -0.0022249438 0.0590571 -0.03252529
0001a0 d6 60 b1 bc 9e a2 ef 3d 30 44 f6 bd 99 ac 5e 3c
       -0.02165262 0.11700939 -0.120247245 0.013590955
0001b0 d2 d7 01 bd 0a 0c 38 3d 31 b6 9c bd 15 b1 bd bd
       -0.031699963 0.044933356 -0.07651938 -0.09262291
0001c0 ab 83 6f bd bb ec 75 3d 7b 11 8f bd 3f f7 61 3c
       -0.058475178 0.060040217 -0.06985756 0.013791858
0001d0 2e 25 82 3d 41 f8 f6 3d a9 da 18 3d 2f af c5 bd
       0.06354748 0.120590694 0.037317906 -0.09652554
0001e0 7b d7 8a 3c 88 b9 9e bb 9b 17 91 bd d1 cc 2f 3d
       0.016948452 -0.0048438944 -0.070845805 0.042919938
0001f0 f6 8f bb bd fd e3 97 3d 4b a6 bb 3c 56 1f 22 3d
       -0.09158318 0.07416532 0.022906443 0.039580666

pi.mu_net.4.weight f4 [6, 128]
000000 6c 60 d5 3c e6 b8 b3 3d 6c 4a 95 bd 03 38 77 3d
       0.026046954 0.08775501 -0.072895855 0.06035615
000010 28 88 47 3d 8d 22 83 bc ca 70 93 3d 18 16 34 bd
       0.048713833 -0.016007686 0.07199247 -0.043966383
000020 e8 54 09 3d 5d f7 1c 3e e6 78 f4 bc e5 03 20 bd
       0.03352824 0.15328737 -0.029842805 -0.039066214
000030 1d 04 32 be 72 d3 c3 3d 53 e7 c1 bd 56 0d 76 3c
       -0.17384382 0.09561814 -0.0946795 0.015017828
000040 47 43 03 3d 91 b1 a2 bd 87 b9 0b 3d f2 09 cf bd
       0.032046583 -0.07944024 0.03411248 -0.10109319
000050 f4 e1 84 3c 80 24 3e 3d da 75 07 be b8 9e 0c 3e
       0.016221024 0.046421528 -0.1322855 0.13732421
000060 d3 00 92 bd 1e 06 a1 3d 21 3c c6 bd bb 83 f5 3d
       -0.071290635 0.07862495 -0.096794374 0.11988016
000070 4e ca 4e bd fd 02 56 bd 48 87 f9 3a df 34 e6 3d
       -0.0504859 -0.052248944 0.0019037509 0.11240553
000080 4d bd d0 bd 14 d3 8b 3d 92 7a bb 3b 1c 24 0b be
       -0.10192356 0.06827369 0.0057213986 -0.13587993
000090 de b5 74 bd c3 2f 3b bd 0d 1c 96 bd 0e 06 0c 3e
       -0.059743755 -0.045699846 -0.07329569 0.13674185
0000a0 b4 27 09 3e 4a 02 5d 3d 22 43 f9 3d b3 77 5b 3c
       0.13394052 0.05395726 0.12171008 0.013395238
0000b0 89 32 80 bc 8d 9e 3e 3e bb a2 68 bc e2 d0 da bd
       -0.015649097 0.1861517 -0.014198954 -0.106843725
0000c0 c0 4e 96 bb a6 d9 81 bd b3 64 36 be 47 d0 6c 3d
       -0.0045870245 -0.06340341 -0.17811851 0.057815816
0000d0 1b fd 22 3e e7 ab 67 3d ca c5 13 3d 90 c9 f6 3d
       0.15916865 0.056560423 0.0360773 0.12050164
0000e0 ab 4c 2d be df 72 9f 3d 81 9a 52 3d f6 9f 29 3d
       -0.16923778 0.07785582 0.051416878 0.041412316
0000f0 92 59 9e bd 65 76 4b 3d 80 fb f5 3d 46 44 51 3d
       -0.07731928 0.049673457 0.120108604 0.0510905
000100 93 0c c9 3b 7b 7b 20 3d a5 bd ec 3c 74 f7 84 bd
       0.006135532 0.03918026 0.028899023 -0.064925104
000110 91 33 84 bb 47 a3 08 be 59 e4 03 be 3b 56 15 3e
       -0.0040344675 -0.13343535 -0.12880076 0.14583676
000120 3a f8 f4 ba 63 39 e5 bd e2 52 85 3d 83 4e 45 3c
       -0.00186897 -0.11192586 0.06509949 0.012042644
000130 86 47 a6 bd ed 39 27 bc fc 33 42 3c 55 f1 14 3d
       -0.08119111 -0.010206682 0.011853214 0.036362965
000140 76 51 39 3d f0 1e 15 bd df 08 38 be b6 37 9b 3d
       0.045243703 -0.036406457 -0.17972134 0.075789854
000150 8d fd f2 3d 03 94 c2 bd 77 2a 83 bc b2 69 2e be
       0.11864767 -0.09500887 -0.01601146 -0.17032507
000160 17 11 5d bd fa b3 9d bd 60 62 16 3e 32 50 f2 3d
       -0.053971376 -0.077003434 0.14685965 0.11831702
000170 a4 df 19 bd eb f0 e1 bd 3c f3 32 bd 07 34 4e be
       -0.037566796 -0.110322796 -0.043688998 -0.20137034
000180 de b6 37 3d c0 ba f0 3c b0 cd b4 bd f1 a3 d0 3d
       0.04485213 0.029385924 -0.08828294 0.10187519
000190 be 99 27 3e b9 28 eb 3d 3a 07 b9 bd 44 b6 cd 3d
       0.16367242 0.114823766 -0.090345815 0.1004453
0001a0 27 88 d1 3c cd cb 8d 3d cb 72 dc bd 91 08 17 bd
       0.025577618 0.069236375 -0.107640825 -0.036873404
0001b0 76 1a 0e be 30 51 d3 3d 70 cc 71 bd 6f 71 c2 bd
       -0.13877282 0.1031822 -0.059032857 -0.09494292
0001c0 96 80 84 bd 84 ab 10 bc 63 13 1b be e4 8f 1e be
       -0.06469838 -0.008829955 -0.15144114 -0.15484577
0001d0 b1 ec 4c 3d 1b 58 d2 bd ee d6 46 3d 6d 86 a9 bd
       0.050030414 -0.10270711 0.048544817 -0.08277593
0001e0 07 bd d2 bd 52 16 63 3d 48 c1 a9 3c 99 26 36 bc
       -0.1028996 0.05544121 0.020722046 -0.011117601
0001f0 27 89 e6 bc ba dc d2 3d 92 d4 97 bd 15 94 f9 bc
       -0.028141571 0.102960065 -0.074135914 -0.030466119
000200 43 f6 28 3d e9 52 de 3c b0 07 d7 3d e7 fc 28 3e
       0.04125048 0.027139144 0.10499513 0.16502725
000210 e2 70 d3 3c 33 d2 da bb b4 48 a4 bd c2 37 24 3e
       0.025810663 -0.0066778897 -0.080216795 0.16036895
000220 50 42 a2 bd ae ca 04 be 0e db e0 3d fb 3d c9 bc
       -0.07922804 -0.12967941 0.10979281 -0.024565687
000230 04 70 01 be 8c 81 36 3e 98 4a db 3d 2a 54 a1 3d
       -0.12640387 0.17822856 0.10707587 0.07877381
000240 39 8a c1 bd 2a 46 7c bd fd 26 d7 bc 7e bb ae bd
       -0.09450192 -0.06159035 -0.026263708 -0.08531855
000250 07 48 a9 3d 5a 69 86 bb 48 db cd 3d 8d c6 2e 3d
       0.08265691 -0.0041019144 0.1005159 0.04266982
000260 05 19 94 3c da 29 90 bd 42 b2 0c 3e 99 24 df 3c
       0.018078336 -0.070392326 0.13739875 0.02723913
000270 43 3b bb bd a5 28 9c 3d 10 46 71 3a 30 f6 a0 bc
       -0.09142163 0.0762494 0.00092038605 -0.019648641
000280 fc 14 cc bd 8b 8d 90 bd e9 ae db bc 82 67 92 bd
       -0.0996494 -0.07058247 -0.026816802 -0.07148649
000290 91 57 e4 bb 7c 6c a7 bd c2 8c 93 bd 12 f4 d9 bd
       -0.0069684465 -0.081749886 -0.07204582 -0.10642256
0002a0 0c 5a e8 bd 7a 79 0d 3e 2b 37 45 bd a2 17 b9 bd
       -0.113453 0.13815871 -0.048148315 -0.09037711
0002b0 e4 0a 33 bd 54 2e b2 3d 1d eb e0 3d 2f 94 88 3d
       -0.043711558 0.08700243 0.10982344 0.06668889
0002c0 3e df 46 3e af 4f f9 bd 07 ea fd bd 3b d2 c1 bc
       0.19421098 -0.121734016 -0.12398153 -0.023659816
0002d0 50 eb 09 3d 98 33 4c 3d 0f 77 90 bc 8f 08 70 3d
       0.033671677 0.04985389 -0.017634897 0.058601912
0002e0 20 ad 2c bd 18 a3 6d 3c 48 39 c7 bd c4 d4 d6 3c
       -0.042157292 0.014504217 -0.097277224 0.026224501
0002f0 71 90 25 3d 90 fb 20 bd b7 21 06 3e 55 30 e6 3d
       0.040420953 -0.03930241 0.13098799 0.11239687
000300 0e 04 ca bc 39 d6 86 bd 22 46 e3 3d 88 05 0d 3e
       -0.024660137 -0.065838285 0.11097361 0.13771641
000310 28 73 6e 3d 13 5d f7 bd 90 31 b1 bd 1e 9a ef 3c
       0.05821529 -0.120782994 -0.086520314 0.029248293
000320 47 a7 aa bd e6 19 07 3e 80 c0 dc 3d 30 1d 00 be
       -0.08332687 0.13193473 0.10778904 -0.12511134
000330 22 03 9e bd db 85 f9 bd 89 e5 c5 bd 45 9a 15 bd
       -0.07715441 -0.12183734 -0.09662921 -0.036524076
000340 7e 2d 0e be ac dc 53 be 3a bc 97 3c 25 f4 a6 3c
       -0.13884541 -0.20689648 0.01852237 0.020380089
000350 94 85 67 3e bc 9b 83 3d 90 2e c0 bd 9a d7 58 be
       0.2260955 0.06426188 -0.09383881 -0.21175995
000360 e2 28 61 be 32 c8 16 3d b3 6d 17 3e a6 90 da bd
       -0.21988252 0.036812015 0.1478794 -0.10672121
000370 aa 9b fa 3c 55 2e 4f bd c7 ad 24 be 67 ba 09 be
       0.030591805 -0.050581295 -0.16081916 -0.13450013
000380 f5 98 8c bd 68 07 de bd 5d 6f 92 3c 21 8b 4d 3c
       -0.06865112 -0.108412564 0.017875368 0.012545378
000390 ab ce 67 bc d0 7a 0e be b4 29 01 be e3 d1 a7 3d
       -0.014148395 -0.13914037 -0.12613565 0.081943296
0003a0 6f 52 f7 3d ea 8b 0d be 3a 22 23 be e4 30 08 be
       0.1207627 -0.13822904 -0.15931025 -0.132999
0003b0 cd cc 8d 3d a8 d6 64 3c 4e f1 bd 3d 5e 97 69 3d
       0.06923828 0.013967194 0.09274541 0.05702912
0003c0 de 3c a1 bc 8d c0 77 bd 45 2a 8e bd dc 74 0d 3e
       -0.019682344 -0.060486365 -0.06941656 0.1381411
0003d0 58 1f 3f 3d 7f d6 06 3e 89 a9 3b bc c6 7a fd 3d
       0.04666075 0.13167761 -0.011453995 0.12376933
0003e0 d9 9e 1a be f3 9c db bd b7 b2 bd ba fd 98 a6 bd
       -0.15099658 -0.10723295 -0.0014472817 -0.08134649
0003f0 e4 11 26 be 8f c9 09 be d8 bd 9e bd d8 92 65 3d
       -0.16217762 -0.13455795 -0.077510536 0.056048244

pi.mu_net.4.bias f4 [6]
000000 70 05 ca 3d 48 41 ad bc 7d 87 97 3d f6 4d 90 bd
       0.09864318 -0.021149293 0.07398889 -0.0704612
000010 71 cd af 3c 88 09 c0 3d
       0.021460267 0.09376818

vf.v_net.0.weight f4 [128, 24]
000000 fb bd d8 bf 45 b4 42 3f 6e 50 13 3f c0 16 0f 3f
       -1.6932977 0.7605632 0.575446 0.5589409
000010 d5 2e df be 33 db a5 3e b9 78 e9 bd 60 ff 6b be
       -0.43590418 0.32393798 -0.11399979 -0.23046637
000020 7d 93 a1 3e 91 4b ba 3e 30 c7 c4 3d 3d 07 23 be
       0.31557837 0.36385778 0.096083045 -0.1592073
000030 3b 5e 31 3c 96 2b f9 3d c4 26 02 bf 31 8c 0f bf
       0.010825689 0.121665165 -0.508404 -0.5607329
000040 de 6c 46 3f 79 b6 44 bd e0 8e 65 bc 76 f4 e4 bc
       0.7750987 -0.048025582 -0.014011115 -0.0279486
000050 95 7b a9 bd 53 1b 8d 3d 64 4f 26 be 86 b6 2a be
       -0.082755245 0.06889977 -0.16241223 -0.1667119
000060 69 53 77 3d 19 d0 8b 3f af 2c 33 3e b2 0d 55 be
       0.06038228 1.0922881 0.17497514 -0.20806006
000070 14 70 47 3e 68 ae 40 bf 3b 0b f0 bd da 84 28 be
       0.19476348 -0.7526612 -0.11720892 -0.16456929
000080 69 5c e9 3c 4e 01 17 3e 25 6e cf bf f7 73 51 3f
       0.028486447 0.14746591 -1.6205488 0.81817573
000090 40 ce b3 bf ce cb 3f be ec 5f 82 bf b4 c5 63 bf
       -1.4047318 -0.18730089 -1.0185523 -0.88973546
0000a0 44 f1 7f be a2 b7 b2 3e 92 6e cd bd a6 01 2d bc
       -0.2499438 0.34905726 -0.10030855 -0.010559475
0000b0 c4 cc 7b bb 52 58 07 be 6b e4 65 be 09 62 fd bb
       -0.003842161 -0.13217285 -0.22450416 -0.007732634
0000c0 85 ae fd 3d 57 00 22 bf a8 7e d5 bd 38 80 80 3e
       0.123868026 -0.6328177 -0.104245484 0.25097823
0000d0 3b 3a 22 be 1a 73 31 3e a0 27 a3 bd 6b 79 dd 3e
       -0.15842526 0.17329064 -0.07966542 0.43256697
0000e0 5d 30 8d bf 9b ee 1e bf 80 b3 6f 3f 36 9c f0 bf
       -1.1030384 -0.62082833 0.9363327 -1.8797672
0000f0 42 04 85 3f e2 8f 24 be a8 ca 4d ba 87 43 4b bf
       1.0391924 -0.16070512 -0.00078503275 -0.79399914
000100 9c 3c 4c bf 63 24 1b 3d 94 eb 21 3d b3 ad 10 3e
       -0.7977998 0.037876498 0.039531305 0.14128761
000110 f8 77 bc bc 2d b8 fc bd 4d 87 98 3d e8 e8 d9 bc
       -0.023006424 -0.12339816 0.074476816 -0.026600316
000120 22 a4 4f bf 9a c1 e8 bd 68 e1 f9 3e c4 4e a5 3d
       -0.8110982 -0.113650516 0.48804784 0.08071664
000130 86 c3 0a 3e b2 87 e2 3e 80 d7 46 3e b7 92 fd 3e
       0.13551149 0.44244152 0.19418144 0.49525997
000140 5a 90 80 3e 04 98 3e 3e 12 97 54 3f 91 cc 7a be
       0.25110132 0.18612677 0.83043015 -0.24492098
000150 7c 32 c7 3e fe 97 c3 3d 31 ba 80 3f 0d 5c 4c 3f
       0.38905704 0.095504746 1.0056821 0.7982796
000160 1f d5 2b be ee 08 15 bf e1 f8 8f bd 98 a2 41 be
       -0.16780518 -0.5821675 -0.07029892 -0.18909681
000170 ba 6c 24 bd 3d f3 9e 3e d9 52 96 be 4c 4b 21 bd
       -0.040142752 0.3104495 -0.29360083 -0.03937845
000180 50 0a 97 be a8 59 95 3f ca 8c aa bd 07 24 ba 3d
       -0.29500055 1.1667986 -0.08327635 0.09088903
000190 3d 29 57 bd d4 b7 c5 be 1a 30 f7 3d 7e 8e 8b 3d
       -0.052529562 -0.38616812 0.120697215 0.068142876
0001a0 ab 7e 73 3e 99 da c1 3e 70 ca a5 bf 5f f6 21 3f
       0.23778789 0.3786209 -1.2952404 0.6326656
0001b0 5c 73 c8 be 48 65 bb 3d 92 de ef be a2 44 e4 be
       -0.39150512 0.09150177 -0.46849495 -0.44583613
0001c0 cf d5 d6 3c 35 e9 43 bd 93 1b 20 be 59 97 ad 3e
       0.026224999 -0.047829825 -0.15635519 0.33904532
0001d0 6c 9a 9a 3d fd 14 d0 3d 6f cd 29 3e 15 3a 55 bd
       0.07548985 0.10160253 0.16582273 -0.052057344
0001e0 8f 3c 93 3e 8d 08 4c bf ac 88 01 bf 29 16 f2 be
       0.2875714 -0.7970055 -0.5059917 -0.47282532
0001f0 f5 0a 6f 3e 10 c8 c0 be 71 5d a4 be 41 91 86 be
       0.23344024 -0.37652636 -0.3210254 -0.26282695
000200 42 8c a0 3d 95 cc bc 3d 14 ee c7 be aa 1d a0 bd
       0.07839252 0.092187084 -0.39048827 -0.07818158
000210 9a bc f7 be db 0f 32 bf 30 11 c4 bd b8 8c 5f 3f
       -0.4838608 -0.69555444 -0.09573591 0.87324095
000220 ef 63 6e bf 52 f5 5a bc e6 3b 87 3e 3b 08 9e 3e
       -0.93121237 -0.013364153 0.26412886 0.30865654
000230 af 49 ef bd 16 74 eb bd 1b 71 28 bd 84 c9 ea 3d
       -0.11683976 -0.11496751 -0.04112349 0.11464217
000240 18 14 e3 be 61 ef 68 be 04 19 75 3e 70 ea a3 3d
       -0.44351268 -0.22747566 0.23935324 0.080037
000250 23 eb e8 be d5 06 0f 3f 79 60 0b bf d1 bb 2d 3f
       -0.45491895 0.558698 -0.5444408 0.6786471
000260 04 1d 8c be 78 e2 ab bb 50 33 41 3c ab cf e9 3e
       -0.27365887 -0.005245503 0.011792019 0.4566625
000270 b9 5f 66 be 1c 96 81 be 38 c9 5c 3f 03 3b e1 3e
       -0.22497453 -0.25309837 0.86244535 0.43990335
000280 9e fc 47 3f 10 78 27 3e fe 01 d9 bd 1f 29 50 be
       0.7811984 0.16354394 -0.10596083 -0.20328186
000290 2c 0f 97 3d 52 20 24 bd 01 34 1b bf a0 0c b5 bd
       0.07375941 -0.040069886 -0.60626227 -0.08840299
0002a0 77 ec 24 bf 62 42 4b be c3 69 fa 3e 61 5b 13 3f
       -0.64423317 -0.19849542 0.48908815 0.5756131
0002b0 40 86 de 3e d4 3f 7e 3f 69 aa b6 bd 98 b9 28 3f
       0.434618 0.99316144 -0.08919222 0.65908194
0002c0 c8 3f ba 3e 59 9e 68 3d 66 9e 97 3f 0b 68 ca 3e
       0.36376786 0.056791637 1.1845214 0.39532503
0002d0 de 0a 46 3e 65 9e fe 3e 34 ef 16 3f 4a 02 b8 be
       0.19340083 0.4973022 0.58958745 -0.35939246
0002e0 e5 a7 9d be bf 0a bf be 85 bf 69 3d a1 5e 4a 3c
       -0.30792156 -0.37312886 0.057067413 0.012351663
0002f0 9e ea 48 bd 34 1e 14 3e 6d d4 04 3e 5a c1 e3 be
       -0.049051873 0.14464647 0.12971659 -0.44483453
000300 cf 7c e8 3e f5 d9 e2 be db 6e c1 3e d7 f1 83 3e
       0.4540772 -0.44306913 0.3777989 0.25770447
000310 e6 8e e1 bd c6 ce fc 3e 20 81 27 bd 32 01 cc 3e
       -0.11013584 0.49376506 -0.040894628 0.39844662
000320 22 a0 86 be e7 a5 6a 3e ef ae 8a 3e b1 bb 3c 3c
       -0.26294047 0.22914849 0.2708659 0.0115193585
000330 fd 3c f0 3e 1e fd 6a 3e 9e f5 22 3f 5d 0f 89 bf
       0.4692153 0.22948119 0.6365603 -1.0707814
000340 29 79 c9 3c 75 26 27 3e a5 fa 56 3d 92 93 f7 be
       0.024593906 0.16323264 0.052485127 -0.48354775
000350 62 e1 31 bd 28 ca d8 bc a9 ab ec be 3f 1c 2d 3e
       -0.043427832 -0.026463583 -0.46224716 0.16905306
000360 e3 59 1d bf b3 7c 96 3e 7c 50 07 be 42 0b 8f 3f
       -0.6146528 0.29392013 -0.13214296 1.1175311
000370 2b 62 03 bf 9a 46 a5 3e 2c 01 60 3d 42 7a 9d be
       -0.5132167 0.32280427 0.054688618 -0.30757338
000380 b1 2d 33 3e fd 89 3f 3f 74 1f 2a 3e 73 8d e0 3d
       0.17497899 0.7481993 0.16613561 0.10964479
000390 46 28 87 3d 2e 24 2b bb e7 11 46 bf 33 e8 b2 bf
       0.065994784 -0.0026114094 -0.77371067 -1.3977112
0003a0 c6 73 24 3e 14 a6 dd be 4c 9d 87 3e f9 a7 26 bc
       0.16059789 -0.4329077 0.26487195 -0.010171884
0003b0 a9 df f1 3c c4 7f 06 bd 68 4f fa bd 62 6f b9 bd
       0.029525595 -0.03283669 -0.12222177 -0.09054448
0003c0 21 1d 04 bf 42 a8 be 3f 16 e6 2a bf 35 d9 6b 3c
       -0.5160695 1.4895098 -0.66757333 0.014395048
0003d0 fb 55 47 bf d0 f3 83 3e 22 c5 42 bf 8d fe 05 bc
       -0.7786557 0.25771952 -0.7608205 -0.008178365
0003e0 e5 68 e9 be 61 47 30 bd 60 33 37 be 72 4d 1d be
       -0.4558784 -0.043036822 -0.17890692 -0.15361574
0003f0 5b 78 a6 be 0b 31 60 3e 17 ae 17 bf 59 6f 19 3e
       -0.325137 0.21893708 -0.59250015 0.14983882

vf.v_net.0.bias f4 [128]
000000 8b 59 b7 bc 99 d0 64 be 8a c9 9d bf 15 61 bb bd
       -0.022381565 -0.22345199 -1.232713 -0.09149376
000010 7b be d0 3d 40 42 06 bf 28 8c 34 3f 9d cb e8 3e
       0.10192581 -0.5244484 0.7052636 0.45467845
000020 29 39 1f 3f ee ed 13 3e 12 5b 26 bf a0 9f 88 be
       0.62196594 0.14446232 -0.6498271 -0.26684284
000030 0f e2 8a 3d 4a fd 8e 3e c9 10 74 be eb 19 90 3d
       0.067813985 0.2792762 -0.23834528 0.070361935
000040 7a 0c b6 3c a1 4b 60 3f b6 e3 9f 3d cc 21 0a 3c
       0.022222746 0.876154 0.07807104 0.008430909
000050 ec 29 1c be d2 65 0f be 17 4c 9c 3e 3b 54 96 be
       -0.15250367 -0.14003685 0.30526802 -0.29361138
000060 c3 ba 9b 3c 6e d5 3f be 02 f8 0b be fd ab 08 bf
       0.019009953 -0.1873376 -0.13668826 -0.53387433
000070 29 f7 81 3e 76 18 09 3f f3 f5 59 3e 0d 41 6a be
       0.2538388 0.5355295 0.21285228 -0.22876377
000080 5e 17 02 3f be ee c3 3e 29 bf 8d 3e c9 8f bd be
       0.50816905 0.38268083 0.27684906 -0.37023762
000090 e9 dc 22 3f c0 35 d6 3d 1d be e7 3d 09 f6 2d 3e
       0.6361833 0.10459471 0.11315558 0.16988386
0000a0 34 6a 36 bf f3 2a 2d 3f a6 ff 74 3f 73 05 ad bd
       -0.71255803 0.6764366 0.9570259 -0.08448305
0000b0 fc 73 7e 3f 9d 54 73 3f bd 15 51 3f 23 8e c1 3e
       0.9939573 0.95050985 0.81673795 0.37803754
0000c0 14 bf 01 3f af 46 a1 be 94 f3 61 bf 7d 85 86 3f
       0.5068219 -0.3149924 -0.88262296 1.0509487
0000d0 3c 62 d3 3e 1f ca 3c bf 98 57 18 3e 05 38 a2 be
       0.41285884 -0.7374591 0.14877164 -0.31683365
0000e0 83 af de 3e e7 d2 b9 3e e9 9b cd 3c 60 48 b6 be
       0.4349328 0.36293718 0.025098758 -0.35602093
0000f0 4f 13 2f 3f 67 1b 8e 3e e5 0f cd 3c 78 38 8b bf
       0.6838884 0.2775528 0.025031993 -1.0876608
000100 94 e4 9d be d4 47 39 bf 37 c1 0a 3f 44 c4 6b 3f
       -0.30838454 -0.72375226 0.5420107 0.9209635
000110 c4 d9 19 be 90 15 19 bb bf 0e d4 3e 20 a8 81 bf
       -0.15024477 -0.00233588 0.414175 -1.0129433
000120 c8 4e d5 be 50 22 e9 3e 28 ad 4f bf 52 2f 35 3e
       -0.41661668 0.4553399 -0.8112359 0.17693833
000130 b4 dd 22 3f 9a 09 46 3d b7 a4 cb 3e 6c e6 20 be
       0.6361954 0.048349 0.39774105 -0.15712899
000140 cf 6c c5 3e 28 56 b8 be d8 0e ea ba 21 f5 8f be
       0.38559577 -0.36003232 -0.0017857207 -0.28116706
000150 ce 9e 3c 3f d3 e8 a8 be 1a b2 23 3e 67 71 50 3f
       0.73679817 -0.3299013 0.15985909 0.8142304
000160 ec 7f 41 3e 12 f7 6e 3d ed 41 5f be bd 13 2a bf
       0.18896455 0.058341093 -0.21802492 -0.6643637
000170 35 be 85 3f 80 cd b1 3e 15 84 b8 3e e1 5f 31 bf
       1.0448672 0.34727097 0.3603827 -0.69286925
000180 39 39 36 3f 22 ad 38 3e 18 83 92 3f 2f 4c 8d be
       0.71181065 0.18034795 1.1446257 -0.27597186
000190 fa b3 fa 3e f9 26 09 3f 6d e1 28 3d 68 56 0b bd
       0.48965436 0.5357509 0.041230608 -0.03401795
0001a0 99 7f 17 be fb b0 8e 3f 24 25 cd 3e b3 89 2d 3f
       -0.14794768 1.114776 0.400674 0.6778824
0001b0 b3 cc b8 3d 23 76 d2 3d 44 61 50 3e 2f 94 48 3f
       0.09023418 0.10276439 0.20349604 0.7835111
0001c0 01 d7 81 3f 81 39 aa 3d e8 62 d2 be e6 4e 1e be
       1.0143739 0.08311749 -0.41091084 -0.15459785
0001d0 1e d7 70 3e 3b 0f 2d 3f ac d5 a4 3c df 08 c4 be
       0.2351956 0.67601365 0.020121418 -0.38288018
0001e0 85 f2 c1 bd f3 45 ea be 72 19 d1 3e c1 08 a9 3d
       -0.09470085 -0.45756492 0.40839726 0.08253623
0001f0 2a 8a 01 3f 55 80 92 3e cd 6f 9b 3e 67 89 83 be
       0.50601447 0.28613535 0.30358735 -0.25690767

vf.v_net.2.weight f4 [128, 128]
000000 9d f6 7b be b7 5a ec bd a9 b4 d5 3e 2c e7 99 be
       -0.24605794 -0.1154074 0.41739395 -0.30059183
000010 b0 52 98 3e eb 9b 4e 3b 93 54 0d be af a8 01 be
       0.29750586 0.003152604 -0.13801794 -0.12662004
000020 e3 e4 91 be 68 09 c8 bd 32 98 60 3e af e2 50 3d
       -0.2849494 -0.09767419 0.21933058 0.050997432
000030 de 63 78 be 6f e1 1e 3f 8f df c2 3e 2e c4 70 bc
       -0.24256846 0.62062734 0.38061187 -0.01469521
000040 7a fa 29 be f8 6b 2d be ef 4b 46 bd cf b1 6e 3d
       -0.16599455 -0.16935718 -0.04841226 0.05827504
000050 90 9e 90 be 14 bb f3 be 43 44 83 bd 74 bf 2a be
       -0.28245974 -0.47603667 -0.06409504 -0.16674596
000060 87 d6 83 be cb 08 07 3e ef 90 94 be 2c 6e 43 3c
       -0.2574961 0.13186948 -0.29016826 0.0119281225
000070 48 5f db be 90 b2 87 be 77 83 38 3e f2 fb 5e bd
       -0.4284613 -0.2650342 0.180189 -0.054439493
000080 0d 06 cb be 1b 47 3c be a8 f4 aa 3e f8 5d ae 3d
       -0.39653054 -0.183865 0.33389783 0.08514017
000090 06 97 35 be 3e d8 b0 bd 32 0a f2 be a0 4b 49 be
       -0.17733392 -0.08634995 -0.47273403 -0.19657755
0000a0 4a e8 6a bd 73 ae 21 3d e5 79 9d 3e 23 89 7f 3c
       -0.057350434 0.03947301 0.3075706 0.015596661
0000b0 9b 95 8d bd a5 5b 05 3e f2 70 4a 3e e9 c3 c8 3e
       -0.069133006 0.13023241 0.19769648 0.39211968
0000c0 d8 77 b5 bd 57 e2 88 be 32 81 3b 3e 90 e5 35 be
       -0.08860749 -0.26735184 0.18311003 -0.17763352
0000d0 62 e7 45 bb a0 d4 1b 3e bc 8e 8e 3e d9 6c 43 3e
       -0.003019773 0.15217829 0.27843273 0.19084491
0000e0 8a 57 3f 3f 33 17 3b 3d a7 4e bf bc 59 ee 4a be
       0.7474295 0.04567642 -0.023352934 -0.19817485
0000f0 b6 84 80 3e 1b 10 6f 3e 0e 84 bd 3e 42 53 c8 bd
       0.2510125 0.23345987 0.37014812 -0.09781505
000100 10 f9 a5 3d 36 22 9a 3e f8 35 84 3e 81 b3 94 be
       0.081041455 0.30104226 0.25822425 -0.290432
000110 e0 85 45 be ca 06 94 be 75 bc 91 be cb 11 86 bd
       -0.1928935 -0.2891143 -0.28464094 -0.065463625
000120 80 a0 9b 3e d8 12 94 bd 44 65 94 3e 32 cf e8 be
       0.3039589 -0.07230157 0.2898351 -0.45470577
000130 71 83 38 bd 35 9c 20 3f bb a2 11 3e 5f b4 94 3d
       -0.045047227 0.62738353 0.14222233 0.072609656
000140 69 5c c6 3e d7 25 1e bf 8d ba d6 bd d3 5c 53 3e
       0.38742378 -0.6177649 -0.104848005 0.20640878
000150 b9 0c 0f be f7 b5 35 3d 6d 86 6a 3e fe c7 10 3d
       -0.13969697 0.04436299 0.22902842 0.035346977
000160 36 ca 84 3e c9 eb 2d 3d 9a a5 ed 3d 50 2b d1 bc
       0.25935525 0.04246119 0.116038516 -0.025533348
000170 78 31 c6 3d 93 e2 81 3e cf 93 b1 3d 01 05 07 3e
       0.09677404 0.25368175 0.086707704 0.13185503
000180 4c d4 39 3f dd e2 77 3e d2 fa 25 be 4e 74 58 be
       0.72589564 0.24207635 -0.16208962 -0.21138117
000190 f2 ae 79 ba 3b 57 0b bd 65 2f c9 3b cc 64 a0 bc
       -0.0009524665 -0.034018736 0.006139683 -0.019579314
0001a0 9a e3 c8 3e 53 5b 3a be ac 49 df 3d c0 fd be 3c
       0.39236146 -0.181989 0.10902724 0.023314357
0001b0 6f 28 73 be 2f 2f 17 3e 45 92 cf 3b f8 38 18 bd
       -0.23745893 0.14764093 0.0063345754 -0.037163705
0001c0 9b 91 09 be ba aa 02 bd 0d 61 2d 3e 97 64 ac bd
       -0.1343445 -0.0319011 0.16931553 -0.084176235
0001d0 56 b4 9d 3e 6d 29 38 be 1a 74 9f be de 7e 81 be
       0.30801648 -0.17984553 -0.31143266 -0.25292104
0001e0 f6 88 08 3e a4 04 b4 3a 95 65 3c bc 11 56 81 3d
       0.13333496 0.0013734293 -0.011498828 0.06315244
0001f0 73 72 87 3e 7f 3e 20 3e 39 d3 19 bf 32 70 79 bc
       0.26454505 0.1564884 -0.60087925 -0.015224503
000200 9e 0f b2 3e c9 67 31 3c 46 d4 0c bd 47 ac ca 3e
       0.3477754 0.010827967 -0.034382127 0.39584562
000210 3b 9d 9b be 15 85 69 b8 c0 27 62 3c af b5 34 3e
       -0.30393395 -5.567547e-05 0.013803422 0.17647432
000220 b5 f1 fa bd 48 97 eb 3e db 91 b4 3d b0 8f 16 3d
       -0.12253133 0.46013856 0.08816882 0.036758125
000230 20 03 98 bc 92 42 0c bd 95 af 3c 3e 8e bc 13 3d
       -0.018556178 -0.034243174 0.18426354 0.03606849
000240 b0 77 58 bf d6 5c 99 3e f9 e0 60 3d fe 62 7d bd
       -0.8455763 0.2995364 0.05490205 -0.061861984
000250 59 b7 4c 3e c9 fe 27 3f 8e cc fa bd d6 63 4c 3e
       0.19991817 0.65623146 -0.12246047 0.1995996
000260 e0 00 29 3d cd 51 dd 3d 5c 92 00 be 04 83 32 3d
       0.0412606 0.10806618 -0.12555832 0.043581977
000270 3b 95 41 39 1b 08 c2 bd 2d 6c 89 bd bf a6 4e be
       0.00018461507 -0.09474202 -0.06710086 -0.20180796
000280 47 98 ed 3d c7 74 a9 3e cd 35 08 3e df 5d 43 3e
       0.1160131 0.33096907 0.13301773 0.19078778
000290 0d ea 4d be 59 e2 e3 bc 63 03 f4 3e 37 c1 11 3f
       -0.20108815 -0.027817892 0.47658834 0.5693545
0002a0 33 96 ac bd 64 bc e0 be be 49 dc 3e b6 f5 9a 3e
       -0.08427086 -0.4389373 0.4302501 0.30265588
0002b0 4b 15 30 3e 34 5d 7e 3e d9 d7 b1 3c df 45 e3 3d
       0.17195623 0.24840242 0.02170937 0.11097311
0002c0 13 ec c7 3d 6a 60 89 bd 0a bf ae 3e 06 9d 2b be
       0.097618245 -0.06707843 0.34130126 -0.16759118
0002d0 b6 ef 24 be 03 0d b6 bd 3c 7a 04 bd 55 ae 7e 3d
       -0.16107067 -0.088892005 -0.032343134 0.062177975
0002e0 b3 ae 23 be 6c 9e 36 3e 29 96 4a 3e db 93 27 3f
       -0.15984611 0.1783387 0.19783844 0.65459985
0002f0 8f da e4 3e 02 f6 fd bd 70 d7 d9 3e 45 1e 31 be
       0.44697997 -0.12400438 0.42547178 -0.17296703
000300 da 0c c2 3e ad 3a 86 bc 71 83 27 bd 7e 44 61 3e
       0.3790043 -0.0163854 -0.040896837 0.21998784
000310 f8 a6 04 3b 0a 73 a9 3c 1a fb fd 3d 5a 21 d8 3d
       0.0020241123 0.020684738 0.124014094 0.10553236
000320 d4 24 bc be e5 1a e7 3d d3 94 97 bd e7 23 81 3d
       -0.36746848 0.112844266 -0.07401433 0.06305676
000330 63 cb 18 3e 6e 83 10 be 46 41 e1 3e 68 56 b4 be
       0.14921336 -0.14112636 0.43995112 -0.35222173
000340 65 ff d0 3e c7 c1 ad be 62 03 3f 3e 9c 7c 80 3d
       0.4081985 -0.33936903 0.18653634 0.06273767
000350 3b 72 ee bd 7a a5 06 3e 11 70 88 be 47 d3 8a bc
       -0.116428815 0.13149062 -0.26648 -0.016946448
000360 90 92 4e bf 44 cf 11 3d 75 3a 7a be 78 2f 29 bf
       -0.80692387 0.035598055 -0.24436362 -0.66088057
000370 c8 66 95 be 0f 94 ff 3c 07 7c 2a be 02 0d d0 be
       -0.29179978 0.03119853 -0.16648875 -0.40634924
000380 9e c5 16 3f 8d 9c 3b 3d 2f 23 c8 bd 3f b6 96 bb
       0.5889529 0.045803595 -0.09772336 -0.004599362
000390 1b 43 eb 3d 62 32 94 be 31 f5 80 3e fa 69 0b 3e
       0.11487409 -0.2894469 0.25187066 0.13614646
0003a0 8a ce 98 3d c8 7b 05 3e 9b 07 ab 3e 3f 8a 4d 3d
       0.07461269 0.130355 0.3340424 0.05018067
0003b0 f0 aa f2 3e 04 2f 00 3c 97 05 4b be fd c9 a5 3d
       0.4739604 0.007823709 -0.19826351 0.08095167
0003c0 f4 95 0e bd 6c 7e 88 3c 0c b1 e2 3e 05 9b 62 be
       -0.034810975 0.016661845 0.442757 -0.22129448
0003d0 ce 52 48 3d df b6 60 bd 6d 77 65 be d2 b0 9c be
       0.048907094 -0.0548619 -0.22408839 -0.30603653
0003e0 a4 2e 4a be 8f 3f 8d 3d a7 b2 9a 3d a9 fb dc 3e
       -0.19744354 0.068968885 0.075536065 0.4316075
0003f0 8b f4 80 bd e3 1d 9f 3e 67 2c 40 be a5 5d b5 3d
       -0.06296643 0.3107749 -0.18766938 0.08855752

vf.v_net.2.bias f4 [128]
000000 6a 96 98 3e 38 44 3c 3e c4 ff 77 3e 2a 64 13 be
       0.29802257 0.18385398 0.2421866 -0.14393678
000010 b3 68 54 bf d2 72 99 3e f2 ba 38 bf f2 6c 46 bf
       -0.8297226 0.29970413 -0.72160256 -0.7750999
000020 32 84 dd be f7 bd 5f 3e 98 75 2a 3d 77 34 87 bf
       -0.4326492 0.2184981 0.041616052 -1.0562886
000030 d6 27 d2 bd 31 1a a1 3d e6 84 9a be 56 da 52 3e
       -0.10261504 0.07866324 -0.30179518 0.20591101
000040 c7 ea 49 3d 24 c2 01 3e 8e 6b 82 bd 89 0a 47 bd
       0.049296167 0.12671715 -0.06368171 -0.04859403
000050 8c ab 93 be 9a 68 a2 be 04 3d b5 be 16 39 9a 3e
       -0.28841817 -0.3172043 -0.35398114 0.30121678
000060 aa f5 6a 3d 40 e9 eb 3c a2 ee 14 bf e8 d5 e0 be
       0.05736319 0.028797746 -0.58176625 -0.43913198
000070 c5 12 54 be 8a 38 0d be e4 46 5a 3e 36 74 15 3e
       -0.20710285 -0.13791099 0.21316105 0.14595112
000080 24 46 26 3d 32 f3 5d be 18 6b 9b be 8a 36 4e bf
       0.040594235 -0.21674803 -0.30355144 -0.8055197
000090 2c 79 d3 be ab c5 23 bf 3e 81 9a 3e 55 dd 26 be
       -0.41303384 -0.6397349 0.3017673 -0.16295369
0000a0 fd 82 11 bf d8 5d 93 be 17 8d 46 3e f5 8a d9 be
       -0.568405 -0.28782535 0.19389759 -0.42488828
0000b0 13 ed 97 3d 8a d2 2c 3e e0 c7 d9 be 9a 86 42 3e
       0.07418265 0.1687719 -0.42535305 0.18996659
0000c0 e3 74 f6 3c 6c 5b a0 be bc c3 22 3c fa 29 d5 3c
       0.030085033 -0.3131975 0.009934362 0.026020993
0000d0 40 40 67 be 8c e9 7f 3e 5f a2 3f 3e ca 7a 17 3e
       -0.22583103 0.24991435 0.18714283 0.14792934
0000e0 13 08 0e bf 23 e3 97 3d 00 c8 95 be 06 02 a4 be
       -0.5548107 0.0741637 -0.2925415 -0.32032794
0000f0 72 07 2f bd 83 0b a7 be 49 13 50 bf 55 6b 27 3d
       -0.04273171 -0.3262597 -0.81279427 0.040873844
000100 47 ed 6c bd 0e 7b 3a be aa 35 f4 be fd 2f 67 3e
       -0.057843473 -0.18211004 -0.47697192 0.225769
000110 80 53 b1 3d dd 30 cb be fe 2c fa be df f2 23 3e
       0.086585045 -0.39685717 -0.4886245 0.16010617
000120 b1 af 09 3e 33 b8 11 3e 56 d7 28 3e b1 3d c7 bd
       0.13445927 0.14230423 0.16488394 -0.097285636
000130 1c 3c c6 be 85 8c 0b 3e e1 7d 6b 3d 6b 15 da be
       -0.38717735 0.13627823 0.057493094 -0.42594466
000140 91 b7 b4 3e 36 8e 98 bd a2 15 87 be ac dd cf bd
       0.352963 -0.074489996 -0.26383692 -0.101497024
000150 eb b0 c9 be 42 d7 fa 3d f1 12 18 3e a9 be de 3d
       -0.3939279 0.122480884 0.14850976 0.10876209
000160 2c 28 18 3e 3d bf ca be ce 57 0b 3e 6e 6d 81 be
       0.14859074 -0.39599028 0.13607714 -0.252788
000170 a9 99 fb bd c8 7a 3c 3e e7 ce 82 3d 4b 5a 9a bc
       -0.12285168 0.18406212 0.0638712 -0.018841883
000180 ca 0b 93 3e ca ae 98 be a5 8c bd 3c 7d 1b 95 3d
       0.28719932 -0.29820853 0.023138354 0.072806336
000190 a3 e5 0c bf 9a ab 0c 3e a3 d8 2b bf f5 62 d1 3d
       -0.550379 0.13737336 -0.67127436 0.10223953
0001a0 81 40 47 3c ae 96 37 bd d1 5e 5d bf 8a e2 a6 3e
       0.012161375 -0.044821434 -0.86472803 0.3259471
0001b0 74 b1 e6 bd 76 23 03 be 37 e4 59 be 25 73 0c bf
       -0.11264315 -0.12806496 -0.21278463 -0.54863197
0001c0 f9 18 d5 3c 07 99 e5 bd b5 bb 35 3e 14 31 23 bd
       0.026012884 -0.11210828 0.17747386 -0.039841726
0001d0 93 cb 84 3e ee 5a 00 be 66 a8 d8 be d0 51 c7 be
       0.25936565 -0.12534687 -0.42315978 -0.38929605
0001e0 29 a8 fd bd 0e 70 d3 be 79 b5 71 bd d1 d6 fd bd
       -0.1238559 -0.41296428 -0.059010956 -0.123944886
0001f0 cf 2c 3e be 38 93 79 3d 99 96 ef bd 2b 54 3d 3c
       -0.1857178 0.060931414 -0.11698646 0.011555712
