HW4/ppo_dm_control-master/training/walker/walk/best_ppo_ac_model.pth (torch, 166823 bytes, 12 tensors)

pi.log_std f4 [6]
00000000: 8d06 11bf 152b 14bf a372 1bbf 6f11 13bf
00000010: f5f5 0dbf ac8d 15bf
-0.5665062 -0.5787824 -0.60721797 -0.57448477 -0.55453426 -0.584193

pi.mu_net.0.weight f4 [128, 24]
00000000: ab09 cb39 e952 32bd f73c cbbd 456f 173e
00000010: 7e15 1ebd ce1b 59bb 8bd0 0f3d 3af8 9dbd
00000020: 72ae 2bbd 2b23 143e 145a dabd 96e3 0e3e
00000030: 0726 083e b931 a6bd 01ae 24be fd87 1ebe
00000040: 2d6c 303e 9401 7cbd 6954 48be ad6b 1a3e
00000050: bcac 493d 4a90 383e 0a1d 7a3d 6bfc c8bd
00000060: faaa a23d fbe8 56be 269b 21be 4578 da3d
00000070: a782 d23d 1566 04be 1b24 94bd 4af4 1b3d
00000080: 5aa2 52bd 8289 42be 2ef6 613b 17da 48be
00000090: ea8c edbd c09a 233e bc17 88bd 8527 f2bd
000000a0: cb53 4c3e 516c c13c 9f75 813d 969c e83d
000000b0: b071 a73d 0b1f 17be b26d de3d 6ce7 293e
000000c0: 7df2 003e d0fb 043e 45df 46be b41f 1a3e
000000d0: c87a c73b e826 083e 7f00 f63c 57d6 c3bd
000000e0: cb17 e83d f0b1 aabd a745 56be 4238 cdbd
000000f0: c235 1dbd 61e6 55be 6d07 c63c 0f8d 14be
00000100: 1ff0 ca3c 58f2 2b3e d3bd db3d 9482 d8bc
00000110: 2fc8 193e 23e9 523d 2375 23bd 4baa 83bd
00000120: 1be5 a5bd a71d 033e 09f2 a03c 5356 d63c
00000130: 1268 58bd 492c 86be 3e17 cb3d 8c40 0b3d
00000140: 5a7f 073e f425 92bd 1634 09be 54da b8bd
00000150: 6049 713d fff0 54be 11b3 f9bd 9961 7a3e
00000160: eb1e 14be 2621 dd3c 2e23 823d e186 cabd
00000170: 1f34 293e f2a4 d03d 2793 ac3d 9fa3 e9bc
00000180: c7c6 8cbd 60b9 56be 94fb eebd d8ef 26be
00000190: aa9a 07be 912b 213d cdd1 183e 0e39 01be
000001a0: 08fe 2d3e ca17 efb9 622e b23c 5ec1 be3c
000001b0: 3e66 1dbd 1535 82bd d0ee e93d 6050 b53d
000001c0: 12d6 cfbd f2ca 443e 4ea8 84bd b53b 1b3c
000001d0: 9180 03be 7c76 81bc 0332 47be 3392 f73c
000001e0: deda fc3a 338d 803c 3885 54be c374 643d
000001f0: e618 52bd 4e65 07be c2fc 863d 052b 8d3d
00000200: 1fd0 05be 8bcd bebd b925 23be c771 213e
00000210: f15f 183d 5f09 513e abd3 9fbd 9a64 d4bc
00000220: 45e6 0a3d d360 cc3d ab13 333e 7c03 1b3d
00000230: 5538 083e 44a3 22be c4ad 11be 9ad1 5dbe
00000240: ca1c 91bd 6103 653d 32ec 1d3e 4c15 b0bd
00000250: cb40 d9bd fbe4 0fbe d963 3c3e 2425 9cbc
00000260: 8ded 0abe 7109 eebc 7b75 20be c76b 40bd
00000270: 69ce 0c3e bb7a 8f3d 9ac5 29be 6f01 ad3d
00000280: 724c a43d 0971 4dbe 1a5e 6abe 9967 d13c
00000290: 39ea 033e b535 0a3e 9d8d 13be 1433 c03c
000002a0: 398d 20bd 4331 923b b1d4 ebbd bdb8 63bd
000002b0: 0d09 1d3c 8206 b83d 13a4 fc3d 87b7 ccbc
000002c0: a4b3 07be 1493 62be 93fd f83c 402b 16bd
000002d0: 187e 02be fece 09be 7a89 1cbd 74da 0a3e
000002e0: 2f16 dd3b 5333 0ebe 50e0 333e 9a37 f9bb
000002f0: c985 41be b3d2 a5bd 90de 053e 72f2 013e
00000300: 07b1 0c3e 3246 7ebe e602 85bd ebe3 a3bd
00000310: b260 ffbc f95e 23be f877 b7bd b1ee 483e
00000320: 39aa 91bc b211 913d 1ca5 efbc 8229 30bd
00000330: ab00 293e 51fc 47be d83c 0b3e a054 683e
00000340: 2a2f 053e 0560 21be 3dc9 fabc 00d6 8bbd
00000350: 17dc 3c3d 22ea 53be 6a96 05bc 4866 4a3e
00000360: f43c cb3d ab40 d3bd 74b3 333e 407a 193e
00000370: 5e17 0f3d 73f8 8dbd e565 29be 6c3b 563d
00000380: f3b3 dd3b ba7b 193e bd4a 013e 8f3f 193e
00000390: aa1e 0bbe 335a c7bc eae6 d9bd 36d2 18bc
000003a0: faec f7bc 402f 0bbd ceec 923c b0c9 e33b
000003b0: b0f8 a3bc 3bd8 0e3c bed1 0c3e e1d3 c13c
000003c0: 9f4d 393e 7a1f 89bd 4988 573e e243 393c
000003d0: 373d 06be ece8 d63c 16aa 0fbe b198 20bc
000003e0: a27e 8dbd 9c6d d53d ef37 72bd ecee 153e
000003f0: b115 cfbd 5b07 cb3c 2574 933d 8b83 413e
0.0003872638 -0.0435361 -0.099237375 0.1478854 -0.038594715 -0.0033128145 0.03511099 -0.07713361
-0.04191441 0.1446654 -0.10661712 0.13954005 0.13295756 -0.081149526 -0.16082002 -0.15481563
0.17228766 -0.061524943 -0.1956345 0.15080138 0.049236998 0.18023792 0.06106285 -0.0981377
0.079427674 -0.20987312 -0.1578184 0.10667471 0.10278826 -0.12929566 -0.07233449 0.03807477
-0.05142436 -0.18997768 0.003447901 -0.19614445 -0.11599143 0.15977001 -0.06645152 -0.11823944
0.1995384 0.02361122 0.063212626 0.113579914 0.08175981 -0.14757936 0.108607665 0.16592187
0.12592502 0.12986684 -0.19421108 0.15051156 0.0060876347 0.13296092 0.030029533 -0.095623665
0.11332663 -0.0833472 -0.20925008 -0.10020496 -0.038381346 -0.20888664 0.024173463 -0.14506935
0.024772702 0.16791666 0.107295655 -0.026429452 0.1501777 0.051491868 -0.039906632 -0.06428965
-0.08100339 0.1280428 0.019646661 0.02616421 -0.052833624 -0.26205662 0.099165425 0.033997104
0.13232175 -0.07136145 -0.13398775 -0.09026018 0.058907866 -0.20795058 -0.12192357 0.24451293
-0.1446492 0.026993345 0.06354366 -0.09889007 0.16523789 0.10187711 0.084265046 -0.028520403
-0.06873851 -0.20969152 -0.116690785 -0.1630243 -0.13242593 0.03934819 0.14923783 -0.12619421
0.16991436 -0.00045603357 0.021750633 0.023285564 -0.038427584 -0.06357781 0.11422503 0.08853221
-0.101482525 0.19218042 -0.06477414 0.0094746845 -0.12842013 -0.015803568 -0.19452672 0.03022108
0.0019291302 0.015692329 -0.20753944 0.055775415 -0.051293276 -0.13222238 0.065911785 0.06892971
-0.13067673 -0.09316548 -0.15932359 0.15766059 0.03720087 0.20413731 -0.07804044 -0.025926877
0.03391101 0.09979405 0.17487971 0.03784512 0.13302739 -0.15882593 -0.14226443 -0.21661988
-0.07085569 0.055911426 0.15422133 -0.08597812 -0.106080614 -0.14052193 0.18397464 -0.019060679
-0.13567181 -0.029057236 -0.15669815 -0.046977784 0.13750614 0.07005831 -0.16579285 0.08447539
0.08022393 -0.2006265 -0.2288746 0.025562095 0.12882318 0.1349705 -0.1440949 0.023461856
-0.03919718 0.004461439 -0.11515177 -0.055596102 0.009584677 0.08985616 0.12335982 -0.024989856
-0.13252121 -0.22126418 0.030394351 -0.03666234 -0.12743413 -0.13457868 -0.038217045 0.13559896
0.0067470293 -0.13886766 0.17566037 -0.007605505 -0.18898691 -0.08096828 0.13073182 0.12690142
0.13739406 -0.24831465 -0.064946935 -0.08002456 -0.031174038 -0.15954198 -0.08958429 0.19622304
-0.017781364 0.07083453 -0.029253535 -0.043008335 0.16504161 -0.19529845 0.13597429 0.22688532
0.13006273 -0.15759285 -0.030613536 -0.06827927 0.04610833 -0.20694783 -0.008153537 0.1976558
0.09923735 -0.10315069 0.17548925 0.14988041 0.034934394 -0.069321536 -0.16542776 0.052302763
0.0067658364 0.14988604 0.12626167 0.14965652 -0.13585916 -0.024335003 -0.106397465 -0.009327462
-0.030264366 -0.033980608 0.017935183 0.0069515333 -0.020016044 0.008718546 0.13751885 0.023660602
0.18096016 -0.06695457 0.21048082 0.011307688 -0.13109289 0.026234113 -0.14029726 -0.0098020295
-0.06908919 0.10421297 -0.059135374 0.14641923 -0.10111559 0.02478378 0.07199887 0.18897836

pi.mu_net.0.bias f4 [128]
00000000: ebaa 013e 6d15 ebbc 88dc a6bd 9efb 2abe
00000010: d332 aa3d 7607 293d 36eb d3bd 3c74 e9bd
00000020: e707 53be 101a 30bb 6963 e1bd f8bf e8bb
00000030: cab6 c13c bb9f 4f3e 8743 81bd 1d80 3a3e
00000040: 4f62 e7bc e905 0bbc 5ea7 3dbd 9931 283e
00000050: 307d b7bd 7fd2 c33d b69a b5bb de88 0bbe
00000060: 497f ee3d 2681 df3c 2751 15be f7e6 debd
00000070: c10b f0bc 9f07 d4bd 4852 303e 272d 6b3d
00000080: d8cb 0ebe 2ebc 093e 1673 12be eea3 4bbd
00000090: 48c8 c7bd 453e 3cbe ac4b 15be 19f6 07be
000000a0: fc71 3a3e 1cc3 acbd 1ce1 4abe 8712 073e
000000b0: c02f 15be 6d96 4a3e 0158 ccbd d7c9 4bbe
000000c0: a758 d3bc 4a93 c8bd ccd5 493d 24a0 283e
000000d0: f1b2 60bd f8c6 523d 4793 c93d 6c41 a8bc
000000e0: 2f52 3abe ad99 743d f858 45bc ecb9 1a3e
000000f0: d69b 1d3d 3a09 6b3d 088b b7bc 550e 27bc
00000100: c615 4abe 71ee ed3d a9b8 4cbd be7d a1bd
00000110: 0c85 30be 4be3 b7bd e591 313c c3f2 8abd
00000120: 2403 073d 43c6 0d3e 0aa1 d93d 8307 043e
00000130: 7039 1f3e caf7 063e 168e b4bd 1d11 adbc
00000140: 2984 e2bd d969 1d3e 36da 59be 723b c53d
00000150: 1b64 733d 77be e53d c619 393e 4c29 233e
00000160: 8aac f4bd 1e87 133e 1d6d fa3d 92d3 553d
00000170: 5292 7e3d 4d33 423e b478 43bd 7f5b bcbd
00000180: bf4f 00be f9b3 0f3d a58f c53c 4a0c 15be
00000190: dc98 afbd 4a30 ca3d 7049 0dbe 058c 373e
000001a0: 5192 2ebe 1ed9 1abd 6cba 093e 5b83 243e
000001b0: c679 f4bd fcc7 f4bd bdf7 1b3e 6582 583e
000001c0: 13b7 0cbe b7cd d2bc 2efd e7bd 7c23 fa3d
000001d0: b39f 13be 6ee0 1abe dbf5 5d3e 2136 313e
000001e0: cab9 a4bd 6ce5 e33d b224 53be c1d9 3f3c
000001f0: 9643 d33a bdaf be3d af75 38bd f2c8 a5bd
0.12662856 -0.02869674 -0.08147532 -0.16697547 0.08310475 0.04126688 -0.10347597 -0.11399123
-0.20608483 -0.0026871003 -0.11005289 -0.0071029626 0.02364673 0.20275776 -0.06311708 0.18212934
-0.02824512 -0.008485296 -0.046302192 0.1642517 -0.089594245 0.09561633 -0.0055421246 -0.1362643
0.116453715 0.027283262 -0.14581738 -0.10883897 -0.02930248 -0.10353016 0.17218888 0.057416108
-0.13944948 0.13450691 -0.14301714 -0.049716882 -0.097549975 -0.18383129 -0.14579648 -0.13277473
0.18207544 -0.08435652 -0.19812435 0.13190661 -0.14568996 0.19783945 -0.09977723 -0.19901215
-0.025799109 -0.09793718 0.04927616 0.16467339 -0.05485815 0.051459283 0.09842544 -0.020539008
-0.18195413 0.05971687 -0.012045138 0.15109986 0.038478695 0.057381846 -0.022405162 -0.010196288
-0.19734868 0.11617745 -0.049980793 -0.078853115 -0.17238253 -0.089788996 0.010838007 -0.067845844
0.03296198 0.13845162 0.10626419 0.1289349 0.15549254 0.13180462 -0.08816163 -0.021126324
-0.11060364 0.15372409 -0.21274647 0.09630479 0.05942164 0.11217969 0.18076238 0.15933722
-0.11946972 0.14407012 0.12227843 0.052203722 0.06215126 0.18964882 -0.047722533 -0.09197139
-0.1253042 0.035083745 0.024116347 -0.14555469 -0.085740775 0.09872492 -0.13797545 0.17924507
-0.17048003 -0.037804715 0.1345002 0.16065733 -0.11937289 -0.119522065 0.15231223 0.21143492
-0.13741712 -0.025732858 -0.11327587 0.12213799 -0.14416389 -0.15124676 0.21675818 0.17305805
-0.08043249 0.11127743 -0.20619467 0.011709631 0.0016118165 0.09310863 -0.045034107 -0.08094968

pi.mu_net.2.weight f4 [128, 128]
00000000: bd0a 83bd 40aa 7a3d 3099 913d ff93 bfbd
00000010: 540e fdbc 76fc 21bb 5b1b 6ebd d48d 253c
00000020: 0db8 80bd 93a9 5cbc 4fc7 aebb ffc4 b5b9
00000030: 0a4c cc3c a5a4 a63b f863 8d3d 52e5 a8bc
00000040: ee67 b13d 0701 19bc fde9 ae3d c560 2bbd
00000050: 193c e53c 45b1 1a3d 17bb 793d e152 02bc
00000060: e7c9 15bd 8088 8abd 7bf4 33bd dbc7 06bd
00000070: 3b75 47ba 3778 c13c cdb8 2c3d f7c4 be3c
00000080: f975 09ba 3002 3dbd 25e3 8d3d 601b 96bc
00000090: 74dd bf3d 4e28 863d 10a2 18bd e17b 23bd
000000a0: 91cc 46bd 20b4 2abc 16f8 c03c b65f 943d
000000b0: 0e64 79bd 4d09 a7bd 899e 5d3d ccc0 70bd
000000c0: 81e0 35bd 2bb3 a0bd 7f5c 1f3d a3bb 1c3d
000000d0: ab4b 5abc 2158 b13d c20a 8d3d a81a 943d
000000e0: 05cc 1b3d d5e9 dbbc fc90 483c a84f 9e3d
000000f0: d09f a2bb b621 4dbd 6bd2 243d 15aa 593b
00000100: 6032 6bbd 5e15 283d ff14 3dbd e5d1 09bd
00000110: a5c5 0e3d 3402 743d 5211 b33d 2d84 f83b
00000120: e3f0 ff3c 5739 8d3c 1cd6 90bc 7426 3dbd
00000130: d598 87bb 8d5b 523c 9334 93bd 66e9 ce3d
00000140: 4612 8ebd 930a 193c 52f6 3dbd 4514 913c
00000150: 1255 773d b84a 733c 837b a63c 1b1e 063d
00000160: 26d0 25bc 9f39 45bd 468f 963d 9596 a6bd
00000170: 27bc 8ebd daa4 b03d 3e89 823c 2394 dfbd
00000180: 0699 6d3c 8bcb c4bd 9cfa c7bd 637c 45bd
00000190: bf15 bc3c 401c 633d b85c 8bbc 1973 2b3d
000001a0: fca0 20bd eefd 493c 8c04 82bd b966 b53c
000001b0: 27dc 473d 6047 4dbc c460 9cbc fac6 fbbc
000001c0: 93a4 a13c cca2 85bd 972a 67bb ae2d aa3d
000001d0: e7e8 163c 8ca5 5f3d 54a7 103d 9b0c 29bd
000001e0: a615 0fbd ae8a cdbc 8423 c6bd 4a1e 683d
000001f0: ed04 8abd be0f 063d d550 9abd 2a36 71bd
00000200: 7c6e f9bb 480f 563b 55ec 8ebd b0df e6bc
00000210: c1cb 0a3d a8fe 9f3d fc71 4d3c 1ac9 c0bc
00000220: b43c 003d 960c c6bc 0898 2cbd 2e9b 5f3c
00000230: 8c84 283d ac9e 14bb 6b6a 823d c29c 46bc
00000240: abae 793d 3e62 0d3d 11b6 7bbd 287a 053c
00000250: 8fbe fa3c 70aa 96bd 34b1 6dbc c726 343d
00000260: 48e1 6dbd a737 adbc 3d39 963d 0213 713d
00000270: 33e6 01bc cc86 82bd ebc5 bcbd 28f9 163d
00000280: b03b 483c 3016 6dbd 21b6 673a f5af 893c
00000290: eafd 2d3d 6caa 91bd 2855 c13c aa61 fc3b
000002a0: 3652 08bc c707 03bd 3e59 d33d 294a 47bd
000002b0: 3096 35bb ff15 4f3d b941 ac3d 883e 44bc
000002c0: fefe d53c cfec b43d b6f0 bcbd adc9 ccbb
000002d0: 163c 96bc e264 53bd a745 083d 9189 d9bc
000002e0: 2815 50bd c8d2 5dbd f0c1 83bd 1fd7 a33d
000002f0: 074d a03c 1d17 18bc 1673 2e3c addc 8abd
00000300: f620 5bbc 3199 8abd 8f6c 92bd 64e9 0bbd
00000310: a438 8a3d a5cf 3cbd 66be 5cbd d757 b53c
00000320: c9c5 d1bc ef73 9f3d 945d aa3c d78f 903d
00000330: 81d2 b33d 3452 febc cb25 7c3d 5ae1 8fbc
00000340: e0a8 d1bc 6f42 813d b8ee 9e3d 11ba a83c
00000350: a3ce 7a3d 664d 733c 9aa8 aebd 7ba3 623c
00000360: eff6 77bb cb05 ae3d 0266 ad3d 1d57 a1bd
00000370: 3421 95bd 7162 903d e4b3 483d da21 9d3d
00000380: 3632 d9bd d1f8 b13d dd0b 9f3d 3e4d a53d
00000390: c12a 8c38 8878 633d 6527 063c 66ce 2b3d
000003a0: 33ce 5cbd 3f1d 58bd 435a 4c3d 66a9 5f3d
000003b0: c763 a23d e3e1 a9bc 7c5c 403d 950f e8bb
000003c0: 6f81 eeb9 96f7 bb3c 948a 0b3d 9dd2 963d
000003d0: 5ec6 9fbd c460 633d 6435 8e3c 8847 613c
000003e0: a449 a5bc cb2e dbb9 57d9 99bd 0a5e 9c3d
000003f0: 6f75 833d a006 e33d 0750 2a3d 03da 603d
-0.063985325 0.06119752 0.07109296 -0.093544 -0.030890621 -0.0024717129 -0.058131557 0.010104615
-0.06285105 -0.013468164 -0.005333818 -0.00034669784 0.024938602 0.005085545 0.06903833 -0.020617161
0.08662401 -0.009338624 0.085407235 -0.041840333 0.027982758 0.037766714 0.06096944 -0.00795433
-0.036569502 -0.067643166 -0.043934327 -0.03290544 -0.0007608716 0.023616893 0.042168427 0.02328728
-0.00052437145 -0.046144664 0.0692809 -0.0183236 0.09368411 0.06550656 -0.03726393 -0.039913062
-0.048534933 -0.010418922 0.023555797 0.07244818 -0.060886435 -0.08156071 0.05410627 -0.058777615
-0.044403557 -0.078466736 0.03890657 0.03826488 -0.013323705 0.086593874 0.068868175 0.07231647
0.038036365 -0.026844898 0.012241598 0.07730037 -0.004962899 -0.050080977 0.040239733 0.003321295
-0.05742109 0.041036002 -0.0461626 -0.033647437 0.034856457 0.059572414 0.08743538 0.007584116
0.031242793 0.017239256 -0.01768022 -0.04617925 -0.004138092 0.01283921 -0.07187762 0.10103111
-0.06937079 0.0093409 -0.046377487 0.01770986 0.060383864 0.014849357 0.020322567 0.032743555
-0.010120427 -0.048150655 0.07351546 -0.0813419 -0.06969481 0.08625193 0.015934583 -0.10916927
0.014501816 -0.09609135 -0.09764597 -0.048214328 0.022959588 0.055446863 -0.017011985 0.041857813
-0.039216027 0.012328608 -0.063485235 0.022143709 0.048793938 -0.012529224 -0.01908911 -0.030734528
0.019731795 -0.06525192 -0.0035273188 0.08309494 0.009210802 0.054601237 0.035315827 -0.041271787
-0.034932755 -0.025090542 -0.09674743 0.05666951 -0.06739221 0.032729857 -0.07534949 -0.058889546
-0.0076120477 0.0032662917 -0.069786705 -0.028182834 0.03388572 0.07812244 0.012539383 -0.023533393
0.03130789 -0.024175923 -0.042137176 0.013647838 0.04114203 -0.0022677584 0.06367954 -0.012122335
0.060957592 0.03451752 -0.06145293 0.0081468 0.030608444 -0.07356727 -0.014507581 0.043982293
-0.058076173 -0.021144701 0.07335136 0.058856018 -0.007928419 -0.06373367 -0.09217437 0.036858708
0.012221262 -0.057882488 0.000883909 0.016807536 0.04247848 -0.071125835 0.023600176 0.007702072
-0.008320382 -0.03198984 0.10319756 -0.04865471 -0.0027707927 0.050558086 0.08410973 -0.011977799
0.026122566 0.0883423 -0.092255995 -0.0062496276 -0.018339198 -0.05160988 0.03326955 -0.026554855
-0.050801426 -0.054156095 -0.06433475 0.080000155 0.01956798 -0.009282854 0.010647556 -0.06780372
-0.013374558 -0.067675 -0.07149612 -0.034158126 0.067490846 -0.046096463 -0.053892516 0.022136612
-0.025607007 0.077857845 0.020796575 0.07058685 0.08780385 -0.031045057 0.06155948 -0.01756351
-0.025593221 0.06311499 0.07760376 0.020596536 0.06123222 0.014849996 -0.08528252 0.013832922
-0.0037836393 0.08497199 0.08466722 -0.07877944 -0.072817236 0.07050026 0.048999682 0.07672472
-0.1060528 0.08690036 0.077659346 0.080713734 6.683684e-05 0.05553487 0.008188103 0.041944884
-0.053907584 -0.052762266 0.049890768 0.05460491 0.07929187 -0.020737594 0.0469632 -0.0070819356
-0.00045491333 0.022945207 0.034067705 0.0736439 -0.078015074 0.055512205 0.017359443 0.013749965
-0.020176716 -0.00041805799 -0.075121574 0.07635124 0.06418883 0.11085248 0.041580226 0.054895412

pi.mu_net.2.bias f4 [128]
00000000: 394a 16bd ab75 4fbd 9303 f43b e6ba a3bd
00000010: 7b51 f23c 5591 b53c 1ffd 29bd ad27 ab3d
00000020: dc6c 693b 191b 8d3d bbf3 6c3d 2880 9e3d
00000030: 2b56 19bd ecb3 6a3c 1a53 8a3c 83ec 11bd
00000040: 13bb 703d beb2 afbd 040b c23c e075 213d
00000050: 08a9 90bd 37d7 9e3d 14fc 9e3a e316 ffbc
00000060: 659b 003d 7530 c4bd e797 b8bc f170 b03d
00000070: 5c7c 8dbd ce3b 83bc 60d7 f13c 9f82 9d3d
00000080: 7fb1 913c 78cc c2bd bfc9 d63d 7bd2 0ebd
00000090: fe1b 8b3d ae66 43bd 4175 a23d 2216 853d
000000a0: 60eb c73c 6db7 f9bc 3cf9 58bd 9667 1abc
000000b0: 663a a5bd bdc3 233c 8e35 33bc aa9a 94bd
000000c0: 6408 693c 5245 e0bc 45e8 ca3c 8a86 363d
000000d0: 4342 03bd 6d81 37bc 707c b3bd e8cc bbbc
000000e0: b325 8ebd a9e9 debc 8d2a 83bc e090 8fbd
000000f0: e4c9 603d 00f5 fdbc cb06 8c3d 3022 783d
00000100: 6426 3e3d 69d9 7bbd 95f9 a1bc c05d 05bc
00000110: bdfd 473c 82bd 83bc f8f6 893c a0a9 0abd
00000120: e121 ee3c 53d8 91bc 1050 933d 84f8 9f3c
00000130: 0c5b f13c 2556 5abd fdcb a0bc 64ca 46bd
00000140: af14 f0bc 2697 673d 5286 8ebd 15b2 8cbd
00000150: 731d 8ebd 5882 903c 5a95 823c 3d85 1c3d
00000160: b2fb 48bd 2b23 bcbc e113 0fbd 11d8 9e3a
00000170: fadf b1bd df46 7abd a0b8 0ebd 49ca 9cbd
00000180: 7a31 40bc 6097 3ebd e112 4b3c af2b aa3d
00000190: c764 213c e835 373d 3dd7 713d e1d3 2c3c
000001a0: 6b31 9cbd e2b9 e8bc 32a2 e9bc 5ed2 9e3d
000001b0: 9880 14bd 96d9 f0ba 8618 713d 8788 003d
000001c0: a8c2 483c 8101 13bd 2fdc 7cbd 22d0 763c
000001d0: 6949 cdbc 143a 8fbc 5c91 46bd 41f1 823d
000001e0: 4de6 6fbd 91ed 163c a175 743d 10b3 c9bb
000001f0: 2dad 563d effd 42bd 542b 33bd ec71 24bd
-0.036691878 -0.050649326 0.007446715 -0.079946324 0.029579869 0.022164026 -0.04150116 0.08357177
0.0035617864 0.06889934 0.057849627 0.077392876 -0.03743569 0.014325123 0.016885329 -0.035625946
0.058772158 -0.08579014 0.023686893 0.039419055 -0.0706349 0.07755893 0.0012129568 -0.031138843
0.031398196 -0.09579555 -0.02253337 0.08615292 -0.06908485 -0.016019728 0.029521644 0.076909296
0.017784832 -0.095116556 0.10487699 -0.0348687 0.067924485 -0.047705345 0.07932521 0.06498362
0.024404228 -0.030482972 -0.052972063 -0.009424111 -0.08067779 0.009995398 -0.010938061 -0.07256062
0.014223192 -0.027376805 0.024768958 0.0445619 -0.032045614 -0.011200291 -0.08763969 -0.022924855
-0.06940784 -0.027211027 -0.0160115 -0.070100546 0.054880038 -0.031000614 0.06837233 0.06057948
0.04642333 -0.061486635 -0.01977233 -0.0081400275 0.012206492 -0.016081575 0.016841397 -0.033853173
0.02906889 -0.017803347 0.07193005 0.019527681 0.02946236 -0.05330481 -0.01962852 -0.04853286
-0.029306738 0.05654063 -0.06959213 -0.06869904 -0.06939211 0.017640278 0.015940357 0.038213003
-0.04906816 -0.022965988 -0.034931067 0.0012118836 -0.08685298 -0.061102744 -0.03484404 -0.0765577
-0.011730546 -0.04653108 0.012394638 0.08309113 0.009850687 0.044729143 0.059043158 0.010548563
-0.07626613 -0.028408948 -0.028519724 0.07754968 -0.03625545 -0.0018375393 0.058861278 0.031380203
0.012253441 -0.035890106 -0.06173342 0.015064271 -0.025059419 -0.017483748 -0.04847847 0.06393672
-0.05856924 0.009211914 0.059682492 -0.006155379 0.052411247 -0.04760545 -0.043742493 -0.040147707

pi.mu_net.4.weight f4 [6, 128]
00000000: a86c 953d f024 fcbc bb3b e53d cde9 aabc
00000010: ee3b 12bd be89 2d3c 44df 853d 3b3c 08bd
00000020: 9b13 d0bd a1bb a8bd c32a b0bd b275 f9bd
00000030: 6df9 223d 05fa afbd c860 7c3d 8bfc cb3c
00000040: d3c4 753d c7fc c4bd e94f 513d 4a7d a2bd
00000050: 6f5e ccbd 5196 933a 4e86 d53c ba69 973d
00000060: 75eb 143a 6c7e 863d a7a0 333d e3da c53c
00000070: 005d b43d c24e 0a3d 7229 c53a 9e18 833d
00000080: 5d3b fbbb 8d2a 86bc fbd5 b13d 8484 a7bc
00000090: 057b 593d b9f8 8d3d 9bb2 cb3d e977 d9bd
000000a0: f37a a3bc 2e27 0b3d 6cf4 6cbd d6cb a8bc
000000b0: 57d7 82bd cf41 c5bc 38aa 5fbc ecbb b7bd
000000c0: 8f19 873d 1f23 4bbd 36dc 563c a8b9 9bbd
000000d0: 33ba 8abd db26 e3bd c2b4 573d 802f 9ebd
000000e0: e234 90bc dd5f 4e3c 42c9 963a 086e 3b3c
000000f0: 581f eebd 2e7a adbd 92ce 2dbd 9178 84bd
00000100: 83f4 8bbd e8c0 3ebd de19 e23c 945c e43d
00000110: 4063 4bbd d94d 2cbd 8107 f1bb 92dd a63d
00000120: dc3f cabc 7ce7 3f3d 9c43 99bd 761d 923d
00000130: 9701 923c 58e5 a5bc 299c 9cbd 2878 b43c
00000140: 872e 193c a885 d2bc 0cff a9bd b224 013d
00000150: 081a 443c bbb7 123d 234b 883d 1029 d73d
00000160: cd87 23bd 5e27 423b 29e7 ff3c 487a a6bd
00000170: 3965 d23d 816c 4cbd edde 733d 7617 6f3c
00000180: 1d16 2c3d 8ffb 03bd 237b 283d 7bbd 5dbd
00000190: 0696 5b3d e221 943d dd69 1cbd 4b64 8f3c
000001a0: 8c19 c1bd 092d 3cbd 531b cf3d 119a 403d
000001b0: 4995 543d af15 993d 4615 70bc f2bb 9b3d
000001c0: 20e6 8ebc f7d4 edbd 9e0b 80bd a109 82bd
000001d0: 34ed b9bd 8e51 17bd c8b6 493c f076 843d
000001e0: be26 c43d 623e 5f3d 8934 00be 6fbd 903d
000001f0: bfdd 31bd eb5c 1c3b b135 743d 1754 b9bd
00000200: e984 813d 3146 6dbd 533d a63c e3b7 a43c
00000210: dfac 523c 108d d939 caef 083d bc83 a3bb
00000220: 1272 a43d 5616 95bd 690d c83d 82c8 4e3d
00000230: 6ccd c4bd db18 b4bb ca23 213d 914d b53c
00000240: 0506 88bd cd7c b83b cfb8 ac3d 08b9 2cb9
00000250: 2b13 9d3d 583c bb3d 3734 f13c 0c52 993d
00000260: e01a ae3d 0c8a 453d bf05 bf3b 8bca c5bd
00000270: bed5 cbbc ad5b 7dbd e79b 433d fa57 42bd
00000280: 6fbe 0f3c 8ee8 6e3d ecb4 72bd 5608 a9bd
00000290: dc65 863d f5a3 36bd 93f5 82bd 1fcd 913d
000002a0: 119c 923d c3ed 1c3d 8d03 b5bd f014 a1bd
000002b0: 4880 c43d 2a7c fa3c acdc 883d 6779 063c
000002c0: d77f a0bd a6f5 da3c 4acc 9a3d 9fde c5bd
000002d0: 1d82 8a3d 6ace 3fbd 6175 b7bc e839 233d
000002e0: 8a29 a83c 56c0 eabb 48c2 ef3c 01de dc3d
000002f0: 56e7 59bd 1a85 163d 8259 833d 0cb1 d73c
00000300: c56f a6bc 7a1d aebd 7415 1ebd 8d3c cf3a
00000310: 6a38 a2bc 1d64 563d d1f1 703d 4613 89bd
00000320: 716b a83c 7f83 963d c438 e0bd 7f23 463d
00000330: 471e 953d 927f a43d 7342 e2bc 80e9 bebd
00000340: 39d4 d03d d16e a9bd e6ee 963d dc9f c5bd
00000350: 9060 d53d ead4 263d b6a9 a2bc 9400 ad3d
00000360: b744 a9bd 2e8a e3bd b633 58bd 2e9c ae3c
00000370: 2486 07bb 3d16 b33c 3a79 f73c 7f0a a83d
00000380: eacf b43b e788 a43d 8aa7 153b 9e56 2f3d
00000390: 4e22 8f3a 4a14 acbc 16e8 adbd f691 efbd
000003a0: 870f b83d 2b21 fabb 25ca b33c 37be 843d
000003b0: 17d9 6b3d bf37 8a3d 46b9 c1bc d9ee d13c
000003c0: dbfd 8dbd a557 893d 6ec1 a8bd 2629 88bd
000003d0: 85da 29bc 90a1 c8bc aa71 1ebd f2e3 553d
000003e0: c4f1 313d 0ae8 22bd 1d14 813d 0b96 3d3d
000003f0: ae8a 5f3d 7ea1 75bd 6949 743d cee9 d4bc
0.07296115 -0.030779332 0.11193033 -0.020863438 -0.035701685 0.010591922 0.06536725 -0.033260565
-0.101599894 -0.082389124 -0.08601906 -0.12180652 0.039788652 -0.08592609 0.061615735 0.024900695
0.06000216 -0.09618526 0.0511016 -0.07934053 -0.09978949 0.0011260008 0.026065018 0.073932126
0.0005680838 0.06567082 0.043854382 0.024152225 0.08806801 0.033766516 0.0015042259 0.0640118
-0.0076669888 -0.016377712 0.08683392 -0.02044893 0.053095836 0.06932206 0.09946176 -0.10618574
-0.019956088 0.03397291 -0.057850286 -0.020605009 -0.06388729 -0.024079232 -0.013651423 -0.0897139
0.06596672 -0.04959404 0.013114026 -0.076037705 -0.06773796 -0.110913955 0.05266262 -0.07723904
-0.017603341 0.012596098 0.0011504071 0.011439808 -0.11627072 -0.084705696 -0.04243333 -0.06468309
-0.06833746 -0.04657069 0.027600225 0.111504704 -0.0496552 -0.04206643 -0.007355631 0.0814773
-0.024688654 0.04685162 -0.074835986 0.071345255 0.017823024 -0.020250961 -0.07646973 0.022029951
0.009349472 -0.025698498 -0.083005995 0.031529136 0.011969097 0.03581975 0.06654956 0.10505879
-0.03992443 0.0029625515 0.031238155 -0.08128792 0.10273213 -0.049908165 0.05953877 0.014592996
0.042013276 -0.032222327 0.041133057 -0.05413578 0.05360987 0.07233025 -0.038186897 0.017503878
-0.09428701 -0.045941386 0.101126336 0.04702193 0.051900182 0.07474839 -0.0146535095 0.07604207
-0.017443717 -0.116128854 -0.06252216 -0.06349493 -0.09078446 -0.03694301 0.012311645 0.06467998
0.09577702 0.054502852 -0.1252004 0.070673816 -0.043424364 0.0023859094 0.059621517 -0.09049242
0.06324179 -0.057928268 0.020292914 0.020107215 0.0128585985 0.00041494565 0.033431806 -0.004990069
0.0802957 -0.07279651 0.09768183 0.050484188 -0.096094936 -0.005496127 0.03934077 0.022131713
-0.06641773 0.005630112 0.08433687 -0.00016472128 0.076696716 0.09142369 0.029443843 0.07486352
0.0850122 0.048227355 0.0058295424 -0.09657773 -0.024882194 -0.061855007 0.047756102 -0.047447182
0.00877343 0.05832725 -0.05925457 -0.08253543 0.06562397 -0.044589955 -0.06394496 0.07119202
0.071586736 0.038312685 -0.08838568 -0.07865322 0.0959478 0.030576784 0.06682715 0.0082076555
-0.078368835 0.026728462 0.07558496 -0.09661602 0.067630984 -0.04682771 -0.022394838 0.039850146
0.02052762 -0.0071640415 0.029267445 0.107845314 -0.053199135 0.03674803 0.06413557 0.02632954
-0.020316968 -0.08501716 -0.038594678 0.0015810892 -0.019802291 0.05234157 0.058824364 -0.06693129
0.020559045 0.073493 -0.10948327 0.048373695 0.072811656 0.080321446 -0.027619576 -0.0932188
0.10196728 -0.0827309 0.07369785 -0.096496314 0.104188085 0.040730394 -0.019856315 0.08447376
-0.082650594 -0.1111034 -0.05278369 0.021314707 -0.002067932 0.02186119 0.030209173 0.08205127
0.0055179494 0.080339245 0.0022835457 0.042807214 0.0010920258 -0.021005768 -0.084915325 -0.11697762
0.089873366 -0.0076333485 0.021946976 0.06481593 0.05758008 0.06748914 -0.023647916 0.025626587
-0.06933185 0.0670617 -0.08240019 -0.066484734 -0.0103670405 -0.024491102 -0.038682617 0.05221934
0.043443456 -0.03977207 0.063026644 0.04628567 0.054575615 -0.059968464 0.059640322 -0.025990393

pi.mu_net.4.bias f4 [6]
00000000: 1813 b9bb dd00 e8bc e8f3 60bd 711a 8e3d
00000010: dabd 6d3d 8f18 973d
-0.005648028 -0.028320724 -0.054920107 0.06938637 0.058042385 0.07377731

vf.v_net.0.weight f4 [128, 24]
00000000: 0253 0fbe 005c 84bd 905a a3bd d5bf bc3d
00000010: 66d1 f8bc d493 29be 1108 753d 129d 3fbd
00000020: 7f92 cdbd 3c60 813b b99e 8e3c cd15 363e
00000030: 8a75 55bc 85ce 3d3e 8c90 353d cc54 b1be
00000040: 47ea 863d 8c68 adbd 2065 4f3e 55b8 723d
00000050: 7b99 ad3e dc50 cbbd 0846 92bb 32ba 59bb
00000060: f8bd 983e 11bd 2dbc 7bc6 9ebd d257 4cbd
00000070: 0caa f13c 3505 e33d c5ec 613d 9eeb 72be
00000080: 0ece 8d3e 6837 febd c02c 2abe 2b04 753c
00000090: f87d b73d 3859 d63d 0926 843e 296a 473b
000000a0: 9285 423e b3c3 5a3e fbb4 b33d 5fd4 cfbc
000000b0: 4204 373d f7a0 abbd 699d 7bbc c377 c0bd
000000c0: 0fcd 853e cb5b d1bd a89f 99bd dcfb b8bd
000000d0: 4e41 5cbd 9ca6 df3d 09b7 fbbd 8a99 eebd
000000e0: fa0b 633e 1851 af3d 1773 3dbe a02d c4bc
000000f0: 0383 87be 7de5 063e 2228 eb3d 1772 50bd
00000100: f617 3ebc 6987 eebd 4758 083e 414b 793d
00000110: b1c5 2abe 7015 e3bb b13d 6e3e e8b3 14be
00000120: 6a76 bd3d 7f7e 453c 8d88 e73d e5cc 1ebd
00000130: dc97 07bd 609c 59be 400c 653d 23da 743d
00000140: f37b e3bd 3fa6 98bd f978 043c 8549 253c
00000150: c0db 3dbd 30ab c8bc 106a 4b3e 8197 463d
00000160: 1b2f f7bd 767f c9bd 9bd6 453e 3cef 313e
00000170: fc05 6f3e a17c 6ebd d30e 38bd dba8 b93e
00000180: e0c2 443d 4b20 94bd c0d6 10bc d297 263e
00000190: ade7 03be ad52 ec3d b3d3 bcbd 8d93 febd
000001a0: 7887 2bbe e787 cdbc 9524 83bd 4b5e 41be
000001b0: ffb0 92bd b179 0ebd 9652 703e f261 5bbe
000001c0: 606c 2ebe 7c21 b43d 1aa3 d43c 5b8c 533e
000001d0: f408 bdbd 5db5 9dbd a4a8 11be d297 36bc
000001e0: 057d 853d 48c4 033e d892 9e3e f962 56be
000001f0: cf29 083e 3941 443d f7bc 6abe bdaf 183e
00000200: 62c9 1d3e 572e 243e 8786 113d bdee 9b3c
00000210: b17e 0dbd e2e0 e1bd 2a05 4c3e ff25 5cbc
00000220: 3b33 93be 143f 303e 303b 143e 4c04 81be
00000230: 30da a2b8 026f 3ebe 86c4 f53d 7962 73bc
00000240: faaa 7a3d 4ca8 61bd 8006 1c3e 1c7f 04bd
00000250: 67f8 8fbd af35 753e 787f 253e 8dd5 103e
00000260: 1e44 1fbd c91e bdbd 60c1 8dbd 39be 02bc
00000270: 8858 443e 0c95 2d3d cc64 f63d 94a3 b8bd
00000280: b0d6 13be 7943 333d 232a 4fbe a73f 053e
00000290: be5a 773e 2903 7a3c 0a03 7a3e 2454 4dbe
000002a0: 66bf 02be 3320 00be 0b48 b03c 9bfc 143e
000002b0: 2ddf 953c 0214 283e f815 f8bd 3fb0 433e
000002c0: a053 12bd 5086 883e 087d 32be 33de f8bd
000002d0: b8e7 05be 902b 3ebd 98fb 62be ebd0 e3bd
000002e0: cf27 c2be 6b60 ad3d 1210 133d 63b9 f8bd
000002f0: a8e8 653c 5cbe bbbd 0e40 083e 229c bd3c
00000300: a827 cb3d 5ddc 193d 2173 373e 65d4 d63c
00000310: 7f22 27be d9bc 82bd cbea 8b3d e432 c3bd
00000320: ea4e 12bd f2cd 51bd 9612 dfbd 7ca1 6e3d
00000330: ba4a 8abe 8ae3 35bd 780a c5bd c87c fb3c
00000340: f939 44be e80a 09be e4e3 44be 47a0 46be
00000350: f73c 30be 08fa 7bbe 1d83 3dbd 14b6 64bd
00000360: 23ee b83c 45dd 813e d102 1f3d 29e7 86bd
00000370: f74c 4ebe b329 41bd 9bf4 65be 5cfe 99bd
00000380: 550a 5e3e 519c 3b3e a656 43be 42af bcbd
00000390: 464e 55bc 80a0 b8bd 82f1 8abe 0f3f 10bd
000003a0: a9ec 363e 9c5f 96bc 0ef3 9cbd f06d e93e
000003b0: 5c00 16be 1f9c 4e3d 7d1d a43e c8bc 903d
000003c0: cc7a c43d bcd4 80bd efa6 573e d79e 873d
000003d0: 308a 133e ac11 46be e668 193e b515 163e
000003e0: 956f 21be d8f6 c9bd 3b64 6f3e fd3b 4f3e
000003f0: c245 8a3d 4778 d9bd 4b59 d13e 005c ed3d
-0.13996509 -0.0646286 -0.07976258 0.092162766 -0.030373286 -0.16560298 0.059822146 -0.046780653
-0.100377075 0.0039482396 0.01740967 0.17781754 -0.013028512 0.18535812 0.044327304 -0.34635007
0.065876536 -0.08467206 0.2025342 0.059257824 0.3390616 -0.09927532 -0.004463915 -0.0033222553
0.29832435 -0.010604159 -0.07752701 -0.04988844 0.02950003 0.110849775 0.05515744 -0.23722693
0.2769627 -0.12412912 -0.16618633 0.014954607 0.089595735 0.10466236 0.2581027 0.0030428267
0.18996266 0.21363716 0.08774754 -0.025369821 0.044681795 -0.08380311 -0.015357354 -0.09397843
0.2613301 -0.10222586 -0.07501155 -0.09032413 -0.053773217 0.1092045 -0.122907706 -0.11650379
0.22172537 0.08560389 -0.18500935 -0.023947537 -0.26467142 0.1317348 0.11482264 -0.050890055
-0.011602392 -0.11646921 0.13314925 0.060862783 -0.16676976 -0.006930046 0.23265721 -0.14521754
0.09251101 0.012054085 0.11305342 -0.03876962 -0.03310381 -0.21251059 0.055919886 0.059778344
-0.11107626 -0.07453584 0.008085483 0.010088329 -0.046352148 -0.024495691 0.19864678 0.04848433
-0.120695315 -0.09838764 0.19320147 0.17376417 0.23342127 -0.058224324 -0.044936012 0.3626164
0.04803741 -0.07232722 -0.008840263 0.16268852 -0.12881346 0.11539207 -0.09220066 -0.12430487
-0.16750896 -0.025089217 -0.06403462 -0.18883626 -0.071626656 -0.034784023 0.23469004 -0.21424082
-0.1703353 0.08795449 0.02595668 0.2065901 -0.09230223 -0.07700608 -0.14224488 -0.011144595
0.06517986 0.12867844 0.30971408 -0.20936193 0.13297199 0.047913764 -0.22923647 0.14910789
0.15408853 0.16033302 0.035528686 0.019034738 -0.03454465 -0.11029221 0.19923845 -0.013436793
-0.28750023 0.17211562 0.14475703 -0.2519859 -7.7654026e-05 -0.18597034 0.120003745 -0.014855021
0.061198212 -0.05509214 0.15236855 -0.032347783 -0.07029801 0.2394626 0.16161907 0.14143963
-0.03888332 -0.092343874 -0.06921649 -0.007979923 0.19174397 0.04237847 0.12030944 -0.09015575
-0.14437366 0.04376552 -0.20230918 0.13012563 0.24155709 0.0152595425 0.24415222 -0.20051628
-0.12768325 -0.12512283 0.021518728 0.14549486 0.018294895 0.16413882 -0.12113565 0.19110201
-0.035724282 0.26664972 -0.17430508 -0.12151756 -0.13076675 -0.046428263 -0.22166288 -0.11123832
-0.37920997 0.08465656 0.035903998 -0.12144735 0.01403252 -0.091671675 0.13305685 0.023145739
0.09919673 0.03756367 0.17915012 0.026224324 -0.16321753 -0.06383676 0.068318926 -0.09531191
-0.03571979 -0.051221795 -0.10892217 0.058259472 -0.27010137 -0.04440645 -0.096211374 0.030699149
-0.1916274 -0.13383067 -0.19227558 -0.19397078 -0.17210756 -0.24607098 -0.046267617 -0.055837706
0.02257449 0.25364128 0.038821045 -0.06587059 -0.20146547 -0.047158908 -0.22456591 -0.07519218
0.21683629 0.18321349 -0.19076023 -0.09213115 -0.01301915 -0.09014988 -0.2713738 -0.035216387
0.17863716 -0.018356137 -0.076635465 0.45591688 -0.14648575 0.050441857 0.32053748 0.07067257
0.09593734 -0.06290576 0.21059774 0.06622093 0.14408183 -0.19342679 0.14981422 0.14656718
-0.15765221 -0.09861535 0.23378079 0.20237727 0.067515865 -0.10618644 0.40888438 0.11589813

vf.v_net.0.bias f4 [128]
00000000: a034 453e 30de 863e 9dcc 393d 2684 3e3e
00000010: a01d 2a3d 71ee d3bd ac0f 73be a4fb 3a3d
00000020: b255 eabd 5794 983d 5194 7e3e 5cd8 973d
00000030: d339 9e3e 4c91 c2be 05ea 31bb d346 1b3e
00000040: ff15 bcbe ba98 c23c 9674 a7be 4ac1 4e3e
00000050: 3def d4bd e3ae bfbe b1a5 83be 3bf2 843e
00000060: 6d50 9fbe 2814 81bd d510 85bc 2280 13bd
00000070: 515c 423e 987f b73e 059c 7cbe e952 3cbe
00000080: 582c ad3c 2b56 823e a863 ae3e cc88 033d
00000090: 7df6 d83e 1b8a f83d 64b1 b3be 22f7 b83e
000000a0: 506f cc3d 2ba7 94be c472 b63e ada5 6ebe
000000b0: f793 9e3e 9675 93be 2bf3 a33d 524e 613e
000000c0: f871 4b3e f4fb a2be 9859 64be 8601 a53e
000000d0: c066 06be e6b6 2cbe 39da a1be c3ed da3e
000000e0: f5d0 8bbe 9359 e33d 51a2 b5bc 4cb8 ab3e
000000f0: c66d b9be b9be 71be 2e9e 783e c16b cebe
00000100: a5ae 8f3e d060 973e 65e9 00be 11ca 9dbe
00000110: 4479 a63e 88f6 82be 4577 70be fd06 8f3e
00000120: 0578 bb3e b322 be3e 2785 f73c 9fe8 a43d
00000130: b705 d6be 7af2 75bd 0b58 7dbe 30c5 abbe
00000140: a99a b13e 40a4 273e c4bf 9ebe 764f e33e
00000150: fcca 3c3e 34a5 c43d cf62 74be 8978 da3d
00000160: 83a2 c1be f4d9 8dbe 27cc 90be 4c50 b6be
00000170: 25ee 803e 72c1 b43e 002e 2a3e 01de 163d
00000180: 080e 92be b7d9 db3e 0b92 f33c 30a9 4d3e
00000190: e651 843e eba6 d1be 39c3 09bf 6583 b03e
000001a0: 13a7 8fbe 6d1b 4a3e d31d 92be b5ab 90be
000001b0: 165b dc3d 0c99 a63e 765c 913e 7d9d 24be
000001c0: 1727 ba3e 46b4 963e 8823 83be c730 8e3e
000001d0: 5855 c43d 663b 183e bd1c 2ebe 764b 4a3e
000001e0: eb7a 2ebe fe5a 953e 6b81 cdbe 8af5 ccbe
000001f0: 726d 7a3e c50a b1be d204 a6be a10b 93be
0.19258356 0.2634139 0.04536115 0.18605098 0.04153216 -0.103482135 -0.23736447 0.04565014
-0.11442126 0.074501686 0.24861266 0.07414314 0.3090349 -0.38001478 -0.0027147543 0.15163736
-0.36735532 0.023754466 -0.32706136 0.20190921 -0.103971936 -0.37438115 -0.2571235 0.25966057
-0.31116048 -0.063026726 -0.016243378 -0.03601087 0.18980528 0.35839534 -0.24668892 -0.18391003
0.021139309 0.25456366 0.34060407 0.03211288 0.42375556 0.121357165 -0.35096276 0.36126047
0.09982169 -0.2903379 0.35634434 -0.23305388 0.30972263 -0.28800648 0.08005365 0.22002533
0.19867694 -0.3183285 -0.22299802 0.32227725 -0.13125134 -0.16866645 -0.31611803 0.42759523
-0.2730786 0.11101069 -0.022172125 0.33539045 -0.36216563 -0.23607911 0.24279091 -0.40316585
0.2806293 0.2956605 -0.12589033 -0.30818227 0.32514393 -0.25578713 -0.23482998 0.2793502
0.36615005 0.37135848 0.03021486 0.080521815 -0.41801235 -0.060045697 -0.24740617 -0.3354888
0.3468831 0.1637125 -0.3100568 0.4439656 0.18436807 0.096018225 -0.23865817 0.106675215
-0.378193 -0.27705348 -0.28280756 -0.35608137 0.2518169 0.35303837 0.1661911 0.036832813
-0.2852633 0.4293954 0.029732725 0.20084071 0.25843734 -0.4094766 -0.5381351 0.34475246
-0.28057155 0.19737025 -0.2853838 -0.28256002 0.10759561 0.3253864 0.28390855 -0.16075702
0.36357948 0.29434413 -0.25613046 0.2777159 0.095865905 0.14866409 -0.1700315 0.19755349
-0.17039077 0.29170984 -0.401378 -0.4003108 0.24455813 -0.3457853 -0.32425553 -0.2871981

vf.v_net.2.weight f4 [128, 128]
00000000: 2ccf 8b3c a340 2b3c bb89 8ebd 8990 b03b
00000010: e9be 1cbe 21cc f03b b6d3 233e 724b c3bc
00000020: d794 9bbd fc3c f53d 2077 873d 6c0a a63d
00000030: d994 65bd dfc0 07be 05ac 89bc 23d9 19bd
00000040: 216b dcba 78bc aa3d 4db8 2e3b 00d3 98bc
00000050: a2e9 2abe b291 8cbd ea68 633e 0662 ee3b
00000060: 140d bf3d b4e2 04bd a665 c2bd ad7a 74bd
00000070: 275f c0bb ca5b c23d d434 c0bc 6f63 173e
00000080: 23ad d53d 75e8 343d 5afe cbbd 1e7f 273e
00000090: d531 233d 7a9e 6abe 9e2c 8f3c 00e2 1b3e
000000a0: 92db 4cbd 2fd8 18be d60e 123e 6ee4 1bbe
000000b0: c01c 03be e5c2 b6bd 2a43 063e d9d8 0ebd
000000c0: 2ec1 bd3d b41f 8e3d a2aa a3bb 63f6 cabd
000000d0: a2e8 d03c 9da9 e03c f0cf 28be fd92 243e
000000e0: 3671 0cbe 01c8 403e fa02 afbd 2f1b 47bd
000000f0: daeb 64bd 3056 e63d 1495 f9ba 6ed1 18bd
00000100: 72de 103d dd82 31be 7651 e53c 2ba1 85bd
00000110: 89bb 0e3e 9f5e 60be a1b7 bd3c 40b0 673d
00000120: 5bed cabc 537d ae3b 5a01 1cbd b755 2fbd
00000130: 84d5 c0bd 7303 b3bd ca2f 3dbd 8ef6 98bc
00000140: a127 1a3e c65d 023d 3d12 f43d c7bd 373d
00000150: 6706 ffba 05e7 2bbd 33ad 093d d247 febd
00000160: 7490 03bc 46e6 ae3c e7fa c7bd 6bc0 ecba
00000170: f6d5 273e 8f0e f2bc 6d8b b03d 66a9 8c3d
00000180: 81d8 a6bc 0ccf e93d 0713 1c3e df7b 82bd
00000190: 71ca 963d a209 053e 407e d2bd 2216 b43c
000001a0: 1db3 d0bd f646 803d d6be babd 2586 0a3d
000001b0: 6d95 13be 2593 acbd cdcc 9ebd 660a bebd
000001c0: cbe2 db3c b4ab abbb 8171 d3bd 598b b3bd
000001d0: b1a5 4c3c 3c92 303e f654 45be 01c6 cbbd
000001e0: b605 e53d 654b 8d3d 62f0 e7bd c290 95bd
000001f0: 496c 133e 6aec d1bd 865d 0bbd 30c4 503d
00000200: 3a9c 8bbd c100 7e3d bf4f a3bd 4d18 a03c
00000210: d881 acbc d1b5 853d b5cd f33d ac13 0dbe
00000220: 7653 96bd bef6 3a3d c980 d73d 9ef5 a53b
00000230: d856 3fbe 87d4 cf3d a5dc 833d e5c0 53bd
00000240: a20d d3bc e039 0e3e b674 973d f72d 0b3d
00000250: 54b6 46bd 9998 8b3d e2b3 733a 20d4 5c3c
00000260: aec6 b2bd db9b e1bd 774c 9ebd 0745 b73d
00000270: f2d7 8abc f716 d3bd b891 85bd a7d3 f0bc
00000280: 309f 98bd badf 4d3e ea8b b0bc e8de f6bd
00000290: 31c6 ebbc 13c3 b43d 576f 0bbd d3fa bf3d
000002a0: daa9 fd3c 8352 aabd d96c 063e da2d 78bd
000002b0: c5f8 eebd b834 57bd 9f1f 133e 8a46 b7bc
000002c0: bbb8 1b3e d654 1cbe 5ce5 70bd 872a 82bd
000002d0: f313 7abd aea3 37bd 0542 4cbd cbc3 133e
000002e0: 719c 28be 7136 d13d 5107 afbd 5889 a7bd
000002f0: 7a68 cabd bdaf 87bc 0dda d73d 75d6 f7bc
00000300: b2ed 833d 769a 45bd 6abf 00bd 2ae0 cabd
00000310: d492 973b 5907 5cbe 7547 0f3e 148c eabd
00000320: 3530 133d 5b28 f0bd d1ac 8bba 766f 6a3d
00000330: c03c e8bd 7577 2cbe a829 a4bd 0f74 4ebd
00000340: 7778 293e c56e 173d 0049 0a3e b4dc b0bc
00000350: 6a9e 073e c246 eabc 0baa 013e 9188 c23d
00000360: d3ec 863d 74d3 e6bc ea74 a7bd 4387 71bd
00000370: 7bd6 3fbd 254d 8ebb 9c86 95bd 7241 9dbd
00000380: d263 f6b9 1b77 1fbc 969e b53c 61e7 af3d
00000390: 14d9 f33d 3062 ae3d 2fd6 e6bd d324 d03d
000003a0: 29b3 debd a477 d53d 78fb 55be addb acbc
000003b0: 7ed8 6ebe dce4 ad3d b519 2abe 3c32 afbd
000003c0: 3b40 d23c eadb 8ebb 057e bdbd d6e6 90bd
000003d0: 21e2 153d 66fe 153e 6b47 aebc 6c67 8ebc
000003e0: 0771 b83d 5e29 8fbc 1093 933c 65f3 9cbd
000003f0: 3a46 9d3d df48 4fbb 1bdc b8bc 341d debc
0.01706656 0.010452422 -0.06959864 0.0053883237 -0.15307201 0.007348553 0.1599873 -0.023839686
-0.07596748 0.119745225 0.06614518 0.081074566 -0.056050155 -0.13257168 -0.016805658 -0.037560593
-0.0016816595 0.08336729 0.0026660145 -0.0186553 -0.16690686 -0.06863727 0.2220799 0.007274869
0.09328666 -0.032442763 -0.09492044 -0.059687305 -0.005870718 0.094901636 -0.02346269 0.14784025
0.10433414 0.044167 -0.09960623 0.16357085 0.039842445 -0.22912017 0.01747733 0.15222931
-0.050014086 -0.14926217 0.14263472 -0.15223858 -0.12803936 -0.08923892 0.13111559 -0.03487477
0.09265362 0.06939641 -0.0049947063 -0.09910276 0.025501553 0.027424628 -0.16485572 0.16071697
-0.13715062 0.18826295 -0.085454896 -0.04860991 -0.055888988 0.11246908 -0.0019041621 -0.037309103
0.03536839 -0.17335077 0.027992945 -0.06524881 0.13938726 -0.21911095 0.02315885 0.05656457
-0.024771383 0.0053249984 -0.038087226 -0.042806353 -0.09415725 -0.08740892 -0.046188153 -0.018672254
0.1505418 0.03182771 0.11917541 0.04485872 -0.0019456864 -0.041968364 0.03361244 -0.124160424
-0.008030046 0.021350037 -0.09764653 -0.0018062716 0.16390213 -0.029547958 0.08620343 0.06868248
-0.020366909 0.11416444 0.15241633 -0.06371283 0.073628314 0.12991956 -0.102779865 0.02198321
-0.10190413 0.06263535 -0.0911843 0.033819336 -0.1441247 -0.08426503 -0.077539064 -0.09279327
0.026841542 -0.0052389745 -0.103243835 -0.08766813 0.012490676 0.17243284 -0.19270691 -0.099498756
0.1118273 0.06899146 -0.11325146 -0.07303001 0.14396776 -0.102501705 -0.034024738 0.05096835
-0.06816907 0.062012438 -0.07974195 0.019542838 -0.021058008 0.06528819 0.1190447 -0.13777035
-0.07340138 0.045645468 0.10522611 0.0050646802 -0.18685472 0.10147958 0.06438569 -0.05169763
-0.025763337 0.13889265 0.07395308 0.033979382 -0.048513725 0.06816215 0.0009296519 0.013478309
-0.087293014 -0.11016055 -0.07729428 0.08948713 -0.016948674 -0.103071146 -0.06521934 -0.029397799
-0.074522376 0.20104876 -0.021551091 -0.12054235 -0.028781028 0.0882627 -0.03404173 0.09374013
0.03096478 -0.08316519 0.1312746 -0.060590602 -0.11668543 -0.05254051 0.14367531 -0.022372503
0.15207188 -0.15266737 -0.058812484 -0.06355768 -0.06105418 -0.04483383 -0.04986765 0.14430158
-0.16465928 0.10215462 -0.08546317 -0.08180493 -0.098832086 -0.01656329 0.10539637 -0.030253628
0.06441821 -0.04824301 -0.031432547 -0.09906037 0.0046256576 -0.21487178 0.13992102 -0.11452499
0.035934646 -0.11726447 -0.0010656362 0.057235204 -0.11339712 -0.16842444 -0.08015758 -0.05040365
0.1654986 0.036970872 0.1350441 -0.021589614 0.13244024 -0.028598193 0.12662522 0.09498704
0.065881394 -0.028177 -0.081765965 -0.058966886 -0.046835404 -0.0043426924 -0.07301065 -0.07678498
-0.00046995148 -0.009732987 0.022170346 0.08589054 0.11906639 0.085148215 -0.11271321 0.10163274
-0.10874016 0.1042321 -0.20896709 -0.021100843 -0.23324773 0.08490917 -0.16611369 -0.08554503
0.025665393 -0.004359712 -0.09252552 -0.070752785 0.036592606 0.14647827 -0.02127429 -0.0173833
0.09005933 -0.01747578 0.01801446 -0.07663611 0.0767941 -0.0031629128 -0.022565892 -0.027113535

vf.v_net.2.bias f4 [128]
00000000: 3e1a 993d 6eb0 1e3e e9ca 293d f812 1c3d
00000010: a5b3 f0bd 7126 2c3e 8fbc b0bd b667 193e
00000020: bd55 11be 297a b33d 01d7 223e 5fc3 0e3e
00000030: fb3c c53d 9aa4 4e3d 7db0 873d 95e3 823d
00000040: 2523 bcbd 95a0 423e f18f 5a3e d968 d4bd
00000050: 3090 053e a282 32bb ea86 533e 4006 0ebe
00000060: f412 c73d d24a ca3d 3e8f 79bc 41fa 4a3e
00000070: 406c 4b3e e088 4d3e f27f c83d f4c7 bc3d
00000080: d979 b13d 8058 dfbd 14b3 11bd 424e 1f3e
00000090: 4c05 273e 2207 2e3e 15e1 92bb ce60 183d
000000a0: 423d b53d f37a b33d efd2 43bc d4a5 c93b
000000b0: 3b3a dc3d 8fdc 273c add1 ad3d 7d86 f2bd
000000c0: 0b99 d73d afdb 06bd d935 073e cf29 3cbe
000000d0: af31 d1bd 62ac 0a3e 0b09 133e d7e3 fb3d
000000e0: 6de9 333e dd44 6cbc 05bf cbbd 2c8e e43d
000000f0: 06df f4bd b951 3a3d e479 89bd c6e3 f13b
00000100: 72ed 953d f5fb d23d 538e 04be 221b 303e
00000110: 53d7 133e ed97 25be 27ec ba3d 2f12 2bbd
00000120: 5948 25bd 28c3 913d 1fd9 5f3d 28d0 893d
00000130: e144 193e e66d 41be d95f ea3d 684f 273e
00000140: d1d0 503e c192 0abe 56e7 df3d 4370 9dbd
00000150: 4151 b93d 1e94 433e ecde e6bc 855e 2b3e
00000160: c76d 4a3e e314 50bd c08b 10bd fb67 2c3e
00000170: ae69 3d3e d7b7 803d b364 0b3e bf9f a5bd
00000180: 248c 503d c291 1a3e 0f3b f1bc 5ae1 093d
00000190: 5183 313d 20cd 8e3d 0ca1 9a3d bcba a9bd
000001a0: 36ba a23d 28bc 453d 5125 2b3e 6107 ac3d
000001b0: 2b8a d5bc 3d27 ae3d 5720 5abb f4c3 ecbd
000001c0: 1b9a 453e e49e b23d 121f 0e3e d7e3 01be
000001d0: fc1b 283d e723 afbd 529d 9dbd e2a1 583e
000001e0: 671c 313e cedd 60bd 3682 87bd 6682 bb3d
000001f0: 8008 bdbd 84ec 583d b804 023e bc2e 32bd
0.074757084 0.1549699 0.041453276 0.038104028 -0.117530145 0.16811539 -0.08629715 0.14980969
-0.14192863 0.087635346 0.1590233 0.13941716 0.09630772 0.050449945 0.06625459 0.06391064
-0.09186391 0.1900657 0.21343972 -0.103715606 0.13043284 -0.0027238508 0.20656934 -0.13869572
0.09720412 0.09877552 -0.0152319055 0.19822027 0.19865513 0.20071745 0.09790029 0.092178255
0.08665819 -0.10905552 -0.035571173 0.15557197 0.16310614 0.16994908 -0.0044823983 0.037201695
0.088495746 0.08763685 -0.011952146 0.0061538015 0.10753294 0.010245456 0.08487258 -0.11842058
0.105272375 -0.03292435 0.13204135 -0.18375324 -0.102145545 0.13542321 0.14358918 0.122993164
0.17569514 -0.014420715 -0.099485435 0.1115993 -0.11956601 0.045488093 -0.06712702 0.007381889
0.0732068 0.10301963 -0.12944917 0.1719785 0.14437608 -0.16171236 0.09127074 -0.041765388
-0.0403522 0.07117301 0.054650422 0.06729156 0.14967681 -0.18889579 0.11444063 0.16338885
0.20392157 -0.13532545 0.10932796 -0.07687428 0.09048701 0.19099471 -0.02818247 0.16735275
0.19768439 -0.05080117 -0.035289526 0.1683654 0.18497345 0.06285065 0.13612632 -0.0808711
0.0509149 0.15094665 -0.029447107 0.033662178 0.043338124 0.06972718 0.075502485 -0.0828757
0.07945673 0.048275143 0.16713454 0.08399845 -0.02606686 0.08503578 -0.0033283436 -0.115608126
0.19297068 0.08721712 0.1387904 -0.1268457 0.041042313 -0.0855177 -0.07696022 0.21155503
0.17295991 -0.05489903 -0.06616633 0.09155731 -0.09230137 0.052959934 0.12697113 -0.0435016

vf.v_net.4.weight f4 [1, 128]
00000000: e439 1c3e cfd7 b93d 5cd2 e7ba 4c10 2e3d
00000010: 87ca 61bc 125d 9b3d 0e93 793b c2b1 153e
00000020: fa77 31bc eedd 053e abb6 2e3e 5f7b e63d
00000030: 8284 aa3d 321c bf3d c124 b63d bb74 a83d
00000040: 0a89 60bb 1590 063e 053d 1c3e 87c4 693b
00000050: 2a9f 093e d268 653a e588 1a3e f7a8 04bc
00000060: 4de5 9e3d 04f9 c43d 512b bcbb 1598 e13d
00000070: b9ee 9d3d 51e9 ac3d 67d8 d83d 4968 153e
00000080: e9b8 943d 7ddf 493b b8dc b53c ece6 b13d
00000090: bab8 023e 29c7 2e3e 5c66 e83c 311e f63c
000000a0: dd77 1f3e dc15 123e d901 623d db7f 273d
000000b0: f1ab 973d da0e adb9 3921 b13d 9033 bcbc
000000c0: 43bd db3d 96c1 75bc c71d 9c3d 5eae 1abc
000000d0: fc79 293d 8243 c63d 03f0 0f3e 25d0 ad3d
000000e0: 1724 133e 580f 04bc 710a c13c 1507 f93d
000000f0: 115c 013c 164b c63c 690d b83b 087e efbb
00000100: d4c0 8b3d 7bc4 033e e8d7 db3b ac3f cd3d
00000110: dab2 b33d e8af 6fba 11f3 0b3e 26ad 233b
00000120: 5641 ba3c 3d74 fc3d 1ffc f23d 2f87 b43d
00000130: 994e a53d ef1f 92bb 618a ff3d 7b40 043e
00000140: 9767 9b3d 1259 8c3c c5df 0e3e 8ced d83c
00000150: 026d 103e a116 d63d 5149 debb cc43 203e
00000160: 9156 143e 7ef2 1fbc 2a1d cd3b 2b39 133e
00000170: 934a f73d 729c ed3c 3c77 423d 20c5 a83d
00000180: c6b5 053e 198e 1e3e d2a4 4a3c 50d3 c23d
00000190: bed8 85bc 04c2 113d d2a8 043e 0b14 833c
000001a0: 66b3 d73d 1891 503d b201 133e beac df3d
000001b0: a116 d63c 3b9e a23d 0096 c7bb 2699 233c
000001c0: badb a13d b1ec ba3d e997 9d3d d727 963a
000001d0: 1109 cf3d 7ff5 b83b 986e 32bc 423b a63d
000001e0: 6bb0 e73d 53db 893c e781 423c 3963 c23d
000001f0: 1abb 283c 5435 873d de13 053e 0e20 be3b
0.15256459 0.09074365 -0.0017686593 0.04249601 -0.013781196 0.07586111 0.0038082036 0.1461859
-0.010831827 0.1307294 0.1706187 0.11254 0.08326055 0.0933155 0.08893729 0.082253896
-0.003426137 0.131409 0.15257652 0.0035670118 0.13439623 0.0008751276 0.15091284 -0.008096925
0.077585794 0.096178085 -0.0057424684 0.110153355 0.07711548 0.08442939 0.105881505 0.14590563
0.07261831 0.0030803375 0.022199973 0.08686623 0.1276578 0.17068161 0.028369121 0.030043693
0.15573068 0.14266151 0.055177543 0.040893417 0.07405842 -0.00033008197 0.08648915 -0.022973806
0.10729458 -0.014999768 0.07622867 -0.009440986 0.0413761 0.09680845 0.14056401 0.08486966
0.14369236 -0.008060299 0.02356455 0.12159554 0.0078954855 0.024205726 0.005616833 -0.0073087253
0.068238884 0.1286792 0.0067090876 0.1002191 0.087743476 -0.00091433385 0.13666941 0.002497503
0.022736233 0.12326858 0.118644945 0.08814847 0.08071632 -0.004459373 0.124775656 0.12915222
0.075881176 0.017132316 0.13952549 0.026480459 0.14104083 0.10453535 -0.0067836423 0.15650862
0.14486147 -0.0097624045 0.00625958 0.14377277 0.12074771 0.029005263 0.047476992 0.082407236
0.13057622 0.15483893 0.012368398 0.09512961 -0.016338702 0.03558542 0.12955025 0.016000768
0.105322644 0.050919622 0.14356115 0.1092162 0.026133837 0.07940336 -0.0060908794 0.009985244
0.07903238 0.091271766 0.0769499 0.0011455965 0.10109151 0.0056445 -0.010890625 0.08116771
0.11312946 0.016828215 0.011871791 0.094915815 0.010298515 0.066019684 0.1299586 0.005802161
