HW4/ppo_dm_control-master/training/walker/walk/best_ppo_ac_model - Copy.pth (torch, 166233 bytes, 12 tensors)

pi.log_std f4 [6]
0	0xc004cb86	-2.074922
1	0xc007a5bb	-2.1194904
2	0xc0011414	-2.0168505
3	0xc020c642	-2.5121007
4	0xc024d282	-2.5753484
5	0xc00f007c	-2.2344046

pi.mu_net.0.weight f4 [128, 24]
0	0xbe1e1bf0	-0.15440345
1	0xbba4cdb3	-0.005029404
2	0x3e684c6e	0.22685406
3	0xbe16084e	-0.14651605
4	0x3e967275	0.293842
5	0xbe1c5530	-0.15266871
6	0x3b146f67	0.0022649409
7	0xbe38128e	-0.17975828
8	0x3d3e9468	0.04652825
9	0x3da793ee	0.08182512
10	0xbcad209c	-0.021133713
11	0x3e287123	0.16449408
12	0x3e4881ee	0.19580814
13	0xbe353727	-0.1769682
14	0xbe589043	-0.21148781
15	0xbc993076	-0.018699866
16	0xbd7311bb	-0.05934308
17	0x3d86e3d9	0.06586427
18	0xbdf26079	-0.11834807
19	0x3dab537b	0.08365532
20	0xbd06de76	-0.032927
21	0xbd0c4de4	-0.03425397
22	0xbd8ed95f	-0.06975054
23	0x3e969a4f	0.29414603
24	0x3e53e9c1	0.20694639
25	0xbe3b8d25	-0.18315561
26	0x3d9ac453	0.07556977
27	0xbe85bdb1	-0.26121286
28	0x3db6617f	0.08905315
29	0x3e4cc500	0.19997025
30	0x3e4670c8	0.1937896
31	0x3e61f1b2	0.22064856
32	0xbe47325f	-0.19452809
33	0xbeb2a4e8	-0.34891438
34	0x3e811a93	0.25215587
35	0xbcc4ca3b	-0.024022212
36	0xbe128b85	-0.14311035
37	0x3e3b68a3	0.18301634
38	0xbd96a5fb	-0.07355877
39	0x3e7909ae	0.24320099
40	0xbe514755	-0.20437367
41	0x3d9b036b	0.07569011
42	0x3d3447e3	0.04401387
43	0xbea8e5c2	-0.3298779
44	0x3e06c2e4	0.13160282
45	0xbdb56c58	-0.088585556
46	0xbe144560	-0.1447959
47	0x3e307265	0.17231138
48	0x3e42ab57	0.19010673
49	0xbd6c7abc	-0.057734236
50	0xbda6ec21	-0.08150507
51	0x3b51a909	0.0031991622
52	0xbec97a78	-0.3935125
53	0xbe2a7593	-0.16646414
54	0xbe470bdd	-0.19438119
55	0x3def0bdb	0.11672183
56	0xbe253b68	-0.16135943
57	0x3e48a82d	0.19595404
58	0xbebc0f88	-0.367306
59	0xbd1ab5d7	-0.037771072
60	0xbe795e43	-0.24352364
61	0xbd52c0ca	-0.05145339
62	0xbdedd238	-0.11612362
63	0xbe310c39	-0.17289819
64	0xbe482d75	-0.1954859
65	0x3d76d797	0.060264196
66	0xbe2ee169	-0.17078175
67	0xbc4d6635	-0.012536575
68	0xbcda53c1	-0.026651265
69	0x3d7c5a48	0.061609536
70	0xbe153f65	-0.14574964
71	0x3d72ae69	0.05924836
72	0xbe08ce10	-0.13359857
73	0xbeb1de50	-0.34739923
74	0x3e57ef02	0.21087268
75	0xbc533ee1	-0.0128934095
76	0x3e5ffbc6	0.21873388
77	0x3e884cb2	0.26621014
78	0xbe264a41	-0.16239263
79	0x3cc1f2d6	0.023675364
80	0x3d81d127	0.06338721
81	0xbb5ebaa9	-0.003398577
82	0x3dca33e8	0.098731816
83	0x3df81160	0.12112689
84	0x3d5da9b9	0.05411694
85	0x3e391139	0.18072976
86	0x3e90fbdb	0.2831715
87	0x3e02524c	0.12726706
88	0xbe23f6a0	-0.16012049
89	0xbe07e4b4	-0.13270837
90	0x3dfdb7e8	0.12388593
91	0xbe07a2a7	-0.1324564
92	0xbd849c13	-0.06475081
93	0x3e31328a	0.17304435
94	0x3d68b147	0.05680969
95	0xbe806ea2	-0.25084406
96	0x3e4393ae	0.19099304
97	0x3cc64992	0.024205003
98	0x3e3f86cc	0.18703765
99	0xbc268e50	-0.010165766
100	0xbdbb914b	-0.09158572
101	0xbd7b4a51	-0.06135017
102	0xbe6a4893	-0.22879247
103	0x3e393bc2	0.18089202
104	0xbe3ae725	-0.18252237
105	0xbc7e768c	-0.015531193
106	0x3e278570	0.16359496
107	0xbcc661dd	-0.024216587
108	0x3e4d2e3f	0.20037173
109	0x3e45b5b0	0.1930759
110	0xbd8795d5	-0.06620375
111	0x3e20c24a	0.15699115
112	0xbe6734f0	-0.22578788
113	0x3d3ed8be	0.04659342
114	0xbcca3b37	-0.024686439
115	0x3e8557e6	0.26043624
116	0x3e3bf8e5	0.18356664
117	0x3e004f3b	0.12530224
118	0xbe47ab30	-0.19498897
119	0x3d95f836	0.07322733
120	0xbe447a5b	-0.191873
121	0xbd905e59	-0.070492454
122	0x3ca20a15	0.019780198
123	0x3d399378	0.045306653
124	0xbd69a3f0	-0.05704111
125	0xbd66b6ad	-0.056326557
126	0x3deaab98	0.1145851
127	0xbe0cda5a	-0.1375517
128	0xbbf5c7cd	-0.0075006247
129	0x3e24e48c	0.16102809
130	0xbd988763	-0.07447698
131	0xbce12ab0	-0.027486175
132	0xbd7df4c5	-0.06200101
133	0x3d80cf8a	0.06289585
134	0x3e568c72	0.20952013
135	0x3e3fca1b	0.18729441
136	0xbd19059e	-0.037358873
137	0xbcfa5767	-0.030559255
138	0x3cc7694a	0.024342198
139	0xbd395807	-0.045249965
140	0x3e6b8c1c	0.23002666
141	0xbd36cbc2	-0.044627912
142	0x3c45516c	0.012043338
143	0x3e7a36ba	0.24434939
144	0x3e1015a5	0.14070757
145	0x3eaacfa7	0.3336155
146	0x3e60fdd9	0.21971835
147	0xbe0f048f	-0.13966583
148	0xbcb046c9	-0.021518128
149	0x3d980262	0.074223295
150	0xbe6fe521	-0.2342725
151	0x3debba92	0.11510195
152	0x3e1b2cf3	0.15153866
153	0x3de89675	0.113568224
154	0xbde4df84	-0.11175445
155	0x3dda3e55	0.1065642
156	0xbcccd261	-0.02500266
157	0xbe1516da	-0.14559498
158	0x3dd295ac	0.10282454
159	0x3c3d79c6	0.011564678
160	0x3efaf874	0.4901768
161	0xbc9e1a4b	-0.019299647
162	0x3bbc8748	0.0057534315
163	0xbe0e753f	-0.13911913
164	0xbd1c45d2	-0.038152523
165	0x3d964924	0.07338169
166	0x3de0de80	0.109799385
167	0x3deeb9b1	0.116565116
168	0xbde5e135	-0.112245955
169	0x3d313daa	0.043271698
170	0x3df728b5	0.12068311
171	0x3cca2474	0.024675585
172	0x3e92bd1b	0.286599
173	0xbd7a510b	-0.061112445
174	0x3cfb5a39	0.03068267
175	0xbd4cb30b	-0.049975436
176	0x3e59fb99	0.21287383
177	0x3d298fbb	0.041396838
178	0xbda7d9cb	-0.081958376
179	0xbdb1c502	-0.086801544
180	0x3e02d860	0.12777853
181	0xbe12bda2	-0.14330152
182	0x3de6ed9c	0.11275789
183	0x3ebbffc5	0.36718574
184	0xbe83490b	-0.25641665
185	0xbe6c671e	-0.23086211
186	0xbda6bef1	-0.08141888
187	0xbd060b09	-0.032725368
188	0xbb59b063	-0.0033216707
189	0x3dbb029f	0.09131359
190	0xbe433e39	-0.19066705
191	0xbdd4116c	-0.103548855
192	0xbe8f5aab	-0.27998862
193	0xbdbc41b7	-0.091922216
194	0x3e95c497	0.2925155
195	0x3e5de6ce	0.21670076
196	0xbdc0543c	-0.093910664
197	0x3e342f14	0.17596084
198	0xbb0e0148	-0.0021668244
199	0x3d58a571	0.052892152
200	0x3e2ad77c	0.16683763
201	0x3bb874eb	0.005629172
202	0xbea16ca6	-0.31528205
203	0x3dbdb230	0.09262502
204	0xbc624588	-0.013810523
205	0x3e25430d	0.16138859
206	0x3d3c0dbc	0.045911536
207	0x3e3d9bc0	0.18516445
208	0xbddf47ae	-0.10902344
209	0x3e3e2765	0.18569715
210	0xbd0dbd8e	-0.0346046
211	0xbd560978	-0.052255124
212	0x3e0ac98f	0.13553451
213	0xbd75f947	-0.060052183
214	0x3d594463	0.053043734
215	0xbd84abd8	-0.06478089
216	0xbe027e14	-0.12743407
217	0xbe9169f2	-0.28401142
218	0xbdad2634	-0.08454552
219	0x3e4ab613	0.19796018
220	0x3d69682f	0.056984123
221	0xbe67e042	-0.22644141
222	0x3e00bacb	0.12571256
223	0xbe782a88	-0.24234974
224	0xbc8c0076	-0.017090064
225	0x3e9055e5	0.28190532
226	0xbe18b4a1	-0.14912654
227	0x3e120031	0.14257886
228	0x3d27a943	0.040932905
229	0x3e27b085	0.1637593
230	0xbe54d78d	-0.20785351
231	0x3e371df1	0.17882515
232	0x3cab3f40	0.020904183
233	0x3e51b9f7	0.20481096
234	0x3e833cbd	0.25632277
235	0x3cb3d731	0.021953197
236	0xbe43aab4	-0.19108087
237	0x3d23ef75	0.040023286
238	0x3d4ddef1	0.05026144
239	0xbcf22e10	-0.02956298
240	0xbdd105ec	-0.10206208
241	0xbdc8d58e	-0.09806357
242	0x3cdf20bf	0.027237294
243	0xbe8ec4b0	-0.27884436
244	0x3e604497	0.21901165
245	0xbea9fdf6	-0.3320157
246	0x3d8b3e93	0.067990445
247	0xbec3ac1d	-0.3821725
248	0x3d933426	0.07187681
249	0xbd7874ef	-0.06065839
250	0x3d2f18b3	0.042748164
251	0x3da7e8dd	0.08198712
252	0xbd810b5d	-0.063009955
253	0xbe6c9413	-0.23103361
254	0xbe3ef30b	-0.18647401
255	0x3bba134a	0.005678569

pi.mu_net.0.bias f4 [128]
0	0xbe41ba17	-0.18918644
1	0xbdefa660	-0.117016554
2	0xbdd7a14a	-0.1052881
3	0x3e7ee800	0.24893188
4	0x3e6c6462	0.23085168
5	0x3e6834f7	0.22676454
6	0xbd981f33	-0.07427826
7	0x3ca4ea9d	0.020131404
8	0x3e8f3f5c	0.27978027
9	0xbe3fa469	-0.18715061
10	0xbe13ca9d	-0.1443276
11	0xbe3ca460	-0.18422079
12	0xbdc1baef	-0.09459483
13	0x3daa8b34	0.08327332
14	0x3d341476	0.043964826
15	0xbd180da3	-0.03712238
16	0xbe10d361	-0.14143135
17	0x3e81062a	0.25200015
18	0xbdc3d5c4	-0.09562257
19	0xbe66a5a1	-0.2252412
20	0xbde611dd	-0.11233876
21	0xbe50b2e3	-0.2038074
22	0x3e5e08ae	0.21682999
23	0x3e0946d1	0.1340592
24	0xbe07bb56	-0.13255057
25	0xbe1d31fe	-0.15351102
26	0x3deaaa3b	0.1145825
27	0x3def65f2	0.116893664
28	0xbe3fe354	-0.18739063
29	0xbeac480d	-0.3364872
30	0xbe3c9e89	-0.18419851
31	0xbde02841	-0.10945178
32	0x3e21875f	0.15774296
33	0x3b22f311	0.0024864117
34	0xbe1fbb43	-0.15598778
35	0x3e364685	0.17800339
36	0xbe192582	-0.14955714
37	0x3c228e79	0.009921663
38	0x3e3e3b29	0.18577255
39	0xbd7fdde5	-0.062467474
40	0xbe354680	-0.17702675
41	0xbdbc2bdd	-0.09188054
42	0xbb633191	-0.0034666995
43	0xbdabc077	-0.08386319
44	0xbe5d6eb6	-0.21624264
45	0xbd093b6a	-0.033503927
46	0x3e67d93e	0.22641465
47	0xbdf8f8ec	-0.12156853
48	0xbc3aa70e	-0.011392368
49	0x3d698467	0.057011034
50	0x3e1a8f5c	0.1509375
51	0x3dd2e63c	0.1029782
52	0x3e6adba8	0.22935355
53	0x3d026253	0.03183205
54	0xbd8bfa7e	-0.06834887
55	0x3d42d039	0.047561858
56	0xbe17110f	-0.14752601
57	0x3d87728a	0.066136435
58	0xbd41c7da	-0.047309734
59	0x3de5a276	0.112126276
60	0xbe396456	-0.18104681
61	0x3b5c6118	0.0033627208
62	0x3bf352e9	0.007425655
63	0xbe53b792	-0.20675495
64	0xbd2ca194	-0.04214628
65	0x3d7b1637	0.061300483
66	0x3d8e05a2	0.06934668
67	0xbe482738	-0.19546211
68	0xbd855fb2	-0.06512393
69	0xbc1ef4f5	-0.009701957
70	0xbd39e9fc	-0.04538916
71	0xbe8d726e	-0.27626365
72	0x3b83c6c8	0.0040214993
73	0xbe670bd2	-0.22563103
74	0xbe4a21f9	-0.19739522
75	0xbeaa7c51	-0.3329797
76	0xbe1d380f	-0.15353416
77	0x3e4a26b9	0.19741334
78	0x3dead689	0.114667006
79	0xbe3e859c	-0.18605655
80	0x3cf63b8b	0.03005769
81	0xbdd14d24	-0.102197915
82	0xbe13dc20	-0.1443944
83	0x3d6af323	0.05736078
84	0x3dc8c398	0.098029315
85	0xbe220103	-0.15820698
86	0x3dcd6c17	0.10030382
87	0x3e3d2316	0.18470415
88	0xbccb67dc	-0.024829797
89	0xbd2e8226	-0.042604588
90	0xbdbf9bcc	-0.09355888
91	0x3d965f2f	0.073423736
92	0x3db6421a	0.088993266
93	0x3d1713d1	0.036884133
94	0x3e01d8c7	0.1268035
95	0xbdee08a7	-0.11622744
96	0xbd0ad2b9	-0.033892367
97	0x3d3edbc7	0.046596315
98	0x3dbc113c	0.09182975
99	0xbe00aaeb	-0.125652
100	0xbd60ab07	-0.054850604
101	0x3e8054c2	0.25064665
102	0xbe382905	-0.17984398
103	0x3e233290	0.15937257
104	0xbe438093	-0.19092016
105	0xbd1e16f5	-0.038596112
106	0x3e0fbba1	0.14036418
107	0x3e12b285	0.14325912
108	0xbe891cdc	-0.2677983
109	0xbd3aedc7	-0.04563692
110	0x3df398d5	0.11894385
111	0xbd1ec017	-0.03875741
112	0x3e93dc4f	0.2887902
113	0xbd913562	-0.0709026
114	0xbe69c760	-0.22829962
115	0xbe1fae6f	-0.15593885
116	0x3e847a02	0.25874335
117	0x3dfad3f0	0.12247455
118	0x3d9db8ec	0.07701287
119	0x3e275a8d	0.16343136
120	0xbdaac6f8	-0.083387315
121	0x3e286476	0.16444573
122	0xbcedb9ad	-0.029019201
123	0xbe30852a	-0.17238298
124	0x3cc874c0	0.024469733
125	0x3ca31bb4	0.01991067
126	0xbe6d3a69	-0.23166813
127	0x3e872ad5	0.26399866

pi.mu_net.2.weight f4 [128, 128]
0	0xbd599666	-0.053121947
1	0xbdcd75f7	-0.10032266
2	0x3d244dac	0.040113136
3	0x3d813070	0.06308067
4	0x3d0c3909	0.03423408
5	0xbd195e7a	-0.037443615
6	0xbca2042f	-0.019777386
7	0xbd8f011c	-0.069826335
8	0xbdf99aeb	-0.121877514
9	0x3dd9abe4	0.10628489
10	0x3d4ff7fc	0.050773606
11	0xbdc61506	-0.09671979
12	0xbc9aaf61	-0.018882455
13	0xbcde79de	-0.02715772
14	0xbc50261f	-0.012704401
15	0x3d0660a8	0.032807022
16	0xbb0c26ff	-0.0021385548
17	0x3c8bd7a7	0.017070604
18	0x3c1f1604	0.009709839
19	0x3d2de791	0.042457167
20	0xbc92f637	-0.01793967
21	0x3cf5da67	0.030011369
22	0xbd8879a0	-0.06663823
23	0xbdc34ff8	-0.09536737
24	0x3c71ac1e	0.014750509
25	0xbcf0b27d	-0.029381985
26	0x3d5d6e66	0.054060362
27	0x3d483a8a	0.048883952
28	0x3cca8908	0.024723545
29	0x3d8fde1c	0.07024786
30	0xbdc4586b	-0.09587177
31	0xbd95de7b	-0.073178254
32	0xbde84110	-0.11340535
33	0xbde4a6e2	-0.11164643
34	0x3dbfc2b0	0.093633056
35	0xb987edbf	-0.0002592634
36	0xbd49830e	-0.04919725
37	0xbd58f1af	-0.052964862
38	0x3dcdef63	0.10055425
39	0x3c16d370	0.009205684
40	0xbd953acd	-0.07286606
41	0xbd88d1a8	-0.06680614
42	0x3dd86bc8	0.10567433
43	0xbda82947	-0.08210998
44	0xbcd8d02e	-0.026466455
45	0x3d44c1c2	0.048036344
46	0xbd312019	-0.0432435
47	0x3b706e78	0.0036686938
48	0xbd8dac8b	-0.069176756
49	0xbdc4f414	-0.09616867
50	0xbcaf2e58	-0.021384403
51	0xbd38d134	-0.045121387
52	0x3d96829b	0.0734913
53	0x3b072313	0.002062027
54	0xbd0d513f	-0.03450131
55	0x3c6c57c3	0.014425221
56	0x3dc48630	0.09595907
57	0x3da2cfa8	0.079497635
58	0xbcce2fbb	-0.025169244
59	0xba160839	-0.0005723271
60	0xbd3d6a7f	-0.04624414
61	0x3dbc716d	0.09201322
62	0xbd87933a	-0.06619878
63	0x3dac1871	0.08403099
64	0x3d07b58e	0.03313213
65	0xbd7c4bc1	-0.061595682
66	0xbd0ba001	-0.03408814
67	0xbce63c95	-0.02810506
68	0xbd595537	-0.053059783
69	0x3d959d41	0.073053844
70	0x3c3ce3dc	0.011528935
71	0xbdcf791d	-0.101305224
72	0x3b3b919c	0.0028620725
73	0x3d7a52b7	0.06111404
74	0x3da0bdc3	0.07848694
75	0xbcf653c3	-0.030069238
76	0xbd0a809a	-0.03381405
77	0xbcd2d7a2	-0.025737587
78	0x3dcedfb6	0.10101263
79	0x3b9e88c3	0.0048380806
80	0xbd8b4019	-0.06799335
81	0xbd3bb1b0	-0.045823753
82	0xbdb3bb1b	-0.08775922
83	0xbc231343	-0.009953323
84	0x3d8de6c7	0.06928783
85	0xbd806f98	-0.06271285
86	0x3bc5802e	0.006027243
87	0xbd03717c	-0.03209065
88	0x3ceca7d6	0.028888624
89	0x3cf344ce	0.029695895
90	0xbc8c043b	-0.017091861
91	0xbe163b72	-0.14671114
92	0xbc279c1a	-0.010230089
93	0xbd1e9eff	-0.03872585
94	0x3d74b381	0.0597415
95	0xbe019620	-0.12654924
96	0xbc0c49a5	-0.00856248
97	0x3d1f06b6	0.03882476
98	0xbddd07f3	-0.10792532
99	0xbd8fd69e	-0.07023357
100	0xbd2e44ba	-0.04254601
101	0x3d118b07	0.035532977
102	0xbc218b5b	-0.009859885
103	0x3d83b873	0.06431665
104	0xbd23333d	-0.039843787
105	0xbc51025a	-0.012756908
106	0xbd26fb3f	-0.04076695
107	0xbd334ae9	-0.04377261
108	0xbda08fa8	-0.078399
109	0xbd9591cf	-0.073032014
110	0xbdb11bb4	-0.08647862
111	0x3dbbd087	0.09170633
112	0xbd9f0c3c	-0.077660054
113	0x3e110bf5	0.14164717
114	0x3c77026b	0.01507626
115	0x3c0fb716	0.008771678
116	0x3cb4acca	0.022055048
117	0x3e15ac11	0.1461642
118	0x3d0eba0b	0.034845393
119	0x3c0ee72e	0.00872211
120	0x3c58dee5	0.013236736
121	0x3e1148ea	0.14187971
122	0xbd26e89f	-0.04074919
123	0x3cf2a00f	0.029617338
124	0x3bdc7dda	0.00672887
125	0x3d435612	0.047689505
126	0xbc02476b	-0.007951598
127	0x3ded82b4	0.11597195
128	0x3dbd478d	0.09242163
129	0xbda2f148	-0.07956177
130	0x3cf44598	0.029818341
131	0x3d9699e3	0.0735357
132	0x3ce711b6	0.028206687
133	0xbd8d11dd	-0.06888173
134	0x3d797ad0	0.06090814
135	0x3e024555	0.1272176
136	0xbe4ac688	-0.19802296
137	0x3dfd7b54	0.123770386
138	0x3cafd66a	0.021464545
139	0x3c61b671	0.013776408
140	0xbca22ad7	-0.019795818
141	0xbd6679b2	-0.0562684
142	0xbb6dac7b	-0.0036266136
143	0x3cec4d4e	0.028845455
144	0xbdd497fb	-0.103805505
145	0x3d2023c1	0.039096598
146	0x3e1a2c0f	0.1505587
147	0x3ddec811	0.108780034
148	0x3e369a15	0.17832215
149	0xbb39fe2d	-0.002838026
150	0x3d4bb68b	0.049734633
151	0xbe18ae43	-0.14910226
152	0x3cda2b25	0.026631901
153	0x3db07fce	0.08618127
154	0x3d8db2cc	0.069188684
155	0xbc56ea32	-0.01311736
156	0xbd88a01a	-0.06671162
157	0xbcca422d	-0.024689758
158	0x3dabe439	0.083931394
159	0xbd8fad6d	-0.070155
160	0xbd1f5e16	-0.038908087
161	0xba33955b	-0.0006850564
162	0x3e01e4b2	0.12684897
163	0xbb0450e7	-0.0020189823
164	0xbcd7e4ea	-0.026354272
165	0xbdfc13f7	-0.123084955
166	0x3d56dba5	0.052455563
167	0xbda80c85	-0.08205513
168	0xbca4e6be	-0.020129558
169	0xbcbc1d93	-0.02296332
170	0xbd9de65c	-0.07709953
171	0xbda4b1ef	-0.08041751
172	0xbd388095	-0.0450445
173	0xbd6cff8c	-0.057860896
174	0x3d9cd22f	0.07657277
175	0x3d928924	0.07155064
176	0xbcc1c2ef	-0.023652522
177	0x3d2c5775	0.042075593
178	0xbe125a57	-0.14292274
179	0xbdaf5d67	-0.08562737
180	0xbd79927f	-0.060930725
181	0x3c9e1639	0.019297706
182	0xbd9086a1	-0.070569284
183	0xbd07989c	-0.033104524
184	0xbd51269f	-0.051062223
185	0x3b318f28	0.0027093384
186	0xbae9c084	-0.0017833863
187	0xbd97905c	-0.07400581
188	0x3e18ea50	0.14933133
189	0xb81ae4bb	-3.6929483e-05
190	0x3cff0fe6	0.03113551
191	0x3c4873cc	0.012234639
192	0xbd8e6846	-0.06953482
193	0xbc060729	-0.008180418
194	0xbdaed0bc	-0.08535907
195	0x3dfa8a03	0.12233355
196	0x3c0d0796	0.008607766
197	0xbc203f97	-0.009780786
198	0x3bc84c43	0.0061126067
199	0xbd86874f	-0.06568777
200	0x3db8874d	0.090101816
201	0x3c334867	0.010942555
202	0x3d45bfc3	0.04827858
203	0x3d7f769f	0.062368985
204	0x3d1cb6ca	0.03826026
205	0xbd0350f6	-0.032059632
206	0x3c33fbbc	0.010985311
207	0x3db43ec0	0.08801031
208	0xbb0baf26	-0.0021314113
209	0x3e00a964	0.12564617
210	0x3ddf8747	0.10914474
211	0x3cbff9a4	0.023434468
212	0x3d713ef7	0.05889794
213	0xbd4603c9	-0.048343454
214	0xbd5f6e51	-0.054548565
215	0x3cd9e43d	0.02659809
216	0x3d7ed772	0.062217183
217	0xbcb34c8d	-0.021887088
218	0xbd560142	-0.052247293
219	0x3c0fb716	0.008771678
220	0x3a4edcf0	0.00078911986
221	0xbd1f2633	-0.03885479
222	0xbdc376dc	-0.09544155
223	0x3d6b2ace	0.05741387
224	0xbd8690b7	-0.06570571
225	0x3a813ef4	0.000986068
226	0xbd7db757	-0.061942425
227	0x3b252a82	0.0025202339
228	0xbd12c56a	-0.0358328
229	0xbd67ba1d	-0.056573976
230	0x3d10ce05	0.035352726
231	0x3dcc47d9	0.09974641
232	0x3d346567	0.044042017
233	0xbdb26544	-0.08710721
234	0xbc0ec532	-0.008714007
235	0xbca2f6f5	-0.019893149
236	0xbbd047be	-0.0063562086
237	0x3dc503f1	0.096198924
238	0x3cceef3f	0.025260566
239	0xbca38cfc	-0.019964688
240	0x3df593b9	0.119910665
241	0x3d823440	0.06357622
242	0x3d522039	0.05130026
243	0xbbda0f4f	-0.006654657
244	0xbdb43793	-0.087996624
245	0xbda545d5	-0.0806996
246	0x3cb7b734	0.022426225
247	0xbd7e25da	-0.062047817
248	0xbd84f0ca	-0.06491239
249	0xbdea75f8	-0.11448282
250	0x3df45050	0.11929381
251	0x3d4244c3	0.047428858
252	0x3c2522b9	0.010079079
253	0x3d10272c	0.035193607
254	0x3dd94c01	0.106102
255	0xbd368754	-0.044562653

pi.mu_net.2.bias f4 [128]
0	0x3c8ae06a	0.016952712
1	0x3985f998	0.000255537
2	0xbd1c4e3e	-0.038160555
3	0xbcc51e2c	-0.024062239
4	0x3d058ec6	0.032606862
5	0xbccbea93	-0.024892127
6	0x3dd6f9ed	0.10496888
7	0xbd735925	-0.059411187
8	0x3d6d31f4	0.057908967
9	0x3cdd5b17	0.027020974
10	0x3d81e0fc	0.063417405
11	0x3daa9b26	0.083303735
12	0x3c88638b	0.016649028
13	0x3d4390d5	0.047745544
14	0xbd4f548d	-0.050617743
15	0x3dc91ae0	0.09819579
16	0x3d87d692	0.06632723
17	0xbd8ca7bb	-0.068679295
18	0x3d008a21	0.03138173
19	0xbc0c686c	-0.008569818
20	0xbd9ab248	-0.07553536
21	0xbe18fe4d	-0.14940758
22	0xbc4a35eb	-0.012341957
23	0x3d9ab419	0.07553882
24	0x3d229b25	0.03969874
25	0x3d976001	0.07391358
26	0x3dc7d5c6	0.09757571
27	0xbc77b37a	-0.015118474
28	0x3d60c301	0.05487347
29	0x3c177e27	0.009246386
30	0xbda4ec7c	-0.08052918
31	0x3d16dd73	0.036832284
32	0xbc9a3c38	-0.018827543
33	0x3db8d5f6	0.09025185
34	0x3bc1a4f6	0.0059095575
35	0xbcd85523	-0.026407784
36	0x3cac8130	0.021057695
37	0xbdd4f9f0	-0.10399234
38	0xbd107b83	-0.03527404
39	0xbd184158	-0.03717169
40	0xbd148156	-0.036256157
41	0x3d3ed583	0.04659034
42	0xbe1ab785	-0.1510907
43	0x3b065d81	0.002050251
44	0xbd92dc6c	-0.071709484
45	0x3dad329e	0.0845692
46	0x3aaa734e	0.0013004334
47	0x3dfc9e4e	0.12334882
48	0x3decd48c	0.115639776
49	0xbdd219f4	-0.102588564
50	0xbd4a43cc	-0.049381062
51	0x3d9c4143	0.07629635
52	0xbd782d73	-0.06059022
53	0xbd12dced	-0.035855222
54	0xbdfbad2e	-0.12288891
55	0x3da02ec5	0.078214206
56	0x3d932f19	0.071867175
57	0x3d5cf45c	0.053943977
58	0x3caa2284	0.020768411
59	0x3dbd691d	0.092485644
60	0x3cd18717	0.025577111
61	0x3d27912d	0.040909935
62	0x3bf72788	0.0075425543
63	0x3d832efe	0.064054474
64	0x3e04d3cd	0.1297142
65	0xbc29d628	-0.010366
66	0x3ce19d65	0.027540872
67	0xbd4de55a	-0.050267555
68	0x3ceb68c9	0.028736489
69	0x3cb082a3	0.021546667
70	0xbda5b22d	-0.08090625
71	0xbdb72a68	-0.08943635
72	0xbc9c9e0e	-0.019118335
73	0xbd896f54	-0.06710687
74	0x3d6f93e0	0.058490634
75	0xbd8c9011	-0.06863416
76	0x3dc33601	0.09531785
77	0xbccc41d3	-0.024933731
78	0x3dad5a30	0.084644675
79	0xbd3370ef	-0.043808874
80	0xbdb2bf9c	-0.08727953
81	0xbc4792d4	-0.012181003
82	0x3d86d485	0.06583504
83	0x3dc4c3fc	0.096076936
84	0xbd9e79bc	-0.07738063
85	0x3df48879	0.119400926
86	0xbbea5d89	-0.0071522635
87	0xbb039094	-0.002007519
88	0x3da15d69	0.07879145
89	0xbc16a1be	-0.009193836
90	0x3d5e3b82	0.05425597
91	0x3c38f52f	0.011288925
92	0xbd69f730	-0.057120502
93	0xbe0733b5	-0.13203318
94	0x3caca6a8	0.021075562
95	0x3ddaefee	0.10690294
96	0x3a5878a6	0.0008257724
97	0x3dfee2a6	0.124455735
98	0xbce31d81	-0.02772403
99	0x3d8b2b7d	0.06795404
100	0x3b089460	0.0020840392
101	0xbbeccfac	-0.007226905
102	0x3d5eb7a8	0.054374367
103	0xbd0e5534	-0.034749225
104	0xbcbdb1c6	-0.023156058
105	0x3dde89dc	0.10866138
106	0xbe059a51	-0.13047148
107	0x3c81c8e4	0.015842862
108	0xbd12ebd8	-0.03586945
109	0x3d3394b1	0.043842975
110	0xbdb222b7	-0.086980276
111	0xbdb85eca	-0.090024546
112	0xbd503d26	-0.050839566
113	0x3d6da118	0.05801496
114	0xbd8d29cd	-0.068927385
115	0x3c4ec3f6	0.012619963
116	0x3d7b68b2	0.061379142
117	0x3df2d700	0.11857414
118	0x3cf94c94	0.030432023
119	0xbdc7f5df	-0.09763693
120	0x3ca1bfe4	0.01974482
121	0xbc07d2c7	-0.008289999
122	0xbd90b9a1	-0.07066656
123	0x3d1c315d	0.038133014
124	0xbdae8032	-0.08520545
125	0x3d950a84	0.07277396
126	0x3d2517f2	0.04030604
127	0x3d4eee58	0.05052027

pi.mu_net.4.weight f4 [6, 128]
0	0x3cd326c2	0.025775317
1	0x3daa6c7c	0.08321473
2	0xbdac89f9	-0.08424754
3	0x3d7566f7	0.059912648
4	0x3d316c90	0.043316424
5	0xbcacf6d8	-0.021113798
6	0x3d8ff8e1	0.07029892
7	0xbd54f2b9	-0.05198929
8	0x3cf18f8c	0.029487394
9	0x3e13a05f	0.14416645
10	0xbcf6baec	-0.030118428
11	0xbd3dea5d	-0.046366084
12	0xbe26044f	-0.16212581
13	0x3d9b4f9e	0.07583545
14	0xbdc75066	-0.09732132
15	0x3bc1af44	0.005910786
16	0x3cf46cac	0.029836975
17	0xbd8cc90d	-0.06874285
18	0x3ce451b7	0.027870996
19	0xbdcc2082	-0.09967138
20	0x3c4a4afc	0.012346979
21	0x3d1ceb5f	0.038310405
22	0xbe0a2b4f	-0.13493083
23	0x3e16054e	0.14650461
24	0xbd8f840d	-0.070076086
25	0x3d9c5b46	0.076345965
26	0xbdc8d714	-0.09806648
27	0x3de70914	0.112810284
28	0xbd5d3834	-0.054008678
29	0xbd5adfb5	-0.053436
30	0x3bbcc105	0.0057603144
31	0x3de0f08b	0.1098338
32	0xbdc858a3	-0.09782531
33	0x3d8b04b4	0.067880064
34	0x3c85c1f1	0.01632783
35	0xbe08f8f3	-0.13376217
36	0xbd852b10	-0.06502354
37	0xbd4867e3	-0.0489272
38	0xbd77a6c9	-0.060461793
39	0x3e0d64cc	0.13807982
40	0x3dfea235	0.12433282
41	0x3d752baa	0.059856094
42	0x3def1a65	0.11674956
43	0x3cb43d47	0.022001876
44	0xbc657c55	-0.014006694
45	0x3e42cffa	0.1902465
46	0xbc18be0b	-0.0093226535
47	0xbde5ac7d	-0.1121454
48	0x3c004483	0.0078288345
49	0xbd7f730f	-0.062365588
50	0xbe38e89c	-0.18057483
51	0x3d6f027b	0.058351975
52	0x3e16c6f8	0.14724338
53	0x3d608268	0.054811865
54	0x3d1c2a28	0.03812614
55	0x3ddc42ab	0.107549034
56	0xbe2b0cb0	-0.16704059
57	0x3da8c5f4	0.082408816
58	0x3d38ed05	0.045147914
59	0x3d2c1132	0.042008586
60	0xbdba6fb7	-0.09103339
61	0x3d2e554e	0.04256182
62	0x3dd1b2ff	0.10239219
63	0x3d43d316	0.04780873
64	0x3bf7cc49	0.0075621945
65	0x3d44894a	0.04798249
66	0x3d0f97ff	0.035057064
67	0xbd89f05e	-0.067352995
68	0xba785189	-0.0009472599
69	0xbe0945fd	-0.13405605
70	0xbe02c324	-0.12769753
71	0x3e103622	0.1408315
72	0x3be9daf5	0.0071366974
73	0xbdf58e3e	-0.11990021
74	0x3d80f243	0.06296208
75	0x3bcf6f6d	0.0063304217
76	0xbdc718e1	-0.09721542
77	0xbc2bd21a	-0.010487104
78	0x3c0dc6fd	0.0086534
79	0x3cd8f213	0.026482617
80	0x3c52e91c	0.01287296
81	0xbced6abe	-0.028981563
82	0xbe33e45e	-0.17567584
83	0x3d943475	0.07236568
84	0x3dee1421	0.11624933
85	0xbdbfda74	-0.093678385
86	0xbc9ccaed	-0.019139731
87	0xbe3297b7	-0.17440687
88	0xbd675a04	-0.05648233
89	0xbd9ce28c	-0.07660398
90	0x3e10d26d	0.14142771
91	0x3de0c89c	0.10975763
92	0xbd3081e8	-0.04309264
93	0xbde9913b	-0.11404654
94	0xbd6a1834	-0.05715199
95	0xbe47150a	-0.1944162
96	0x3d5addd4	0.053434208
97	0x3cd5ac59	0.026083158
98	0xbdbdeb2c	-0.09273371
99	0x3dce2d9f	0.10067295
100	0x3e213114	0.15741378
101	0x3dde3994	0.10850826
102	0xbdeb41d8	-0.11487168
103	0x3dcb0006	0.09912114
104	0x3ccd427e	0.02505612
105	0x3d76a61a	0.060217
106	0xbe008c4d	-0.1255352
107	0xbd16dd63	-0.036832225
108	0xbe0e3551	-0.13887526
109	0x3daff3d9	0.08591432
110	0xbd57f492	-0.052723475
111	0xbdcd646f	-0.10028922
112	0xbd5a131a	-0.053240873
113	0xbbb7b2fa	-0.0056060525
114	0xbe1c6a02	-0.15274814
115	0xbe08fc39	-0.13377465
116	0x3d7bb271	0.06144947
117	0xbdab7470	-0.08371818
118	0x3d3cd8c7	0.046105172
119	0xbda87cc5	-0.08226923
120	0xbdcbade8	-0.09945279
121	0x3d83e781	0.0644064
122	0x3cdca76f	0.026935307
123	0xbc164c56	-0.009173473
124	0xbd787e10	-0.060667098
125	0x3dbc22b2	0.09186305
126	0xbd94e608	-0.072704375
127	0xbcd1692e	-0.025562849
128	0x3d2c12fe	0.0420103
129	0x3ce06499	0.027391719
130	0x3dc763c8	0.09735829
131	0x3e24b5ac	0.16084927
132	0x3ce38c23	0.027776783
133	0xbb9c9805	-0.0047788643
134	0xbda35546	-0.07975249
135	0x3e200cd3	0.15629892
136	0xbd8e6ace	-0.06953965
137	0xbded58f2	-0.115892306
138	0x3dde3b1d	0.10851119
139	0xbcfe0cc0	-0.031011939
140	0xbdfcacb4	-0.12337628
141	0x3e22f515	0.15913804
142	0x3dec4982	0.11537458
143	0x3da5075d	0.08058045
144	0xbda56e5c	-0.0807769
145	0xbd791d16	-0.060818754
146	0xbcc84b73	-0.02445004
147	0xbdae9f0e	-0.08526431
148	0x3db5f907	0.08885389
149	0xbc06fb45	-0.008238618
150	0x3dcd4fd6	0.10024993
151	0x3d2cd3d9	0.04219422
152	0x3cc7fb22	0.024411742
153	0xbd77a008	-0.060455352
154	0x3e0f2dc7	0.13982306
155	0x3c898ed8	0.016791746
156	0xbdd52b0f	-0.104086034
157	0x3da1dc29	0.0790332
158	0xbc21484e	-0.009843899
159	0xbc4c4ad2	-0.01246901
160	0xbdc321f8	-0.095279634
161	0xbd929e08	-0.07159048
162	0xbd04cfcd	-0.032424737
163	0xbd8d388c	-0.06895551
164	0xbc4efbf4	-0.0126333125
165	0xbda5570d	-0.08073244
166	0xbd9bad77	-0.07601445
167	0xbddac35e	-0.106817946
168	0xbe010205	-0.12598427
169	0x3e08f317	0.13373981
170	0xbd368017	-0.04455575
171	0xbdd5821c	-0.10425207
172	0xbd1a103b	-0.037613135
173	0x3daa3565	0.083109654
174	0x3dda380b	0.106552206
175	0x3d88986a	0.06669696
176	0x3e4a55ca	0.19759288
177	0xbdd40a98	-0.10353583
178	0xbdf87e95	-0.121335186
179	0xbce30166	-0.027710628
180	0x3d51fb9e	0.05126535
181	0x3d735ac7	0.059412744
182	0xbc6c9520	-0.014439851
183	0x3d843085	0.06454567
184	0xbd3aa652	-0.04556877
185	0x3cfc3e5a	0.03079145
186	0xbdbe4cc0	-0.09291983
187	0x3cdca4b0	0.026933998
188	0x3cdb2cd7	0.02675478
189	0xbd13ddfa	-0.036100365
190	0x3e0393e5	0.12849386
191	0x3de68659	0.112560935
192	0xbcd4d242	-0.025979165
193	0xbd5ee64a	-0.05441884
194	0x3de0d6d4	0.10978475
195	0x3e0f3672	0.13985613
196	0x3d7a612a	0.06112782
197	0xbdf88d85	-0.12136368
198	0xbdb433da	-0.087989524
199	0x3ce00a4b	0.027348658
200	0xbd99efb5	-0.075164236
201	0x3e03e002	0.12878421
202	0x3ddc00e2	0.10742356
203	0xbdf631ee	-0.12021242
204	0xbd9240b7	-0.071412496
205	0xbdf71a93	-0.120656155
206	0xbdbec431	-0.09314764
207	0xbcf836df	-0.030299602
208	0xbe1c6030	-0.15271068
209	0xbe5fd6e0	-0.21859312
210	0x3cc609d4	0.024174608
211	0x3cce240d	0.025163675
212	0x3e6391e6	0.22223625
213	0x3d85f4f2	0.0654086
214	0xbdc4aba2	-0.09603049
215	0xbe4bcff3	-0.19903545
216	0xbe5d6918	-0.21622121
217	0x3d2cb0a1	0.042160634
218	0x3e16b0bf	0.14715861
219	0xbdbea9cd	-0.09309731
220	0x3cbe4144	0.02322448
221	0xbd4bc563	-0.04974879
222	0xbe1e04a8	-0.15431464
223	0xbe063852	-0.13107422
224	0xbd9cb4d1	-0.076516755
225	0xbdd07121	-0.101778276
226	0x3c8c3bbc	0.017118327
227	0x3c8d493e	0.017246839
228	0xbc2af66a	-0.010434726
229	0xbe0dbc31	-0.1384132
230	0xbdfcb4ba	-0.12339158
231	0x3dae15c2	0.08500244
232	0x3e025f29	0.12731613
233	0xbe18de6b	-0.14928596
234	0xbe1c4534	-0.15260774
235	0xbde94956	-0.11390941
236	0x3d935264	0.07193449
237	0x3c49ae4f	0.012309625
238	0x3db86bfe	0.09004973
239	0x3d6774ad	0.056507755
240	0xbcfdd556	-0.030985516
241	0xbd677ba5	-0.0565144
242	0xbd818f95	-0.06326214
243	0x3e0bbaa0	0.1364541
244	0x3d4cff6c	0.050048277
245	0x3e074994	0.13211662
246	0x3a158167	0.00057031814
247	0x3e01bc4d	0.12669487
248	0xbe1d1c58	-0.15342844
249	0xbdbe5f76	-0.092955515
250	0xbc5f6aa2	-0.013636263
251	0xbd9f892c	-0.07789835
252	0xbe21a1ed	-0.15784426
253	0xbe07d8c0	-0.13266277
254	0xbda9a047	-0.082825236
255	0x3d5843e6	0.052799128

pi.mu_net.4.bias f4 [6]
0	0x3dc7ce37	0.09756129
1	0xbcadd2ea	-0.021218736
2	0x3d9b4b2c	0.07582697
3	0xbd8ceff7	-0.06881707
4	0x3cb70a6c	0.022343837
5	0x3dc03414	0.09384933

vf.v_net.0.weight f4 [128, 24]
0	0xbfb67a1b	-1.4256014
1	0x3f2bbb85	0.6708301
2	0x3f0e6faf	0.55639166
3	0x3ee6d00f	0.4508061
4	0xbea55aca	-0.3229583
5	0x3efd1f2f	0.49437854
6	0xbd7f98cf	-0.06240159
7	0xbc3ac224	-0.011398826
8	0x3eb98d3c	0.36240566
9	0x3e56d71a	0.20980492
10	0x3e038e92	0.12847355
11	0xbd736234	-0.059419826
12	0xbcd1f254	-0.025628246
13	0x3e5befca	0.21478191
14	0xbed6191a	-0.41816026
15	0xbecae285	-0.39625946
16	0x3f800398	1.0001097
17	0x3d9de69c	0.07710001
18	0x3da9a74f	0.08283865
19	0xbdf14781	-0.117812164
20	0xbd88ca53	-0.06679215
21	0x3d75643c	0.059910044
22	0xbd2d0ce0	-0.042248607
23	0xbdb58302	-0.088628784
24	0x3d016440	0.031589746
25	0x3f70ec99	0.9411102
26	0x3dc53556	0.09629314
27	0xbe7f7089	-0.24945273
28	0x3e38d9b6	0.180518
29	0xbf2e5dfd	-0.68112165
30	0xbe3a623c	-0.18201536
31	0xbde3bd25	-0.11120061
32	0x3c94c048	0.018158093
33	0x3de16e43	0.11007359
34	0xbfbe9933	-1.4890503
35	0x3f31618c	0.6928947
36	0xbf938169	-1.1523868
37	0xbe3179fd	-0.17331691
38	0xbf6a3c54	-0.91498303
39	0xbf8a3130	-1.0796261
40	0xbe3507d3	-0.17678766
41	0x3e94dcb0	0.2907462
42	0xbd397ba4	-0.04528393
43	0x3cbf0531	0.023317905
44	0xbc5b6b74	-0.013392318
45	0xbe1fdcaa	-0.1561152
46	0xbe1f5eac	-0.15563458
47	0xbcf8531f	-0.030313073
48	0x3e9922e0	0.2990942
49	0xbf0f9f0d	-0.5610207
50	0xbddc91fc	-0.10770032
51	0x3e0f49fb	0.13993065
52	0xbe2ef008	-0.17083752
53	0x3e693f03	0.22777943
54	0x3cd03cbe	0.02541959
55	0x3ededfe8	0.43530202
56	0xbf5d88c6	-0.86536825
57	0xbf2b44a3	-0.66901606
58	0x3f61aea8	0.8815713
59	0xbfcd4c93	-1.6038994
60	0x3f695d67	0.91158146
61	0xbdae5e64	-0.08514097
62	0x3dcbe3d5	0.09955565
63	0xbf430ba1	-0.7618962
64	0xbf4d5ce3	-0.8021986
65	0x3dc4fa3f	0.09618043
66	0x3d8078a4	0.062730104
67	0x3e178f73	0.14800815
68	0xbce69623	-0.028147763
69	0xbe108ac2	-0.14115432
70	0x3c41f933	0.011839199
71	0xbd4f38a1	-0.050591115
72	0xbf614176	-0.8799051
73	0xbd0d3e1a	-0.034483053
74	0x3efe6033	0.4968277
75	0x3e293683	0.16524701
76	0x3d0d4dec	0.03449814
77	0x3ed5e9da	0.41779977
78	0x3ca68976	0.020329218
79	0x3e9dd684	0.30827725
80	0x3e1c1ca8	0.15245306
81	0x3e9f5a37	0.31123516
82	0x3f1b051c	0.6055467
83	0xbe114240	-0.14185429
84	0x3e3ad214	0.18244201
85	0x3dcd7414	0.10031906
86	0x3f3a3f9f	0.7275333
87	0x3f301c94	0.68793607
88	0x3d3d8291	0.046267096
89	0xbf11c5ed	-0.56942636
90	0xbdce4ad4	-0.10072866
91	0xbe266010	-0.16247582
92	0x3cc61d3f	0.024183867
93	0x3ea20c9a	0.3165024
94	0xbe940151	-0.28907254
95	0xbd0efddb	-0.034910064
96	0xbeabef90	-0.3358121
97	0x3f859621	1.0436441
98	0xbe393759	-0.1808752
99	0x3e0d8f3d	0.13824172
100	0xbdb14f98	-0.086577594
101	0xbed1433c	-0.40871608
102	0x3dcf978e	0.10136329
103	0xbd58b87e	-0.05291032
104	0x3e3daecf	0.18523715
105	0x3eb3a1b9	0.35084322
106	0xbfa83118	-1.3139982
107	0x3f0f3e04	0.55954003
108	0xbea28b52	-0.31746918
109	0x3cac0f2e	0.021003332
110	0xbee4c2a5	-0.44679752
111	0xbeb39a22	-0.35078532
112	0x3e4df9b2	0.20114782
113	0x3d89a84d	0.06721554
114	0xbdccb4fe	-0.09995459
115	0x3e7d7645	0.24752147
116	0x3e243b4a	0.16038242
117	0x3ddf4384	0.109015495
118	0x3e31faad	0.17380781
119	0x3d58e1bb	0.05294965
120	0x3e9eab05	0.30989853
121	0xbf40bb52	-0.7528583
122	0xbef4598e	-0.47724575
123	0xbef0da95	-0.47041765
124	0x3e999cf4	0.30002558
125	0xbea9d55c	-0.33170593
126	0xbe918a56	-0.28425854
127	0xbd0e26a2	-0.034704812
128	0x3dcfc614	0.10145202
129	0x3d50aafe	0.05094432
130	0xbebc879b	-0.3682221
131	0xbd9cc39f	-0.07654499
132	0xbef21692	-0.47282845
133	0xbefa631a	-0.48903733
134	0xbe2923e7	-0.16517602
135	0x3f19c2a2	0.6006261
136	0xbf81d1b0	-1.0142117
137	0xbd0172d1	-0.031603638
138	0x3e4d6081	0.20056345
139	0x3e76431e	0.2404904
140	0xbd9e7305	-0.07736782
141	0xbe0d0331	-0.13770749
142	0x3b9d64a4	0.004803257
143	0xbe0a1e24	-0.1348806
144	0xbedead65	-0.43491665
145	0xbe390a7c	-0.18070406
146	0x3e9e9c80	0.30978775
147	0x3e5fcf40	0.21856403
148	0xbf0b6253	-0.54446906
149	0x3f1ff088	0.62476397
150	0xbf310a87	-0.6915669
151	0x3efb581b	0.49090657
152	0xbe82b01a	-0.2552498
153	0x3e322bf1	0.17399575
154	0x3d9746b0	0.073865294
155	0x3ec2349d	0.37930766
156	0xbe288e63	-0.16460566
157	0xbeb922fa	-0.36159497
158	0x3f42ef32	0.76146233
159	0x3e993620	0.29924107
160	0x3f5f8795	0.87316257
161	0xbce74081	-0.028229
162	0xbd74d7d9	-0.05977616
163	0xbe8e9e98	-0.27855372
164	0x3dc392b6	0.09549467
165	0xbbabdb78	-0.0052446686
166	0xbedc2da7	-0.4300358
167	0xbe33f2c1	-0.17573072
168	0xbf5149df	-0.81753343
169	0x3da8ade5	0.08236293
170	0x3f29411d	0.6611498
171	0x3f23d227	0.6399254
172	0x3e72d9c6	0.23715886
173	0x3f699ad1	0.91251856
174	0xbe8fafe1	-0.28063872
175	0x3edccfc3	0.4312726
176	0x3edc0203	0.42970285
177	0x3e9c1615	0.30485597
178	0x3f725059	0.9465385
179	0x3eeb780f	0.45990035
180	0x3d98d101	0.07461739
181	0x3ee289ec	0.4424585
182	0x3e03c030	0.12866282
183	0xbdbedbed	-0.09319291
184	0xbe2063da	-0.1566309
185	0xbeae4d4f	-0.34043357
186	0x3d1899f9	0.037256215
187	0x3cddac00	0.027059555
188	0xbc7d5f0d	-0.015464556
189	0x3e3ab2e3	0.18232302
190	0x3c8ca461	0.017168226
191	0xbf06cc30	-0.52655315
192	0x3f32c768	0.6983552
193	0xbec5594e	-0.38544697
194	0x3ed25948	0.4108374
195	0x3dc75b09	0.097341605
196	0x3bd3006e	0.00643926
197	0x3ee6950e	0.45035595
198	0x3dd6f60b	0.10496148
199	0x3ec76e9c	0.38951576
200	0xbe5067de	-0.20352122
201	0xbc8ae3bf	-0.0169543
202	0x3ecec949	0.40387943
203	0x3d9941e5	0.074832715
204	0x3f049849	0.5179487
205	0x3eb9a261	0.36256698
206	0x3f23ab5f	0.63933367
207	0xbf423eac	-0.7587688
208	0xbce735ce	-0.028223898
209	0x3eab1d41	0.33420756
210	0x3dee23c1	0.11627913
211	0xbe6b30d9	-0.22967853
212	0x3b0e1823	0.0021681867
213	0x3df7a069	0.12091143
214	0xbeb0f988	-0.34565377
215	0x3db6aa17	0.08919161
216	0xbee92c82	-0.4554177
217	0x3e957952	0.29194123
218	0xbde3134d	-0.11087666
219	0x3f873393	1.0562614
220	0xbf065dec	-0.52487063
221	0x3eb2b0ad	0.34900418
222	0xbd715759	-0.05892119
223	0xbe6606ca	-0.22463527
224	0x3e1562fe	0.14588544
225	0x3f1545db	0.58309716
226	0x3e6ac64b	0.22927205
227	0x3e406188	0.18787205
228	0x3da2604d	0.07928524
229	0x3d9564b4	0.07294598
230	0xbf2e6a04	-0.68130517
231	0xbfb3abbe	-1.4036787
232	0x3e531fe3	0.20617633
233	0xbea8d1e5	-0.32972637
234	0x3e72cd76	0.2371119
235	0x3c779871	0.015112028
236	0xbd2cf4a7	-0.042225506
237	0xbdb9337c	-0.09043023
238	0xbdaf57a2	-0.085616365
239	0x3b993a06	0.0046761064
240	0xbf006903	-0.50160235
241	0x3fa875f7	1.3161
242	0xbf1aec7f	-0.60517114
243	0x3e0664b5	0.13124354
244	0xbf504ed2	-0.8137027
245	0x3ea7b728	0.32756925
246	0xbf45794f	-0.7713823
247	0x3dedb217	0.116062336
248	0xbf0ba4ac	-0.54548144
249	0xbd241a14	-0.040063933
250	0xbe9ba499	-0.30399016
251	0xbe63327e	-0.2218723
252	0xbeb959dd	-0.36201373
253	0x3e37550d	0.17903538
254	0xbf0badaf	-0.54561895
255	0x3d560552	0.052251168

vf.v_net.0.bias f4 [128]
0	0xbc9f11d9	-0.01941769
1	0xbe5b360c	-0.21407336
2	0xbf8c86fa	-1.0978692
3	0xbe2a8b67	-0.1665474
4	0x3e153db3	0.14574318
5	0xbf066236	-0.5249361
6	0x3f2d1c33	0.67621154
7	0x3c5b0ca6	0.013369715
8	0x3f1dc6d8	0.61631536
9	0x3e3361b2	0.17517737
10	0xbf1e9ad7	-0.61955017
11	0xbe847d6d	-0.25876942
12	0x3e1f18cf	0.15536807
13	0x3e9dcf99	0.30822447
14	0xbe57a412	-0.21058682
15	0x3decdb77	0.11565297
16	0x3d4cc09e	0.04998838
17	0x3f58895a	0.8458458
18	0xbd757be8	-0.05993262
19	0xbbe7612f	-0.0070611457
20	0xbdf93a9f	-0.12169384
21	0xbe109c8b	-0.14122216
22	0x3e457ed2	0.1928666
23	0xbeaa8c80	-0.33310318
24	0x3b2154b0	0.0024617128
25	0xbdd8f74a	-0.10594042
26	0xbdad794a	-0.084704
27	0xbf098b25	-0.5372794
28	0x3e9df5c5	0.3085157
29	0x3f2a15bf	0.6643943
30	0x3e0b0c7e	0.13578984
31	0xbe9d1115	-0.30677095
32	0x3f153f3f	0.5829963
33	0x3e967dc3	0.29392824
34	0x3e6943c0	0.22779751
35	0xbeae9732	-0.34099728
36	0x3ebb1dc6	0.36546153
37	0xbdcdd7fc	-0.100509614
38	0x3dca943a	0.09891553
39	0x3e69c4e2	0.22829011
40	0xbf39a60a	-0.7251898
41	0x3f43599a	0.76308596
42	0x3f36a5a1	0.7134648
43	0x3c810559	0.01574962
44	0x3f6274e3	0.88459605
45	0x3f6f9b6d	0.93596536
46	0x3f2c333b	0.6726567
47	0x3ef5c6bf	0.48003194
48	0x3f0ea5b3	0.55721587
49	0xbe891463	-0.26773366
50	0xbf41d15e	-0.75710094
51	0x3f66c777	0.9014811
52	0x3ecd581b	0.40106282
53	0xbf4a2ed3	-0.789777
54	0x3da13958	0.078722656
55	0xbebd0d25	-0.3692409
56	0x3edfa08c	0.43677175
57	0x3e980e97	0.2969863
58	0x3cc43e7e	0.02395558
59	0xbece06bf	-0.40239522
60	0x3f0a9765	0.5413726
61	0x3e13edae	0.14446136
62	0x3c5d0c52	0.013491707
63	0xbf81c787	-1.0139016
64	0xbe860009	-0.26171902
65	0xbf37d10e	-0.7180337
66	0x3ee236c5	0.4418241
67	0x3f46b067	0.7761292
68	0xbe8b7b54	-0.2724253
69	0xbd69da34	-0.05709286
70	0x3ed0313d	0.40662566
71	0xbf63b5c1	-0.8894921
72	0xbe9d6d58	-0.30747485
73	0x3eebdec9	0.4606841
74	0xbf4d4049	-0.80176216
75	0x3dca5511	0.098795064
76	0x3f153b5d	0.58293706
77	0x3d5e1673	0.054220628
78	0x3ee2ed32	0.4432159
79	0xbdeed504	-0.11661723
80	0x3e73d67e	0.23812291
81	0xbe99a839	-0.30011156
82	0x3ce7d4f4	0.028299786
83	0xbe6bf06b	-0.23040931
84	0x3f3e437b	0.7432172
85	0xbe6100c9	-0.21972956
86	0x3e9aa174	0.30201304
87	0x3f53069a	0.8243195
88	0x3dccc2d3	0.09998097
89	0x3dc2818d	0.09497366
90	0xbea4ca7d	-0.32185736
91	0xbf12bd25	-0.5731986
92	0x3f60a5a2	0.87752736
93	0x3eb7760b	0.35832247
94	0x3ebf3cf3	0.37351188
95	0xbf18ffda	-0.597654
96	0x3f1146d3	0.56748694
97	0x3e46b952	0.19406632
98	0x3f6f8661	0.9356442
99	0xbf0e84d6	-0.5567144
100	0x3f082390	0.53179264
101	0x3ed64d4e	0.41855854
102	0x3dac7904	0.084215194
103	0xbe465f61	-0.19372322
104	0xbd1b01db	-0.037843566
105	0x3f5e32e4	0.867964
106	0x3ece39f4	0.4027859
107	0x3f1e07ad	0.6173046
108	0x3d0e61c6	0.034761213
109	0x3d131e69	0.035917673
110	0x3e890e10	0.2676854
111	0x3f2092e8	0.6272416
112	0x3f5301d3	0.8242466
113	0x3e3fa6f6	0.18716034
114	0xbe9ecfa3	-0.3101779
115	0xbe18242b	-0.14857547
116	0x3da06208	0.07831198
117	0x3f253f5c	0.64549804
118	0x3d9e0095	0.07714955
119	0xbead389b	-0.3383225
120	0xbde4a98d	-0.11165152
121	0xbef6c66d	-0.48198262
122	0x3ec0ea46	0.37678736
123	0x3d8a47f5	0.06752006
124	0x3f032684	0.51230645
125	0x3e5dc94e	0.21658823
126	0x3e9397de	0.28826803
127	0xbe13a58f	-0.14418624

vf.v_net.2.weight f4 [128, 128]
0	0xbe8212ff	-0.25405118
1	0xbdfbc1be	-0.12292813
2	0x3ecc33e3	0.39883336
3	0xbea601d6	-0.32423276
4	0x3e31de34	0.1736992
5	0x3d862d5f	0.065516226
6	0xbe2d9b89	-0.16953863
7	0xbdea575a	-0.11442442
8	0xbe61854d	-0.22023506
9	0xbdc4f58f	-0.09617149
10	0x3e27c9d1	0.1638558
11	0x3d78bd06	0.06072714
12	0xbe49aea0	-0.1969552
13	0x3f0c849a	0.54889834
14	0x3eaa6255	0.33278146
15	0x3c674e14	0.014117736
16	0xbdeaad4d	-0.11458836
17	0xbe26dfad	-0.16296263
18	0xbda6bb89	-0.08141238
19	0x3d1a3aa3	0.037653577
20	0xbe850a51	-0.25984433
21	0xbeb4af57	-0.35290024
22	0xbe0c1407	-0.13679515
23	0xbe1ec593	-0.15505056
24	0xbe919af9	-0.28438547
25	0x3dfd6b86	0.12374024
26	0xbe99d974	-0.30048716
27	0x3dacbd88	0.08434588
28	0xbedf71f9	-0.43641642
29	0xbe80d7f5	-0.25164762
30	0x3e5a01f7	0.21289812
31	0xbd1aec09	-0.037822757
32	0xbebfea85	-0.37483612
33	0xbe391dbe	-0.18077752
34	0x3eb0ebf1	0.3455501
35	0x3d3fcc42	0.046825655
36	0xbe2b7403	-0.16743474
37	0xbd926377	-0.07147878
38	0xbec6ae56	-0.38804883
39	0xbe67f4d6	-0.22651991
40	0xbd33884c	-0.043831155
41	0x3db73a0a	0.08946617
42	0x3e8e339e	0.27773756
43	0x3d372c75	0.044720132
44	0xbd4b86e3	-0.049689185
45	0x3dbf9c7c	0.09356019
46	0x3e66a1c1	0.22522642
47	0x3e85dbfc	0.26144397
48	0xbe0364ec	-0.12831467
49	0xbe872081	-0.26391986
50	0x3e8001df	0.25001428
51	0xbe676228	-0.22596037
52	0x3d0353d7	0.032062378
53	0x3e04d16d	0.12970515
54	0x3e8f2021	0.279542
55	0x3d4a525f	0.04939496
56	0x3f0904e6	0.535231
57	0x3d8632af	0.06552636
58	0xbd760b8e	-0.060069613
59	0xbe4b4f8b	-0.19854562
60	0x3e7c92a1	0.2466531
61	0x3e5d8353	0.21632127
62	0x3e9073e3	0.28213415
63	0xbe0ca29a	-0.13733903
64	0x3d649d50	0.055814087
65	0x3e47113a	0.19440165
66	0x3e6fa383	0.23402219
67	0xbe5ce620	-0.2157216
68	0xbe4a5ef0	-0.19762778
69	0xbe9f9eef	-0.31175944
70	0xbe8a1239	-0.26967028
71	0xbda9d07b	-0.082917176
72	0x3ea551c7	0.32288954
73	0xbdab6c65	-0.08370284
74	0x3ea626fd	0.3245162
75	0xbed5362b	-0.4164289
76	0xbd366beb	-0.044536512
77	0x3f113b20	0.5673084
78	0x3dc50af3	0.09621229
79	0xbd69f869	-0.057121668
80	0x3ecd20cd	0.40064088
81	0xbf0cb74a	-0.54967177
82	0xbe01cf45	-0.12676723
83	0x3e7b22b9	0.24524964
84	0xbdeb6080	-0.11493015
85	0xbd1efbaa	-0.038814224
86	0x3e4e5f83	0.20153622
87	0x3cd7008d	0.02624538
88	0x3dc4c253	0.09607377
89	0x3e1623d3	0.14662103
90	0x3dd1f331	0.10251463
91	0x3c974a6e	0.018468108
92	0x3e02c5df	0.12770794
93	0x3e9402fd	0.2890853
94	0x3d12d9c0	0.035852194
95	0x3df9e288	0.122014105
96	0x3f2d6d6f	0.6774511
97	0x3e3db96b	0.18527763
98	0xbdff3045	-0.124603786
99	0xbe41bd44	-0.18919855
100	0xbe00a26f	-0.12561963
101	0xbd0c6fc8	-0.03428629
102	0xbc7e73e4	-0.01553056
103	0x3cb4c52c	0.022066675
104	0x3e80cb89	0.25155285
105	0xbe4b6850	-0.19864011
106	0x3d7a8997	0.061166372
107	0x3cd25493	0.025675094
108	0xbdf9eb24	-0.12203053
109	0x3e34cfd5	0.17657407
110	0xba8a0561	-0.0010530167
111	0x3cc0b91c	0.023525767
112	0xbe13abbb	-0.14420979
113	0xbe5c6d28	-0.21526015
114	0x3e030e85	0.12798508
115	0xbcbb5b04	-0.022870548
116	0x3e9e1580	0.30875778
117	0xbdd168e1	-0.10225082
118	0xbe86b094	-0.26306593
119	0xbe5279d2	-0.20554283
120	0x3d65bbe9	0.05608741
121	0x3d054160	0.03253305
122	0xbb383ab6	-0.0028111166
123	0xbb83989f	-0.0040159966
124	0x3e9a7e04	0.30174267
125	0x3e110f4e	0.14165995
126	0xbef84112	-0.48487145
127	0xbd1111c0	-0.03541732
128	0x3eb00721	0.3438044
129	0x3d85319d	0.065036036
130	0xbd60f8d8	-0.054924816
131	0x3eb8315e	0.35975164
132	0xbe863373	-0.26211128
133	0xbd90f80d	-0.07078562
134	0x3d0a9817	0.03383645
135	0x3e208a50	0.15677762
136	0xbdb75d96	-0.08953397
137	0x3f006f45	0.50169784
138	0x3dee3558	0.11631268
139	0x3d3b8cb2	0.045788474
140	0x3c922a3d	0.017842406
141	0xbda8d2e4	-0.08243349
142	0x3e39fd21	0.18162967
143	0x3cb25df2	0.021773312
144	0xbf293177	-0.660911
145	0x3e873fbe	0.2641582
146	0x3d949d3a	0.07256551
147	0xbd2fe95b	-0.042947154
148	0x3e6214b5	0.22078212
149	0x3f273b6b	0.6532504
150	0xbcc1345c	-0.023584537
151	0x3e73170a	0.23739257
152	0x3d874b0c	0.06606111
153	0x3dbe8744	0.093031436
154	0xbe1e39c6	-0.15451726
155	0x3d99fd2b	0.07518991
156	0xb9aa1bd5	-0.00032445663
157	0xbd1f809c	-0.03894101
158	0xbddb1904	-0.10698131
159	0xbe35f8bd	-0.17770667
160	0x3df6e509	0.12055404
161	0x3e8dde62	0.27708727
162	0x3e2ca775	0.16860755
163	0x3e385037	0.1799935
164	0xbe5deb7a	-0.21671858
165	0xbc434d67	-0.01192031
166	0x3ee393cc	0.44448698
167	0x3f009c7a	0.50238764
168	0xbde25f7c	-0.110533684
169	0xbecd19c0	-0.40058708
170	0x3ece40d6	0.4028384
171	0x3e8b8b77	0.2725484
172	0x3e224614	0.15847045
173	0x3e360407	0.17774974
174	0x3d432674	0.047644094
175	0x3d25607c	0.040375218
176	0x3dd86551	0.105661996
177	0xbce03c39	-0.027372466
178	0x3ea8275f	0.32842538
179	0xbdd39203	-0.10330584
180	0xbdf55fd7	-0.119811706
181	0xbe0efd83	-0.13963895
182	0xbca59256	-0.02021138
183	0x3dab2f73	0.083586596
184	0xbe53f220	-0.20697832
185	0x3df21f51	0.118223794
186	0x3e13ca84	0.14432722
187	0x3f223033	0.63354796
188	0x3ec7c7f0	0.39019728
189	0xbe087171	-0.13324524
190	0x3eb93ffc	0.3618163
191	0xbe181e8e	-0.14855406
192	0x3ebc3b50	0.36764002
193	0xbd18b949	-0.037286077
194	0xbde5cb13	-0.11220374
195	0x3e885682	0.266285
196	0x3cfbf14d	0.03075471
197	0xbc970234	-0.018433668
198	0x3e0b1ccb	0.13585202
199	0x3dd5d616	0.10441224
200	0xbeb56485	-0.35428253
201	0x3da84b7a	0.08217521
202	0xbda35a48	-0.07976204
203	0x3d430119	0.04760847
204	0x3e285cc1	0.16441633
205	0xbe2844fe	-0.16432568
206	0x3eeda20c	0.46412694
207	0xbe8bbcac	-0.27292383
208	0x3ec06334	0.37575686
209	0xbeb1f828	-0.3475964
210	0x3dc8c8aa	0.09803899
211	0x3bfbe039	0.0076866415
212	0xbdc9435d	-0.09827302
213	0x3e58ebb2	0.2118366
214	0xbe96cd89	-0.29453686
215	0xbbd0bbeb	-0.006370058
216	0xbf37d11f	-0.7180347
217	0xbc540715	-0.012941142
218	0xbe88ee50	-0.26744318
219	0xbf24af45	-0.6432994
220	0xbe8c2a06	-0.2737581
221	0x3dbeae07	0.09310537
222	0x3cd70742	0.026248578
223	0xbed22ccb	-0.410498
224	0x3efd9c51	0.49533322
225	0x3caf6b36	0.021413427
226	0xbd80cafd	-0.06288717
227	0x3d14fc0c	0.036373183
228	0x3d647ed6	0.055785023
229	0xbe98bcc8	-0.2983153
230	0x3d9ca875	0.07649318
231	0x3dddb1d5	0.108249344
232	0x3dbdafd9	0.09262056
233	0x3dcf96ae	0.10136162
234	0x3eb2f0e3	0.34949407
235	0x3d909cf0	0.070611835
236	0x3eecfb2e	0.46285385
237	0x3bd3269f	0.006443813
238	0xbe4d61c9	-0.20056833
239	0x3de89517	0.11356562
240	0xbd7aa196	-0.061189257
241	0x3dd57cdc	0.10424206
242	0x3ed22836	0.41046304
243	0xbe406d90	-0.18791795
244	0x3c006160	0.007835716
245	0xbd1c952c	-0.0382282
246	0xbe78cb2e	-0.24296257
247	0xbe75db23	-0.24009375
248	0xbe2e35a7	-0.17012654
249	0x3c34ecf9	0.011042827
250	0x3aab0586	0.0013047911
251	0x3ecc7ad0	0.39937449
252	0xbd6ae417	-0.05734643
253	0x3e5b87aa	0.2143847
254	0xbe67ab35	-0.22623904
255	0x3e063b22	0.13108495

vf.v_net.2.bias f4 [128]
0	0x3ea6c09a	0.32568818
1	0x3e474c46	0.1946269
2	0x3e800acb	0.25008234
3	0xbe4ace35	-0.19805224
4	0xbf391d91	-0.7231074
5	0x3ea2d88a	0.3180583
6	0xbf1dd730	-0.61656475
7	0xbf1ebe90	-0.62009525
8	0xbe29d89f	-0.1658654
9	0x3e5138ea	0.20431867
10	0x3d49aa99	0.04923496
11	0xbf675302	-0.90361035
12	0xbd85b5a2	-0.06528784
13	0x3d8bd5d1	0.068278916
14	0xbea944e3	-0.3306037
15	0x3e5f2d6e	0.21794674
16	0x3d8a92b9	0.067662664
17	0x3e0b2291	0.13587405
18	0xbd79a7c6	-0.060951017
19	0xbcfc24be	-0.030779239
20	0xbe9f4605	-0.31108108
21	0xbe95913c	-0.29212368
22	0xbea83609	-0.32853726
23	0x3e963f73	0.29345283
24	0x3da3f767	0.080061726
25	0x3d627c3c	0.05529426
26	0xbf0c2cbe	-0.5475577
27	0xbec9d2b4	-0.39418566
28	0xbe52c521	-0.20583011
29	0xbdc08b78	-0.094016016
30	0x3e6dec7a	0.2323474
31	0x3e18e9ee	0.14932987
32	0x3d8ea669	0.06965334
33	0xbe8408a4	-0.25787842
34	0xbe9b5691	-0.30339482
35	0xbf26c41e	-0.65143
36	0xbe1caa79	-0.15299405
37	0xbf057a47	-0.52139705
38	0x3e9f1715	0.31072298
39	0xbe22f46e	-0.15913555
40	0xbf0ddfe9	-0.55419785
41	0xbe7a9d69	-0.2447411
42	0x3e5a1dc3	0.21300416
43	0xbeda0277	-0.42580006
44	0x3db62df5	0.08895484
45	0x3e52f0cb	0.20599668
46	0xbea68fbc	-0.32531536
47	0x3e582834	0.21109086
48	0x3ca45feb	0.020065269
49	0xbe810890	-0.25201845
50	0x3d4c675d	0.049903262
51	0x3d01e5c9	0.03171328
52	0xbe01b572	-0.12666872
53	0x3e836d04	0.2566911
54	0x3e3b169d	0.18270345
55	0x3e0fd8d3	0.14047556
56	0xbf011172	-0.50417244
57	0x3dc381b5	0.09546224
58	0xbead97f4	-0.33904994
59	0xbe83229b	-0.2561234
60	0xbc73702e	-0.014858289
61	0xbeb05324	-0.3443843
62	0xbf3fe583	-0.7495958
63	0x3da49dd1	0.080379136
64	0xbd81e605	-0.06342701
65	0xbe3ebcb2	-0.18626669
66	0xbf1adc40	-0.60492325
67	0x3e6a7557	0.22896324
68	0x3db88487	0.090096526
69	0xbe0ae097	-0.13562237
70	0xbea64afc	-0.32479084
71	0x3e5287e0	0.20559645
72	0x3e489e87	0.19591723
73	0x3e226ebf	0.15862559
74	0x3e4e95c4	0.20174319
75	0x3e405bbe	0.18784997
76	0xbe15ce40	-0.1462946
77	0x3e125f1c	0.14294094
78	0x3c77a8e7	0.015115953
79	0xbe56cf53	-0.20977525
80	0x3eb17582	0.34659964
81	0xbd62cf64	-0.055373564
82	0xbe8adeb7	-0.27123043
83	0xbd329069	-0.04359475
84	0xbeb5478c	-0.35406148
85	0x3e057cf1	0.13035943
86	0x3e00e332	0.12586668
87	0x3e26867e	0.16262242
88	0x3e2167fd	0.15762325
89	0xbe9b1ce7	-0.30295488
90	0x3e1d94d7	0.15388809
91	0xbe8fccb5	-0.28085867
92	0xbd9d2560	-0.07673144
93	0x3e52249b	0.20521776
94	0x3da2f5c7	0.079570346
95	0xbca68311	-0.02032617
96	0x3e97b367	0.2962906
97	0xbec96a72	-0.39339024
98	0x3cd12032	0.025528047
99	0x3e48dfde	0.19616649
100	0xbef29a48	-0.47383332
101	0x3e0b8686	0.13625535
102	0xbef7dfd9	-0.4841297
103	0x3dcc913c	0.09988639
104	0x3d2e1c1d	0.04250728
105	0xbcc45d29	-0.023970203
106	0xbf2fb031	-0.6862822
107	0x3e8f47c5	0.27984443
108	0x3da02390	0.07819283
109	0xbd76d749	-0.060263906
110	0x3cc90de6	0.02454276
111	0xbf0b5851	-0.54431635
112	0x3ce83eb7	0.028350217
113	0xbd787d5f	-0.06066644
114	0x3e445591	0.19173266
115	0x3bb8b3f5	0.005636687
116	0x3e88188a	0.26581222
117	0xbe374829	-0.1789862
118	0xbe8cf952	-0.27533966
119	0xbeb29832	-0.3488174
120	0xbdc1e3b4	-0.09467259
121	0xbede3b7b	-0.43404755
122	0xbbf4d9c4	-0.0074722487
123	0xbeb2c368	-0.34914708
124	0xbe82e725	-0.25566974
125	0x3dbfcb53	0.09364953
126	0xbdf5c48d	-0.1200038
127	0x3dc030c9	0.09384305
