HW4/ppo_dm_control-master/training/walker/walk/best_ppo_ac_model.pth (torch, 52825 bytes, 12 tensors)

pi.log_std f4 [6]
0	0xbf0057d2	-0.50134003
1	0xbf008792	-0.50206864
2	0xbf012a24	-0.50454926
3	0xbf007846	-0.5018352
4	0xbeff9d06	-0.49924487
5	0xbf004591	-0.5010615

pi.mu_net.0.weight f4 [64, 24]
0	0x3dc1e02b	0.09466585
1	0x3dfadc79	0.12249083
2	0xbe4d323c	-0.20038694
3	0x3cb06c12	0.021535907
4	0xbcf30fe3	-0.029670661
5	0x3dbbe11a	0.09173794
6	0x3e3f884e	0.1870434
7	0xbe3304a2	-0.17482236
8	0x3da46020	0.08026147
9	0x3e3fa342	0.18714622
10	0xbdf58ff7	-0.1199035
11	0x3c366fb8	0.011135034
12	0x3df71012	0.12063612
13	0x3db027cf	0.08601343
14	0xbe0b79e2	-0.13620713
15	0x3d28dcf7	0.041226353
16	0x3c844bdf	0.01614946
17	0xbd0405e2	-0.032232173
18	0xbd9a176b	-0.07523998
19	0x3ded352a	0.11582406
20	0x3db374f9	0.08762545
21	0x3e0af36d	0.13569422
22	0x3dfb0035	0.12255899
23	0x3d9afc46	0.075676486
24	0xbc4e1a01	-0.012579442
25	0xbc25fcbe	-0.010131059
26	0xbe3397c5	-0.17538364
27	0x3d444f20	0.047927022
28	0xbdc31019	-0.09524555
29	0x3d32321f	0.04350483
30	0xbcfdf478	-0.03100036
31	0x3e41ba28	0.18918669
32	0xbe39cb55	-0.18143971
33	0x3c0c137e	0.008549569
34	0xbdac0898	-0.08400077
35	0x3e0e5691	0.1390021
36	0xbd66f61a	-0.056387044
37	0x3e3ccbda	0.18437138
38	0xbdf93fd3	-0.12170377
39	0xbb9049eb	-0.004403343
40	0x3d305f61	0.04305971
41	0x3e1847c6	0.1487113
42	0xbc8f4c18	-0.017492339
43	0x3d9be549	0.07612092
44	0xbcdda295	-0.027055064
45	0x3e3325cc	0.17494887
46	0xbe12122a	-0.14264742
47	0x3e2d3ab8	0.1691693
48	0x3d45c92e	0.048287563
49	0x3c81d39f	0.01584798
50	0xbdcaedf8	-0.0990867
51	0xbdebc332	-0.1151184
52	0x3e3fb1d1	0.18720175
53	0xbd916fc2	-0.07101394
54	0x3e464081	0.19360544
55	0x3df1c433	0.11805
56	0x3e1ee6d0	0.15517735
57	0xbdd8e5e1	-0.10590721
58	0xbe4ff777	-0.20309244
59	0x3d55af10	0.052168906
60	0x3e2614d4	0.16218883
61	0x3e0c61e7	0.13709222
62	0x3e159c80	0.14610481
63	0x3d2fba60	0.04290235
64	0xbd3e4ba3	-0.04645885
65	0x3ce666a7	0.02812512
66	0x3c9427d8	0.018085405
67	0xbd25d522	-0.040486462
68	0x3e4fab58	0.20280206
69	0x3e2a45db	0.1662821
70	0x3e19e6b7	0.15029417
71	0xbd8f3aac	-0.06993613
72	0x3d9f6f0a	0.07784851
73	0xbd2bc420	-0.041935086
74	0xbdb0169a	-0.08598061
75	0xbdb063df	-0.08612799
76	0x3e34b35d	0.17646547
77	0xbde34be9	-0.11098463
78	0x3d40fa0a	0.047113456
79	0xbe3532fc	-0.1769523
80	0x3e42f92b	0.19040363
81	0xbe0d8586	-0.13820466
82	0x3deb2dc3	0.11483338
83	0x3d2a712f	0.041611847
84	0x3d9b65c9	0.07587773
85	0x3d1d3a5b	0.03838573
86	0xbe0821b5	-0.13294108
87	0xbe105e88	-0.14098561
88	0x3d027540	0.0318501
89	0x3e48696c	0.19571465
90	0xbddd371f	-0.10801529
91	0xbe10aadb	-0.14127676
92	0x3ce1fc27	0.027586056
93	0xbb0f6355	-0.0021879275
94	0xbe21d9ea	-0.15805784
95	0x3da7f882	0.08201696
96	0xbb113d5a	-0.0022161813
97	0xbe2bd3fe	-0.16780087
98	0xbdff039f	-0.124518625
99	0x3e1ad31d	0.15119596
100	0xbe189859	-0.14901866
101	0xbdfb9049	-0.122833796
102	0x3d866d87	0.065638594
103	0x3e3a3a49	0.18186297
104	0xbdd53449	-0.10410363
105	0x3dc5bdd4	0.096553475
106	0x3e46ca64	0.19413143
107	0x3d391b4d	0.04519205
108	0x3e2c507d	0.16827579
109	0x3cd2a5f2	0.025713895
110	0xbd6baefc	-0.057539925
111	0x3c18aa15	0.0093178945
112	0x3de91344	0.11380628
113	0x3d3c9dcf	0.046048936
114	0x3d8c63a1	0.0685494
115	0x3dbb7e55	0.09154955
116	0xbe469b2a	-0.19395128
117	0xbdbef995	-0.09324948
118	0x3d3771e1	0.044786338
119	0x3da501ad	0.0805696
120	0xbbf66dee	-0.007520429
121	0xbd875832	-0.06608619
122	0x3c161fe3	0.009162876
123	0x3d0fd1c4	0.035112157
124	0x3e49b6e8	0.1969868
125	0xbdd7d8f9	-0.10539431
126	0xbc2470df	-0.010036676
127	0x3dd603f5	0.104499735
128	0xbd93109e	-0.07180904
129	0xbe465a2b	-0.19370334
130	0x3d5ae466	0.053440474
131	0x3ce29424	0.02765853
132	0xbd3e8c50	-0.04652053
133	0xbe484a81	-0.19559671
134	0x3e5138e6	0.20431861
135	0x3c1abc25	0.009444271
136	0x3cf72c57	0.03017251
137	0xbdde4235	-0.10852472
138	0xbe0ab298	-0.1354469
139	0x3e01c50f	0.12672828
140	0x3cea93bd	0.0286349
141	0xbdd254df	-0.10270094
142	0x3db1df55	0.08685175
143	0xbe0b01b4	-0.13574868
144	0xbd7b0e66	-0.06129303
145	0x3e107c0b	0.14109819
146	0x3c86139d	0.016366774
147	0xbd8e93bc	-0.06961772
148	0xbe3dc45a	-0.18531933
149	0x3e14ba6c	0.1452424
150	0xbdde7792	-0.1086265
151	0xbe3fc7ef	-0.18728612
152	0x3dabeca2	0.083947435
153	0xbdd6348a	-0.1045924
154	0xbdcb0cab	-0.099145256
155	0xbd5d4a50	-0.054025948
156	0x3df25335	0.11832277
157	0xbd552f7b	-0.052047234
158	0x3d71a24d	0.058992673
159	0x3e4e9043	0.20172219
160	0x3da4793e	0.080309376
161	0xbcf1c1e1	-0.029511394
162	0x3d593b28	0.05303493
163	0xbe291b07	-0.16514216
164	0x3d46fe34	0.04858227
165	0xbdc071ce	-0.093967065
166	0x3d14df07	0.036345508
167	0xbe39e671	-0.18154313
168	0xbdc814b0	-0.09769571
169	0x3d461007	0.04835513
170	0x3e046221	0.12928058
171	0xbd06b1d3	-0.03288443
172	0xbda33f8e	-0.079711065
173	0xbe3b00ff	-0.18262099
174	0xbb11b3db	-0.0022232446
175	0x3d984c97	0.07436483
176	0xbdaed6ee	-0.08537088
177	0x3e25ceab	0.16192119
178	0x3dc2ffc8	0.09521443
179	0xbe041b04	-0.1290093
180	0x3e2b7530	0.16743922
181	0x3e3f8997	0.1870483
182	0xbd0e5483	-0.034748565
183	0xbdca3395	-0.0987312
184	0xbe2223cd	-0.1583397
185	0x3e32f02b	0.1747443
186	0xbe4a6ded	-0.19768496
187	0xbd954a30	-0.07289541
188	0xbdf99674	-0.121869
189	0xbd3c46c2	-0.045965917
190	0xbc69b109	-0.0142634
191	0x3e388667	0.1802002
192	0x3cb2587f	0.021770714
193	0x3d4866c0	0.048926115
194	0xbd4a9169	-0.04945508
195	0xbe34b79a	-0.17648163
196	0x3d0aab4f	0.03385478
197	0x3d417efb	0.04724024
198	0x3cfb1c18	0.030653045
199	0xbb4bc8e0	-0.0031095073
200	0x3e176313	0.14783888
201	0xbe398173	-0.18115787
202	0x3d940921	0.07228304
203	0x3dfdc0b1	0.123902686
204	0xbdd07f53	-0.10180535
205	0xbd1ad49e	-0.037800424
206	0x3e3af47c	0.18257326
207	0xbe3c7fc9	-0.18408121
208	0x3dc32f1d	0.095304705
209	0xbd8604d9	-0.06543893
210	0xbbc4cacd	-0.006005621
211	0xbe305dca	-0.17223278
212	0xbe3e4623	-0.18581443
213	0x3d6114d5	0.054951508
214	0xbe21c0d6	-0.15796217
215	0x3da949c6	0.08266024
216	0x3e1d1f78	0.15344036
217	0xba6062df	-0.0008559655
218	0x3caba455	0.020952383
219	0x3de5dac5	0.112233676
220	0x3d8d1f6e	0.0689076
221	0x3e2ba824	0.1676336
222	0xbd34f137	-0.044175353
223	0xbe0f1da7	-0.13976155
224	0xbdbcceba	-0.092191175
225	0xbcd5c86f	-0.02609655
226	0x3dcb44e2	0.09925248
227	0xbd2d1287	-0.042253997
228	0xbda242b7	-0.07922881
229	0xbda0a2f3	-0.0784358
230	0x3e048f9d	0.12945409
231	0xbd7593c1	-0.059955362
232	0xbdb6f83b	-0.08934065
233	0x3e0d0dff	0.1377487
234	0x3dc8f761	0.09812809
235	0xbe22ca97	-0.15897594
236	0xbc31d257	-0.010853372
237	0xbda88b08	-0.08229643
238	0xbc53244c	-0.012887072
239	0x3cf74b08	0.030187145
240	0x3db5a763	0.08869817
241	0xbc21d544	-0.009877507
242	0xbdace466	-0.08442001
243	0xbde00ee2	-0.10940339
244	0x3e16ede2	0.14739183
245	0x3caa21a4	0.020767994
246	0xbe2f6127	-0.17126904
247	0xbe3567d0	-0.17715383
248	0x3e512fb6	0.20428357
249	0xba6de441	-0.0009074845
250	0xbd63981d	-0.05556499
251	0xbd95e79f	-0.07319569
252	0x3e3aa5e4	0.18227345
253	0x3df87911	0.121324666
254	0x3e03ab9d	0.12858434
255	0x3e204606	0.15651712

pi.mu_net.0.bias f4 [64]
0	0xbbb231e3	-0.005438076
1	0xbe1a3b65	-0.1506172
2	0x3e1ff1e4	0.15619618
3	0x3e18307a	0.14862242
4	0x3d09a8ef	0.033608373
5	0x3d884aa9	0.06654865
6	0x3e131a58	0.14365518
7	0xbddda293	-0.10822024
8	0x3e44e89d	0.1922936
9	0xbe04fdc7	-0.12987433
10	0x3dcd8160	0.10034442
11	0x3e36e62e	0.17861244
12	0x3d7b24f9	0.061314557
13	0xbdaedf30	-0.085386634
14	0x3e110c0e	0.14164755
15	0x3e3cf1c3	0.184516
16	0x3e3c80b6	0.18408474
17	0xbda12fc0	-0.07870436
18	0xbe139ecf	-0.1441605
19	0xbd570435	-0.052494247
20	0x3dcee1ce	0.101016626
21	0xbdd6e7d9	-0.1049344
22	0x3d105cfa	0.03524492
23	0x3d0a62d2	0.03378565
24	0xbe4e9116	-0.20172533
25	0x3d1c3307	0.0381346
26	0xbe4ed926	-0.20200023
27	0x3e2f76bc	0.17135137
28	0x3c79bb33	0.015242386
29	0xbe4bfc66	-0.19920501
30	0x3e35eefd	0.17766948
31	0x3e1ba90b	0.15201204
32	0x3e3ed43a	0.18635646
33	0xbd6b9996	-0.057519518
34	0xbe2af7b6	-0.16696057
35	0x3e0445b6	0.12917218
36	0xbce95ea6	-0.028487515
37	0xbd38c94a	-0.04511384
38	0xbda9dc27	-0.08293944
39	0xbcc8c5c5	-0.024508366
40	0x3d4306e4	0.047613993
41	0xbc8ec8e9	-0.017429786
42	0x3de7a645	0.1131101
43	0xbe278038	-0.16357505
44	0xbe02d03d	-0.12774749
45	0xbe4ee1ed	-0.20203371
46	0x3cddb958	0.027065918
47	0x3e2cb3b5	0.16865428
48	0x3db28b30	0.08717954
49	0x3d5ef6da	0.054434635
50	0xbd89a217	-0.06720369
51	0xbdb3ee9c	-0.087857455
52	0x3d96fb21	0.07372118
53	0xbd33cbfb	-0.043895703
54	0x3d663f37	0.05621263
55	0xbe40d26c	-0.1883027
56	0x3b660d83	0.0035103268
57	0x3da4e6f4	0.08051863
58	0xbd9ed221	-0.07754923
59	0x3d979f1d	0.07403395
60	0xbd956389	-0.072943754
61	0xbcc028de	-0.023456987
62	0xbde14ab7	-0.11000579
63	0xbe2a8f70	-0.1665628

pi.mu_net.2.weight f4 [64, 64]
0	0x3dba0655	0.09083239
1	0x3daec937	0.085344724
2	0x3df0f2dc	0.11765072
3	0x3d894d9f	0.06704258
4	0x3d6f271f	0.05838692
5	0xbdf93b5d	-0.12169526
6	0xbca1ea79	-0.019765126
7	0x3db963aa	0.090522125
8	0xbd4f5cd1	-0.050625626
9	0xbdbfe728	-0.093702614
10	0x3d11b6b7	0.03557464
11	0x3d7cc352	0.06170971
12	0x3d8b5c44	0.06804708
13	0xbde3622b	-0.111027084
14	0x3d1729fd	0.036905278
15	0x3debb0e2	0.11508347
16	0xbda61375	-0.0810918
17	0xbb42c1ea	-0.0029717633
18	0x3d37b5c4	0.04485108
19	0xbcfbb70a	-0.030726928
20	0x3d6fcdb9	0.0585458
21	0xbd5f7e51	-0.054563824
22	0xbdce3876	-0.10069363
23	0x3bee58e0	0.0072737783
24	0x3df2bd35	0.118524946
25	0xbda472f1	-0.08029736
26	0x3d93afa3	0.072112344
27	0x3da4ad33	0.08040848
28	0x3debf7f3	0.11521902
29	0xbd1cc1b3	-0.038270663
30	0xbd604173	-0.054749917
31	0xbd98480a	-0.07435615
32	0x3ce7a0b4	0.028274871
33	0x3dec53d5	0.11539427
34	0xbcddd377	-0.027078373
35	0x3da7e952	0.08198799
36	0x3d5ba681	0.053625587
37	0x3c65f6eb	0.014035921
38	0x3d98cdb8	0.07461113
39	0x3dbe9375	0.09305469
40	0x3dce6dd7	0.10079544
41	0xbd999b86	-0.07500367
42	0x3dbf206e	0.09332357
43	0xbc1dde6f	-0.009635552
44	0x3d94a5b5	0.072581686
45	0x3d9c55e4	0.0763357
46	0x3c9687a5	0.018375227
47	0xbd98dac4	-0.07463601
48	0xbdca7d40	-0.09887171
49	0xbd63bd7e	-0.055600636
50	0xbd7b680e	-0.06137853
51	0x3dc69f6a	0.096983746
52	0xbc7c7762	-0.015409322
53	0xbd44e776	-0.0480723
54	0x3ccc97cb	0.024974724
55	0xbde337e6	-0.11094646
56	0x3df776ce	0.12083207
57	0x3cc87334	0.024468996
58	0x3dea0e9d	0.114285685
59	0x3d05cd13	0.032666277
60	0xbdf3cbc1	-0.11904097
61	0xbd9bb314	-0.07602516
62	0xbdd13ac6	-0.10216288
63	0x3d8e87db	0.06959506
64	0x3d864bda	0.06557436
65	0xbd59b62e	-0.053152256
66	0xbd26aa87	-0.04068997
67	0x3daf2733	0.085523985
68	0x3ced7f22	0.028991286
69	0x3c419085	0.011814241
70	0xbdd404f8	-0.1035251
71	0xbd8ed1e0	-0.06973624
72	0x3dd7e76e	0.105421886
73	0xbdb83615	-0.0899469
74	0x3df24877	0.11830228
75	0x3cbebaaa	0.023282368
76	0xbd882425	-0.06647519
77	0xbd8cd979	-0.06877417
78	0x3d83b5a2	0.06431128
79	0xbcd02a63	-0.025410837
80	0x3dd3047c	0.1030359
81	0x3ca515af	0.020151941
82	0x3da7a9e6	0.081867024
83	0x3df48d03	0.11940958
84	0xbdc5e57e	-0.09662913
85	0x3d9b86f4	0.075941
86	0x3b5220dd	0.0032063045
87	0xbbafbb59	-0.0053629098
88	0x3c4a2279	0.0123373205
89	0xbd3d6a14	-0.046243742
90	0x3cb36257	0.021897478
91	0xbdeb0b6a	-0.114767864
92	0x3ca3e431	0.020006271
93	0x3de426f2	0.11140241
94	0xbdd6b158	-0.104830444
95	0xbd81d107	-0.06338697
96	0xbc613fe5	-0.013748144
97	0xbde02432	-0.10944404
98	0xbc4b79b1	-0.01241915
99	0x3d38d46f	0.045124467
100	0x3dddd3af	0.10831391
101	0x3d4247d9	0.0474318
102	0x3d9d6f4b	0.07687243
103	0xbdc5d144	-0.09659055
104	0xbcc1f848	-0.02367796
105	0xbc9dbedc	-0.019256048
106	0xbb35268e	-0.0027641389
107	0xbdd2fa30	-0.10301626
108	0x3d503d27	0.05083957
109	0xbcef37ea	-0.029201467
110	0xbde59adf	-0.1121118
111	0x3de8babe	0.11363743
112	0xbd6406c8	-0.05567053
113	0x3dc5cefc	0.0965862
114	0xbd402b44	-0.04691626
115	0xbd385e71	-0.04501194
116	0xbd752b63	-0.05985583
117	0xbced1391	-0.028939994
118	0x3d4c6299	0.049898718
119	0x3d4e367a	0.05034492
120	0x3dc3679d	0.09541247
121	0xbd8ad4a4	-0.06778839
122	0x3d8eb231	0.06967581
123	0xbd87b8a7	-0.066270165
124	0xbc0dab62	-0.008646818
125	0x3dfc371b	0.12315198
126	0xbb9939f8	-0.0046761
127	0xbdfd6d40	-0.123743534
128	0x3dd1e51c	0.10248777
129	0x3d198848	0.037483484
130	0xbd905d94	-0.070490986
131	0xbd1bc443	-0.038028967
132	0xbd2d0885	-0.042244453
133	0xbd8db436	-0.06919138
134	0x3da35eb4	0.079770476
135	0xbcc3975e	-0.023875888
136	0xbdcfa1da	-0.101382926
137	0xbc98b5ea	-0.01864143
138	0x3d23c1c4	0.03997971
139	0x3d2c0b0d	0.042002726
140	0xbc8015b6	-0.015635353
141	0x3c8782ce	0.016541865
142	0x3c3d38a3	0.011549148
143	0xbde986e3	-0.11402681
144	0x3dee700b	0.11642464
145	0x3af68ea9	0.0018810827
146	0x3dd9674e	0.10615407
147	0x3d5812c3	0.052752268
148	0xbd3f46d1	-0.046698395
149	0xbdbc6f4d	-0.092009164
150	0x3c50cf94	0.012744803
151	0xbd0c9727	-0.034323838
152	0x3bba3fa8	0.005683858
153	0xbd1f2732	-0.03885574
154	0x3bc20811	0.0059213717
155	0x3da4770f	0.08030521
156	0xbd8f209e	-0.06988643
157	0xbdc89063	-0.097931646
158	0xbdbd2b36	-0.092367575
159	0x3db51e7f	0.08843707
160	0xbda588a6	-0.08082704
161	0x3d7889e5	0.06067838
162	0xbd9376d0	-0.07200396
163	0x3d30761e	0.043081395
164	0xbd70802e	-0.05871599
165	0xbcf51686	-0.029917967
166	0xbdd418ae	-0.1035627
167	0xbd206d34	-0.039166644
168	0xbda813ba	-0.082068875
169	0xbdd6af62	-0.1048267
170	0x3d92125c	0.07132408
171	0x3dbd2d37	0.0923714
172	0xbdd445e3	-0.10364892
173	0xbdbe778c	-0.093001455
174	0x3d113811	0.03545386
175	0xbc0c14ad	-0.008549851
176	0xbd86ceee	-0.065824375
177	0x3db7fafd	0.08983419
178	0xbddaff34	-0.106932074
179	0xbdaf8538	-0.08570331
180	0xbd14c24d	-0.036318112
181	0xbdc0b50d	-0.09409533
182	0xbd3e340f	-0.046436366
183	0xbddf0eff	-0.10891532
184	0x3d077e70	0.033079565
185	0x3d1a6680	0.037695408
186	0xbdd5d704	-0.104414016
187	0xbb79aad4	-0.0038096206
188	0x3d42a980	0.04752493
189	0x3dc927a3	0.09822013
190	0xbd1ec853	-0.038765263
191	0x3de2301a	0.11044331
192	0xbcb3edda	-0.021964002
193	0xbb96f118	-0.0046063773
194	0x3d05ff63	0.03271426
195	0x3b52b3de	0.0032150666
196	0x3c3123aa	0.010811726
197	0xbdbf3ff5	-0.09338371
198	0xbcdc7e2a	-0.026915628
199	0xbc352196	-0.011055371
200	0xbdddcad2	-0.108297005
201	0x3d3e317f	0.046433922
202	0xbd164961	-0.036691073
203	0x3c9a3549	0.018824236
204	0x3d994331	0.07483519
205	0x3dc0d232	0.094150916
206	0xbdc36e0d	-0.09542475
207	0x3de8fcb0	0.11376321
208	0xbd067994	-0.03283079
209	0x3dd70cf8	0.105005205
210	0xbdf032c0	-0.1172843
211	0x3ba75cd0	0.0051074997
212	0x3de104e8	0.10987264
213	0xbd4c0dac	-0.049817726
214	0x3dbf9952	0.093554154
215	0xbd021456	-0.031757675
216	0xbce0c68f	-0.02743843
217	0x3db68d42	0.089136615
218	0x3c8ceeed	0.017203772
219	0xbda62a97	-0.08113592
220	0xbd7b1f0d	-0.06130891
221	0x3c9320ef	0.01796004
222	0xbddb1b96	-0.10698621
223	0xbd522561	-0.05130518
224	0xbd968f42	-0.07351543
225	0x3ddbde31	0.10735739
226	0x3cb910b3	0.02259097
227	0xbd8bd8fe	-0.06828497
228	0xbca41368	-0.020028785
229	0x3d1c0782	0.038093098
230	0xbdd6052d	-0.10450206
231	0x3dbb9c7f	0.09160709
232	0x3c88035d	0.016603166
233	0x3d2a690c	0.041604087
234	0x3dcbcf59	0.09951658
235	0xbda2cf56	-0.079497024
236	0xbacac46b	-0.0015469914
237	0xbda5b3fa	-0.080909684
238	0xbd99872e	-0.074964866
239	0xbd9d67f4	-0.07685843
240	0xbd97b32c	-0.07407221
241	0xbda53846	-0.08067374
242	0xbd22c26a	-0.03973619
243	0xbc415264	-0.011799429
244	0x3ddab400	0.106788635
245	0x3d72111b	0.059098344
246	0x3d682a02	0.056680687
247	0xbd829720	-0.06376481
248	0xbdc9e099	-0.09857292
249	0xbddba0bc	-0.10724017
250	0x3cca286f	0.024677483
251	0x3cedb52b	0.029017052
252	0xbde6a972	-0.11262788
253	0xbb9daa5c	-0.004811568
254	0x3db30df5	0.087428965
255	0xbd9cd010	-0.07656872

pi.mu_net.2.bias f4 [64]
0	0x3d880c7e	0.06643008
1	0xbdbd1021	-0.09231592
2	0x3d05eef4	0.032698587
3	0x3d93f9fb	0.07225414
4	0xbd69df1a	-0.05709753
5	0xbc8e031f	-0.017335473
6	0xbc6bdfe7	-0.014396644
7	0xbd1981d8	-0.037477344
8	0xbd8f510a	-0.06997879
9	0x3dbc4dc7	0.09194522
10	0x3da89391	0.08231271
11	0xbce26535	-0.02763615
12	0xbde09536	-0.1096596
13	0x3d754b67	0.059886362
14	0x3de55038	0.11196941
15	0x3c854a96	0.016270917
16	0x3da25871	0.07927025
17	0xbdaa979b	-0.08329698
18	0x3c7d1706	0.015447384
19	0xbb9fffb3	-0.0048827766
20	0xbbccf756	-0.0062550707
21	0x3d77ca7d	0.060495842
22	0xbcb7f5b6	-0.022456031
23	0xbd0c6c82	-0.03428317
24	0x3da1d444	0.079018146
25	0xbdce91d6	-0.1008641
26	0xbd2122b6	-0.039339744
27	0x3d9f814a	0.07788332
28	0x3d1c6f9e	0.038192384
29	0x3d506cdc	0.050885066
30	0x3d048798	0.032355875
31	0xbd5a06c3	-0.053229105
32	0xbd92e9b4	-0.071734816
33	0x3dc5b386	0.09653382
34	0xbb9c1df6	-0.004764314
35	0x3cb7b972	0.022427294
36	0x3cc84c81	0.024450542
37	0x3cad4387	0.021150364
38	0xbca2b708	-0.019862667
39	0x3d4e517a	0.05037067
40	0xbba7c723	-0.0051201745
41	0x3ddcb652	0.10776962
42	0x3e005dd6	0.12535796
43	0xbdf1d7b9	-0.11808724
44	0xbce48791	-0.027896674
45	0xbd93a81a	-0.07209797
46	0xbcbe302b	-0.023216328
47	0xbdb96382	-0.09052183
48	0x3d5cabaa	0.05387465
49	0x3e01f912	0.12692669
50	0x3c832e5a	0.016013313
51	0x3b6e14d2	0.0036328328
52	0x3ddbddb6	0.107356474
53	0xbcfd4f32	-0.030921552
54	0x3debefb3	0.115203284
55	0x3da11f2f	0.07867276
56	0x3d9b42a8	0.07581073
57	0xbd792f07	-0.060835864
58	0x3de8c2d0	0.113652825
59	0xbd6e13bf	-0.0581243
60	0x3cf5ef1d	0.030021245
61	0x3c54f695	0.012998243
62	0x3c97567d	0.018473858
63	0x3c74f566	0.014951086

pi.mu_net.4.weight f4 [6, 64]
0	0x3dccd375	0.1000127
1	0x3c62e1ac	0.01384775
2	0xbd3c64f5	-0.045994718
3	0xbd8e14b7	-0.06937545
4	0xbdb8d197	-0.09024351
5	0x3c036a2a	0.008020917
6	0xbd8443db	-0.06458255
7	0x3d516e90	0.05113083
8	0xbd193d99	-0.03741226
9	0xbd64e3ef	-0.055881437
10	0xbdc7f33b	-0.097631894
11	0xbd29315f	-0.04130685
12	0x3cca1458	0.024667904
13	0xbd8daa78	-0.0691728
14	0x3d156a1a	0.03647814
15	0x3da416f2	0.08012189
16	0xbb023787	-0.0019869523
17	0xbdd7a760	-0.10529971
18	0x3d84a3f1	0.06476582
19	0x3cadef3f	0.021232245
20	0x3dca716b	0.09884914
21	0xbd87a8ce	-0.06623994
22	0xbdb9fcea	-0.09081443
23	0x3dfdf9cb	0.1240116
24	0x3d98dafd	0.07463644
25	0xbdf7a1aa	-0.12091382
26	0x3dd84317	0.10559671
27	0xbd7d1a26	-0.061792515
28	0xbde73234	-0.11288872
29	0x3c8d67e5	0.017261455
30	0x3bcf877b	0.006333289
31	0xbb48bc54	-0.003062983
32	0x3cfd5596	0.0309246
33	0x3d22310c	0.039597556
34	0xbd5e3109	-0.054245982
35	0x3c80b9fc	0.015713684
36	0xbbbecf55	-0.0058230557
37	0x3b1e3cd9	0.0024145155
38	0x3ddde1ae	0.108340606
39	0xbdef862a	-0.11695512
40	0xbdc48841	-0.09596301
41	0x3dca6eb8	0.09884399
42	0x3dd50f2f	0.10403287
43	0xbdc7192a	-0.097215965
44	0x3dd6e081	0.104920395
45	0xbbfafaba	-0.0076592835
46	0xbd191294	-0.037371233
47	0x3db190af	0.08670174
48	0xbde274ad	-0.110574104
49	0x3d66ec11	0.056377474
50	0xbd87776c	-0.06614575
51	0xbd51770d	-0.051138926
52	0xbd8e28b4	-0.06941357
53	0xbdb1ee8d	-0.08688078
54	0xbdae54ff	-0.085123055
55	0x3dbe0203	0.092777275
56	0xbdfc6fc8	-0.12326008
57	0xbded28e3	-0.11580064
58	0xbd06b43f	-0.03288674
59	0x3c15602d	0.009117168
60	0xbd82d189	-0.06387622
61	0x3df6a47a	0.1204309
62	0x3d59a52f	0.053136047
63	0xbc7ede65	-0.015555953
64	0xbdef85d8	-0.116954505
65	0x3d5d6eb3	0.05406065
66	0xbde3c769	-0.11122019
67	0x3d9d4823	0.076797746
68	0xbd069066	-0.032852553
69	0x3df7e8cc	0.12104949
70	0x3d968c7d	0.07351015
71	0xbb863f3d	-0.004096894
72	0xbdf0e0f3	-0.11761656
73	0xbca533f9	-0.020166384
74	0xbcdb4ae1	-0.026769103
75	0x3dec1cef	0.11528956
76	0xbde193ed	-0.11014543
77	0x3dba9d19	0.09111995
78	0xbd8f815c	-0.07007095
79	0xbd505fb9	-0.05087254
80	0xbdd637b8	-0.10459846
81	0xbdc8214e	-0.09771977
82	0x3ca917fe	0.020641323
83	0x3de32c90	0.11092484
84	0xbd560f67	-0.052260783
85	0x3dbd6f6a	0.09249766
86	0xbd6c6ea7	-0.057722714
87	0xbd91a2f2	-0.071111575
88	0x3da54ed4	0.08071676
89	0xbdd1dc5b	-0.102471076
90	0x3cb04808	0.021518722
91	0xbd90989b	-0.07060357
92	0x3dfcb8ac	0.12339911
93	0x3993e55c	0.0002820891
94	0x3d213cbb	0.039364558
95	0xb9db3c4f	-0.00041815868
96	0x3da82d03	0.0821171
97	0xbd83d9bc	-0.06438014
98	0xbcb75d4b	-0.022383353
99	0x3d0839f7	0.033258405
100	0x3dbdc35f	0.0926578
101	0x3cd105dc	0.02551549
102	0x3db94b03	0.090475105
103	0xbd8a966b	-0.06766971
104	0xbd819acc	-0.06328353
105	0x3b6d85c2	0.0036243056
106	0xbd53159c	-0.05153428
107	0xbdf43590	-0.11924279
108	0x3c23abea	0.009989718
109	0xbd9ddf9f	-0.07708668
110	0x3d4633c9	0.04838923
111	0x3a92ef9c	0.0011210325
112	0xbd8adc0e	-0.06780253
113	0xbde5776b	-0.11204418
114	0xbdabdb31	-0.08391417
115	0xbb72e77a	-0.003706424
116	0x3cc7ad45	0.024374614
117	0xbd8eacc4	-0.06966546
118	0x3dddf30c	0.10837373
119	0xbc58ab2a	-0.013224402
120	0xbd4085aa	-0.047002472
121	0xbd84fca6	-0.06493501
122	0x3da83184	0.08212569
123	0xbdf75d61	-0.120783575
124	0x3db9d4a9	0.09073765
125	0xbda929f1	-0.08259953
126	0x3bd629ca	0.0065357434
127	0x3ce3b94f	0.027798323
128	0x3cf3d0d1	0.029762657
129	0x3cad320a	0.021142025
130	0xbd505050	-0.050857842
131	0x3bc7481d	0.0060815946
132	0xbc8a4bf4	-0.01688192
133	0x3df64ed6	0.120267555
134	0x3b768f7f	0.0037622151
135	0xbddaf90a	-0.10692032
136	0xbd14e758	-0.03635344
137	0xbdc3d35d	-0.09561799
138	0xbd4911b7	-0.04908916
139	0x3cd86870	0.026416987
140	0x3d163b39	0.036677573
141	0xbd8a5487	-0.067544036
142	0xbc149fdb	-0.009071316
143	0x3cd193d5	0.025583187
144	0x3d35c63c	0.044378504
145	0x3d310e9b	0.04322682
146	0xbd5c25be	-0.05374693
147	0xbda6e56b	-0.08149227
148	0xbda2bf5b	-0.079466544
149	0xbde7915f	-0.11307024
150	0x3dbddebd	0.092709996
151	0x3d2d6d1f	0.042340394
152	0x3d8975a1	0.06711889
153	0x3a7032b5	0.00091628294
154	0xbdb4cf99	-0.088286586
155	0xbdccd518	-0.10001582
156	0xbd8579c2	-0.06517364
157	0xbd8fabc1	-0.07015181
158	0xbc198181	-0.009369255
159	0xbc10cd6b	-0.008838038
160	0xbd5468d0	-0.05185777
161	0xbd52610f	-0.051362094
162	0x3df95ccc	0.12175903
163	0xbde6e280	-0.1127367
164	0x3ddd3a98	0.108021915
165	0x3cb567c4	0.022144206
166	0xbc8a8109	-0.016907232
167	0x3db4e4b2	0.08832683
168	0x3c806894	0.015674867
169	0xbdad5886	-0.0846415
170	0x3d74a4db	0.05972753
171	0x3ce0071b	0.027347138
172	0x3c509111	0.012729899
173	0xbd8360f9	-0.064149804
174	0xbd2ca142	-0.042145975
175	0x3df4b50d	0.11948595
176	0xbc5c6078	-0.013450734
177	0xbcf1a53f	-0.02949774
178	0xbc456a90	-0.012049332
179	0x3d53110e	0.051529936
180	0x3b42fc6a	0.0029752501
181	0x3d0fb70f	0.035086688
182	0x3dc27adb	0.09496089
183	0x3db2d531	0.08732069
184	0xbcd85565	-0.026407907
185	0xbd174b7c	-0.036937222
186	0xbd69dd6c	-0.05709593
187	0xbdb54d00	-0.08852577
188	0xb9ab35fd	-0.00032655886
189	0x3dc84310	0.09778416
190	0x3c8bb311	0.017053159
191	0xbcf34213	-0.029694593
192	0xbc311c55	-0.010809978
193	0x3de89f0a	0.11358459
194	0xbdf6de73	-0.120541476
195	0x3d01f8c2	0.031731375
196	0xbd0e5560	-0.03474939
197	0xbd783fac	-0.060607597
198	0xbdfe3410	-0.12412274
199	0x3c912ff9	0.01772307
200	0xbcf6e9f7	-0.03014086
201	0x3d899076	0.06717007
202	0x3d6ab652	0.05730278
203	0xbd9817d3	-0.07426419
204	0xbdaf8c5e	-0.08571695
205	0xbc3b585d	-0.011434642
206	0xbd2c7a36	-0.042108737
207	0x3d383f89	0.044982467
208	0xbd6a370a	-0.057181396
209	0xbde1197d	-0.1099119
210	0xbd0cf16c	-0.034409925
211	0x3d9e692f	0.07734906
212	0x3ddcecfc	0.10787389
213	0x3dfa510f	0.12222492
214	0x3caa8071	0.020813199
215	0x3d9df50b	0.07712754
216	0x3dcb51b8	0.09927696
217	0xbcc557c1	-0.024089696
218	0x3dcb75b5	0.0993456
219	0xbbb977a4	-0.005660014
220	0x3db2d952	0.08732857
221	0xbd190a5e	-0.037363403
222	0x3dcfafb6	0.10140936
223	0xbd85666e	-0.065136775
224	0x3db97f40	0.09057474
225	0x3d993be3	0.074821256
226	0x3d31c52d	0.043400932
227	0xbdc3d424	-0.09561947
228	0x3bfecc79	0.00777584
229	0x3e01ca4a	0.12674823
230	0x3c84b11a	0.01619773
231	0x3cdf928b	0.027291557
232	0x3dd93da2	0.10607459
233	0x3d1f0f2c	0.03883283
234	0x3d31a544	0.0433705
235	0x3db03a26	0.08604841
236	0x3d2ecbd0	0.04267484
237	0x3d9826fe	0.07429312
238	0x3dbfe64f	0.093701
239	0x3d8520a9	0.0650037
240	0xbd8b14d0	-0.06791079
241	0xbdace7bf	-0.084426396
242	0x3da52c8f	0.080651395
243	0xbdbf7f30	-0.09350431
244	0xbcf61516	-0.030039351
245	0xbc4d1c1a	-0.012518907
246	0x3d2cfdf8	0.04223439
247	0x3bf9a9db	0.0076191253
248	0x3dbacc2e	0.091209754
249	0xbd6c2515	-0.05765255
250	0xbdb4b0e1	-0.088227995
251	0x3d9a2e93	0.075284146
252	0x3d1f923f	0.03895783
253	0xbd200f6a	-0.0390772
254	0x3dd7bfc3	0.105346225
255	0x3dc50dc5	0.09621767

pi.mu_net.4.bias f4 [6]
0	0xbd8f82aa	-0.07007344
1	0x3cf66108	0.030075565
2	0xbd32e1a4	-0.04367222
3	0xbca889a8	-0.020573452
4	0x3c4252f4	0.011860598
5	0x3d5abd92	0.053403445

vf.v_net.0.weight f4 [64, 24]
0	0x3d4d5710	0.050131857
1	0xbe2bccb9	-0.16777314
2	0x3e0114d8	0.12605608
3	0xbe05f257	-0.13080727
4	0x3d663b49	0.056208882
5	0x3e35d776	0.17757973
6	0xbe47aaa3	-0.19498686
7	0xbe4972b7	-0.19672666
8	0x3c637112	0.0138819385
9	0xbe38358d	-0.17989178
10	0xbde2583e	-0.11051987
11	0xbdae4051	-0.08508361
12	0x3dfad403	0.12247469
13	0xbd3c9200	-0.046037674
14	0xbe4dee6f	-0.20110486
15	0xbe14864a	-0.14504352
16	0x3de9d7e8	0.11418134
17	0xbe1748a3	-0.14773802
18	0x3d293cc0	0.0413177
19	0x3d8d623a	0.06903501
20	0xbe0e212f	-0.13879846
21	0xbe2b7afe	-0.16746137
22	0xbd9785dc	-0.073985785
23	0xbdde0169	-0.10840113
24	0x3d9483f8	0.072517335
25	0xbddb213f	-0.106997006
26	0x3e438e60	0.1909728
27	0xbdfe22bd	-0.124089696
28	0x3e0a647c	0.13514894
29	0xbe0df0c0	-0.1386137
30	0x3dd99025	0.106231965
31	0xbd5f1bdc	-0.05446993
32	0xbd8bd42c	-0.06827578
33	0x3e1f5816	0.15560946
34	0xbe36b3e3	-0.17842059
35	0xbd28be31	-0.041197006
36	0x3e505152	0.20343521
37	0xbd0c7a27	-0.03429618
38	0xbe0a9d7d	-0.1353664
39	0x3d726536	0.059178554
40	0xbd7fbb6e	-0.062434606
41	0xbe0071fb	-0.1254348
42	0xbe2e452a	-0.17018571
43	0x3e4d5020	0.20050097
44	0xbdf797ae	-0.120894775
45	0xbe3ceb5d	-0.18449159
46	0x3e448f5a	0.1919531
47	0x3e08b322	0.13349584
48	0x3da22b61	0.0791843
49	0x3dae02bf	0.084966175
50	0x3db940b2	0.09045543
51	0xbd80da5f	-0.06291651
52	0xbe4184ca	-0.18898311
53	0x3dfdd047	0.123932414
54	0x3a50aed8	0.0007960624
55	0x3e084b38	0.13309944
56	0xbdd682a5	-0.10474137
57	0xbe47d3a1	-0.19514324
58	0x3e2a857c	0.16652483
59	0xbe3b515d	-0.18292756
60	0xbc04471e	-0.008073596
61	0xbde7ad18	-0.11312312
62	0xbdc9ad87	-0.09847551
63	0xbe28d290	-0.16486573
64	0x3cf17aad	0.029477442
65	0x3dc1a426	0.09455137
66	0xbd3c0292	-0.04590089
67	0x3e31be7f	0.17357825
68	0x3e43e9f8	0.19132221
69	0xbe641016	-0.22271761
70	0xbda89c75	-0.08232967
71	0x3dc8cb15	0.0980436
72	0xbc3108d6	-0.010805329
73	0x3e16c6ef	0.14724325
74	0x3d049a58	0.032373756
75	0xbe2c0e34	-0.16802293
76	0xbdbcb3c6	-0.092139766
77	0xbe34f0f6	-0.17670044
78	0xbe0fe43c	-0.14051908
79	0xbc0f89c0	-0.0087608695
80	0x3e38a507	0.18031703
81	0xbe1f9758	-0.15585077
82	0x3db7501a	0.08950825
83	0xbe1077ac	-0.14108151
84	0x3ae6e9c3	0.0017617274
85	0xbe4a0759	-0.19729365
86	0xbda71db8	-0.08159965
87	0xbe492211	-0.19641902
88	0x3e0fd996	0.14047846
89	0x3d2d6e4f	0.042341527
90	0xbdb49619	-0.08817691
91	0xbc8f44dc	-0.01748889
92	0xbdac88de	-0.08424543
93	0x3e1c179b	0.1524338
94	0xbe541fbf	-0.20715235
95	0x3df26e1f	0.1183741
96	0x3e3f84e4	0.18703038
97	0x3e4c29d8	0.19937837
98	0xbdaa2332	-0.08307494
99	0x3e50d047	0.20391952
100	0xbe489436	-0.19587788
101	0x3d5fd2f6	0.054644547
102	0x3dbf9972	0.09355439
103	0xbd905659	-0.070477195
104	0x3d411a4c	0.04714422
105	0xbe41c58c	-0.18923014
106	0xbe539c99	-0.20665206
107	0x3d96c75d	0.07362244
108	0xbe03e460	-0.12880087
109	0x3d4a8817	0.04944619
110	0xbda0c68e	-0.07850371
111	0xbe2ba90d	-0.16763707
112	0x3dde282b	0.10847505
113	0xbd2af977	-0.041741814
114	0x3e452c59	0.19255199
115	0xbd91d14e	-0.0712
116	0x3e0ddb42	0.13853171
117	0x3dc2393a	0.09483571
118	0x3e014137	0.12622534
119	0x3d4d2b52	0.05009014
120	0xbe608fa8	-0.219298
121	0x3c91102a	0.017707903
122	0xbd844bbc	-0.06459758
123	0xbd617963	-0.055047404
124	0xbdc73beb	-0.09728225
125	0xbdd856c3	-0.105634235
126	0x3d552124	0.05203356
127	0x3db5f4e3	0.08884599
128	0xbe351675	-0.17684348
129	0xbd09ca27	-0.033640053
130	0x3d4c4557	0.049870815
131	0xbe152548	-0.14565003
132	0xbe200ace	-0.15629122
133	0x3c736a9f	0.014856963
134	0x3d358b62	0.04432238
135	0xbe3d6ff3	-0.18499736
136	0xbcba3268	-0.022729114
137	0xbe1d1cac	-0.15342969
138	0xbd23ba95	-0.03997286
139	0xbe1a1f96	-0.15051112
140	0xbd1015ed	-0.03517716
141	0x3d8fccdc	0.07021496
142	0x3db3948a	0.08768566
143	0x3dabe679	0.083935685
144	0x3cfec2e0	0.031098783
145	0x3d34a694	0.044104174
146	0xbdce4bb8	-0.10073036
147	0x3d1c7852	0.038200684
148	0x3e04af58	0.12957513
149	0xbe3c2760	-0.18374395
150	0x3c98f70e	0.018672492
151	0x3e34c708	0.1765405
152	0xbe3aa780	-0.18227959
153	0x3b2df48a	0.0026543462
154	0x3ceaec87	0.028677238
155	0x3e52b823	0.20578055
156	0x3dace7b9	0.08442635
157	0x3a5f93c8	0.0008528796
158	0x3c34ce06	0.011035448
159	0x3e468383	0.19386105
160	0xbd662b4f	-0.056193646
161	0x3d14cfb4	0.036330894
162	0xbd129434	-0.03578587
163	0x3e0e2214	0.13880187
164	0x3e55b56b	0.20869987
165	0x3de51054	0.11184755
166	0x3df57d53	0.11986794
167	0xbe51ff68	-0.20507586
168	0x3e1035b5	0.14082988
169	0x3e23a9eb	0.15982787
170	0x3ca2a0a3	0.019851988
171	0x3e0beb44	0.13663965
172	0x3dbba6b4	0.091626555
173	0x3e270bc7	0.16313086
174	0xbe193038	-0.149598
175	0xbe14f919	-0.14548148
176	0x3e101640	0.14070988
177	0xbd671eae	-0.056425743
178	0xbdf7ad19	-0.12093563
179	0xbe45dc1c	-0.19322246
180	0xbe59f43e	-0.21284577
181	0x3db336ea	0.087507084
182	0x3d5d79df	0.054071303
183	0xbe1d10fa	-0.15338507
184	0x3d4d5fc9	0.050140176
185	0x3dfe980c	0.124313444
186	0x3e1ec5a4	0.15505081
187	0x3dfadb02	0.12248804
188	0xbe2a6ab8	-0.16642272
189	0x3dec0d0e	0.115259275
190	0x3daa8162	0.08325459
191	0x3dfc5804	0.12321475
192	0xbd5c07e8	-0.053718477
193	0xbe0a6854	-0.1351636
194	0x3d99325e	0.0748031
195	0x3d86aac1	0.065755375
196	0xbe3efae5	-0.18650396
197	0x3d694910	0.056954443
198	0x3d99a730	0.075025916
199	0xbe343e38	-0.1760186
200	0x3d92a382	0.07160093
201	0xbc99d46d	-0.01877805
202	0xbda7a18f	-0.08185112
203	0xbdbbbbef	-0.09166705
204	0xbdbb9026	-0.091583535
205	0xbdcad388	-0.09903628
206	0xbe1277ad	-0.14303465
207	0xbe238a34	-0.15970689
208	0xbde41ea4	-0.11138657
209	0x3d25ec89	0.04050878
210	0x3e518b76	0.20463356
211	0x3b736d1e	0.0037143896
212	0xba2b28a8	-0.00065291906
213	0x3d6172e6	0.055041216
214	0x3e0243b1	0.12721135
215	0xbdb2461a	-0.08704777
216	0x3e37ac9d	0.1793694
217	0xbe0c2906	-0.13687524
218	0x3e2fd206	0.17169961
219	0x3be9e64b	0.0071380488
220	0x3e0cc1d0	0.13745809
221	0x3dea70a8	0.11447269
222	0x3e3435f5	0.17598708
223	0xbdf02fa4	-0.11727837
224	0xbe13d282	-0.14435771
225	0xbdd7db43	-0.10539868
226	0x3d183975	0.03716417
227	0xbd8b736e	-0.06809126
228	0x3d3429ed	0.043985296
229	0xbde7a6d6	-0.11311118
230	0x3bd5e082	0.0065270076
231	0x3d9041ad	0.07043777
232	0x3e0d6bb2	0.13810614
233	0xbdc78926	-0.09742956
234	0xbd86dde0	-0.06585288
235	0xbe3f3ff7	-0.18676744
236	0xbe28ac49	-0.16471972
237	0xbe0839d7	-0.13303314
238	0x3ca8c002	0.020599369
239	0xbccacc0d	-0.024755502
240	0x3e21a48e	0.15785429
241	0x3e2e1e07	0.17003642
242	0x3da52478	0.080635965
243	0x3d237ec4	0.039915815
244	0xbd2faac0	-0.04288745
245	0xbddc294b	-0.107500635
246	0xbb8f9162	-0.0043813447
247	0x3d5a88af	0.053353008
248	0xbcbedeaf	-0.023299543
249	0xbe0bf9b5	-0.13669474
250	0x3dafe564	0.08588675
251	0xbd6d6034	-0.057953075
252	0x3c85dcc8	0.016340628
253	0x3e0bb3bd	0.13642783
254	0x3e3d1ac0	0.18467236
255	0x3d950a3d	0.072773434

vf.v_net.0.bias f4 [64]
0	0x3c849a0c	0.016186737
1	0x3d021b1b	0.03176413
2	0xbe313d09	-0.1730844
3	0x3df3c251	0.11902297
4	0x3ca141f9	0.019684779
5	0x3e4443d2	0.19166496
6	0x3e15ca32	0.14627913
7	0x3e0092dc	0.12556022
8	0x3dab9bbc	0.08379313
9	0xbcc9082d	-0.024540031
10	0x3e1095da	0.14119664
11	0x3e57ba25	0.21067102
12	0xbcbea3ca	-0.02327146
13	0x3e15437e	0.14576527
14	0x3d5b9393	0.053607535
15	0x3df8011e	0.12109588
16	0x3de0a175	0.109682955
17	0xbdccdfbe	-0.10003613
18	0xbcb54fe6	-0.022132825
19	0xbd6f7987	-0.058465507
20	0xbe418d70	-0.1890161
21	0x3e518966	0.2046257
22	0xbe01c4b6	-0.12672696
23	0x3d93b5c0	0.072124004
24	0x3d8c804a	0.06860407
25	0x3e523456	0.20527777
26	0xbe125e82	-0.14293864
27	0x3e09a4c1	0.13441755
28	0x3d97e65d	0.07416985
29	0xbe2681ef	-0.16260503
30	0xbe0476ad	-0.12935896
31	0xbdc5eda2	-0.096644655
32	0x3e5d0372	0.21583346
33	0xbdc0476a	-0.09388621
34	0xbb841f16	-0.004032026
35	0xbcf8a1af	-0.030350534
36	0xbd8005cd	-0.062511064
37	0xbe596409	-0.21229567
38	0xbdcc1537	-0.09964984
39	0xbe315efa	-0.17321387
40	0xbe367dfb	-0.17821495
41	0xbd32ac8a	-0.043621577
42	0xbe35693d	-0.17715926
43	0xbd43c6ff	-0.0477972
44	0x3d9ad451	0.075600274
45	0x3ccb13e8	0.024789765
46	0x3e64a493	0.22328405
47	0xbe3ba2dd	-0.18323846
48	0x3d1e381a	0.03862772
49	0xbc571b73	-0.013129103
50	0xb92a6b0a	-0.00016252339
51	0x3dd032af	0.10165917
52	0x3e20adfc	0.1569137
53	0xbae75246	-0.0017648421
54	0x3dc94a20	0.09828591
55	0xbd839e4b	-0.06426676
56	0xbdc0aed2	-0.09408344
57	0xbe231ba7	-0.15928517
58	0xbd00c090	-0.031433642
59	0xbc1daa0f	-0.009623065
60	0x3dcd8f9a	0.100371554
61	0xbdec6cc0	-0.1154418
62	0xbe177043	-0.14788918
63	0x3ca74369	0.020417886

vf.v_net.2.weight f4 [64, 64]
0	0x3da26e90	0.079312444
1	0x3da03d1c	0.07824156
2	0xbde33288	-0.110936224
3	0x3d7fbef1	0.062437955
4	0x3d2dc8d1	0.04242784
5	0x3cde51e5	0.02713866
6	0x3d0c7120	0.034287572
7	0xbe004c6f	-0.12529157
8	0x3ce585ca	0.028017897
9	0x3d3284e3	0.043583762
10	0xbc8e70f4	-0.017387845
11	0x3dcba585	0.0994368
12	0x3df3c934	0.11903611
13	0xbcde5a85	-0.027142772
14	0xbd37eaa4	-0.044901505
15	0xbc6b7486	-0.014371043
16	0x3b3e78db	0.0029063735
17	0xbd44c84e	-0.048042588
18	0xbda0f5c2	-0.078593746
19	0x3db2572c	0.08708033
20	0xbca32b16	-0.019918006
21	0x3d4fe340	0.050753832
22	0xbdfed9a9	-0.12443859
23	0x3dcf8b7d	0.10134027
24	0xbc476d44	-0.012172047
25	0x3d6387ef	0.05554956
26	0x3dc3b3a3	0.09555747
27	0xbd7f653b	-0.0623524
28	0xbdf4ce7e	-0.11953448
29	0x3b307c6b	0.0026929628
30	0x3c9d0fd2	0.019172583
31	0xbc34ffff	-0.011047362
32	0x3e103b0b	0.14085023
33	0xbd8969d8	-0.06709641
34	0x3d62cae8	0.055369288
35	0x3d49ae84	0.049238697
36	0x3c9f3006	0.019432079
37	0x3cc46b7e	0.023977038
38	0xbde0b682	-0.109723106
39	0x3c9ac1af	0.018891184
40	0xbe04e5f7	-0.1297835
41	0x3c166d40	0.009181321
42	0xbc58b8c7	-0.013227648
43	0xbda6b2e9	-0.08139593
44	0xbdb810a1	-0.08987547
45	0x3d30fe2f	0.04321116
46	0xbc7ebebc	-0.015548404
47	0xbdb96d6f	-0.09054076
48	0x3d0e3d3d	0.03472637
49	0xbdb1e7f1	-0.086868174
50	0xbd111fe2	-0.035430796
51	0x3bdc44d9	0.0067220745
52	0x3d166d49	0.036725316
53	0xbe00b1a5	-0.12567766
54	0xbc2cc1da	-0.010544265
55	0xbd2b4c1f	-0.04182064
56	0xbda9fbcb	-0.08299979
57	0x3bedf678	0.0072620474
58	0x3d9d8f53	0.076933526
59	0xbc35c446	-0.0110941585
60	0xbd08f469	-0.033436213
61	0x3cfb2f9c	0.03066235
62	0x3d93422d	0.071903564
63	0xbd2e2da7	-0.042524006
64	0x3d5463ec	0.051853105
65	0xba15c328	-0.00057129795
66	0x3dd7da2f	0.10539662
67	0x3d267c35	0.040645797
68	0x3e08a86e	0.13345501
69	0xbdb611e7	-0.08890133
70	0x3d57f9b3	0.052728366
71	0xbe07e3c4	-0.1327048
72	0x3d712275	0.05887075
73	0xbd2dfb1c	-0.042475805
74	0xbde852f2	-0.113439456
75	0x3dfe94f0	0.12430751
76	0xbdf74aa4	-0.120747834
77	0xbdc6de4f	-0.09710371
78	0x3d7de734	0.06198807
79	0x3e0b1f29	0.13586105
80	0x3be1491a	0.0068751695
81	0xbd9a9dcc	-0.075496286
82	0xbe0b2036	-0.13586506
83	0xbd57d6e2	-0.052695163
84	0xbd02ba70	-0.031916082
85	0xbcbd9692	-0.023143087
86	0x3d921d46	0.0713449
87	0x3e132a30	0.14371562
88	0xbbfa5491	-0.0076394756
89	0xbe0e4f93	-0.13897543
90	0x3a8801bd	0.0010376495
91	0xbd4e04ca	-0.050297536
92	0x3d95f7e4	0.07322672
93	0x3dae71ce	0.085178
94	0xbd67b98c	-0.056573436
95	0xbd682910	-0.056679785
96	0x3c909899	0.01765089
97	0xbd86b626	-0.06577711
98	0x3d298510	0.041386664
99	0xbd8f9dd4	-0.07012525
100	0xbce72b24	-0.028218813
101	0xbd47e8ac	-0.048805878
102	0xbd9172a0	-0.07101941
103	0xbd27184d	-0.04079466
104	0x3d794e00	0.060865402
105	0xbd01e54f	-0.031712826
106	0x3c8f9ce8	0.017530873
107	0xbdad4866	-0.084610745
108	0xbcbe3309	-0.023217695
109	0xbd016081	-0.031586174
110	0x3cfba758	0.030719444
111	0x3d2fa92f	0.042885955
112	0xbd474b25	-0.048655648
113	0x3df3569e	0.11881755
114	0xbdde8d8e	-0.10866843
115	0x3d9f23d3	0.07770505
116	0xbd06b159	-0.032883976
117	0x3dd53226	0.10409956
118	0x3df8110d	0.12112627
119	0x3d767f29	0.060179863
120	0x3d88ae3e	0.06673859
121	0xbbbd6139	-0.005779412
122	0xbd47d5b7	-0.0487878
123	0xbd771dc9	-0.06033114
124	0xbd95cf39	-0.07314915
125	0xbdbd4e2e	-0.09243427
126	0x3c55a35f	0.013039439
127	0x3d532d1c	0.05155669
128	0xbd8a67bb	-0.06758066
129	0x3df484ef	0.119394176
130	0x3d47bc85	0.04876377
131	0xbc65ed09	-0.014033564
132	0xbcc20c2a	-0.02368744
133	0xbda7da6a	-0.08195956
134	0xbd97d454	-0.07413545
135	0x3e11c77c	0.14236253
136	0x3ca23794	0.019801892
137	0x3cc68e90	0.024237901
138	0x3d71ab72	0.059001394
139	0xbda384fa	-0.07984348
140	0x3e006658	0.12539041
141	0x3d7fb302	0.062426575
142	0xbd53e593	-0.05173261
143	0xbd88b041	-0.06674243
144	0x3c05f7b2	0.008176731
145	0x3da4494b	0.08021792
146	0x3e153c4c	0.14573783
147	0xbda0d621	-0.07853342
148	0xbce83da1	-0.0283497
149	0x3d1f31ae	0.038865738
150	0x3c7c5256	0.01540049
151	0x3c2ee71d	0.010675219
152	0x3dafcc36	0.08583872
153	0x3ca012b2	0.019540165
154	0xbde01f6c	-0.10943493
155	0xbdfdc513	-0.123911045
156	0xbb5dc6b7	-0.0033840367
157	0x3dc6eaa8	0.09712726
158	0xbd1a3696	-0.037649713
159	0xbd45f4a6	-0.048329018
160	0x3de5dd39	0.112238355
161	0xbdad00f0	-0.084474444
162	0x3c282ccc	0.010264587
163	0x3de178ee	0.11009394
164	0xbe0a97f5	-0.1353453
165	0x3dedeb73	0.11617174
166	0x3db5fd09	0.08886153
167	0xbdc6aa80	-0.09700489
168	0xbd9de1f4	-0.07709113
169	0x3c534440	0.01289469
170	0x3dc89c15	0.09795395
171	0x3a54e4a6	0.00081212295
172	0x3e065ad8	0.13120592
173	0x3d3fa982	0.046792515
174	0xbd905397	-0.070471935
175	0x3c365cfe	0.0111305695
176	0xbcb88315	-0.022523442
177	0x3dc886b6	0.09791319
178	0xbe06d39b	-0.13166659
179	0x3d1d3b2c	0.03838651
180	0xbd21b2f8	-0.03947732
181	0xbd68f71a	-0.05687628
182	0xb89e2bbe	-7.542175e-05
183	0xbdbc6096	-0.0919811
184	0x3b5d50c6	0.0033770069
185	0xbe0b8528	-0.13625014
186	0xbd51ee4d	-0.051252652
187	0x3d062ea9	0.032759342
188	0x3d07bef3	0.033141088
189	0x3d902a88	0.07039362
190	0xbcb25209	-0.021767633
191	0xbd7c9ec8	-0.061674863
192	0xbd8d0e6c	-0.068875164
193	0xbdbc8cc0	-0.092065334
194	0xbd84d298	-0.0648548
195	0x3dc86ff3	0.097869776
196	0x3b9792bf	0.004625648
197	0x3d78e96b	0.06076948
198	0xbda4ed6e	-0.080530986
199	0xbc21aa72	-0.0098672975
200	0xbdbb1413	-0.09134688
201	0xbd79cb49	-0.060984883
202	0xbdc7fa92	-0.09764589
203	0x3c8af0a1	0.016960444
204	0xbce3f552	-0.027826939
205	0xbddc1c1c	-0.10747549
206	0x3d049da0	0.032376885
207	0xbd857db0	-0.065181136
208	0x3d89ff0e	0.06738101
209	0xbde46c27	-0.11153441
210	0xbc8d359a	-0.017237473
211	0xbdbfe52c	-0.09369883
212	0xbd94f873	-0.072739504
213	0x3db706be	0.08936833
214	0x3d060ae3	0.032725226
215	0x3c428bf1	0.011874185
216	0x3e0111e4	0.12604481
217	0x3d6f223a	0.05838225
218	0x3bd58db7	0.006517138
219	0xbda67712	-0.081281796
220	0xbda54cb6	-0.08071272
221	0x3d11f3cd	0.035632897
222	0x3c9c5453	0.019083178
223	0x3d13d785	0.036094207
224	0xbd9dabc5	-0.07698778
225	0xbdcb4dad	-0.09926925
226	0xbc4e9e1b	-0.0126109375
227	0xbdba09cc	-0.090839
228	0xbb879334	-0.004137421
229	0x3c92dd3e	0.017927762
230	0xbc4785df	-0.012177913
231	0x3ccba62c	0.02485951
232	0x3d5eb94e	0.05437594
233	0x3c98bb19	0.018643903
234	0xbd1aac64	-0.03776206
235	0x3d4f439e	0.050601594
236	0x3cdeecc4	0.027212508
237	0x3cce875d	0.02521103
238	0xbd9fc1b9	-0.078006215
239	0xba701bf4	-0.0009159439
240	0xbd687ed7	-0.05676159
241	0xbd792cc7	-0.06083372
242	0x3d7a469b	0.06110249
243	0xbd8ab8a9	-0.067735024
244	0x3dbb9ee2	0.09161164
245	0x3d5fd472	0.054645963
246	0x3d9f84f8	0.07789034
247	0x3d5a3c43	0.053280126
248	0x3d57e813	0.052711558
249	0x3d81960f	0.063274495
250	0x3da9a2ce	0.08283006
251	0x3d522ffe	0.0513153
252	0xbd0347b8	-0.03205082
253	0xbd90043d	-0.070320584
254	0x3db29e2a	0.08721574
255	0xbde4a80e	-0.111648664

vf.v_net.2.bias f4 [64]
0	0x3e012980	0.12613487
1	0xbc0753b1	-0.0082597
2	0x3dc957c7	0.09831195
3	0xbe066ef3	-0.13128261
4	0xbd918909	-0.071062155
5	0xbb9b38cb	-0.004736995
6	0xbd370ce8	-0.044690043
7	0x3ca695d3	0.020335114
8	0xbd5a062c	-0.053228542
9	0x3ce6ac8a	0.028158445
10	0xbdb33f5c	-0.08752319
11	0x3dbf5141	0.0934167
12	0x3d5708ef	0.052498754
13	0x3d48ece6	0.04905405
14	0xbdba4cdb	-0.0909669
15	0xbe0c5abc	-0.13706487
16	0xbd9d6be4	-0.07686594
17	0xbde7cbae	-0.11318146
18	0xbd354cf9	-0.04426286
19	0x3cb7fb06	0.022458564
20	0xbd8abb73	-0.06774034
21	0x3dd13e12	0.10216917
22	0xbd8af01d	-0.06784079
23	0xbd9e0511	-0.0771581
24	0x3c953465	0.01821346
25	0xbca4d99c	-0.020123295
26	0x3d2f8396	0.0428501
27	0xbc0b4435	-0.008500149
28	0x3d7ddece	0.06198006
29	0x3e00e0b3	0.12585716
30	0x3d3823a9	0.044955883
31	0x3e0a5fe6	0.13513145
32	0xbda77bbf	-0.081778996
33	0xbcccc571	-0.024996491
34	0x3d84da90	0.06487
35	0xbc796370	-0.015221462
36	0x3c51d3ca	0.012806842
37	0xbbd09633	-0.0063655614
38	0xbd865acb	-0.06560286
39	0xbd14af04	-0.03629972
40	0xbc267d27	-0.010161675
41	0x3d2d3bfe	0.04229354
42	0x3e040c49	0.12895311
43	0x3dc014dc	0.093789786
44	0x3d21aa47	0.03946903
45	0x3cc60831	0.024173828
46	0xbdd14e2d	-0.10219989
47	0x3d82731f	0.06369614
48	0x3dacd7ad	0.084395744
49	0xbd624c8c	-0.055248782
50	0x3ca10839	0.019657241
51	0x3e070e01	0.13188936
52	0x3d80c64a	0.06287821
53	0x3c887394	0.016656674
54	0xbdcbe407	-0.09955602
55	0xbdfdcafa	-0.1239223
56	0x3d78783f	0.06066155
57	0xbdecb5de	-0.11558126
58	0xbdf7a757	-0.120924644
59	0x3de1dbe9	0.11028273
60	0x3e082436	0.13295063
61	0xbd1a9fab	-0.037749927
62	0x3daba9b6	0.08381979
63	0x3dbe9c4d	0.09307156

vf.v_net.4.weight f4 [1, 64]
0	0x3dee27ae	0.11628662
1	0x3dad2141	0.08453608
2	0x3d16a664	0.036779776
3	0xbd23d30b	-0.039996188
4	0x3ccf7942	0.025326375
5	0xbdb66a5f	-0.089070074
6	0x3d84fa76	0.06493084
7	0xbd27d8f0	-0.040978372
8	0x3d80c44e	0.06287442
9	0xbc511a05	-0.012762551
10	0x3ddf46a4	0.109021455
11	0x3d1ed267	0.038774874
12	0x3dacdd9d	0.08440707
13	0x3ba8d4a1	0.0051523005
14	0x3d6638bc	0.05620645
15	0xbc96cb9f	-0.018407641
16	0xbd0e0d68	-0.034680754
17	0xbddcf0c4	-0.1078811
18	0x3ddd0c8e	0.1079341
19	0x3ce347b6	0.027744155
20	0x3dd396a9	0.103314705
21	0xbd57ead7	-0.052714195
22	0x3d8d806c	0.0690926
23	0x3dddb046	0.10824637
24	0xbd5485f7	-0.05188557
25	0x3b919412	0.0044427
26	0x3e09122e	0.13385841
27	0x3e032779	0.12808026
28	0x3de7e458	0.1132285
29	0x3dff1563	0.12455251
30	0xbd1400d1	-0.03613359
31	0x3c640308	0.013916738
32	0xbdbcb3cd	-0.09213982
33	0xbd8db71a	-0.069196895
34	0x3dca6974	0.09883395
35	0x3e0c0ea0	0.13677454
36	0x3dbb739d	0.09152911
37	0xbcc58e64	-0.024115749
38	0x3bb88020	0.005630508
39	0x3d9a3c36	0.075310156
40	0xbd41beb4	-0.04730101
41	0x3d15ed6a	0.03660337
42	0x3dcdbe43	0.10046055
43	0xbda8ec50	-0.08248198
44	0x3d75bbec	0.05999367
45	0x3d8c9a96	0.068654224
46	0xbc0eb337	-0.00870972
47	0xbcb9b302	-0.022668365
48	0xbd5db7b9	-0.05413029
49	0x3dabb3b6	0.083838865
50	0xbd027db3	-0.031858157
51	0x3c73ad48	0.014872856
52	0x3dfe399b	0.12413331
53	0x3e05ea45	0.13077648
54	0x3d8586bc	0.06519839
55	0xbd148447	-0.036258962
56	0xbc82a46b	-0.015947541
57	0x3c470585	0.012147312
58	0xbcbf8634	-0.023379423
59	0x3d8f42b9	0.06995148
60	0x3daba39f	0.083808176
61	0x3dc2ba65	0.09508208
62	0xbda66814	-0.0812532
63	0x3d8a52ab	0.06754049
