HW4/ppo_dm_control-master/training/walker/walk/ppo_ac_model - Copy (2).pth (torch, 166148 bytes, 12 tensors)

pi.log_std f4 [6]
0	0xc00eeccf	-2.2332036
1	0xc00dc666	-2.2152343
2	0xc006d19a	-2.106543
3	0xc02af077	-2.6709268
4	0xc02f5ab6	-2.7399116
5	0xc0188eb6	-2.3837104

pi.mu_net.0.weight f4 [128, 24]
0	0xbe221441	-0.15828039
1	0xbb2865f7	-0.0025695541
2	0x3e618c37	0.22026144
3	0xbe1875a0	-0.1488862
4	0x3e90969b	0.28239903
5	0xbe1fd818	-0.15609777
6	0xbc5ca7f4	-0.0134677775
7	0xbe3f217e	-0.1866512
8	0x3d157214	0.036485747
9	0x3d96f48a	0.07370861
10	0xbd13442b	-0.035953682
11	0x3e2614d4	0.16218883
12	0x3e370a34	0.17874986
13	0xbe38dbd7	-0.18052612
14	0xbe5b55c1	-0.21419431
15	0x3ad21a41	0.0016029553
16	0xbcf95c6f	-0.030439584
17	0x3d7d4169	0.061829958
18	0xbe07bb93	-0.13255148
19	0x3de8c588	0.11365801
20	0xbcb45e24	-0.022017546
21	0xbd6e9afa	-0.058253266
22	0xbd3d07f0	-0.046150148
23	0x3e971e55	0.2951533
24	0x3e585552	0.21126297
25	0xbe421d93	-0.18956594
26	0x3d88c2e9	0.06677801
27	0xbe885528	-0.2662747
28	0x3dce1366	0.10062294
29	0x3e5248fb	0.20535652
30	0x3e51c9c9	0.20487131
31	0x3e6e0f4e	0.23248026
32	0xbe473aa1	-0.19455959
33	0xbeb6b9dd	-0.35688677
34	0x3e867e82	0.26268393
35	0xbc6d9265	-0.014500235
36	0xbe143af0	-0.14475608
37	0x3e477a92	0.1948035
38	0xbd93a3f7	-0.07209008
39	0x3e8332d0	0.25624704
40	0xbe4d3c5f	-0.20042561
41	0x3d95708d	0.07296858
42	0x3d216040	0.03939843
43	0xbea70590	-0.3262143
44	0x3e0fdc5f	0.14048909
45	0xbdbf3630	-0.09336507
46	0xbe0fc834	-0.14041215
47	0x3e21d0eb	0.15802352
48	0x3e3f005f	0.18652485
49	0xbd43cd7d	-0.04780339
50	0xbdb05901	-0.08610726
51	0x3c5203e7	0.012818313
52	0xbed2f9da	-0.41206247
53	0xbe2cc964	-0.168737
54	0xbe42aeb7	-0.19011961
55	0x3dee1220	0.11624551
56	0xbe2b7f69	-0.16747822
57	0x3e555b8f	0.20835708
58	0xbec95a23	-0.3932658
59	0xbd25e4be	-0.04050135
60	0xbe743344	-0.23847681
61	0xbd5dccda	-0.05415044
62	0xbe000907	-0.12503444
63	0xbe321f0b	-0.17394654
64	0xbe475a42	-0.19468024
65	0x3d7dfad9	0.062006805
66	0xbe301b9f	-0.17198037
67	0xbbfe2935	-0.007756377
68	0xbcc566c1	-0.024096848
69	0x3d7e3d45	0.06207015
70	0xbe0eb515	-0.13936265
71	0x3d4c9092	0.04994256
72	0xbde8b8e5	-0.11363391
73	0xbe9da756	-0.3079173
74	0x3e631328	0.22175276
75	0xbcf85c00	-0.030317307
76	0x3e5459c5	0.2073737
77	0x3e907626	0.2821514
78	0xbe3a8865	-0.18216093
79	0x3d1cc5f2	0.038274713
80	0x3d998462	0.07495953
81	0xbc9ff98e	-0.019528177
82	0x3de407f1	0.11134327
83	0x3e1568b3	0.14590721
84	0x3d45f08d	0.04832511
85	0x3e554af6	0.20829377
86	0x3e930a14	0.28718626
87	0x3e094be8	0.13407862
88	0xbe1e65ef	-0.15468572
89	0xbe09bfec	-0.13452119
90	0x3dda3975	0.1065549
91	0xbdfbeeb2	-0.12301387
92	0xbd3db859	-0.046318386
93	0x3e2a64ff	0.1664009
94	0x3d5899ec	0.052881166
95	0xbe877c3d	-0.26461974
96	0x3e393df6	0.18090042
97	0x3d2e3ab8	0.042536467
98	0x3e3fbb7e	0.18723866
99	0x3c1bc7d2	0.00950809
100	0xbdeb4e21	-0.11489511
101	0xbd87670a	-0.0661145
102	0xbe6d3609	-0.23165144
103	0x3e2f90c2	0.17145064
104	0xbe38b1af	-0.18036531
105	0xba5ff68c	-0.0008543513
106	0x3e122a9b	0.14274065
107	0xbcd80037	-0.02636729
108	0x3e591087	0.21197711
109	0x3e47adc2	0.19499877
110	0xbd995419	-0.074867435
111	0x3e1da2a1	0.15394069
112	0xbe6a0e63	-0.2285705
113	0x3d388eab	0.045057934
114	0xbcbae4d0	-0.022814184
115	0x3e87b04a	0.26501685
116	0x3e2890b1	0.16461445
117	0x3e0598be	0.13046548
118	0xbe47b3e1	-0.19502212
119	0x3d910b75	0.070822634
120	0xbe3ad86c	-0.18246621
121	0xbd9e3f9e	-0.07726978
122	0x3cea450a	0.028597374
123	0x3d1a8282	0.03772212
124	0xbd825641	-0.06364108
125	0xbd57a1ac	-0.052644417
126	0x3dd05073	0.101715945
127	0xbe062cf1	-0.13103081
128	0xbbaf5722	-0.005350963
129	0x3e156c64	0.14592129
130	0xbd932cef	-0.07186305
131	0xbcba57be	-0.022746917
132	0xbd86d583	-0.06583693
133	0x3d90613e	0.070497975
134	0x3e5dda92	0.21665409
135	0x3e41e3cf	0.18934558
136	0xbcfe438e	-0.031038072
137	0xbcf47087	-0.029838813
138	0x3ccc0d4b	0.024908682
139	0xbd3ba161	-0.0458082
140	0x3e501e03	0.20323949
141	0xbd3aa5e3	-0.04556836
142	0x3c0ada48	0.008474894
143	0x3e86130c	0.26186407
144	0x3e160bad	0.14652891
145	0x3eabbb2d	0.3354124
146	0x3e655c99	0.22398604
147	0xbe04841b	-0.12941019
148	0xbd0e60e4	-0.03476037
149	0x3d9be31b	0.07611676
150	0xbe74a7d7	-0.23892151
151	0x3df4283d	0.11921737
152	0x3e20daf2	0.15708521
153	0x3df82e92	0.121182576
154	0xbdf3c8a3	-0.11903503
155	0x3de8c21e	0.1136515
156	0xbcdce500	-0.026964664
157	0xbe0e0c51	-0.13871886
158	0x3ddcf04a	0.10788019
159	0x3cd402d5	0.025880257
160	0x3f001a56	0.50040185
161	0xbcb866bc	-0.022509925
162	0x3b46aa68	0.0030313972
163	0xbe0b0bd2	-0.13578728
164	0xbd33115d	-0.04371773
165	0x3d92f53c	0.07175681
166	0x3dee97e2	0.11650063
167	0x3de236f5	0.110456385
168	0xbdf3c0e7	-0.119020276
169	0x3d500a6e	0.050791197
170	0x3dfaf68a	0.12254055
171	0x3d59a8da	0.053139545
172	0x3e8bf736	0.27337044
173	0xbd89ea4e	-0.06734143
174	0x3c8fee3d	0.017569656
175	0xbd7fb1bc	-0.06242536
176	0x3e59ee9e	0.21282431
177	0x3d8d0203	0.06885149
178	0xbdc11d8b	-0.09429463
179	0xbdbaadd2	-0.09115185
180	0x3e04264a	0.12905231
181	0xbe171cbb	-0.14757054
182	0x3ddc5d6b	0.107600056
183	0x3ec03909	0.37543514
184	0xbe8650d9	-0.26233557
185	0xbe676a55	-0.22599156
186	0xbd9f53cb	-0.07779654
187	0xbd16ebbf	-0.03684592
188	0xbb3328f8	-0.0027337652
189	0x3dc5325e	0.096287474
190	0xbe48dc04	-0.1961518
191	0xbdde1c31	-0.10845221
192	0xbe8fbfff	-0.2807617
193	0xbdc912ec	-0.09818062
194	0x3e94820a	0.29005462
195	0x3e5deab4	0.21671563
196	0xbdaa4a18	-0.083149135
197	0x3e359d47	0.17735778
198	0x3c111bf7	0.008856765
199	0x3d63538a	0.05549959
200	0x3e2c0cca	0.16801754
201	0x3c1668ac	0.009180229
202	0xbea0208f	-0.3127484
203	0x3db96b35	0.09053651
204	0xbc67ce16	-0.014148256
205	0x3e232487	0.15931903
206	0x3d33ea33	0.04392452
207	0x3e44b74f	0.19210552
208	0xbddbc8b6	-0.10731642
209	0x3e4211d1	0.18952109
210	0xbcf8b8c3	-0.030361539
211	0xbd70c919	-0.05878553
212	0x3e050e2f	0.12993692
213	0xbd68741a	-0.056751348
214	0x3d4e2e55	0.050337154
215	0xbd6ee59f	-0.058324452
216	0xbdeb5568	-0.11490899
217	0xbe91c3c6	-0.28469676
218	0xbd92f9dc	-0.07176563
219	0x3e3ac649	0.18239702
220	0x3d913e89	0.07092006
221	0xbe56394a	-0.20920292
222	0x3dfa3f73	0.12219133
223	0xbe6b31a6	-0.22968158
224	0xbc95ba9f	-0.018277464
225	0x3e899c71	0.26877168
226	0xbe078394	-0.13233787
227	0x3e21dd0b	0.15806977
228	0x3d3f9006	0.04676821
229	0x3e44e695	0.19228585
230	0xbe4fb47b	-0.20283692
231	0x3e26c2c8	0.1628524
232	0x3d26dfb0	0.04074067
233	0x3e614954	0.22000629
234	0x3e8219d8	0.25410342
235	0x3d21f2f2	0.03953833
236	0xbe53000f	-0.20605491
237	0x3d120a07	0.035654094
238	0x3d331710	0.043723166
239	0xbb929d96	-0.004474352
240	0xbdf2e399	-0.11859817
241	0xbdb9e20c	-0.09076318
242	0x3c4b5c46	0.012412136
243	0xbe88f914	-0.26752532
244	0x3e6392ea	0.22224012
245	0xbeb31e60	-0.34984112
246	0x3d96271c	0.07331678
247	0xbecf1257	-0.4044368
248	0x3d46dacc	0.048548505
249	0xbd7018a3	-0.058617245
250	0x3d2a8cea	0.041638292
251	0x3d851d24	0.06499699
252	0xbd460116	-0.04834088
253	0xbe74e5fe	-0.2391586
254	0xbe4edb7b	-0.20200913
255	0xbb98c013	-0.004661569

pi.mu_net.0.bias f4 [128]
0	0xbe3cf81b	-0.1845402
1	0xbde7a2d0	-0.11310351
2	0xbdd4e41b	-0.1039507
3	0x3e81bd7f	0.25339887
4	0x3e66fc76	0.22557244
5	0x3e6f2da0	0.23357248
6	0xbd96ac52	-0.07357086
7	0x3c72bc8e	0.014815463
8	0x3e8ec3f8	0.27883887
9	0xbe34fecd	-0.17675324
10	0xbe20875a	-0.15676633
11	0xbe4231e0	-0.18964338
12	0xbdbd93c3	-0.09256699
13	0x3db75ac1	0.08952857
14	0x3d20596d	0.039147783
15	0xbd0943a8	-0.033511788
16	0xbe0fb687	-0.14034472
17	0x3e79f715	0.2441066
18	0xbdc4aeb2	-0.09603633
19	0xbe70a208	-0.2349931
20	0xbddab56f	-0.10679137
21	0xbe52fe9f	-0.20604943
22	0x3e5c2115	0.21496995
23	0x3e0ee8e6	0.13956031
24	0xbe0dd005	-0.13848884
25	0xbe212794	-0.15737754
26	0x3dd25172	0.10269441
27	0x3df96f9d	0.12179492
28	0xbe460bb1	-0.19340397
29	0xbea992e9	-0.33119896
30	0xbe3daafa	-0.18522254
31	0xbded34a7	-0.11582308
32	0x3e1de946	0.15421018
33	0xb9e1fc22	-0.00043103198
34	0xbe24e17b	-0.16101639
35	0x3e37b23d	0.17939086
36	0xbe1a2f36	-0.15057072
37	0x3c00dce2	0.007865163
38	0x3e3df301	0.1854973
39	0xbd8ebf92	-0.06970133
40	0xbe315298	-0.17316663
41	0xbdc41fd3	-0.095763825
42	0xbc16a327	-0.009194172
43	0xbda9cabf	-0.08290624
44	0xbe5aaafd	-0.2135429
45	0xbd2a94af	-0.041645702
46	0x3e6dfb9a	0.2324051
47	0xbe0a4307	-0.13502131
48	0xbcdc5030	-0.026893705
49	0x3d70506d	0.05867045
50	0x3e217f33	0.15771179
51	0x3dcc5859	0.099777885
52	0x3e5ec7f6	0.21755967
53	0x3ceb4a63	0.028721994
54	0xbd977467	-0.07395249
55	0x3d36aab0	0.044596374
56	0xbe08fba4	-0.13377243
57	0x3d8f5b30	0.069998145
58	0xbd645498	-0.055744737
59	0x3dd51db3	0.10406055
60	0xbe38d5c2	-0.18050292
61	0x3971928c	0.00023038144
62	0x3a98d46f	0.001165999
63	0xbe580c43	-0.21098427
64	0xbd295629	-0.041341934
65	0x3d8524c6	0.065011546
66	0x3d77b5aa	0.060475983
67	0xbe4667be	-0.19375512
68	0xbd894156	-0.06701915
69	0xbc11b3e4	-0.008892987
70	0xbd5050ec	-0.050858423
71	0xbe8e202f	-0.2775893
72	0xbaf8410b	-0.0018940283
73	0xbe5e599c	-0.21713871
74	0xbe43fd80	-0.19139671
75	0xbeaf587f	-0.34247205
76	0xbe2ca13c	-0.16858381
77	0x3e4a371a	0.19747582
78	0x3dee7ca3	0.11644866
79	0xbe3e0bf9	-0.18559255
80	0x3cbbd71e	0.022929724
81	0xbdd28c87	-0.1028071
82	0xbe10688b	-0.1410238
83	0x3d91fc12	0.07128157
84	0x3dd52d50	0.10409033
85	0xbe270763	-0.16311412
86	0x3dbc50bb	0.091950856
87	0x3e3b279a	0.18276826
88	0xbce72a38	-0.028218374
89	0xbd244e57	-0.040113773
90	0xbde0c267	-0.10974579
91	0x3d923094	0.07138172
92	0x3dc1f5d9	0.0947072
93	0x3d1050aa	0.035233177
94	0x3deff90a	0.11717422
95	0xbdee1c65	-0.116265096
96	0xbc9e629d	-0.019334132
97	0x3d607006	0.054794334
98	0x3df5c582	0.12000562
99	0xbe004e0d	-0.12529774
100	0xbd2df286	-0.042467616
101	0x3e85019c	0.2597779
102	0xbe33332d	-0.17499991
103	0x3e22ef21	0.15911533
104	0xbe4265e7	-0.18984185
105	0xbd3647bb	-0.044502
106	0x3e10b0bc	0.14129919
107	0x3e12f381	0.14350702
108	0xbe80244b	-0.2502769
109	0xbd1da6a9	-0.038489018
110	0x3df0cf6d	0.11758313
111	0xbd2e5183	-0.042558204
112	0x3e98e982	0.29865652
113	0xbd88bba3	-0.06676414
114	0xbe7420f2	-0.23840693
115	0xbe1a8129	-0.15088333
116	0x3e8a4d54	0.27012122
117	0x3dfdc27d	0.12390611
118	0x3d942ee8	0.07235509
119	0x3e2cae95	0.16863473
120	0xbdbfebe3	-0.09371164
121	0x3e21f795	0.15817101
122	0xbcd46e45	-0.025931487
123	0xbe412e17	-0.18865238
124	0x3cbb8c31	0.022893997
125	0x3c9fcdbf	0.019507287
126	0xbe6efb93	-0.23338155
127	0x3e896945	0.26838127

pi.mu_net.2.weight f4 [128, 128]
0	0xbd3e6066	-0.04647865
1	0xbdc0670a	-0.09394653
2	0x3d61eaac	0.05515544
3	0x3d6a0cf7	0.05714127
4	0x3cc139d6	0.023587149
5	0xbd10443c	-0.035221323
6	0xbc91b241	-0.017785193
7	0xbd8e0a62	-0.06935574
8	0xbdeb48ce	-0.11488496
9	0x3dd3f257	0.10348957
10	0x3d49e1b8	0.049287528
11	0xbdd6fe09	-0.10497672
12	0xbd03bfab	-0.03216521
13	0xbcf39cce	-0.029737856
14	0xbc65a620	-0.014016658
15	0x3d0d8267	0.03454819
16	0x3ad78389	0.0016442399
17	0x3c5c4a4e	0.01344545
18	0x3c81451b	0.015780022
19	0x3d1d933f	0.038470503
20	0xbccbe346	-0.024888646
21	0x3ce212e6	0.027596902
22	0xbd82109c	-0.06350824
23	0xbdc1bd6b	-0.09459957
24	0x3c6c73f6	0.014431944
25	0xbd1e657a	-0.038670994
26	0x3d4d9e2a	0.050199665
27	0x3d36d35a	0.044635154
28	0x3cbdb208	0.023156181
29	0x3d943850	0.07237303
30	0xbddaed20	-0.10689759
31	0xbda299ff	-0.07939529
32	0xbde506a0	-0.11182904
33	0xbde17023	-0.110077165
34	0x3da8b303	0.08237269
35	0xb9469b7a	-0.00018940671
36	0xbd3f49a4	-0.04670109
37	0xbd31b174	-0.043382123
38	0x3ddccfe9	0.10781843
39	0x3c457828	0.012052573
40	0xbd7ef210	-0.062242568
41	0xbd89119c	-0.06692812
42	0x3dd287ea	0.1027983
43	0xbda2362e	-0.0792049
44	0xbce53f39	-0.027984248
45	0x3d3a8034	0.04553242
46	0xbd39091c	-0.045174703
47	0x3b571d17	0.0032823735
48	0xbd8a1126	-0.06741552
49	0xbdd1e693	-0.10249057
50	0xbc796190	-0.015221015
51	0xbcb6233f	-0.022233604
52	0x3d902108	0.0703755
53	0x3b305fca	0.0026912563
54	0xbcfd2dc9	-0.030905621
55	0x3c99219b	0.018692782
56	0x3dd052b9	0.10172028
57	0x3d9fea46	0.07808356
58	0xbccd3798	-0.025050923
59	0xb8de9574	-0.00010613623
60	0xbd4fdd9f	-0.050748464
61	0x3dd172fb	0.10227009
62	0xbd883d5e	-0.0665233
63	0x3dacfe1d	0.08446906
64	0x3d185bac	0.0371968
65	0xbd6f87a4	-0.058478966
66	0xbd28b9ac	-0.041192695
67	0xbcd5e751	-0.026111277
68	0xbd59764d	-0.053091336
69	0x3dac2011	0.08404554
70	0x3c3a1a1a	0.011358762
71	0xbddc7821	-0.107651
72	0xbb996f0c	-0.0046824273
73	0x3d742d71	0.05961365
74	0x3da4cc7d	0.080468155
75	0xbcf50265	-0.029908368
76	0xbcb96eef	-0.022635905
77	0xbc9dffed	-0.019287074
78	0x3ddc2265	0.10748748
79	0xbc18a92a	-0.009317676
80	0xbd842b08	-0.0645352
81	0xbd399238	-0.04530546
82	0xbdbab37d	-0.09116266
83	0xbc464b53	-0.01210292
84	0x3da37db0	0.07982957
85	0xbd6e5338	-0.058184832
86	0x3c360bda	0.011111224
87	0xbd0f718c	-0.035020396
88	0x3ce776b7	0.02825485
89	0x3cdf47fc	0.027256005
90	0xbc96fc33	-0.018430805
91	0xbe1cb921	-0.15304996
92	0xbc558def	-0.013034328
93	0xbd427439	-0.04747412
94	0x3d8ce3e9	0.06879408
95	0xbe04dd05	-0.12974937
96	0xbc032b7a	-0.008005971
97	0x3d1cf32d	0.038317848
98	0xbde5c758	-0.112196624
99	0xbdb2aafb	-0.08724018
100	0xbd345e53	-0.044035267
101	0x3cf665dc	0.030077867
102	0xbcc6e015	-0.024276773
103	0x3d88d4f0	0.066812396
104	0xbd26ba11	-0.04070479
105	0xbc5aed43	-0.013362232
106	0xbd1c8e5d	-0.038221706
107	0xbd467e3a	-0.048460223
108	0xbda1d96a	-0.079027966
109	0xbda54996	-0.08070676
110	0xbdb24681	-0.08704854
111	0x3dcc5ae0	0.099782705
112	0xbda874bc	-0.0822539
113	0x3e0f40c6	0.13989553
114	0x3c78ccd3	0.015185553
115	0x3c1e14ad	0.009648484
116	0x3c9a5505	0.018839369
117	0x3e13ba7f	0.14426611
118	0x3ccaa043	0.024734622
119	0x3c425fee	0.011863692
120	0x3c9adf86	0.018905412
121	0x3e12a4d2	0.14320686
122	0xbd34c16a	-0.044129767
123	0x3d055be0	0.032558322
124	0x39c69b9f	0.0003788145
125	0x3d557be0	0.05212009
126	0xbb4dc5ed	-0.003139849
127	0x3df0d786	0.11759858
128	0x3dbf66cb	0.09345778
129	0xbda69776	-0.08134358
130	0x3cef80ea	0.029236276
131	0x3d9cf976	0.076647684
132	0x3cb625ed	0.022234881
133	0xbd96d876	-0.073655054
134	0x3d8211b8	0.06351036
135	0x3e05cc14	0.13066131
136	0xbe5a84e0	-0.2133975
137	0x3e045ab5	0.12925227
138	0x3ca5346f	0.020166604
139	0x3c9d1948	0.019177094
140	0xbc9c0714	-0.019046344
141	0xbd53fe9d	-0.05175649
142	0xbaa55edf	-0.0012616775
143	0x3d177b25	0.036982674
144	0xbdd3ac38	-0.103355825
145	0x3d237879	0.039909814
146	0x3e17fdab	0.1484286
147	0x3df9d26c	0.12198338
148	0x3e36db49	0.17857088
149	0xbbd5f626	-0.0065295873
150	0x3d5e3862	0.05425299
151	0xbe13e707	-0.14443599
152	0x3ce67520	0.028132021
153	0x3db15fc7	0.08660846
154	0x3d94e920	0.072710276
155	0xbc815d49	-0.015791552
156	0xbd824809	-0.06361396
157	0xbd0d8fed	-0.034561086
158	0x3daeeb4d	0.08540974
159	0xbda01eeb	-0.07818397
160	0xbd2d7c24	-0.042354718
161	0xbaf465c4	-0.0018646051
162	0x3e02f9d0	0.12790608
163	0xbb2f053e	-0.0026706005
164	0xbcb4461c	-0.022006087
165	0xbe031a5f	-0.12803029
166	0x3d64f4e2	0.0558976
167	0xbdadb8dd	-0.084825255
168	0xbc87319a	-0.016503144
169	0xbc96cc9f	-0.018408118
170	0xbd992f45	-0.07479719
171	0xbdb03337	-0.086035185
172	0xbd2d9d22	-0.04238618
173	0xbd5eb5b3	-0.0543725
174	0x3d9f969d	0.07792399
175	0x3d8caf49	0.068693705
176	0xbcd9f3c4	-0.026605494
177	0x3d2febe8	0.042949587
178	0xbe0a6781	-0.13516046
179	0xbda539b6	-0.08067648
180	0xbd6297e0	-0.05532062
181	0x3ca6967d	0.02033543
182	0xbd98f824	-0.07469204
183	0xbcfb5a0f	-0.030682592
184	0xbd55c4ec	-0.052189752
185	0xbac27ed5	-0.0014838824
186	0x3b3763a8	0.0027982984
187	0xbd84ba0b	-0.064807974
188	0x3e1e78f4	0.15475827
189	0xbbbd4743	-0.0057763173
190	0x3d03d8db	0.03218923
191	0x3c979ed9	0.018508362
192	0xbd92c217	-0.07165926
193	0xbc1544ca	-0.009110639
194	0xbdce2ab0	-0.10066736
195	0x3df1b777	0.11802571
196	0x3be02723	0.006840603
197	0xbbceb8bd	-0.0063086436
198	0x3b2aab6e	0.0026042121
199	0xbd8fc1b0	-0.07019365
200	0x3dc02cb2	0.09383525
201	0x3c28c028	0.01029972
202	0x3d5b9ddb	0.05361734
203	0x3d64c271	0.055849496
204	0x3d29235c	0.041293487
205	0xbd004e50	-0.031324685
206	0x3cbad43b	0.022806277
207	0x3db15d4d	0.08660374
208	0x3b0d4f50	0.0021562167
209	0x3e033dcf	0.12816547
210	0x3df02ecd	0.117276765
211	0x3cd18236	0.025574785
212	0x3d8ae415	0.067817844
213	0xbd438c2e	-0.047741108
214	0xbd616e99	-0.055037115
215	0x3cf6facf	0.030148892
216	0x3d846db9	0.064662404
217	0xbca16f70	-0.019706458
218	0xbd5cb4e0	-0.053883433
219	0x3c361f0f	0.011115803
220	0x3a82ccf1	0.000997929
221	0xbd206ab7	-0.03916427
222	0xbdc26887	-0.09492593
223	0x3d664db0	0.056226432
224	0xbd895ef5	-0.06707565
225	0xbbb3014e	-0.005462802
226	0xbd797ed0	-0.060911953
227	0x3b2c1055	0.0026254852
228	0xbd1521b5	-0.0364091
229	0xbd50aac9	-0.050944123
230	0x3d135837	0.0359728
231	0x3dc82414	0.09772506
232	0x3d44f7c6	0.048087858
233	0xbdb6e07a	-0.08929534
234	0xbc3cffee	-0.011535628
235	0xbd18012b	-0.03711049
236	0xbc49e69c	-0.012323048
237	0x3db85b58	0.090017974
238	0x3c9f9e63	0.019484704
239	0xbce58c39	-0.028020965
240	0x3df49383	0.11942198
241	0x3d863b6b	0.06554302
242	0x3d504f7b	0.05085705
243	0xbc292b65	-0.0103252875
244	0xbdb12bf9	-0.08650965
245	0xbd9cedb6	-0.07662527
246	0x3ca2fa06	0.019894611
247	0xbd89f223	-0.06735637
248	0xbd6caefe	-0.057784073
249	0xbde01ad9	-0.10942621
250	0x3df13bfd	0.1177902
251	0x3d601dc5	0.05471589
252	0x3bcb5a93	0.0062058656
253	0x3d2004e3	0.03906716
254	0x3dd82a57	0.10554951
255	0xbd1f17cb	-0.03884105

pi.mu_net.2.bias f4 [128]
0	0x3c892774	0.016742446
1	0x3b1b742b	0.0023720365
2	0xbd29577d	-0.0413432
3	0xbc9e04ab	-0.019289335
4	0x3cfea893	0.031086242
5	0xbc99c37e	-0.018769976
6	0x3dd321a1	0.103091486
7	0xbd690869	-0.056892786
8	0x3d74a93f	0.05973172
9	0x3ceab60a	0.028651256
10	0x3d873f03	0.066038154
11	0x3dac4fa2	0.08413626
12	0x3c130160	0.008972496
13	0x3d709129	0.058732186
14	0xbd589fd6	-0.052886806
15	0x3db93dbb	0.09044977
16	0x3d89c117	0.06726282
17	0xbd90f5db	-0.07078143
18	0x3d1114f3	0.03542037
19	0xbc42f7c9	-0.011899897
20	0xbd9c3012	-0.07626356
21	0xbe214645	-0.15749462
22	0xbc64245d	-0.013924685
23	0x3d9b410a	0.075807646
24	0x3d277adf	0.040888663
25	0x3d9c8f1b	0.07644483
26	0x3dc8860c	0.097911924
27	0xbc914a34	-0.017735578
28	0x3d4f3e4f	0.05059653
29	0x3a892e46	0.0010466061
30	0xbd91a551	-0.0711161
31	0x3d360c0a	0.044445075
32	0xbc9cf491	-0.019159587
33	0x3db990fb	0.09060856
34	0x3c00a602	0.007852079
35	0xbccba0c9	-0.024856942
36	0x3cb4e7fe	0.022083279
37	0xbdd5e14c	-0.104433626
38	0xbd127612	-0.035757132
39	0xbd13fb06	-0.036128066
40	0xbd0a5603	-0.033773433
41	0x3d30f07e	0.0431981
42	0xbe147701	-0.14498521
43	0xbc0b4a0d	-0.008501542
44	0xbd9e09e1	-0.07716728
45	0x3db92de1	0.09041954
46	0xbae0da45	-0.0017154893
47	0x3df8cbef	0.12148272
48	0x3de01f84	0.10943511
49	0xbdc387fd	-0.09547422
50	0xbd4faeb1	-0.050703708
51	0x3da828d7	0.082109146
52	0xbd7655e6	-0.060140513
53	0xbd27a2ec	-0.04092686
54	0xbe04c068	-0.12964022
55	0x3da0d14c	0.0785242
56	0x3d8b03c5	0.06787828
57	0x3d54a3a7	0.051913884
58	0x3ca5010a	0.020142097
59	0x3dade24f	0.084904306
60	0x3cb4ded1	0.022078903
61	0x3d19de36	0.037565432
62	0x3bcee555	0.0063139596
63	0x3d861ca7	0.06548434
64	0x3e061a8c	0.13096064
65	0xbb7e0050	-0.003875751
66	0x3ce942ef	0.0284743
67	0xbd2d6c33	-0.042339515
68	0x3cecd3c3	0.02890957
69	0x3cb4c7f8	0.022068009
70	0xbd9fea0a	-0.07808311
71	0xbdacf73d	-0.084455945
72	0xbc75598d	-0.014974964
73	0xbd8dd637	-0.06925624
74	0x3d733771	0.059379045
75	0xbd91fc03	-0.071281455
76	0x3dc0a84f	0.09407102
77	0xbcb65eac	-0.02226194
78	0x3da989c1	0.082782276
79	0xbd38dd60	-0.045132995
80	0xbdb02f27	-0.086027436
81	0xbc4871c4	-0.012234155
82	0x3d78d56a	0.060750403
83	0x3dc99815	0.098434605
84	0xbd9a8798	-0.07545394
85	0x3dfa6877	0.12226956
86	0xbbf30f22	-0.0074175755
87	0xba36b7f2	-0.0006970159
88	0x3d9cf6a7	0.07664233
89	0xbc37f2e8	-0.011227347
90	0x3d66cab3	0.056345653
91	0x3c3869b3	0.011255669
92	0xbd6df5a4	-0.05809559
93	0xbe097ac0	-0.13425732
94	0x3c4b714b	0.012417148
95	0x3de22e1a	0.110439494
96	0x38b65fd6	8.696287e-05
97	0x3e01f0c6	0.12689504
98	0xbcf85e26	-0.030318331
99	0x3d882cac	0.066491455
100	0x3a8beb1f	0.001067493
101	0xbacf5106	-0.0015816994
102	0x3d4866ab	0.048926037
103	0xbd0f05b0	-0.034917533
104	0xbcbfbb0b	-0.023404619
105	0x3de46f9c	0.111541
106	0xbe01afd1	-0.12664725
107	0x3c4fc15a	0.012680376
108	0xbd08e9e8	-0.033426195
109	0x3d3d9b37	0.046290603
110	0xbda948e6	-0.082658574
111	0xbdb563cb	-0.088569246
112	0xbd660272	-0.056154676
113	0x3d723bb9	0.059138987
114	0xbd8ee7ec	-0.06977829
115	0x3ca4c17f	0.020111797
116	0x3d82688d	0.06367598
117	0x3dea9349	0.11453874
118	0x3d0afe46	0.0339339
119	0xbdc78fa3	-0.097441934
120	0x3c9ead8c	0.019369863
121	0xbbfce3e0	-0.0077175945
122	0xbd9678cc	-0.07347259
123	0x3d2ce4d6	0.042210422
124	0xbdbbab0e	-0.091634855
125	0x3d969286	0.07352166
126	0x3cf60e60	0.030036151
127	0x3d148efc	0.036269173

pi.mu_net.4.weight f4 [6, 128]
0	0x3ce897f0	0.028392762
1	0x3db66bc6	0.08907275
2	0xbda311de	-0.07962392
3	0x3d7528dc	0.05985342
4	0x3d1657a3	0.03670467
5	0xbc903c14	-0.017606772
6	0x3d96187c	0.07328889
7	0xbd2ecde2	-0.042676814
8	0x3d0b16ef	0.033957418
9	0x3e1d26d2	0.1534684
10	0xbcec2ffc	-0.028831474
11	0xbd2c06af	-0.04199856
12	0xbe34f9b7	-0.17673384
13	0x3db0a439	0.08625073
14	0xbdc1911b	-0.09451505
15	0x3c4751b6	0.0121654775
16	0x3d1018ad	0.035179783
17	0xbd959acf	-0.07304918
18	0x3d043cd8	0.032284588
19	0xbdcb434a	-0.09924944
20	0x3c7338d7	0.014845095
21	0x3d2c2e09	0.04203609
22	0xbe0852d0	-0.1331284
23	0x3e1160d0	0.14197087
24	0xbd8af9ab	-0.06785902
25	0x3da2bbdf	0.0794599
26	0xbdc6ee7c	-0.09713456
27	0x3df5db68	0.12004739
28	0xbd611580	-0.054952145
29	0xbd539843	-0.05165888
30	0x3c0c7408	0.008572586
31	0x3de429a4	0.11140755
32	0xbdc664c5	-0.09687189
33	0x3d8bb29e	0.06821178
34	0x3bcbfa3d	0.006224899
35	0xbe090c64	-0.13383633
36	0xbd7f2c15	-0.0622979
37	0xbd3c7202	-0.046007164
38	0xbd891ba9	-0.06694729
39	0x3e0e7ddd	0.139152
40	0x3e0ad6d3	0.13558511
41	0x3d6cfe70	0.057859838
42	0x3df70bc6	0.120627925
43	0x3c8ea802	0.017414097
44	0xbc478b74	-0.012179244
45	0x3e40cb9b	0.1882767
46	0xbc453ed3	-0.012038904
47	0xbdeb454d	-0.114878275
48	0xbb78aa0f	-0.003794316
49	0xbd720c11	-0.05909354
50	0xbe2a1afb	-0.16611855
51	0x3d7c64d0	0.06161958
52	0x3e29f495	0.16597207
53	0x3d5d9524	0.05409731
54	0x3d130c47	0.03590038
55	0x3df91292	0.12161745
56	0xbe2cd8af	-0.16879533
57	0x3d9c84a4	0.07642487
58	0x3d3ff4a3	0.046864163
59	0x3d3676f9	0.044547055
60	0xbda9e6e8	-0.08295995
61	0x3d36866a	0.04456178
62	0x3deb1dc1	0.114802845
63	0x3d4c728f	0.04991394
64	0x3b8860c0	0.004161924
65	0x3d204c13	0.03913505
66	0x3d011258	0.031511635
67	0xbd8ac420	-0.06775689
68	0xbb0649f4	-0.0020490857
69	0xbe0d5bc5	-0.13804539
70	0xbe04d532	-0.12971953
71	0x3e18c85a	0.14920178
72	0x3c160ac2	0.009157838
73	0xbdf1354e	-0.11777745
74	0x3d87f8ac	0.06639227
75	0x3b64172f	0.0034803858
76	0xbdb7d7c6	-0.089767024
77	0xbc0fc916	-0.00877597
78	0x3c61a939	0.013773256
79	0x3d2888cf	0.041146096
80	0x3d1a1370	0.037616193
81	0xbd15d700	-0.036581993
82	0xbe338731	-0.1753204
83	0x3d98e67d	0.07465837
84	0x3df667a6	0.12031488
85	0xbdc0a182	-0.09405805
86	0xbc8fe214	-0.017563857
87	0xbe36a11c	-0.17834896
88	0xbd5e4287	-0.054262664
89	0xbd98147d	-0.07425783
90	0x3e107ada	0.14109364
91	0x3df46d48	0.11934906
92	0xbd210d35	-0.039319236
93	0xbde31305	-0.11087612
94	0xbd31c74f	-0.043402966
95	0xbe4bfb09	-0.19919981
96	0x3d2559cf	0.04036885
97	0x3cf93751	0.030421885
98	0xbdb64712	-0.08900274
99	0x3dd6a659	0.10480947
100	0x3e256c6c	0.16154641
101	0x3de64861	0.11244274
102	0xbde12a5c	-0.109944075
103	0x3dcb1ac2	0.09917213
104	0x3cc4470b	0.023959657
105	0x3d92818e	0.07153617
106	0xbdec0479	-0.115242906
107	0xbd0c6ed8	-0.034285396
108	0xbe0d09a6	-0.13773212
109	0x3dd3d7e2	0.10343911
110	0xbd735e7f	-0.05941629
111	0xbdc8336c	-0.09775433
112	0xbd7ddb1a	-0.06197653
113	0xbbfdbdb4	-0.0077435616
114	0xbe1c3119	-0.15253104
115	0xbe18507b	-0.14874451
116	0x3d55d692	0.052206583
117	0xbdc5fff0	-0.09667957
118	0x3d47acff	0.048748966
119	0xbda5e89b	-0.081010066
120	0xbdd294b7	-0.10282271
121	0x3d84c5c8	0.06483036
122	0x3c97d380	0.018533468
123	0xbc177124	-0.009243283
124	0xbd1901df	-0.0373553
125	0x3dc37597	0.09543913
126	0xbd93e04b	-0.07220515
127	0xbd037bba	-0.032100417
128	0x3d249f94	0.040191248
129	0x3cc9b33a	0.024621595
130	0x3dd1e38f	0.102484815
131	0x3e270eae	0.16314194
132	0x3c9b480f	0.018955259
133	0xbb81cd47	-0.0039612385
134	0xbda620d6	-0.08111732
135	0x3e1e36d8	0.15450609
136	0xbd96289e	-0.07331966
137	0xbe084282	-0.1330662
138	0x3ddbdea9	0.107358284
139	0xbcec98ae	-0.028881397
140	0xbdeda04c	-0.1160284
141	0x3e2d1180	0.16901207
142	0x3dde7d56	0.1086375
143	0x3da3013a	0.07959218
144	0xbdaacb4b	-0.08339556
145	0xbd805f5e	-0.0626819
146	0xbcb1032b	-0.021607956
147	0xbdacd8d6	-0.08439796
148	0x3db1a334	0.08673707
149	0xbc201a04	-0.009771828
150	0x3dcb97b3	0.09941044
151	0x3d3d4c33	0.046215247
152	0x3c95fac7	0.018308057
153	0xbd856ef6	-0.06515305
154	0x3e0fed60	0.14055395
155	0x3cc3caad	0.023900354
156	0xbdbf07cc	-0.09327659
157	0x3da92f78	0.08261007
158	0xbb33967c	-0.0027402928
159	0xbc7b455e	-0.015336363
160	0xbdc606df	-0.09669279
161	0xbd968a03	-0.073505424
162	0xbcecec04	-0.028921135
163	0xbd963956	-0.07335155
164	0xbc495a07	-0.012289531
165	0xbda53285	-0.080662765
166	0xbda34449	-0.07972009
167	0xbdd65565	-0.104655065
168	0xbdf1e7c1	-0.11811782
169	0x3e08d437	0.13362204
170	0xbd3c4170	-0.045960844
171	0xbdc71691	-0.09721101
172	0xbd2d6a88	-0.042337924
173	0x3dadd77f	0.08488368
174	0x3dde2cda	0.108483985
175	0x3d974bc3	0.07387497
176	0x3e476bcb	0.19474714
177	0xbdeb1703	-0.114789985
178	0xbdf29645	-0.11845068
179	0xbcea6f87	-0.028617634
180	0x3d3692aa	0.044573463
181	0x3d39d857	0.045372333
182	0xbc804fcb	-0.015663048
183	0x3d865194	0.065585285
184	0xbd36d5dd	-0.04463755
185	0x3cad08de	0.021122392
186	0xbdc2244f	-0.094795816
187	0x3cec9f4c	0.028884552
188	0x3d126514	0.035740927
189	0xbd0efc8b	-0.034908812
190	0x3e06dc14	0.1316989
191	0x3ddd2a08	0.107990324
192	0xbcec2f33	-0.0288311
193	0xbd837fbe	-0.06420849
194	0x3de82a39	0.11336178
195	0x3e0dd33e	0.13850114
196	0x3d6fcc2a	0.058544315
197	0xbdf071c8	-0.11740452
198	0xbdb0631b	-0.08612653
199	0x3ceefec2	0.029174212
200	0xbd9b37bb	-0.07578989
201	0x3dffe2ac	0.12494406
202	0x3de064d4	0.109567314
203	0xbe02a944	-0.12759882
204	0xbda4a975	-0.08040134
205	0xbdf39ce9	-0.118951626
206	0xbdc1aaeb	-0.09456428
207	0xbd0724f7	-0.032994237
208	0xbe1a186f	-0.15048383
209	0xbe552ea8	-0.20818579
210	0x3ca5f5d7	0.020258827
211	0x3cdd69e7	0.027028037
212	0x3e6925ac	0.22768277
213	0x3d848b99	0.06471939
214	0xbdc03db5	-0.0938677
215	0xbe551974	-0.20810491
216	0xbe61ac72	-0.22038439
217	0x3d37ad1d	0.044842828
218	0x3e16d386	0.14729127
219	0xbdd076bc	-0.10178897
220	0x3cd0fa9c	0.025510125
221	0xbd504938	-0.050851077
222	0xbe21db55	-0.15806325
223	0xbe0e0140	-0.13867664
224	0xbd9518d0	-0.07280123
225	0xbdd97e01	-0.106197365
226	0x3c92fb70	0.01794216
227	0x3c89b533	0.016810035
228	0xbc74da8b	-0.014944683
229	0xbe0fbeb6	-0.14037594
230	0xbdffbcb9	-0.12487168
231	0x3db22799	0.08698959
232	0x3dfc946b	0.12332996
233	0xbe079034	-0.13238603
234	0xbe20f226	-0.15717372
235	0xbdfe5bf0	-0.124198794
236	0x3d9567d4	0.07295194
237	0x3c02b416	0.007977506
238	0x3db87b3f	0.09007882
239	0x3d5cf981	0.053948883
240	0xbcca942b	-0.024728855
241	0xbd6b93db	-0.057514053
242	0xbd763cf1	-0.060116712
243	0x3e0e36c3	0.13888077
244	0x3d4808a4	0.048836365
245	0x3e0843d8	0.1330713
246	0xbb9a1e7e	-0.004703342
247	0x3df9c829	0.12196381
248	0xbe1a1129	-0.15045609
249	0xbdd9de6a	-0.10638125
250	0xbbe60904	-0.0070201177
251	0xbda00e4e	-0.078152284
252	0xbe25d1c3	-0.16193299
253	0xbe0a0160	-0.13477087
254	0xbda70204	-0.08154681
255	0x3d4a459b	0.049382787

pi.mu_net.4.bias f4 [6]
0	0x3dc8ac11	0.09798444
1	0xbcaad5eb	-0.020853957
2	0x3d9ad7c9	0.07560689
3	0xbd8d48f1	-0.06898678
4	0x3cac5369	0.021035867
5	0x3dbff73d	0.09373329

vf.v_net.0.weight f4 [128, 24]
0	0xbfccecd7	-1.6009778
1	0x3f481690	0.7815943
2	0x3f0efbf3	0.55853194
3	0x3f1f263a	0.62167704
4	0xbefe50b5	-0.4967095
5	0x3edef818	0.43548656
6	0xbdd3a84b	-0.10334834
7	0xbd5ba5d8	-0.053624958
8	0x3ec3150f	0.38102004
9	0x3ed03bab	0.40670523
10	0x3da6c5ea	0.08143218
11	0xbe0da2b1	-0.13831593
12	0xbc58fdae	-0.013244076
13	0x3df18cf5	0.117944635
14	0xbed61829	-0.41815308
15	0xbefcf56f	-0.49406
16	0x3f60a64e	0.8775376
17	0xbd24523b	-0.040117484
18	0x3d113dba	0.035459258
19	0xbd77abea	-0.060466684
20	0xbb879578	-0.004137691
21	0x3d74e3db	0.059787612
22	0xbe28a1c3	-0.16467957
23	0xbd793dbc	-0.06084989
24	0x3d8126a8	0.06306201
25	0x3f7f6e6d	0.9977787
26	0x3e203e57	0.15648781
27	0xbe40f35f	-0.18842839
28	0x3e36cde9	0.17851986
29	0xbf39fc0b	-0.7265021
30	0xbe1cb9af	-0.15305208
31	0xbe091260	-0.13385916
32	0x3d7037e1	0.05864704
33	0x3e1da8e4	0.15396458
34	0xbfc068d1	-1.5031987
35	0x3f500326	0.81254804
36	0xbfa8ddd7	-1.31927
37	0xbe05be45	-0.13060863
38	0xbf6edf4a	-0.9330946
39	0xbf8b68af	-1.0891322
40	0xbde63598	-0.11240691
41	0x3ebe59b7	0.37177822
42	0xbd6bc199	-0.057557676
43	0xbd485db2	-0.04891748
44	0xbbd3766d	-0.0064533264
45	0xbe0aaeff	-0.13543318
46	0xbe4be065	-0.19909818
47	0xbd34f52a	-0.04417912
48	0x3e0bd3ce	0.13655016
49	0xbf09ae73	-0.53781813
50	0xbdc3d59f	-0.09562229
51	0x3e7c47b9	0.24636735
52	0xbe441a8b	-0.1915075
53	0x3e3819d9	0.1797861
54	0x3bb157e3	0.0054120882
55	0x3ed826b0	0.42217016
56	0xbf79e56b	-0.9761569
57	0xbf10d4e1	-0.5657483
58	0x3f620f86	0.88304937
59	0xbfda7306	-1.7066352
60	0x3f5c709c	0.8610933
61	0xbda5d1ae	-0.08096634
62	0x3bf11859	0.007357639
63	0xbf56ccb1	-0.83906084
64	0xbf664fa8	-0.89965296
65	0x3db13f94	0.08654705
66	0x3da10a53	0.07863297
67	0x3e1c5b07	0.15269099
68	0xbd64bf50	-0.055846512
69	0xbde91eee	-0.113828525
70	0x3df03965	0.11729697
71	0xbc257c9c	-0.01010051
72	0xbf4ece98	-0.8078399
73	0xbd5df046	-0.05418422
74	0x3ef72736	0.48272103
75	0x3d96250d	0.073312856
76	0x3e31893a	0.17337504
77	0x3eed1ee1	0.4631262
78	0x3e0941a4	0.13403946
79	0x3ef0ccf3	0.47031364
80	0x3e3d1304	0.18464285
81	0x3e6bc9c1	0.23026182
82	0x3f3accf5	0.7296899
83	0xbe42a783	-0.19009213
84	0x3e9e9d70	0.3097949
85	0x3dd703a2	0.1049874
86	0x3f4a1e16	0.7895216
87	0x3f38a8f6	0.72132814
88	0xbdb1dc4a	-0.08684595
89	0xbf0e6d00	-0.5563507
90	0xbd947a40	-0.0724988
91	0xbdc337d6	-0.09532134
92	0x3d1bcd8d	0.038037825
93	0x3eb1b933	0.34711608
94	0xbeac39fb	-0.33637986
95	0xbd9ec838	-0.077530324
96	0xbeaf9537	-0.3429353
97	0x3f87dcd5	1.0614268
98	0xbe03ca6e	-0.1287019
99	0x3dee1b93	0.11626353
100	0x3c2096d2	0.009801583
101	0xbeddef87	-0.43346807
102	0x3e1fda83	0.156107
103	0xbd62d552	-0.05537922
104	0x3e35031a	0.17676964
105	0x3eb88499	0.36038664
106	0xbfa3fd70	-1.2811718
107	0x3f1e33ef	0.61797994
108	0xbe9fe906	-0.3123247
109	0x3d79d9b9	0.060998652
110	0xbeda9b45	-0.42696586
111	0xbecd45d2	-0.4009233
112	0x3e31b0d8	0.17352617
113	0xbd6abab0	-0.057306945
114	0xbe6951c2	-0.22785094
115	0x3ebce7c2	0.36895567
116	0x3dd7c3dc	0.10535404
117	0x3c8ca92f	0.017170517
118	0x3dc2aa14	0.09505096
119	0x3d82272b	0.06355127
120	0x3e86cff0	0.2633052
121	0xbf47a7b9	-0.779903
122	0xbf03f218	-0.5154128
123	0xbee1abda	-0.44076425
124	0x3e5eb331	0.21748044
125	0xbeb601cf	-0.35548255
126	0xbeac33a6	-0.33633155
127	0xbdea663e	-0.114452824
128	0x3db86887	0.09004312
129	0x3dca4fdd	0.09878514
130	0xbec4e482	-0.38455588
131	0xbd9af05b	-0.075653754
132	0xbefce365	-0.49392238
133	0xbf10d528	-0.5657525
134	0xbdee8e96	-0.1164829
135	0x3f29964d	0.66244966
136	0xbf8a2ff6	-1.0795887
137	0xbd99cc97	-0.075097255
138	0x3e207280	0.15668678
139	0x3eadf50c	0.33976018
140	0xbe0d3be6	-0.1379238
141	0xbe359563	-0.17732768
142	0xbcfed54b	-0.031107565
143	0x3d802640	0.062572956
144	0xbeca1a03	-0.3947297
145	0xbe8d4d60	-0.27598095
146	0x3e93ddbc	0.28880107
147	0x3de4748b	0.11155041
148	0xbed4f238	-0.41591048
149	0x3f0e3407	0.5554814
150	0xbf15337d	-0.5828169
151	0x3ed0b1f7	0.40760776
152	0xbe8a786b	-0.27044997
153	0x3e02ffdc	0.12792915
154	0x3ce7fb99	0.028318213
155	0x3ed9c7fc	0.42535388
156	0xbe421600	-0.18953705
157	0xbe90f64b	-0.28312907
158	0x3f5971a0	0.84939003
159	0x3ecc28cc	0.39874876
160	0x3f5ca8c1	0.86195
161	0x3e195479	0.1497363
162	0xbd81c3bf	-0.06336164
163	0xbe95421c	-0.29152
164	0x3df89ea3	0.121396326
165	0xbcb5a2e4	-0.022172399
166	0xbf1268a3	-0.5719091
167	0x3cccf810	0.02502063
168	0xbf4a8308	-0.7910619
169	0xbd984ef0	-0.07436931
170	0x3f01baa9	0.50675446
171	0x3f24b76f	0.643424
172	0x3eb00d35	0.34385076
173	0x3f655adb	0.8959176
174	0xbe0e2f0b	-0.13885133
175	0x3f0063a1	0.5015202
176	0x3eb3bf9a	0.35107118
177	0x3e22ab6b	0.15885703
178	0x3f8ae61a	1.0851471
179	0x3eb8f3b2	0.36123425
180	0x3e56344c	0.20918387
181	0x3ec87c75	0.39157453
182	0x3e94a891	0.29034856
183	0xbe83c29d	-0.25734416
184	0xbec6e6e5	-0.38848034
185	0xbec81022	-0.39074808
186	0x3d37e251	0.044893567
187	0x3d485ac3	0.048914682
188	0x3dac72bd	0.08420322
189	0x3e2b1e87	0.16710864
190	0x3d1a547b	0.037678223
191	0xbf3ca32b	-0.73686475
192	0x3ef0ff4a	0.4706977
193	0xbed6d7a5	-0.419614
194	0x3ea76167	0.326915
195	0x3e94cb3f	0.29061314
196	0xbe07fc64	-0.13279873
197	0x3eb00965	0.34382167
198	0xbcd84505	-0.026400099
199	0x3eaff9c5	0.34370247
200	0xbe946633	-0.28984222
201	0x3e1622be	0.1466169
202	0x3e97c2fd	0.29640952
203	0xbcee04ec	-0.029055081
204	0x3efe7d01	0.49704745
205	0x3e4b433e	0.1984987
206	0x3f18646d	0.5952824
207	0xbf9516eb	-1.1647619
208	0xbdce1a6a	-0.10063632
209	0x3e5323fc	0.20619196
210	0xbd007a17	-0.031366434
211	0xbe9b069b	-0.30278477
212	0x3db1a924	0.08674839
213	0x3c9255f6	0.017863255
214	0xbeedef09	-0.46471432
215	0x3ddd8a80	0.108174324
216	0xbf21ae5f	-0.63156694
217	0x3ea7789a	0.327092
218	0xbdd4c2b4	-0.10388699
219	0x3f90c354	1.130961
220	0xbf11f8bb	-0.5702016
221	0x3eae3e77	0.34032032
222	0xbca66a16	-0.020314258
223	0xbe58fdaf	-0.21190523
224	0x3e4e8df9	0.20171346
225	0x3f36488c	0.7120445
226	0x3e279795	0.16366418
227	0x3e394e2f	0.18096231
228	0x3cc7436a	0.024324138
229	0x3cf992ed	0.030465567
230	0xbf3be25f	-0.7339229
231	0xbfaea5a6	-1.3644302
232	0x3e40e628	0.18837798
233	0xbeb8f189	-0.36121777
234	0x3e7df911	0.24802043
235	0x3a2ab18c	0.0006511442
236	0xbcd3e775	-0.025867203
237	0xbd328bd4	-0.04359038
238	0xbe3ea4c8	-0.18617547
239	0xbdae0232	-0.084965125
240	0xbf08f15a	-0.53493273
241	0x3fbede15	1.4911524
242	0xbf323412	-0.69610703
243	0x3ca5887c	0.020206682
244	0xbf4b4829	-0.7940698
245	0x3e9364d1	0.28787854
246	0xbf411326	-0.75419843
247	0x3d8938c7	0.067002825
248	0xbf038940	-0.513813
249	0xbd659446	-0.056049608
250	0xbe23d4fd	-0.15999217
251	0xbe60002b	-0.21875064
252	0xbe9b56eb	-0.3033975
253	0x3e5369c4	0.20645815
254	0xbf0b49dd	-0.5440958
255	0x3e177558	0.14790857

vf.v_net.0.bias f4 [128]
0	0x3ae99ee6	0.0017823845
1	0xbe515a0b	-0.20444505
2	0xbf9a71af	-1.2065943
3	0xbe1d9a4e	-0.15390894
4	0x3e134310	0.14381051
5	0xbf065ac3	-0.5248224
6	0x3f3d502e	0.7395047
7	0x3e2616be	0.16219613
8	0x3f1b6841	0.60705954
9	0x3e2aaf40	0.16668415
10	0xbf22dd73	-0.63619155
11	0xbe8c1c7c	-0.27365482
12	0x3e0d43f0	0.13795447
13	0x3e9a1018	0.30090404
14	0xbe553c1b	-0.2082371
15	0x3d80e06a	0.062928036
16	0xbb5a42a2	-0.0033303876
17	0x3f5abb63	0.8544218
18	0x3d020c42	0.03174997
19	0x3c02701c	0.007961299
20	0xbe2983a6	-0.16554126
21	0xbdb98d19	-0.09060115
22	0x3e8d0ab0	0.27547216
23	0xbe8dc865	-0.2769195
24	0x3c533ef0	0.012893423
25	0xbe8442c3	-0.25832185
26	0xbddeb54f	-0.108744256
27	0xbf1069f0	-0.5641165
28	0x3e956d7d	0.29185095
29	0x3f0c745d	0.54865056
30	0x3e0476a3	0.12935881
31	0xbe3f5665	-0.186853
32	0x3f03119d	0.5119875
33	0x3eb1291b	0.34601673
34	0x3e873f7b	0.2641562
35	0xbeb14152	-0.34620148
36	0x3f07340f	0.5281381
37	0x3d5088cf	0.05091172
38	0x3d8a4238	0.067509115
39	0x3e018548	0.12648499
40	0xbf3cc7b9	-0.7374225
41	0x3f3eaeef	0.7448568
42	0x3f69ae0e	0.9128121
43	0xbd4b320e	-0.049608283
44	0x3f7acf28	0.97972345
45	0x3f754cbc	0.9582021
46	0x3f23656d	0.6382664
47	0x3ef1bbfc	0.47213733
48	0x3f0f3fde	0.5595683
49	0xbe97087e	-0.29498667
50	0xbf4bd976	-0.79628694
51	0x3f83d925	1.0300642
52	0x3ece0544	0.40238392
53	0xbf36073b	-0.7110478
54	0x3e149a20	0.14511919
55	0xbe8a2f3d	-0.26989165
56	0x3ee001d2	0.4375139
57	0x3e8c3953	0.27387485
58	0x3d48eb50	0.049052536
59	0xbebdfca2	-0.37106806
60	0x3f30eadd	0.6910837
61	0x3e85e156	0.2614848
62	0x3c60ad0f	0.013713135
63	0xbf87ac46	-1.0599449
64	0xbe77730d	-0.24164982
65	0xbf49ee3d	-0.7887915
66	0x3ef93814	0.48675597
67	0x3f522001	0.82080084
68	0xbe2c2e0a	-0.16814438
69	0xbc8ae6c8	-0.016955748
70	0x3ef6cc66	0.4820282
71	0xbf6d3172	-0.9265357
72	0xbeb32319	-0.34987715
73	0x3ee253ff	0.4420471
74	0xbf643f94	-0.8915951
75	0x3e004811	0.12527491
76	0x3f221953	0.6331989
77	0x3d83d170	0.064364314
78	0x3ec683c4	0.38772404
79	0xbe185759	-0.1487707
80	0x3ea76dfe	0.32701105
81	0xbea55c9f	-0.32297227
82	0xbd523d41	-0.051327948
83	0xbe873a32	-0.26411587
84	0x3f3b3c0f	0.7313852
85	0xbe7ddfdd	-0.24792428
86	0x3e5b97f5	0.21444686
87	0x3f5272a0	0.82206154
88	0x3e4bfef4	0.19921476
89	0x3d4b00ed	0.04956143
90	0xbe9cb474	-0.30606425
91	0xbf1ab3ff	-0.604309
92	0x3f6641dd	0.8994425
93	0x3eac1e08	0.33616662
94	0x3ecd0479	0.40042475
95	0xbf2b79e4	-0.66982865
96	0x3f280466	0.6563171
97	0x3e6b60ad	0.22986098
98	0x3f8dde4b	1.1083463
99	0xbec681be	-0.3877086
100	0x3f001652	0.5003406
101	0x3f036050	0.51318836
102	0x3d56a3b9	0.05240223
103	0xbe054b7c	-0.13017076
104	0xbd924bb3	-0.07143345
105	0x3f7d9b06	0.9906467
106	0x3ec96238	0.39332747
107	0x3f262bac	0.6491039
108	0x3d9cb8ba	0.07652421
109	0x3df7997b	0.12089821
110	0x3e7822fe	0.24232098
111	0x3f2c4590	0.67293644
112	0x3f798083	0.9746172
113	0x3db87e85	0.09008507
114	0xbed8d4c1	-0.42349818
115	0xbe694a1a	-0.22782174
116	0x3e13e19f	0.14441536
117	0x3f1ca956	0.61195886
118	0x3cceea03	0.02525807
119	0xbeba2e7a	-0.36363584
120	0xbda89a19	-0.08232517
121	0xbee29680	-0.44255447
122	0x3ed4f22a	0.41591007
123	0x3d26ce0a	0.040723838
124	0x3f0fc7dc	0.56164336
125	0x3e7e17fa	0.24813834
126	0x3e8152e7	0.25258562
127	0xbe51453d	-0.20436569

vf.v_net.2.weight f4 [128, 128]
0	0xbe66b3c9	-0.2252952
1	0xbdc40fc0	-0.095733166
2	0x3ec50f19	0.3848808
3	0xbeb0f04c	-0.34558332
4	0x3e833db1	0.25633004
5	0x3d3bf61d	0.04588901
6	0xbe24d549	-0.16096987
7	0xbdf90377	-0.12158864
8	0xbe8723d6	-0.26394528
9	0xbd8f1961	-0.069872625
10	0x3e48d862	0.19613793
11	0x3c4b5af5	0.012411823
12	0xbe7c00c7	-0.24609672
13	0x3f186e7a	0.59543574
14	0x3ebc648e	0.36795467
15	0xbbaa139e	-0.005190327
16	0xbe306217	-0.17224918
17	0xbe501c59	-0.20323314
18	0xbd6236c0	-0.055227995
19	0x3d031c52	0.03200943
20	0xbe8c35dd	-0.27384844
21	0xbee3ea6a	-0.4451478
22	0xbdd5f10a	-0.10446365
23	0xbe14e066	-0.14538726
24	0xbe933117	-0.2874839
25	0x3debf8ae	0.11522041
26	0xbe94f9cb	-0.29096827
27	0x3d4b9ce7	0.04971018
28	0xbed7057a	-0.41996366
29	0xbe8dcd81	-0.2769585
30	0x3e18d301	0.14924242
31	0xbd3c4a1c	-0.045969114
32	0xbec51a40	-0.3849659
33	0xbe43540b	-0.19075029
34	0x3e904d05	0.2818376
35	0x3d78669c	0.06064473
36	0xbe3f5fde	-0.18688914
37	0xbd7de680	-0.0619874
38	0xbed5f895	-0.41791216
39	0xbe5b3f47	-0.21410857
40	0xbd0fae75	-0.035078485
41	0x3dde6e7f	0.10860919
42	0x3e956b00	0.29183197
43	0x3d3ca54b	0.046056073
44	0xbd857fc6	-0.065185115
45	0x3e08d34b	0.13361852
46	0x3e595025	0.21221979
47	0x3ea546cd	0.3228058
48	0xbdd135a2	-0.10215308
49	0xbe88e086	-0.26733798
50	0x3e556454	0.20839053
51	0xbe488344	-0.19581324
52	0x3c898f58	0.016791984
53	0x3e0fbd78	0.1403712
54	0x3e9022aa	0.28151447
55	0x3db83f36	0.089964315
56	0x3f29a498	0.66266775
57	0x3d27cf57	0.04096922
58	0xbd3ae552	-0.045628853
59	0xbe320a69	-0.17386784
60	0x3e7a3899	0.24435653
61	0x3e712f9c	0.23553318
62	0x3eb43fd8	0.3520496
63	0xbe253a19	-0.16135444
64	0x3db22f09	0.087003775
65	0x3e8c879b	0.2744721
66	0x3e6d4d69	0.23174061
67	0xbe83ea14	-0.25764525
68	0xbe3f6c8c	-0.18693751
69	0xbea0628f	-0.31325194
70	0xbe9b9ccd	-0.30393067
71	0xbd9c5de4	-0.07635096
72	0x3ea1493e	0.31501192
73	0xbdd00e44	-0.10158971
74	0x3e959b38	0.29219985
75	0xbeecfa1a	-0.46284562
76	0xbd5f6547	-0.054539945
77	0x3f1b3123	0.6062185
78	0x3e235b0c	0.159527
79	0x3bcdd429	0.006281395
80	0x3ecc590c	0.39911687
81	0xbf15ce5c	-0.58518004
82	0xbdef9ed5	-0.11700217
83	0x3e624872	0.22097948
84	0xbd9c7690	-0.076398015
85	0x3cfebfea	0.031097371
86	0x3e4325a5	0.19057329
87	0x3d4db8f4	0.050225213
88	0x3e3ca179	0.18420972
89	0x3d2e5e8d	0.04257064
90	0x3de70391	0.11279977
91	0x3ae6d0f1	0.0017609877
92	0x3e012a53	0.12613802
93	0x3e93c3a8	0.2886021
94	0x3d837503	0.064188026
95	0x3e2963e6	0.16542014
96	0x3f36cb2b	0.7140376
97	0x3e4da1fa	0.2008132
98	0xbe092eef	-0.1339681
99	0xbe4752fd	-0.19465251
100	0xbde9b50b	-0.11411484
101	0x3c073355	0.008251985
102	0xbc521705	-0.012822871
103	0xbce6a9c4	-0.028157122
104	0x3eb184dc	0.34671676
105	0xbe39e5c9	-0.18154062
106	0x3db99f39	0.090635724
107	0x3c7d7b62	0.015471311
108	0xbe48265f	-0.19545887
109	0x3e1d1c2b	0.15342776
110	0x3bca1766	0.00616734
111	0xbbef55f6	-0.0073039485
112	0xbdf6e1c2	-0.12054779
113	0xbdbc6313	-0.091985844
114	0x3e1e5e77	0.15465723
115	0xbd0b5640	-0.0340178
116	0x3e9bfc2b	0.30465826
117	0xbe49ae4b	-0.19695394
118	0xbe8f2963	-0.27961263
119	0xbe790f1b	-0.24322169
120	0x3df596e4	0.11991671
121	0x3c8dc66e	0.017306533
122	0x3d05a88a	0.032631435
123	0x3d5ce289	0.05392698
124	0x3e8cfd68	0.27537084
125	0x3e036c55	0.12834294
126	0xbf09c5c8	-0.53817415
127	0x3c58465f	0.0132003715
128	0x3ec55c70	0.38547087
129	0x3d7a3a8e	0.061091
130	0xbd3cda78	-0.046106786
131	0x3ece8723	0.40337476
132	0xbe89167a	-0.2677496
133	0xbd871f34	-0.065977484
134	0x3cc27b27	0.023740364
135	0x3e45d85b	0.19320814
136	0xbe00e3f2	-0.12586954
137	0x3f064807	0.52453655
138	0x3e1e6a0e	0.15470144
139	0x3c5386be	0.012910543
140	0x3c8d8612	0.017275844
141	0xbdc45368	-0.09586221
142	0x3e3965e8	0.1810528
143	0x3bde6b3a	0.0067876847
144	0xbf4673e3	-0.7752058
145	0x3e8406cb	0.25786433
146	0x3d9bc29c	0.07605478
147	0xbd2d9ca6	-0.04238572
148	0x3e44900b	0.19195573
149	0x3f25eb24	0.6481192
150	0xbd7c406e	-0.061584882
151	0x3e6a3869	0.22873081
152	0x3d90c2c1	0.07068396
153	0x3d919064	0.071076185
154	0xbdd4ebb4	-0.10396519
155	0x3ce760b6	0.028244358
156	0x3cf321b8	0.029679164
157	0xbd9a09a4	-0.0752137
158	0xbdca6e1b	-0.09884282
159	0xbe32333b	-0.17402355
160	0x3da892ea	0.08231147
161	0x3e95f4a1	0.292882
162	0x3e3699ee	0.17832157
163	0x3e3d5ab2	0.18491629
164	0xbe4bbf7b	-0.19897263
165	0x3a64f21a	0.0008733586
166	0x3edf87ed	0.4365839
167	0x3f0f55b5	0.55990154
168	0xbdcd82e3	-0.1003473
169	0xbeccc781	-0.3999596
170	0x3ed3258f	0.41239592
171	0x3e9baece	0.30406803
172	0x3e3a9894	0.18222266
173	0x3e6329a5	0.22183855
174	0x3bcc5c7c	0.006236611
175	0x3d5c4db5	0.053785045
176	0x3de86ebf	0.11349248
177	0xbcd5ba96	-0.026089948
178	0x3e9b25e4	0.30302346
179	0xbda66715	-0.0812513
180	0xbdb42433	-0.08795967
181	0xbdea030d	-0.11426363
182	0xbcec5cb0	-0.02885279
183	0x3dd4c82d	0.10389743
184	0xbe28c283	-0.1648045
185	0x3e1ce473	0.15321521
186	0x3e404aeb	0.18778579
187	0x3f300a25	0.6876548
188	0x3ed84472	0.4223972
189	0xbdc41d1e	-0.09575866
190	0x3ed71e5f	0.4201536
191	0xbe355d25	-0.17711313
192	0x3eb79fba	0.3586405
193	0xbd06aa28	-0.032877117
194	0xbd9c35fe	-0.07627486
195	0x3e835903	0.25653848
196	0x3d0d2156	0.03445562
197	0xbc11b26a	-0.008892635
198	0x3dbf0166	0.093264386
199	0x3dce3f37	0.10070651
200	0xbec7c8cc	-0.39020383
201	0x3d7ba60c	0.06143765
202	0xbdc3fa0c	-0.09569177
203	0x3d7cc95c	0.06171547
204	0x3e07f804	0.13278204
205	0xbe3a24f6	-0.18178162
206	0x3eea71bd	0.457899
207	0xbe9edb10	-0.31026506
208	0x3ed104f2	0.40824085
209	0xbeb79a56	-0.35859936
210	0x3d878736	0.06617586
211	0x3d3d17ea	0.046165384
212	0xbdd229db	-0.102618895
213	0x3e247913	0.16061811
214	0xbe9c1e86	-0.30492038
215	0x3c9dadc2	0.019247893
216	0xbf442d1a	-0.7663132
217	0xbc9dd93a	-0.01926862
218	0xbe6cd66e	-0.23128673
219	0xbf20f7b3	-0.6287796
220	0xbe82b5cd	-0.25529328
221	0x3da0d249	0.07852609
222	0x3dbad3a0	0.091223955
223	0xbec2a7c5	-0.38018623
224	0x3f10cf69	0.5656648
225	0x3ca3abd9	0.019979404
226	0xbd838720	-0.064222574
227	0x3cc2b729	0.023768978
228	0x3d90013d	0.07031486
229	0xbe95e75d	-0.2927808
230	0x3e215d69	0.1575829
231	0x3de0f80f	0.109848134
232	0x3de1b310	0.110204816
233	0x3e13455e	0.1438193
234	0x3ea09a5f	0.31367776
235	0x3d0ffe9b	0.03515492
236	0x3eec4a7d	0.4615058
237	0xbc8d9fdc	-0.017288141
238	0xbe380248	-0.1796962
239	0x3dcdccd7	0.10048836
240	0xbc920f91	-0.017829688
241	0x3d4e610f	0.05038553
242	0x3ed3cf3f	0.41369054
243	0xbe36a515	-0.17836411
244	0xbb0f075e	-0.002182446
245	0xbd302566	-0.043004416
246	0xbe6ec985	-0.23319061
247	0xbe96a193	-0.29420146
248	0xbe3e12b0	-0.18561816
249	0x3d748ecb	0.05970649
250	0x3cd2c204	0.02572728
251	0x3ec2b1e1	0.38026336
252	0xbd92b4ff	-0.071634285
253	0x3e7b5011	0.24542262
254	0xbe3b1ea9	-0.18273415
255	0x3df53e18	0.11974734

vf.v_net.2.bias f4 [128]
0	0x3ea3cb31	0.3199096
1	0x3e3a3f34	0.18188173
2	0x3e6e92fe	0.2329826
3	0xbe1a8317	-0.1508907
4	0xbf57cfd1	-0.8430148
5	0x3e9aeb2e	0.30257553
6	0xbf37815e	-0.71681774
7	0xbf3aaa26	-0.72915876
8	0xbea1bc91	-0.31589177
9	0x3e5bf92b	0.21481769
10	0x3d114acb	0.03547172
11	0xbf8116a9	-1.008504
12	0xbda38e99	-0.07986183
13	0x3d51a5c7	0.05118349
14	0xbea82ba8	-0.32845807
15	0x3e50da4e	0.20395777
16	0x3d656b88	0.056010753
17	0x3e01b92f	0.12668298
18	0xbcfd9707	-0.030955805
19	0xbd1d9438	-0.03847143
20	0xbe9fa610	-0.31181383
21	0xbe877dfb	-0.26463303
22	0xbeb2c8ed	-0.3491892
23	0x3e93a877	0.28839466
24	0x3d94714a	0.07248171
25	0x3d1604d5	0.036625702
26	0xbf10c00b	-0.56543034
27	0xbee088a8	-0.4385426
28	0xbe6ed468	-0.23323214
29	0xbdea9745	-0.114546336
30	0x3e5c8571	0.21535279
31	0x3e137900	0.14401627
32	0x3d5e5f57	0.054290142
33	0xbe5f5959	-0.21811427
34	0xbe9efbb8	-0.3105142
35	0xbf3dc28d	-0.74124986
36	0xbe8287d1	-0.25494245
37	0xbf0de3b0	-0.5542555
38	0x3ea0a898	0.31378627
39	0xbe327ef4	-0.17431241
40	0xbf06cb2d	-0.5265377
41	0xbe900587	-0.28129217
42	0x3e485cec	0.19566697
43	0xbecdc2e2	-0.40187746
44	0x3d9f9dc3	0.077937625
45	0x3e50eda6	0.20403156
46	0xbebd8d72	-0.37021977
47	0x3e4a14c9	0.19734491
48	0x3ccbfa56	0.024899643
49	0xbe9c72d9	-0.30556372
50	0x3caa51d2	0.020790968
51	0x3cc7b217	0.024376912
52	0xbe3d4da8	-0.18486655
53	0x3e87c0b5	0.2651421
54	0x3e35b5e3	0.17745166
55	0x3e065707	0.13119136
56	0xbf0611a4	-0.5237067
57	0x3dab3670	0.083599925
58	0xbea9b40f	-0.33145186
59	0xbe909e0a	-0.28245574
60	0xbd1f7b18	-0.03893575
61	0xbe9e1f40	-0.30883217
62	0xbf4d1ac5	-0.8011897
63	0x3d78cba0	0.060741067
64	0xbd8a02c3	-0.06738808
65	0xbe576be7	-0.21037255
66	0xbf018b1a	-0.5060288
67	0x3e6caca0	0.23112726
68	0x3db0c2d8	0.086309135
69	0xbe99a33e	-0.30007356
70	0xbebf9917	-0.37421486
71	0x3e487ca0	0.1957879
72	0x3e206125	0.15662058
73	0x3e184057	0.14868294
74	0x3e39286d	0.18081827
75	0x3ca2fe93	0.019896781
76	0xbe91e853	-0.28497562
77	0x3e0a3e72	0.13500383
78	0x3d20e665	0.03928222
79	0xbea5e4aa	-0.3240102
80	0x3eb2d869	0.34930733
81	0xbd9347d7	-0.07191437
82	0xbe7942af	-0.24341844
83	0xbd9015b7	-0.07035392
84	0xbec830ff	-0.3909988
85	0x3e066082	0.13122752
86	0x3e2f6aa1	0.1713052
87	0x3dea7076	0.114472315
88	0x3e1ae486	0.15126237
89	0xbeaf8c7b	-0.34286866
90	0x3e166931	0.14688565
91	0xbe8ea534	-0.27860415
92	0xbdc164bb	-0.09443041
93	0x3e4d1044	0.20025736
94	0x3d750812	0.05982215
95	0xbc8d3e22	-0.017241541
96	0x3e92990b	0.28632388
97	0xbea85406	-0.32876605
98	0x3c8cd86c	0.017193042
99	0x3e19676e	0.14980862
100	0xbf06f277	-0.5271372
101	0x3e0326f5	0.1280783
102	0xbf23f8f3	-0.6405174
103	0x3db92aed	0.090413906
104	0x3cd1a9f4	0.025593735
105	0xbd00141a	-0.03126917
106	0xbf3772a0	-0.7165928
107	0x3ea2e158	0.3181255
108	0xbc9040a4	-0.017608948
109	0xbdb49c11	-0.0881883
110	0xbd87c14d	-0.06628666
111	0xbf075386	-0.5286182
112	0x3cff40e1	0.031158866
113	0xbdc1fddd	-0.09472249
114	0x3e2ff973	0.17185001
115	0xbca8241d	-0.020525033
116	0x3e821088	0.25403237
117	0xbe2951db	-0.16535132
118	0xbeaebf59	-0.34130362
119	0xbecf0880	-0.40436172
120	0xbd9ffcbc	-0.07811877
121	0xbee2f8cf	-0.4433045
122	0xbd24b5c9	-0.040212426
123	0xbe215438	-0.15754783
124	0xbe686a2c	-0.22696751
125	0x3d9ca19d	0.07648013
126	0xbdd818a1	-0.105515726
127	0x3d49beb8	0.04925415
