HW4/ppo_dm_control-master/training/walker/walk/ppo_ac_model - Copy.pth (torch, 166148 bytes, 12 tensors)

pi.log_std f4 [6]
0	0xc00e8773	-2.2270172
1	0xc00cfabe	-2.202804
2	0xc006345c	-2.0969458
3	0xc02a2137	-2.6582773
4	0xc02e1f0b	-2.7206447
5	0xc01752ae	-2.3644214

pi.mu_net.0.weight f4 [128, 24]
0	0xbe170d61	-0.14751197
1	0x3aec763d	0.0018040609
2	0x3e664b86	0.22489747
3	0xbe23282d	-0.15933295
4	0x3e969832	0.2941299
5	0xbe18301e	-0.14862105
6	0xbc6377d6	-0.013883552
7	0xbe3561de	-0.17713115
8	0x3d2862b4	0.041109756
9	0x3d894952	0.06703438
10	0xbcdc326c	-0.026879512
11	0x3e2d4097	0.1691917
12	0x3e363095	0.1779197
13	0xbe2f023b	-0.17090695
14	0xbe5256b9	-0.20540895
15	0xbb4f7ad8	-0.0031658914
16	0xbd04cc77	-0.032421555
17	0x3d879be5	0.066215314
18	0xbe01d198	-0.1267761
19	0x3dde4f1e	0.10854934
20	0xbce15537	-0.027506454
21	0xbd3fcdb0	-0.04682702
22	0xbd65e396	-0.056125246
23	0x3e9ae5d5	0.30253473
24	0x3e58741f	0.21138047
25	0xbe425d16	-0.18980822
26	0x3d8ae339	0.067816205
27	0xbe88215e	-0.26587957
28	0x3dd15393	0.10221019
29	0x3e530916	0.20608935
30	0x3e4f486c	0.2024247
31	0x3e6efe40	0.23339176
32	0xbe46552c	-0.19368428
33	0xbeb74317	-0.35793373
34	0x3e898f1a	0.2686699
35	0xbc6be2b0	-0.014397308
36	0xbe117818	-0.14205968
37	0x3e47b46a	0.19502416
38	0xbd8f1a3e	-0.06987427
39	0x3e7e9e95	0.24865182
40	0xbe50286c	-0.2032792
41	0x3d9b1597	0.07572477
42	0x3d26fed9	0.040770385
43	0xbea80597	-0.32816765
44	0x3e0ace56	0.13555273
45	0xbdb9872a	-0.090589836
46	0xbe138fed	-0.14410372
47	0x3e28279f	0.16421364
48	0x3e3cbd72	0.18431643
49	0xbd35c7e3	-0.04438008
50	0xbdaed66f	-0.08536994
51	0x3c44c609	0.012010106
52	0xbed41544	-0.41422474
53	0xbe2cd3df	-0.16877697
54	0xbe401fdc	-0.18762153
55	0x3dec8b01	0.115499504
56	0xbe2a52fb	-0.16633217
57	0x3e525434	0.20539933
58	0xbec782fc	-0.3896712
59	0xbd24e4e9	-0.04025737
60	0xbe7390d1	-0.23785712
61	0xbd5d13fc	-0.053974137
62	0xbdfe6d8c	-0.12423238
63	0xbe2e4d42	-0.17021659
64	0xbe483796	-0.19552454
65	0x3d7c81ed	0.061647344
66	0xbe2ffa57	-0.17185341
67	0xbc0e3fda	-0.008682216
68	0xbcca8aba	-0.024724353
69	0x3d7d6cd7	0.061871376
70	0xbe0f79d0	-0.14011312
71	0x3d4a8f48	0.04945305
72	0xbde2fd7b	-0.11083504
73	0xbe9f728a	-0.31142074
74	0x3e63df1f	0.22253083
75	0xbce83e1b	-0.028349927
76	0x3e52eb29	0.20597519
77	0x3e91f6dd	0.28508654
78	0xbe3b22b4	-0.18274957
79	0x3d29298b	0.041299384
80	0x3d99a346	0.07501845
81	0xbc94fe53	-0.018187677
82	0x3dd502e7	0.10400944
83	0x3e17b840	0.1481638
84	0x3d24cf05	0.04023649
85	0x3e54debe	0.20788094
86	0x3e93a125	0.2883388
87	0x3df70f17	0.12063425
88	0xbe1469e5	-0.1449352
89	0xbe083dc4	-0.13304812
90	0x3de0332f	0.109472625
91	0xbdfe999c	-0.124316424
92	0xbd5444a4	-0.051823273
93	0x3e2707d1	0.16311575
94	0x3d79dea0	0.061003327
95	0xbe876c79	-0.26449946
96	0x3e3bb4e5	0.18330725
97	0x3d08c3da	0.033389904
98	0x3e40bb36	0.18821415
99	0x3b6cf0dc	0.0036154306
100	0xbddb498b	-0.107073866
101	0xbd82b36c	-0.06381878
102	0xbe670b98	-0.22563016
103	0x3e355ec4	0.17711931
104	0xbe37b248	-0.17939103
105	0xbbb2311e	-0.005437984
106	0x3e15757c	0.14595598
107	0xbcd8a008	-0.026443496
108	0x3e57ed91	0.21086718
109	0x3e48475a	0.19558468
110	0xbd9abd33	-0.07555618
111	0x3e25c9a0	0.16190195
112	0xbe6b4c9e	-0.22978446
113	0x3d36558d	0.04451518
114	0xbcb9eab1	-0.022694917
115	0x3e874eaa	0.26427203
116	0x3e2dd5a3	0.16976027
117	0x3e03666c	0.1283204
118	0xbe47c61c	-0.19509166
119	0x3d91d46f	0.071205966
120	0xbe3c21aa	-0.18372217
121	0xbd968fae	-0.073516235
122	0x3d065d48	0.032803804
123	0x3d31a019	0.04336557
124	0xbd8c8db3	-0.068629645
125	0xbd4c066b	-0.04981081
126	0x3dcf5420	0.101234674
127	0xbe047cae	-0.12938187
128	0xbae40ad2	-0.0017398244
129	0x3e1c719d	0.15277715
130	0xbd9dc71d	-0.077039935
131	0xbcba6d30	-0.022757143
132	0xbd8f0e19	-0.06985111
133	0x3d8d4e1d	0.068996646
134	0x3e5ee2eb	0.2176625
135	0x3e3bf0d1	0.18353583
136	0xbce1b5ad	-0.02755245
137	0xbd0f69c7	-0.035012987
138	0x3cb1ae8a	0.021689672
139	0xbd330806	-0.043708824
140	0x3e55d7ad	0.20883055
141	0xbd490e0d	-0.049085665
142	0x3c3f8953	0.0116904555
143	0x3e830ac4	0.2559415
144	0x3e17e9cb	0.14835279
145	0x3eada25b	0.3391293
146	0x3e5e230e	0.2169306
147	0xbe0d6dcf	-0.1381142
148	0xbcd3d4ff	-0.0258584
149	0x3d98d2d9	0.07462091
150	0xbe709444	-0.23494059
151	0x3df4d4d8	0.11954659
152	0x3e1d41b1	0.1535709
153	0x3decdb80	0.11565304
154	0xbdf85066	-0.1212471
155	0x3de42b0d	0.11141024
156	0xbccd46d1	-0.025058182
157	0xbe0f07c4	-0.13967806
158	0x3de171cb	0.110080324
159	0x3cce72e4	0.025201268
160	0x3eff0ab9	0.49812868
161	0xbca03a4b	-0.019559046
162	0x3b9c2385	0.0047649764
163	0xbe0e1004	-0.13873297
164	0xbd1ae69d	-0.037817586
165	0x3d96745e	0.07346414
166	0x3dec4eca	0.11538465
167	0x3de7499b	0.11293336
168	0xbdf3d08f	-0.11905014
169	0x3d60f7fc	0.054923996
170	0x3df83eda	0.12121363
171	0x3d4d3f8b	0.050109427
172	0x3e8dcffd	0.27697745
173	0xbd88055a	-0.06641646
174	0x3c99c960	0.01877278
175	0xbd772159	-0.060334537
176	0x3e58efaa	0.21185175
177	0x3d8533e8	0.06504041
178	0xbdbacd33	-0.0912117
179	0xbdbbbece	-0.091672525
180	0x3e039aba	0.12851992
181	0xbe177a8a	-0.14792839
182	0x3ddcda00	0.10783768
183	0x3ec292e9	0.3800271
184	0xbe864bfe	-0.26229852
185	0xbe694e08	-0.22783673
186	0xbda13370	-0.07871139
187	0xbd14f08f	-0.036362227
188	0xba0d0a6a	-0.0005380275
189	0x3dc0a688	0.09406763
190	0xbe456dec	-0.19280213
191	0xbdde213b	-0.10846182
192	0xbe8f0a71	-0.27937654
193	0xbdcfc619	-0.10145206
194	0x3e948818	0.2901008
195	0x3e5781af	0.21045564
196	0xbda38890	-0.079850316
197	0x3e367f7f	0.17822073
198	0x3bfb6342	0.0076717446
199	0x3d68acf0	0.05680555
200	0x3e2b8b4b	0.16752355
201	0x3b70a63a	0.0036720173
202	0xbe9f434e	-0.31106037
203	0x3dbbd5e9	0.091716595
204	0xbc5f3159	-0.013622605
205	0x3e23e686	0.16005906
206	0x3d34994b	0.044091504
207	0x3e3fbdf5	0.18724807
208	0xbddb547f	-0.10709476
209	0x3e423918	0.18967092
210	0xbcfe1a52	-0.03101841
211	0xbd719757	-0.05898222
212	0x3e0b55ef	0.13607
213	0xbd688a22	-0.05677236
214	0x3d4c04ce	0.04980927
215	0xbd6b0262	-0.05737532
216	0xbdf07c45	-0.117424525
217	0xbe91e4e9	-0.28494957
218	0xbd9c7aef	-0.07640635
219	0x3e411b90	0.1885817
220	0x3d8c192f	0.06840741
221	0xbe598b81	-0.21244623
222	0x3dfc0163	0.12304952
223	0xbe6fb37f	-0.23408316
224	0xbc944ef4	-0.018104054
225	0x3e8b90b6	0.27258843
226	0xbe083588	-0.1330167
227	0x3e1ee652	0.15517548
228	0x3d460f06	0.04835417
229	0x3e4272b4	0.18989068
230	0xbe538fd9	-0.20660342
231	0x3e282798	0.16421354
232	0x3d1417a4	0.036155358
233	0x3e5a4eb2	0.21319082
234	0x3e817734	0.25286257
235	0x3d0628ba	0.032753684
236	0xbe5aede2	-0.21379808
237	0x3ce85fce	0.028365996
238	0x3d48b308	0.048998863
239	0xbaa2289c	-0.0012371722
240	0xbdf7cd01	-0.12099648
241	0xbdcec095	-0.10095326
242	0x3be8d97a	0.0071060034
243	0xbe8808f8	-0.26569343
244	0x3e6b6c4f	0.22990535
245	0xbeb49845	-0.35272422
246	0x3da73045	0.081635036
247	0xbecec534	-0.4038483
248	0x3d3d1369	0.04616109
249	0xbd62a1d9	-0.05533013
250	0x3d3ecda1	0.04658282
251	0x3d7422ba	0.05960343
252	0xbd264690	-0.040594637
253	0xbe793941	-0.24338247
254	0xbe506c7f	-0.20353888
255	0xba95c609	-0.0011426817

pi.mu_net.0.bias f4 [128]
0	0xbe33520d	-0.17511769
1	0xbde6b836	-0.11265604
2	0xbdd5e4bb	-0.104440175
3	0x3e829477	0.25503895
4	0x3e661089	0.22467245
5	0x3e711cf4	0.23546201
6	0xbd8f0936	-0.06984179
7	0x3c77eb6f	0.015131815
8	0x3e8ec06a	0.27881175
9	0xbe358200	-0.17725372
10	0xbe200960	-0.15628576
11	0xbe3d4951	-0.18484999
12	0xbdb84ee2	-0.08999421
13	0x3dad53a6	0.0846322
14	0x3d2dab14	0.04239948
15	0xbd08eeff	-0.03343105
16	0xbe0f27a3	-0.13979964
17	0x3e799966	0.24374923
18	0xbdcbff54	-0.09960809
19	0xbe6e4099	-0.2326683
20	0xbddfad26	-0.10921697
21	0xbe551a6c	-0.2081086
22	0x3e5f5131	0.21808316
23	0x3e0bf276	0.1366671
24	0xbe0ecf50	-0.13946271
25	0xbe1fd247	-0.15607558
26	0x3ddeecf9	0.10885043
27	0x3dfcd0dd	0.12344525
28	0xbe474c15	-0.19462617
29	0xbea97923	-0.33100232
30	0xbe3eb11e	-0.18622252
31	0xbdf2befe	-0.11852835
32	0x3e1dc8c0	0.15408611
33	0x3aaa29e0	0.001298245
34	0xbe1de04c	-0.15417594
35	0x3e36389c	0.17795032
36	0xbe1b5773	-0.15170078
37	0x3bd0541b	0.0063576824
38	0x3e406bc7	0.18791114
39	0xbd8cec5e	-0.06881021
40	0xbe31ba34	-0.17356187
41	0xbdbaec96	-0.091271564
42	0xbbd0bc46	-0.0063701
43	0xbda5edb7	-0.08101981
44	0xbe61eca4	-0.22062927
45	0xbd27d71f	-0.04097664
46	0x3e67b85a	0.22628918
47	0xbe009336	-0.12556157
48	0xbcb03e7c	-0.02151417
49	0x3d65086b	0.05591623
50	0x3e1fb3df	0.15595959
51	0x3dd1f7d0	0.102523446
52	0x3e647597	0.22310482
53	0x3cf5fa2f	0.030026523
54	0xbd8df30a	-0.06931122
55	0x3d358fdd	0.04432665
56	0xbe0da956	-0.13834128
57	0x3d8a2db1	0.06746996
58	0xbd56678f	-0.052344855
59	0x3dde821e	0.10864662
60	0xbe389499	-0.18025436
61	0xbad7ea5e	-0.0016473045
62	0x3ba336af	0.004980884
63	0xbe571016	-0.2100223
64	0xbd10faad	-0.035395313
65	0x3d88590d	0.0665761
66	0x3d8bac39	0.06819958
67	0xbe48f01a	-0.19622841
68	0xbd8cdc38	-0.06877941
69	0xbc225b65	-0.0099094855
70	0xbd28a2ad	-0.041170765
71	0xbe8e859d	-0.27836314
72	0x3bace167	0.0052758935
73	0xbe5f60c7	-0.21814261
74	0xbe3f2f12	-0.186703
75	0xbeae919f	-0.34095475
76	0xbe29273b	-0.16518871
77	0x3e494799	0.19656219
78	0x3df76f36	0.12081759
79	0xbe3cfc88	-0.18455708
80	0x3ce5aef5	0.028037528
81	0xbdc79376	-0.09744923
82	0xbe0f9ab9	-0.14023866
83	0x3d909e5d	0.070614554
84	0x3dd22ade	0.102620825
85	0xbe27874c	-0.16360205
86	0x3dc43435	0.0958027
87	0x3e3d2bdd	0.18473764
88	0xbcd81366	-0.026376437
89	0xbd299b62	-0.04140795
90	0xbdd80cb4	-0.10549298
91	0x3d91ca7b	0.07118698
92	0x3dc2b07c	0.09506318
93	0x3d175938	0.03695032
94	0x3df4ad79	0.1194715
95	0xbdf332f2	-0.118749514
96	0xbcb94fa0	-0.022620976
97	0x3d53ca98	0.05170688
98	0x3df02aff	0.11726951
99	0xbe00d93d	-0.1258287
100	0xbd35c48d	-0.0443769
101	0x3e84ba13	0.25923213
102	0xbe30635f	-0.17225407
103	0x3e20bb35	0.15696414
104	0xbe463e1a	-0.19359627
105	0xbd2ceeb4	-0.042219833
106	0x3e1bf149	0.15228762
107	0x3e13ca7a	0.14432707
108	0xbe8444cd	-0.2583374
109	0xbd1f6bc3	-0.03892113
110	0x3dff3748	0.12461716
111	0xbd26cd3d	-0.040723074
112	0x3e974a00	0.29548645
113	0xbd8c694b	-0.068560205
114	0xbe747fe8	-0.23876917
115	0xbe192542	-0.14955619
116	0x3e89b7f6	0.26898164
117	0x3df1ad66	0.11800651
118	0x3d975e86	0.07391076
119	0x3e2de896	0.16983256
120	0xbdb31a1c	-0.08745214
121	0x3e215d0e	0.15758154
122	0xbccb88d7	-0.024845524
123	0xbe3e5dfe	-0.18590543
124	0x3cd956f8	0.026530728
125	0x3c8d82c3	0.017274266
126	0xbe684493	-0.22682409
127	0x3e86dcb8	0.2634027

pi.mu_net.2.weight f4 [128, 128]
0	0xbd468d42	-0.048474558
1	0xbdc19f36	-0.09454195
2	0x3d51c8df	0.051216956
3	0x3d6a5440	0.057209253
4	0x3ce05c66	0.027387809
5	0xbd084a5f	-0.03327405
6	0xbc9f4486	-0.019441854
7	0xbd8fd664	-0.07023314
8	0xbdeaa482	-0.114571586
9	0x3dd6effd	0.10494993
10	0x3d53c4c4	0.051701322
11	0xbdda15a0	-0.10648656
12	0xbd007e39	-0.031370375
13	0xbcebd154	-0.028786339
14	0xbc528687	-0.012849457
15	0x3d0b2cfe	0.033978455
16	0x3b83028c	0.0039981063
17	0x3c58da63	0.013235661
18	0x3c658647	0.014009065
19	0x3d203659	0.03911433
20	0xbcd43df8	-0.025908455
21	0x3cdaebd8	0.026723787
22	0xbd7eb09a	-0.06218014
23	0xbdc7ee20	-0.097622156
24	0x3c64aff6	0.013957968
25	0xbd17cffc	-0.037063584
26	0x3d5dfdbb	0.054197054
27	0x3d377e22	0.044798024
28	0x3cbde147	0.02317871
29	0x3d91d7b8	0.07121223
30	0xbdd5e064	-0.1044319
31	0xbd9b4de4	-0.07583216
32	0xbde675e9	-0.11252958
33	0xbde09b5d	-0.10967133
34	0x3dac2be9	0.08406813
35	0x3a0d6c76	0.0005394885
36	0xbd3bfd7f	-0.04589605
37	0xbd3c0688	-0.045904666
38	0x3dd89fdb	0.10577365
39	0x3c420007	0.011840827
40	0xbd7a6fe5	-0.061141867
41	0xbd8959de	-0.06706594
42	0x3dd29ebe	0.10284184
43	0xbd96abab	-0.07356962
44	0xbce1266a	-0.027484138
45	0x3d3d5239	0.04622099
46	0xbd2a6934	-0.041604236
47	0x3b86effe	0.0041179648
48	0xbd8dd30f	-0.06925022
49	0xbdcf6ce5	-0.10128192
50	0xbc3a88ea	-0.011385182
51	0xbcd44ab5	-0.02591453
52	0x3d902e01	0.070400245
53	0x3b6004bd	0.0034182512
54	0xbcf8d364	-0.030374236
55	0x3c867595	0.01641349
56	0x3dcfe876	0.1015176
57	0x3d9dc01e	0.07702659
58	0xbcc0cd8a	-0.023535509
59	0x3b96865e	0.0045936545
60	0xbd4d47be	-0.050117247
61	0x3dc6a6c5	0.096997775
62	0xbd899e7a	-0.0671968
63	0x3dabe2d3	0.08392873
64	0x3d163357	0.036670055
65	0xbd75073f	-0.059821364
66	0xbd35df0b	-0.044402163
67	0xbcee1426	-0.029062342
68	0xbd5857d7	-0.052818146
69	0x3dac47c3	0.08412125
70	0x3c451b9d	0.012030509
71	0xbddbd107	-0.10733228
72	0xbb5fc209	-0.0034142754
73	0x3d7575e0	0.059926867
74	0x3da36cda	0.07979746
75	0xbce17842	-0.027523164
76	0xbcd15db8	-0.025557384
77	0xbcab9aa3	-0.02094776
78	0x3ddcb76a	0.10777171
79	0xbba9bee7	-0.005180228
80	0xbd8316fa	-0.06400867
81	0xbd387291	-0.045031134
82	0xbdb9fb9d	-0.090811945
83	0xbc44de47	-0.012015886
84	0x3da19287	0.07889276
85	0xbd700394	-0.058597162
86	0x3c1efc3b	0.009703691
87	0xbd0e9bcf	-0.03481656
88	0x3cdad7bd	0.0267142
89	0x3ce6eb8b	0.028188488
90	0xbc93899f	-0.018009959
91	0xbe19b1c7	-0.15009223
92	0xbc4f911a	-0.012668872
93	0xbd3bf11f	-0.045884248
94	0x3d86d44b	0.065834604
95	0xbe04a8f0	-0.1295507
96	0xbbfce526	-0.0077177463
97	0x3d1c76db	0.038199287
98	0xbde61cb4	-0.112359434
99	0xbda9dec2	-0.08294441
100	0xbd345549	-0.044026647
101	0x3cf15280	0.029458284
102	0xbcceedef	-0.02525994
103	0x3d7e3934	0.062066272
104	0xbd26cccb	-0.04072265
105	0xbc32aff4	-0.010906208
106	0xbd1b0dad	-0.03785484
107	0xbd3ef450	-0.046619713
108	0xbda035e4	-0.07822779
109	0xbd9f9efc	-0.07793996
110	0xbdb10841	-0.086441524
111	0x3dc638bf	0.09678792
112	0xbda88c8b	-0.082299314
113	0x3e0ed594	0.13948661
114	0x3c809c79	0.015699612
115	0x3c1ea901	0.009683848
116	0x3ca582cd	0.020203972
117	0x3e13317c	0.14374346
118	0x3cee8cd7	0.029119892
119	0x3c3ab2d5	0.011395176
120	0x3c926e07	0.01787473
121	0x3e12de6e	0.14342663
122	0xbd35e282	-0.044405468
123	0x3d09c435	0.033634383
124	0x3aff4954	0.001947681
125	0x3d519434	0.05116673
126	0xbb85c443	-0.004082234
127	0x3dec241a	0.11530323
128	0x3dbc758d	0.092021085
129	0xbda40906	-0.080095336
130	0x3cfac210	0.030610114
131	0x3d9e8332	0.07739867
132	0x3ce07ba6	0.02740271
133	0xbd949df4	-0.0725669
134	0x3d84ca0d	0.06483851
135	0x3e047345	0.12934597
136	0xbe560826	-0.20901546
137	0x3e057f3a	0.13036814
138	0x3cbac924	0.02280099
139	0x3ca24cba	0.019811977
140	0xbc9e734b	-0.019342085
141	0xbd55b7b2	-0.05217714
142	0xba671cdf	-0.0008816253
143	0x3d116aaf	0.035502132
144	0xbdd57915	-0.10423485
145	0x3d1b4173	0.037904214
146	0x3e19dc93	0.15025549
147	0x3df74b39	0.120748945
148	0x3e36336a	0.1779305
149	0xbbd200f6	-0.006408806
150	0x3d61fd64	0.055173293
151	0xbe149541	-0.14510061
152	0x3cefafe6	0.02925868
153	0x3db1db1a	0.086843684
154	0x3d996f3f	0.07491922
155	0xbc7ac8c6	-0.015306657
156	0xbd80ee88	-0.06295496
157	0xbd09869b	-0.033575635
158	0x3dada74c	0.08479175
159	0xbd9fc200	-0.078006744
160	0xbd2ee787	-0.04270127
161	0xbb77a9c8	-0.0037790406
162	0x3e0230f4	0.12713987
163	0xba03b5df	-0.00050243543
164	0xbc9fd4c6	-0.019510638
165	0xbe017b49	-0.12644686
166	0x3d6d1334	0.05787964
167	0xbda99a1b	-0.082813464
168	0xbc9d90e0	-0.01923412
169	0xbca55f4a	-0.020187039
170	0xbd9541f6	-0.07287972
171	0xbdbb9c8e	-0.0916072
172	0xbd27a222	-0.040926106
173	0xbd5b2b89	-0.053508315
174	0x3da9b745	0.08286909
175	0x3d88f2c6	0.0668693
176	0xbcea7dc2	-0.02862442
177	0x3d33c684	0.04389049
178	0xbe06da0f	-0.1316912
179	0xbda6056c	-0.08106503
180	0xbd5ad7a8	-0.053428322
181	0x3cb35c43	0.02189458
182	0xbd9b11b1	-0.07571734
183	0xbd01e7e6	-0.031715296
184	0xbd5991a5	-0.053117413
185	0xba970395	-0.0011521453
186	0x3b126420	0.0022337511
187	0xbd8432b7	-0.064549856
188	0x3e208849	0.15676989
189	0xbb981529	-0.0046411944
190	0x3cfec871	0.031101437
191	0x3c9f9336	0.019479375
192	0xbd93b680	-0.072125435
193	0xbc1ca77a	-0.009561414
194	0xbdcd414f	-0.10022222
195	0x3df4ede9	0.1195944
196	0x3ba58578	0.005051311
197	0xbbc23e0f	-0.005927808
198	0x3aa0ec4a	0.0012277451
199	0xbd8b0e05	-0.067897834
200	0x3dc1dbfa	0.09465785
201	0x3c39b6f6	0.011335125
202	0x3d5db8ac	0.054131195
203	0x3d63d375	0.055621583
204	0x3d2836c7	0.041067865
205	0xbcfc3dd4	-0.0307912
206	0x3c80921e	0.015694674
207	0x3dad04d1	0.08448184
208	0x3b8ceb59	0.0043005166
209	0x3e04cfdf	0.12969922
210	0x3deede4b	0.11663493
211	0x3cdabc98	0.026701257
212	0x3d806a23	0.06270244
213	0xbd3dd43f	-0.04634499
214	0xbd65fb57	-0.0561479
215	0x3d013856	0.031547867
216	0x3d72d500	0.059285164
217	0xbca4cdb8	-0.020117626
218	0xbd6125d8	-0.05496773
219	0x3bf33696	0.0074222786
220	0x3b0cb8d3	0.0021472469
221	0xbd244e34	-0.040113643
222	0xbdc02642	-0.09382297
223	0x3d654f48	0.05598381
224	0xbd8c00a4	-0.0683606
225	0xbbc6c948	-0.006066475
226	0xbd818fd4	-0.06326261
227	0x3a062a91	0.0005118037
228	0xbd0e1f18	-0.034697622
229	0xbd5972ec	-0.053088114
230	0x3d1c2627	0.038122322
231	0x3dc25cf9	0.094903894
232	0x3d46a58e	0.04849773
233	0xbdb54e4f	-0.08852827
234	0xbc4c1fd5	-0.012458761
235	0xbd12f316	-0.035876356
236	0xbc543de6	-0.012954211
237	0x3db51e8a	0.088437155
238	0x3ca018f3	0.019543147
239	0xbcc7d89b	-0.024395278
240	0x3df86bc7	0.12129932
241	0x3d89a571	0.067210086
242	0x3d4a8fea	0.049453653
243	0xbc46d2e2	-0.012135239
244	0xbdb7830f	-0.08960544
245	0xbd9a3bf1	-0.07530964
246	0x3c9ed432	0.019388292
247	0xbd8af583	-0.06785109
248	0xbd6fb9db	-0.058526855
249	0xbdde4be4	-0.10854319
250	0x3df42ff1	0.119232066
251	0x3d4e2c46	0.05033519
252	0x3b9642cb	0.004585599
253	0x3d274d46	0.040845178
254	0x3dd59103	0.104280494
255	0xbd1a28d4	-0.037636593

pi.mu_net.2.bias f4 [128]
0	0x3c81405e	0.015777763
1	0x3b4c1631	0.0031141157
2	0xbd291c37	-0.041286673
3	0xbcaa41ac	-0.020783268
4	0x3cf4d53e	0.029886838
5	0xbc9b4516	-0.018953841
6	0x3dd339f8	0.10313791
7	0xbd6d1359	-0.05787978
8	0x3d6ec340	0.058291674
9	0x3ce8e1b1	0.02842793
10	0x3d8b0a77	0.067891054
11	0x3daeaf1a	0.08529492
12	0x3c5d1ceb	0.013495664
13	0x3d6df8ca	0.058098592
14	0xbd56de66	-0.05245819
15	0x3dbbb5ae	0.09165512
16	0x3d8639cc	0.06553993
17	0xbd8ef68e	-0.0698062
18	0x3d0ab8b9	0.03386757
19	0xbc2ddee8	-0.010612227
20	0xbd9bf787	-0.076155715
21	0xbe201c4f	-0.15635799
22	0xbc5b0f27	-0.013370312
23	0x3d978e5b	0.07400199
24	0x3d251715	0.040305216
25	0x3d98e539	0.07465596
26	0x3dc6cce3	0.09707048
27	0xbc9bc91d	-0.019016797
28	0x3d4c2c1f	0.049846765
29	0x3b54c408	0.0032465477
30	0xbd99aa72	-0.07503213
31	0x3d387f2e	0.045043163
32	0xbc9e739f	-0.019342242
33	0x3dba1ed0	0.09087908
34	0x3bf9218d	0.0076028765
35	0xbcc85701	-0.02445555
36	0x3cb592c3	0.022164708
37	0xbdda3fd9	-0.10656709
38	0xbd1d8410	-0.038456023
39	0xbd0b20c5	-0.0339668
40	0xbd1e792c	-0.038689777
41	0x3d3757bd	0.044761408
42	0xbe15742e	-0.145951
43	0xbbc813bc	-0.006105868
44	0xbd9d8c6b	-0.07692798
45	0x3db78a7b	0.0896196
46	0xbb4aab53	-0.003092487
47	0x3df78027	0.1208499
48	0x3ddff72d	0.10935817
49	0xbdc31fa8	-0.09527522
50	0xbd446244	-0.047945276
51	0x3da4f04c	0.080536455
52	0xbd71621e	-0.058931462
53	0xbd31a2e9	-0.043368254
54	0xbe0690b1	-0.13141133
55	0x3d9ba2f5	0.07599441
56	0x3d8d10f0	0.06887996
57	0x3d572105	0.052521724
58	0x3cb0d480	0.021585703
59	0x3db0c3de	0.08631109
60	0x3cc7d70c	0.024394535
61	0x3d17f034	0.03709431
62	0x3beb0fd4	0.0071735177
63	0x3d878986	0.066180274
64	0x3e05dde5	0.13072927
65	0xbbc023e0	-0.0058636516
66	0x3cdcea3a	0.026967157
67	0xbd2fa99c	-0.04288636
68	0x3ce5d7a0	0.02805692
69	0x3cadfa16	0.021237414
70	0xbda126a7	-0.078687005
71	0xbdb14d9d	-0.08657382
72	0xbc8c638f	-0.017137317
73	0xbd8d0920	-0.06886506
74	0x3d786f2d	0.0606529
75	0xbd8e3396	-0.06943433
76	0x3dc66e33	0.096889876
77	0xbcb94a27	-0.022618366
78	0x3dab9a81	0.08379079
79	0xbd3c2b66	-0.045939825
80	0xbdab7aa2	-0.08373
81	0xbc4e2625	-0.012582337
82	0x3d8090be	0.062776074
83	0x3dcc8c7d	0.099877335
84	0xbd99f967	-0.07518273
85	0x3dfb6fe5	0.122772016
86	0xbbda65c6	-0.0066649644
87	0xb9b92a6e	-0.00035317562
88	0x3d9eb392	0.07749094
89	0xbc4f3683	-0.012647274
90	0x3d688f3a	0.056777216
91	0x3bb7fd0b	0.005614882
92	0xbd709e94	-0.058744982
93	0xbe090a99	-0.13382949
94	0x3c5bf4de	0.01342508
95	0x3de0f0cc	0.10983428
96	0x392d9a49	0.00016556041
97	0x3e043abd	0.12913032
98	0xbcff0543	-0.031130439
99	0x3d8919a7	0.06694346
100	0x3b80d6e8	0.003931869
101	0xbb9942d8	-0.004677158
102	0x3d4a42b7	0.04938003
103	0xbd0aa820	-0.033851743
104	0xbcba4b70	-0.02274105
105	0x3de808fb	0.11329838
106	0xbdf62f43	-0.12020733
107	0x3c6ded36	0.0145218875
108	0xbd03f84e	-0.032219224
109	0x3d34a100	0.044098854
110	0xbdb27c9c	-0.087151736
111	0xbdb22496	-0.086983845
112	0xbd5ee917	-0.05442151
113	0x3d6bfa25	0.057611603
114	0xbd8d74ff	-0.06907081
115	0x3c9b615b	0.018967321
116	0x3d81ebac	0.06343779
117	0x3dee2b71	0.116293795
118	0x3d19406c	0.037414953
119	0xbdc6ba16	-0.09703462
120	0x3ca6da05	0.020367632
121	0xbc556332	-0.013024138
122	0xbd927dff	-0.07152938
123	0x3d34a382	0.044101246
124	0xbdbb3d2b	-0.09142526
125	0x3d9ae643	0.0756345
126	0x3cf9b500	0.030481815
127	0x3d28447d	0.04108094

pi.mu_net.4.weight f4 [6, 128]
0	0x3ce03942	0.027371053
1	0x3db4609e	0.08807491
2	0xbda281b1	-0.07934893
3	0x3d71e932	0.059060283
4	0x3d10e386	0.035373233
5	0xbc97478b	-0.018466732
6	0x3d9a7c92	0.07543291
7	0xbd3f245b	-0.04666553
8	0x3d0d5bd3	0.0345114
9	0x3e1d2790	0.15347123
10	0xbce917f0	-0.028453797
11	0xbd34ac1a	-0.04410944
12	0xbe39781a	-0.18112221
13	0x3db026f0	0.08601177
14	0xbdc06344	-0.093939334
15	0x3c03e82e	0.008050961
16	0x3d1158b7	0.035484996
17	0xbd925449	-0.07144982
18	0x3d06204c	0.032745644
19	0xbdce5510	-0.10074818
20	0x3c71f40a	0.014767656
21	0x3d2ecc8a	0.042675532
22	0xbe07ff62	-0.13281015
23	0x3e13936c	0.14411706
24	0xbd94ddd8	-0.07268876
25	0x3da7c1b1	0.081912406
26	0xbdc7d414	-0.097572476
27	0x3df80b32	0.1211151
28	0xbd62bef3	-0.055357885
29	0xbd5a6527	-0.053319123
30	0x3be1d010	0.006891258
31	0x3de80561	0.11329151
32	0xbdc5f1dd	-0.096652724
33	0x3d8c178e	0.0684043
34	0x3c38c9f3	0.011278617
35	0xbe09d819	-0.13461341
36	0xbd80b0db	-0.062837325
37	0xbd3b17d9	-0.04567704
38	0xbd8c14dc	-0.06839916
39	0x3e0e72d5	0.13910992
40	0x3e098a44	0.1343165
41	0x3d6db117	0.058030214
42	0x3df9411e	0.12170623
43	0x3c47cccf	0.012194826
44	0xbc4e1188	-0.012577422
45	0x3e40f08f	0.18841766
46	0xbc4904ec	-0.01226924
47	0xbde671f0	-0.112522006
48	0xbadf3399	-0.0017028927
49	0xbd836fe5	-0.064178266
50	0xbe33a54a	-0.17543522
51	0x3d82287f	0.0635538
52	0x3e31629b	0.17322771
53	0x3d65502f	0.055984672
54	0x3d203688	0.039114505
55	0x3e0035d1	0.1252053
56	0xbe2c6133	-0.16833954
57	0x3da2e5f5	0.07954017
58	0x3d445206	0.047929786
59	0x3d300814	0.042976454
60	0xbdaf87ad	-0.085708
61	0x3d2b54a2	0.04182876
62	0x3dec0efa	0.11526294
63	0x3d482860	0.04886663
64	0x3bd7ecdb	0.0065895147
65	0x3d2606f4	0.040533975
66	0x3d00571a	0.031333067
67	0xbd8a8b0d	-0.06764803
68	0xbafb2b32	-0.0019162653
69	0xbe09e62f	-0.13466714
70	0xbe0074c6	-0.12544546
71	0x3e1726ed	0.14760943
72	0x3c2b979d	0.010473159
73	0xbdf4af1a	-0.119474605
74	0x3d863743	0.06553509
75	0x3bd0bf12	0.0063704336
76	0xbdbecf32	-0.09316863
77	0xbbf9da78	-0.0076249205
78	0x3c319b5d	0.010840264
79	0x3d18bf42	0.037291773
80	0x3cf2f1c8	0.029656306
81	0xbd0c5dc0	-0.034269094
82	0xbe33d000	-0.17559814
83	0x3d9d4be6	0.07680492
84	0x3df80abb	0.12111422
85	0xbdbc3f95	-0.09191815
86	0xbc8dba8f	-0.017300872
87	0xbe367f49	-0.17821993
88	0xbd511553	-0.051045727
89	0xbd987789	-0.074446745
90	0x3e1247d7	0.14285217
91	0x3de66380	0.11249447
92	0xbd2b91e9	-0.041887198
93	0xbde61fae	-0.11236511
94	0xbd45d6dc	-0.04830061
95	0xbe4a07df	-0.19729565
96	0x3d34daf3	0.04415412
97	0x3cf15d93	0.029463565
98	0xbdb7666e	-0.08955084
99	0x3dd7aee9	0.10531408
100	0x3e296948	0.16544068
101	0x3de938b8	0.11387771
102	0xbde4e4a0	-0.11176419
103	0x3dd02a07	0.10164266
104	0x3ccdc528	0.025118425
105	0x3d8505a6	0.06495218
106	0xbdf2d2aa	-0.11856587
107	0xbd13284a	-0.035927095
108	0xbe10d4ff	-0.14143752
109	0x3dd66af8	0.104696214
110	0xbd70d17a	-0.058793522
111	0xbdc8e8b5	-0.0981001
112	0xbd7a345c	-0.06108509
113	0xbbdac282	-0.006676019
114	0xbe1c5a1e	-0.15268752
115	0xbe137876	-0.14401421
116	0x3d5cf98d	0.053948928
117	0xbdbca6f9	-0.09211535
118	0x3d44b0c7	0.04802015
119	0xbda60e26	-0.08108167
120	0xbdced9e5	-0.10100154
121	0x3d834d54	0.064112335
122	0x3c9e207d	0.019302601
123	0xbc153c70	-0.009108648
124	0xbd2fb8bd	-0.04290079
125	0x3dcb8af2	0.09938611
126	0xbd9719d8	-0.07377976
127	0xbcf2dc7c	-0.02964615
128	0x3d2bb17b	0.041917305
129	0x3cc5d2a7	0.024148298
130	0x3dc4d367	0.09610634
131	0x3e25266a	0.16127935
132	0x3c8fcef0	0.01755473
133	0xbb365c67	-0.0027826072
134	0xbda5de6a	-0.08099063
135	0x3e202e18	0.15642583
136	0xbd926037	-0.07147258
137	0xbe074062	-0.13208154
138	0x3ddcd81d	0.10783408
139	0xbce87f04	-0.028380878
140	0xbdeaa28c	-0.114567846
141	0x3e29e8cb	0.1659271
142	0x3de7b536	0.1131386
143	0x3da432e4	0.08017519
144	0xbda34577	-0.07972234
145	0xbd854c8a	-0.06508739
146	0xbcab8bdb	-0.020940712
147	0xbdb059c2	-0.0861087
148	0x3db0e676	0.08637707
149	0xbc14ebaa	-0.00908939
150	0x3dca6a6a	0.09883578
151	0x3d2e9c34	0.042629436
152	0x3cafe3a8	0.02147086
153	0xbd814a47	-0.063129954
154	0x3e10b678	0.14132106
155	0x3c99b99a	0.01876526
156	0xbdba2f57	-0.090910606
157	0x3da63ca7	0.08117037
158	0xbbd234a4	-0.0064149667
159	0xbc71e700	-0.014764547
160	0xbdc2ffcb	-0.09521445
161	0xbd95ba9e	-0.07310985
162	0xbce1c6ac	-0.027560554
163	0xbd90f2c7	-0.07077556
164	0xbc3e3802	-0.011610033
165	0xbda654c1	-0.08121634
166	0xbd9f1a80	-0.07768726
167	0xbdda2ce7	-0.10653096
168	0xbdf21946	-0.11821227
169	0x3e08042e	0.13282844
170	0xbd3b3d8f	-0.045713004
171	0xbdbe94b1	-0.093057044
172	0xbd25b11b	-0.040452104
173	0x3daa0f6d	0.083037235
174	0x3dd59c68	0.10430223
175	0x3d91e9fd	0.07124708
176	0x3e47a849	0.1949779
177	0xbde292eb	-0.11063179
178	0xbde578bc	-0.11204669
179	0xbcd53c3e	-0.026029702
180	0x3d35d3bd	0.044391382
181	0x3d3cf26e	0.046129636
182	0xbc6fb4c8	-0.014630504
183	0x3d797ebc	0.06091188
184	0xbd3906f0	-0.04517263
185	0x3cb1a832	0.021686647
186	0xbdc224d7	-0.09479683
187	0x3cef6561	0.029223146
188	0x3cec6c15	0.028860131
189	0xbd13abed	-0.036052633
190	0x3e082469	0.1329514
191	0x3ddb6d2b	0.107141815
192	0xbcebd9ff	-0.028790472
193	0xbd6fceb0	-0.058546722
194	0x3de7b0fb	0.11313053
195	0x3e0d8969	0.13821949
196	0x3d7babad	0.06144302
197	0xbdf7b8fc	-0.1209583
198	0xbdae497d	-0.085101105
199	0x3ce90dd5	0.028448978
200	0xbd9294f9	-0.071573205
201	0x3dfec9b8	0.124408185
202	0x3ddf7565	0.10911063
203	0xbdfb5283	-0.12271597
204	0xbd9f3656	-0.07774036
205	0xbdf6618a	-0.12030323
206	0xbdbcc785	-0.09217743
207	0xbcee3bf0	-0.029081315
208	0xbe176902	-0.14786151
209	0xbe55f873	-0.20895557
210	0x3cbdd9b6	0.023175102
211	0x3ce2a7e0	0.02766794
212	0x3e69a52d	0.22816916
213	0x3d856f9c	0.065154284
214	0xbdbedeb1	-0.09319819
215	0xbe4dd75d	-0.20101686
216	0xbe5fffc6	-0.21874914
217	0x3d37f8e4	0.044915095
218	0x3e14155a	0.1446127
219	0xbdc0c785	-0.09413055
220	0x3cc5ad6f	0.024130551
221	0xbd495e55	-0.049162228
222	0xbe1b1e29	-0.15148224
223	0xbe0ca8b5	-0.13736232
224	0xbd929925	-0.07158116
225	0xbdd6ed73	-0.104945086
226	0x3c941689	0.018077152
227	0x3c8448f9	0.016148077
228	0xbc735a27	-0.014853037
229	0xbe119a3f	-0.14218996
230	0xbdfe8a6f	-0.12428748
231	0x3db1ab2d	0.08675227
232	0x3dfe569d	0.12418864
233	0xbe0cddc9	-0.1375648
234	0xbe1a9f36	-0.15099797
235	0xbdf83555	-0.12119547
236	0x3d9e5d19	0.07732601
237	0x3bdc6aba	0.00672659
238	0x3db69335	0.08914796
239	0x3d5d8256	0.054079376
240	0xbce0e626	-0.027453493
241	0xbd6bd22b	-0.05757348
242	0xbd7f3f37	-0.062316146
243	0x3e0eb6ee	0.1393697
244	0x3d478d2d	0.04871862
245	0x3e070dbd	0.13188834
246	0xbb8454f7	-0.004038449
247	0x3e002d63	0.12517314
248	0xbe1b9d9a	-0.15196839
249	0xbdd222ec	-0.10260567
250	0xbbb86145	-0.00562683
251	0xbda13cb0	-0.07872903
252	0xbe20d776	-0.15707192
253	0xbe0ce1c4	-0.13757998
254	0xbda6bc26	-0.08141355
255	0x3d4f1bd2	0.05056364

pi.mu_net.4.bias f4 [6]
0	0x3dc9c8d6	0.098527595
1	0xbcaef1f8	-0.021355614
2	0x3d9b62ff	0.075872414
3	0xbd8e1018	-0.069366634
4	0x3cb1609f	0.021652518
5	0x3dbfd3be	0.093665585

vf.v_net.0.weight f4 [128, 24]
0	0xbfbfce95	-1.4984919
1	0x3f3c1891	0.73474985
2	0x3f0d9850	0.55310535
3	0x3f1b4454	0.60651135
4	0xbee49448	-0.4464438
5	0x3ee14359	0.43996695
6	0xbd800316	-0.062505886
7	0xbd943077	-0.072358064
8	0x3eb5b62a	0.35490543
9	0x3ec16301	0.37770846
10	0x3d96fe39	0.07372708
11	0xbe363866	-0.17794952
12	0xbc3a36e4	-0.011365626
13	0x3db8c96c	0.09022793
14	0xbee33312	-0.443749
15	0xbf025849	-0.5091596
16	0x3f6b2c48	0.9186444
17	0xbd16f09e	-0.036850564
18	0x3d2b68c0	0.041847944
19	0xbd2f46c4	-0.042792097
20	0x3caf82e1	0.021424713
21	0x3d8e630a	0.06952484
22	0xbe4f179f	-0.20223854
23	0x3cc1fe17	0.02368073
24	0x3d936d06	0.07198529
25	0x3f80af85	1.0053564
26	0x3e168d31	0.14702298
27	0xbe7e9730	-0.24862361
28	0x3e6d4799	0.23171844
29	0xbf3b13de	-0.7307719
30	0xbe2b4028	-0.16723692
31	0xbe0f4648	-0.13991654
32	0x3d84175f	0.0644977
33	0x3daeb510	0.08530629
34	0xbfb5d8d0	-1.4206791
35	0x3f504263	0.813513
36	0xbfa2cdfa	-1.2719109
37	0xbdd961f2	-0.10614385
38	0xbf691063	-0.9104063
39	0xbf8da0de	-1.1064718
40	0xbe130d21	-0.14360477
41	0x3eba3565	0.36368862
42	0xbd50fbe7	-0.051021483
43	0xbd30e745	-0.043189306
44	0xbccc39a7	-0.024929835
45	0xbe165cd2	-0.14683846
46	0xbe32126a	-0.17389837
47	0xbcb1cc40	-0.02170384
48	0x3e2b2acd	0.16715546
49	0xbf058d5e	-0.52168834
50	0xbddad26c	-0.10684666
51	0x3e96228a	0.29323226
52	0xbe68487a	-0.22683898
53	0x3e32229b	0.17396013
54	0xbcf7c310	-0.03024438
55	0x3ef11daa	0.47092944
56	0xbf6e3553	-0.93050116
57	0xbefb3b3f	-0.4906864
58	0x3f52bae6	0.82316434
59	0xbfd60329	-1.6719714
60	0x3f49192d	0.7855404
61	0xbdb4e101	-0.088319786
62	0x3d356b62	0.04429186
63	0xbf5119be	-0.81679904
64	0xbf6784f0	-0.9043722
65	0x3d1bb383	0.038012993
66	0x3d13364a	0.035940446
67	0x3e55cfd6	0.20880064
68	0xbd9e5b48	-0.07732254
69	0xbe210ef6	-0.15728363
70	0x3e2b7c40	0.16746616
71	0xbddb4dfa	-0.10708232
72	0xbf568d3e	-0.8380927
73	0xbd1f98f4	-0.038964227
74	0x3f083a92	0.5321437
75	0x3e1a7ced	0.15086718
76	0x3dd09bc7	0.10185962
77	0x3ee81357	0.45327255
78	0x3d9680e1	0.073488005
79	0x3ec71fb9	0.3889139
80	0x3e3ae5b0	0.18251681
81	0x3e9ab65f	0.30217263
82	0x3f349420	0.7053852
83	0xbe512b4b	-0.20426671
84	0x3ea4ffad	0.32226315
85	0x3da6321d	0.08115027
86	0x3f449e81	0.7680436
87	0x3f2e3177	0.6804423
88	0xbceccd0e	-0.028906371
89	0xbf18b192	-0.5964595
90	0xbdb29278	-0.08719343
91	0xbd92b5d2	-0.07163586
92	0xbcb08337	-0.021546943
93	0x3ea7ee15	0.3279883
94	0xbe9806dd	-0.29692736
95	0xbcd4c176	-0.025971156
96	0xbeba1ca9	-0.3634999
97	0x3f8c21ed	1.0947853
98	0xbe148a0d	-0.14505787
99	0x3dfda164	0.123842984
100	0x3c843f84	0.016143568
101	0xbeee72b0	-0.46571875
102	0x3e20f6c5	0.15719135
103	0xbdce4c21	-0.10073114
104	0x3e4a68e3	0.19766574
105	0x3eba3472	0.36368138
106	0xbfa2ca53	-1.2717994
107	0x3f2512c9	0.6448179
108	0xbea55a15	-0.3229529
109	0x3dde4bf7	0.10854333
110	0xbee65665	-0.4498779
111	0xbed8adc0	-0.4232006
112	0x3e34608e	0.17614958
113	0xbb4b0787	-0.0030979828
114	0xbe3bee73	-0.1835268
115	0x3e8de1b0	0.27711248
116	0x3dd407e4	0.103530675
117	0x3cf3397e	0.0296905
118	0x3e3d2934	0.18472749
119	0x3d5ef88e	0.05443626
120	0x3e9e38f1	0.30902818
121	0xbf4b4a0f	-0.7940988
122	0xbeff91cb	-0.4991592
123	0xbef05b56	-0.46944684
124	0x3e625908	0.22104275
125	0xbe89f5e7	-0.2694542
126	0xbeb34a83	-0.35017785
127	0xbc8e5507	-0.017374529
128	0x3db5958f	0.08866417
129	0x3db9e7d0	0.09077418
130	0xbec086ae	-0.37602752
131	0xbdb348ac	-0.087540954
132	0xbef58425	-0.4795238
133	0xbf06d149	-0.52663094
134	0xbdb07d22	-0.08617617
135	0x3f3755b3	0.7161514
136	0xbf8e5731	-1.1120359
137	0xbd1ce9e3	-0.03830899
138	0x3e4c660c	0.19960803
139	0x3eae245d	0.34012118
140	0xbddd96c3	-0.10819771
141	0xbe0c53b0	-0.13703799
142	0xbd896ea3	-0.067105554
143	0xbd1d7250	-0.038439095
144	0xbee5c88a	-0.44879562
145	0xbe799029	-0.24371399
146	0x3e97b5a5	0.2963077
147	0x3e4a284f	0.19741939
148	0xbeed4688	-0.46342874
149	0x3f11a9fe	0.5690001
150	0xbf24425f	-0.64163774
151	0x3ece2317	0.40261146
152	0xbe85e5f5	-0.26152006
153	0x3e2d2677	0.16909204
154	0x3a7762fb	0.00094370515
155	0x3eddb5a6	0.4330265
156	0xbe4d3832	-0.20040968
157	0xbe9cad0b	-0.3060077
158	0x3f4f92e4	0.8108351
159	0x3ec984f7	0.39359257
160	0x3f510e8b	0.81662816
161	0x3e0fe0dc	0.14050621
162	0xbd92b589	-0.07163531
163	0xbe9a9ac0	-0.3019619
164	0x3d114cae	0.035473518
165	0xbcf80a62	-0.030278388
166	0xbf0317d3	-0.5120823
167	0x3d3de129	0.046357308
168	0xbf58e7e4	-0.84728837
169	0x3d5bed02	0.053692825
170	0x3f20bf52	0.6279193
171	0x3f39b1cb	0.72536916
172	0x3e891b6d	0.26778737
173	0x3f605f87	0.87645763
174	0xbe44ec31	-0.19230725
175	0x3eea37ae	0.45745605
176	0x3edf305c	0.43591583
177	0x3e81f939	0.25385454
178	0x3f7d9cde	0.99067485
179	0x3ed9eaaf	0.42561862
180	0x3df94fd6	0.121734306
181	0x3ec7f93f	0.39057347
182	0x3e806b48	0.2508185
183	0xbe7be728	-0.24599898
184	0xbe90bb6c	-0.28267992
185	0xbeca0088	-0.3945353
186	0x3d802bac	0.0625833
187	0x3d89d2ff	0.067296974
188	0x3d276bb5	0.0408742
189	0x3e330ae1	0.17484619
190	0x3d1ce01c	0.038299665
191	0xbf32b982	-0.6981431
192	0x3f160ca0	0.58613014
193	0xbef14d59	-0.47129324
194	0x3e9bf196	0.30457753
195	0x3e965231	0.29359582
196	0xbde86cb4	-0.113488585
197	0x3ebe7104	0.371956
198	0x3b86c65b	0.0041130013
199	0x3ecc9093	0.3995405
200	0xbea5560a	-0.32292205
201	0x3e1e1514	0.15437728
202	0x3e9e5f83	0.30932245
203	0xbd40f227	-0.047105934
204	0x3f044a8a	0.5167624
205	0x3e52de0a	0.20592514
206	0x3f1ea5b4	0.6197159
207	0xbf77fcbd	-0.96870023
208	0xbde3d243	-0.111240886
209	0x3e705520	0.23469973
210	0x3dc76dc5	0.09737734
211	0xbe94f92a	-0.29096347
212	0xbd552f38	-0.052046984
213	0x3db6fedb	0.089353286
214	0xbed54fba	-0.4166239
215	0xbcd5605f	-0.02604693
216	0xbf0d0029	-0.5507837
217	0x3e9a085a	0.30084497
218	0xbe0c0b49	-0.1367618
219	0x3f8aa8ea	1.0832798
220	0xbf070e9e	-0.5275668
221	0x3ea0c8e9	0.31403282
222	0x3cc68110	0.024231464
223	0xbe41c094	-0.18921119
224	0x3e25640f	0.1615145
225	0x3f2bf88e	0.6717614
226	0x3e47335b	0.19453184
227	0x3e092cce	0.13395998
228	0x3d3ace1b	0.045606714
229	0x3ce42292	0.027848516
230	0xbf4597e3	-0.77184886
231	0xbfb5a8d9	-1.4192153
232	0x3e57cc05	0.21073921
233	0xbecd5176	-0.40101212
234	0x3e56c20e	0.20972463
235	0x3d70479f	0.058662053
236	0xbd0cd5e9	-0.034383688
237	0xbdb16063	-0.086609624
238	0xbe260c32	-0.1621559
239	0xbca1eb1d	-0.019765431
240	0xbeffab4f	-0.49935386
241	0x3fb65683	1.4245151
242	0xbf2ff2a6	-0.6872963
243	0x3b257bed	0.0025250867
244	0xbf4418a3	-0.7660009
245	0x3e903f86	0.28173465
246	0xbf3524b4	-0.7075913
247	0x3d92e5bd	0.07172725
248	0xbf10450a	-0.56355345
249	0xbd75901b	-0.059951883
250	0xbe1dbf36	-0.15404972
251	0xbe866bec	-0.26254213
252	0xbe9591fd	-0.29212943
253	0x3e1ec601	0.1550522
254	0xbf1c025d	-0.60941106
255	0x3e787f10	0.2426722

vf.v_net.0.bias f4 [128]
0	0xbd1b554e	-0.03792315
1	0xbe4d74ef	-0.20064138
2	0xbf950224	-1.1641278
3	0xbe2f115f	-0.1709647
4	0x3de77a55	0.1130263
5	0xbef72cc1	-0.48276332
6	0x3f3bb8e7	0.73329014
7	0x3dcb22db	0.099187575
8	0x3f25d103	0.6477205
9	0x3e039a01	0.12851717
10	0xbf2df54c	-0.6795242
11	0xbe87295e	-0.26398748
12	0x3e09130f	0.13386177
13	0x3e97b398	0.29629207
14	0xbe5a0d29	-0.21294083
15	0x3da5393e	0.08067559
16	0x3980bc96	0.0002455457
17	0x3f57423a	0.8408543
18	0xbd58c855	-0.052925427
19	0xbce5096f	-0.0279586
20	0xbe132293	-0.14368658
21	0xbdf3c0a2	-0.11901976
22	0x3e913895	0.2836348
23	0xbea2a28e	-0.31764644
24	0xbc457fa3	-0.012054357
25	0xbe8a1bd4	-0.26974356
26	0xbdd010c4	-0.10159448
27	0xbf07257d	-0.5279158
28	0x3e982670	0.29716825
29	0x3f19fc69	0.6015077
30	0x3e09fd17	0.13475452
31	0xbe395bd8	-0.18101442
32	0x3f0f52cf	0.5598573
33	0x3ea4f01f	0.32214448
34	0x3e7b826a	0.24561468
35	0xbeb867a0	-0.3601656
36	0x3edbd5ea	0.4293664
37	0xbc841aac	-0.016126
38	0x3da728df	0.081620924
39	0x3de7df7c	0.11321923
40	0xbf36ff7d	-0.71483594
41	0x3f3c3060	0.73511314
42	0x3f615fb8	0.8803668
43	0xbd8c6c0c	-0.06856546
44	0x3f7bd439	0.983707
45	0x3f704c1e	0.93866146
46	0x3f2d9be0	0.6781597
47	0x3ef96d5c	0.48716247
48	0x3f0732bb	0.52811784
49	0xbe8e2811	-0.27764943
50	0xbf47b42d	-0.780093
51	0x3f7ea2db	0.9946725
52	0x3ed79e98	0.42113185
53	0xbf3d7bd3	-0.74017066
54	0x3e3a7355	0.18208058
55	0xbe9abb6d	-0.3022112
56	0x3edd9eaa	0.43285114
57	0x3e8e2a95	0.27766863
58	0x3cbbdd7d	0.022932762
59	0xbebf105b	-0.37317166
60	0x3f27c109	0.65528923
61	0x3e78e37c	0.24305528
62	0x3aa0c31c	0.0012265178
63	0xbf89031d	-1.0704075
64	0xbe9444c1	-0.28958705
65	0xbf3dbf83	-0.7412035
66	0x3ef5a64a	0.4797843
67	0x3f49fa02	0.78897107
68	0xbe4f561d	-0.20247693
69	0xbd8f2923	-0.06990268
70	0x3efc9ed3	0.49339923
71	0xbf68888e	-0.90833366
72	0xbe996af5	-0.29964414
73	0x3eeb5e64	0.45970452
74	0xbf6196d2	-0.8812076
75	0x3dd03b21	0.10167528
76	0x3f284cef	0.6574239
77	0x3d5ee756	0.054419838
78	0x3eb8a74b	0.36065134
79	0xbdf3c44d	-0.11902676
80	0x3e9726fc	0.2952193
81	0xbe9b65ef	-0.30351207
82	0xbc27a0bc	-0.010231193
83	0xbe86d78b	-0.2633632
84	0x3f3ca33e	0.7368659
85	0xbe62b88d	-0.22140713
86	0x3e88a62f	0.26689288
87	0x3f56aef6	0.8386072
88	0x3e45ce07	0.19316874
89	0x3da15a60	0.07878566
90	0xbea3e70a	-0.32012206
91	0xbf1350da	-0.57545245
92	0x3f657666	0.89633787
93	0x3ec31d82	0.3810845
94	0x3ebfc0a1	0.37451652
95	0xbf2f6e9c	-0.6852815
96	0x3f1b7bf9	0.6073604
97	0x3e56c344	0.20972925
98	0x3f89601a	1.0732453
99	0xbedeaecd	-0.43492737
100	0x3ef6d63b	0.4821032
101	0x3ee960cc	0.45581663
102	0x3d81a5b5	0.06330434
103	0xbe1a4db5	-0.15068705
104	0xbdef2255	-0.1167647
105	0x3f72c607	0.94833416
106	0x3ecdb9bb	0.40180764
107	0x3f1ee7cd	0.6207245
108	0x3d4fae5e	0.0507034
109	0x3daddad9	0.084890075
110	0x3e819035	0.25305334
111	0x3f24f4c4	0.6443598
112	0x3f63239d	0.88726217
113	0x3d7ffc03	0.062496196
114	0xbec62198	-0.38697505
115	0xbe7b8129	-0.2456099
116	0x3e345efa	0.17614356
117	0x3f1f0c3b	0.6212804
118	0x3d65ba4d	0.056085873
119	0xbeb3b8b8	-0.35101867
120	0xbdc89425	-0.09793881
121	0xbef0ae7d	-0.47008124
122	0x3ec947de	0.39312643
123	0x3d2ab003	0.041671764
124	0x3f136a22	0.5758382
125	0x3e6d8d1d	0.23198362
126	0x3e6510ea	0.22369733
127	0xbe55aa6b	-0.2086579

vf.v_net.2.weight f4 [128, 128]
0	0xbe7dac16	-0.24772677
1	0xbdd94e97	-0.10610693
2	0x3ec02449	0.37527683
3	0xbea916c9	-0.33025196
4	0x3e6563d9	0.2240137
5	0x3de32028	0.11090118
6	0xbe27c3fd	-0.16383357
7	0xbde8c81e	-0.11366294
8	0xbe750a57	-0.23929726
9	0xbda66d26	-0.08126287
10	0x3e439614	0.19100219
11	0x3d3d4057	0.046203937
12	0xbe5b3585	-0.21407135
13	0x3f19a65a	0.6001946
14	0x3ebc22a6	0.36745185
15	0xbbdca1bc	-0.0067331474
16	0xbe1837a1	-0.1486497
17	0xbe488555	-0.19582112
18	0xbd4abac0	-0.049494505
19	0x3c109eba	0.008826906
20	0xbe862f7b	-0.262081
21	0xbec66b9c	-0.38753974
22	0xbdf2d591	-0.11857141
23	0xbe059e80	-0.13048744
24	0xbe8e4696	-0.27788228
25	0x3dc04e86	0.09389977
26	0xbe998d6d	-0.29990712
27	0x3d8a3ed6	0.06750266
28	0xbed65f4a	-0.41869575
29	0xbe7f0eca	-0.24907985
30	0x3e372c23	0.1788793
31	0xbcec8b7f	-0.02887511
32	0xbec5b398	-0.38613582
33	0xbe2e4a33	-0.17020492
34	0x3e83947a	0.25699216
35	0x3d87529d	0.06607554
36	0xbe3c3bc4	-0.18382174
37	0xbd546fe7	-0.05186453
38	0xbeba8bc5	-0.3643476
39	0xbe5cefeb	-0.21575896
40	0xbd1ef68c	-0.038809344
41	0x3dfc7460	0.12326884
42	0x3e8b0ccb	0.27158198
43	0x3d796edb	0.060896736
44	0xbd0ac787	-0.03388169
45	0x3dd06541	0.10175563
46	0x3e5768a4	0.21036011
47	0x3e97b32d	0.29628888
48	0xbdb313f7	-0.08744042
49	0xbe6f164d	-0.23348351
50	0x3e3f0fa0	0.18658304
51	0xbe4d06c6	-0.20022115
52	0x3d10e553	0.03537495
53	0x3e0d83d5	0.13819821
54	0x3e884f9f	0.26623246
55	0x3d63d2d1	0.055620972
56	0x3f1f5882	0.6224443
57	0x3d3a7cac	0.045529053
58	0xbd372c2b	-0.044719856
59	0xbe3c0eb3	-0.18364982
60	0x3e6ff4e9	0.2343327
61	0x3e629b2e	0.22129509
62	0x3ea20d99	0.31651
63	0xbe16e0aa	-0.1473414
64	0x3db078b9	0.08616776
65	0x3e7a5c29	0.24449219
66	0x3e75889a	0.2397789
67	0xbe7f477c	-0.24929613
68	0xbe3092b3	-0.17243461
69	0xbeada26d	-0.33912984
70	0xbe8bed39	-0.27329424
71	0xbdab8cff	-0.08376502
72	0x3ea5050c	0.32230413
73	0xbdd65510	-0.10465443
74	0x3e8e64ac	0.27811182
75	0xbee0077e	-0.43755716
76	0xbcb44b5c	-0.02200859
77	0x3f11f34a	0.57011855
78	0x3dca44b0	0.09876382
79	0xbd305b2c	-0.0430557
80	0x3ecd035e	0.4004163
81	0xbf0a4c18	-0.5402236
82	0xbe1f5f08	-0.15563595
83	0x3e67a169	0.22620167
84	0xbd0b6969	-0.034036074
85	0xbd012db8	-0.03153774
86	0x3e464c24	0.19364983
87	0x3d7b53c1	0.06135917
88	0x3de53e00	0.11193466
89	0x3dd1eac1	0.10249854
90	0x3de14cf6	0.11001007
91	0x3c8d0f1d	0.01721912
92	0x3e52875c	0.20559448
93	0x3e724b43	0.23661523
94	0x3d820290	0.06348145
95	0x3e0ca63e	0.13735291
96	0x3f416d70	0.75557613
97	0x3e5396e0	0.20663023
98	0xbe110b17	-0.14164387
99	0xbe2d31b3	-0.1691349
100	0xbde43491	-0.11142839
101	0x3d211947	0.039330747
102	0xbcc2a3e3	-0.023759788
103	0x3bade429	0.00530674
104	0x3ea01c4f	0.31271598
105	0xbe1e7309	-0.1547357
106	0x3df9bda0	0.12194371
107	0x3d301231	0.0429861
108	0xbe290943	-0.1650744
109	0x3e46063e	0.19338319
110	0x3cd7001b	0.026245167
111	0x3c45f161	0.012081475
112	0xbe08267c	-0.1329593
113	0xbe16a7cd	-0.14712448
114	0x3e240720	0.16018343
115	0xbd0518b6	-0.03249427
116	0x3e91f123	0.28504285
117	0xbe4a534b	-0.19758336
118	0xbe8a46da	-0.2700718
119	0xbe738e42	-0.23784736
120	0x3d8ee5c9	0.06977422
121	0x3d711fe9	0.058868323
122	0x3d76679b	0.0601574
123	0x3cd282fa	0.02569722
124	0x3e8c7615	0.2743384
125	0x3e022134	0.12707978
126	0xbf09aa75	-0.5377572
127	0x3d15eef2	0.03660483
128	0x3eabcf37	0.3355653
129	0x3d23ebbe	0.040019743
130	0xbcf15106	-0.02945758
131	0x3ece8b1e	0.40340513
132	0xbe8f55cd	-0.27995148
133	0xbceec7f6	-0.029148083
134	0x3c1dbab9	0.009627038
135	0x3e406b8f	0.1879103
136	0xbe0d3f19	-0.13793601
137	0x3f03a4bc	0.5142324
138	0x3e0c41a3	0.13696913
139	0x3ce25ca0	0.027632058
140	0x3c7d5e3f	0.015464365
141	0xbdabc521	-0.08387209
142	0x3e483184	0.19550139
143	0x3c223624	0.009900603
144	0xbf3d1339	-0.73857456
145	0x3e849d85	0.25901428
146	0x3db4e41f	0.08832573
147	0xbd509e01	-0.050931934
148	0x3e4d54af	0.20051835
149	0x3f2c34e0	0.6726818
150	0xbd8e2cd9	-0.06942148
151	0x3e7b2823	0.2452703
152	0x3d841324	0.06448963
153	0x3d9aa756	0.07551448
154	0xbde520d3	-0.11187901
155	0x3d3961d5	0.045259316
156	0x3c70f042	0.014705719
157	0xbd9c6b13	-0.0763761
158	0xbdc930bf	-0.09823751
159	0xbe35e402	-0.1776276
160	0x3dcddc37	0.10051768
161	0x3e99f21c	0.30067527
162	0x3e19750c	0.14986056
163	0x3e533ac0	0.2062788
164	0xbe4873a3	-0.19575362
165	0xbb97a493	-0.004627773
166	0x3ee670c9	0.45007923
167	0x3f0863c0	0.53277206
168	0xbd9a3bca	-0.07530935
169	0xbed169a4	-0.4090091
170	0x3ec902ba	0.39259893
171	0x3e9dabb9	0.30795076
172	0x3e327ee8	0.17431223
173	0x3e4821ab	0.19544093
174	0x3c9d5bcf	0.019208817
175	0x3d6e864b	0.05823354
176	0x3dd80b91	0.10549081
177	0xbcb45399	-0.022012519
178	0x3ea5c6c4	0.3237821
179	0xbdbbdb38	-0.09172672
180	0xbded6f18	-0.11593455
181	0xbdda7317	-0.10666483
182	0xbd263a0c	-0.0405827
183	0x3d8e0e68	0.069363415
184	0xbe3ebe14	-0.18627197
185	0x3e0beec4	0.136653
186	0x3e3abd98	0.18236387
187	0x3f2b9fa9	0.670405
188	0x3eca9f62	0.39574724
189	0xbde61473	-0.11234369
190	0x3ec8d7f1	0.3922725
191	0xbe351811	-0.17684962
192	0x3eb9f520	0.36319828
193	0xbcecb3a4	-0.028894253
194	0xbdbdfeea	-0.092771366
195	0x3e6f7bb8	0.23387039
196	0x3d1cd429	0.03828827
197	0xbc989de3	-0.018629974
198	0x3db96e33	0.09054222
199	0x3de4f577	0.11179631
200	0xbec26def	-0.37974498
201	0x3d5e4037	0.05426046
202	0xbd8e229a	-0.069401935
203	0x3d67fea0	0.056639314
204	0x3e11aca3	0.14226012
205	0xbe445f91	-0.1917708
206	0x3edb3d25	0.42820087
207	0xbe86cfe1	-0.26330474
208	0x3ec76c33	0.38949737
209	0xbeab9d7f	-0.33518597
210	0x3da9d663	0.08292844
211	0x3d288eaa	0.04115168
212	0xbe06fc4d	-0.13182183
213	0x3e2075c8	0.1566993
214	0xbe94f976	-0.29096574
215	0x3bc63870	0.0060492083
216	0xbf3e7c7a	-0.74408686
217	0xbc0ff12b	-0.008785526
218	0xbe6efc40	-0.23338413
219	0xbf1c7c03	-0.61126727
220	0xbe84b592	-0.25919777
221	0x3cdeebf3	0.027212119
222	0x3d164488	0.03668645
223	0xbec6011c	-0.3867272
224	0x3f12368e	0.57114494
225	0xbc7b3e4b	-0.015334676
226	0xbd991971	-0.07475556
227	0x3d135149	0.03596619
228	0x3d918b54	0.07106653
229	0xbe9ddf9d	-0.30834666
230	0x3e0f775c	0.14010376
231	0x3e0111b6	0.12604412
232	0x3e0366f2	0.1283224
233	0x3e0354be	0.12825295
234	0x3eaeb89d	0.34125224
235	0x3cfc5d3e	0.03080618
236	0x3ef67c33	0.4814163
237	0x3c78e390	0.015190974
238	0xbe457c32	-0.19285658
239	0x3db2a7c5	0.08723406
240	0xbca475c8	-0.020075694
241	0x3d09c1e4	0.033632174
242	0x3ed0b2e7	0.40761492
243	0xbe400a06	-0.18753824
244	0x3bb53fc6	0.005531284
245	0xbbde931b	-0.0067924387
246	0xbe62d65d	-0.22152086
247	0xbe8c938b	-0.27456316
248	0xbe5c2369	-0.21497883
249	0x3db6d464	0.08927229
250	0xbb936b96	-0.004498909
251	0x3eba7215	0.36415163
252	0xbda348f4	-0.07972899
253	0x3e7da5fe	0.24770352
254	0xbe3f1274	-0.18659383
255	0x3e10ccb5	0.1414059

vf.v_net.2.bias f4 [128]
0	0x3ea0e38d	0.31423607
1	0x3e2c5268	0.1682831
2	0x3e6fa5ac	0.23403043
3	0xbe457d90	-0.1928618
4	0xbf4f8338	-0.810596
5	0x3e97bb8f	0.29635283
6	0xbf2f7e2e	-0.6855191
7	0xbf36bd50	-0.7138262
8	0xbe97eab5	-0.29671255
9	0x3e56b675	0.2096804
10	0x3d037794	0.03209646
11	0xbf781174	-0.9690163
12	0xbdaca516	-0.08429925
13	0x3d2e7526	0.04259219
14	0xbea5f7a4	-0.32415497
15	0x3e4bf9a1	0.19919445
16	0x3d1a34ca	0.037648
17	0x3df62308	0.120184004
18	0xbd854aeb	-0.0650843
19	0xbd298ffc	-0.04139708
20	0xbea017e3	-0.31268224
21	0xbe8a1505	-0.26969162
22	0xbeaf1081	-0.3419228
23	0x3e904948	0.2818091
24	0x3d8723b0	0.06598604
25	0x3cf879ee	0.030331578
26	0xbf132874	-0.574836
27	0xbee0eb08	-0.43929315
28	0xbe6d55ad	-0.23177214
29	0xbe017f36	-0.12646183
30	0x3e5b3aa8	0.21409094
31	0x3e09e753	0.1346715
32	0x3d1c0f16	0.038100325
33	0xbe714d66	-0.23564681
34	0xbe9edd57	-0.31028244
35	0xbf3a3f51	-0.72752863
36	0xbe8177bc	-0.25286663
37	0xbf13aa0b	-0.5768134
38	0x3e9bd037	0.30432293
39	0xbe434ab2	-0.19071463
40	0xbf0d423d	-0.55179197
41	0xbe916b09	-0.28401974
42	0x3e467627	0.19381009
43	0xbed671b9	-0.41883639
44	0x3d9b207d	0.07574556
45	0x3e4859ec	0.19565552
46	0xbec1f9e9	-0.3788598
47	0x3e4371ad	0.19086333
48	0x3cbd2103	0.02308703
49	0xbe9efb34	-0.31051028
50	0x3c80f52b	0.015741905
51	0x3cdbce36	0.026831727
52	0xbe398015	-0.18115266
53	0x3e825aec	0.25459993
54	0x3e2f04b7	0.17091642
55	0x3df4e2ea	0.11957343
56	0xbf0e8d8d	-0.5568474
57	0x3da36f0e	0.079801664
58	0xbeb0bc79	-0.34518793
59	0xbe985839	-0.2975481
60	0xbd49f919	-0.049309824
61	0xbea5913a	-0.32337362
62	0xbf521873	-0.82068557
63	0x3d4aa899	0.049477194
64	0xbd972da9	-0.07381756
65	0xbe5fb087	-0.21844684
66	0xbefd5b0b	-0.49483523
67	0x3e5a3915	0.21310838
68	0x3d9e4c7b	0.07729431
69	0xbe8774d6	-0.26456326
70	0xbeba1a45	-0.36348167
71	0x3e479027	0.19488584
72	0x3e1c9ce7	0.15294228
73	0x3e144511	0.14479472
74	0x3e2ac1b2	0.16675451
75	0x3dbb2112	0.09137167
76	0xbe7e28a6	-0.24820194
77	0x3e098f25	0.13433512
78	0x3d22d006	0.039749168
79	0xbea43dde	-0.3207845
80	0x3eafac75	0.34311262
81	0xbda4c4df	-0.08045363
82	0xbe8f7f58	-0.28026843
83	0xbda7b247	-0.081883006
84	0xbecbdaa1	-0.39815238
85	0x3e027028	0.12738097
86	0x3e0a2ba2	0.13493207
87	0x3de7d9d8	0.11320847
88	0x3e12586d	0.14291544
89	0xbea42bc7	-0.3206465
90	0x3e0da7cb	0.13833539
91	0xbe89490f	-0.26813552
92	0xbddfed63	-0.1093395
93	0x3e453d76	0.19261727
94	0x3d6e7eec	0.05822651
95	0xbcc53fcc	-0.024078272
96	0x3e90193a	0.28144246
97	0xbea4b9e0	-0.3217306
98	0x3c7f1404	0.015568737
99	0x3e192f33	0.14959411
100	0xbf0d53f6	-0.5520624
101	0x3e003e1a	0.1252369
102	0xbf195935	-0.59901744
103	0x3d9e29a6	0.077227876
104	0x3c7dc85e	0.015489666
105	0xbd570400	-0.05249405
106	0xbf417b31	-0.755786
107	0x3e8b6ab2	0.2722984
108	0xbb4151eb	-0.002949829
109	0xbdb87830	-0.09007299
110	0xbd0674c1	-0.03282619
111	0xbf01985a	-0.50623095
112	0x3ca8b0bb	0.020592084
113	0xbdcf116b	-0.10110744
114	0x3e275768	0.16341937
115	0xbcc053ff	-0.023477552
116	0x3e7f52f9	0.24933995
117	0xbe2a50e7	-0.16632424
118	0xbea0088b	-0.31256518
119	0xbebfed35	-0.37485662
120	0xbdfea93a	-0.12434621
121	0xbedd6d90	-0.43247652
122	0xbd4298a6	-0.04750886
123	0xbe232b97	-0.15934597
124	0xbe87b56f	-0.2650561
125	0x3d909612	0.07059874
126	0xbdc4cfda	-0.09609957
127	0x3cfc5346	0.030801427
