HW4/ppo_dm_control-master/training/walker/walk/ppo_ac_model - Copy (5).pth (torch, 166148 bytes, 12 tensors)

pi.log_std f4 [6]
00000000: 181a 16c0 a41b 14c0 9ffd 09c0 9c32 32c0
00000010: 1a73 36c0 4677 21c0
-2.3453426 -2.314187 -2.1561048 -2.784339 -2.8507752 -2.5229049

pi.mu_net.0.weight f4 [128, 24]
00000000: d362 15be 12c9 13bc d93a 6a3e 38a5 15be
00000010: 934b 913e 5116 14be 6674 9ebc bb00 29be
00000020: a26c 2e3d f733 913d d941 d4bc 0256 333e
00000030: 3709 343e 046a 31be ef1b 4fbe 4a1c 083b
00000040: dc99 13bc 5064 5c3d 7cd6 08be d977 d83d
00000050: 06e4 1dbc 9b07 91bd c8fb 3ebd 5695 9d3e
00000060: 8750 593e 566a 3ebe 7422 673d d774 89be
00000070: ee17 d33d 97ea 503e 8820 563e 4b26 673e
00000080: 4d58 4fbe 1cc6 b7be 539f 853e 6189 62bc
00000090: ac65 11be 64fd 483e 7a7c a4bd 6a64 803e
000000a0: 188c 49be 6b35 933d a12b 183d 27b1 a6be
000000b0: 92ad 123e e270 c3bd 35a5 13be 23fa 1a3e
000000c0: d583 3b3e 8166 63bd 514a acbd 7cb0 8c3c
000000d0: d068 d7be 39ba 2cbe a488 3ebe b9a4 e93d
000000e0: 2132 29be ec6f 583e 79c5 c9be dec9 37bd
000000f0: ad7e 6ebe a48c 74bd f90a ffbd 2b3b 2cbe
00000100: bc2d 4fbe 9a8c 813d 5e96 2ebe 72f5 00bc
00000110: e52e cebc bbf3 823d 3cdc 0ebe fb62 603d
00000120: 55fb d9bd a2a2 97be 2b88 693e 99eb 46bd
00000130: 033d 5d3e ec29 983e 0fde 38be 5b94 3e3d
00000140: bd6a b53d 4823 0cbd f868 f53d a4a9 203e
00000150: 40b2 243d 8b2b 643e 5dcc 9a3e c64e e73d
00000160: 2792 11be 339d f2bd 71e8 d93d dbb8 fcbd
00000170: 9567 2fbd 7648 2d3e 7d59 503d e32e 8bbe
00000180: c628 3a3e fb0c 3c3d f92a 3e3e 1651 cfba
00000190: 83db d0bd 09a2 7dbd d9be 69be d1bb 313e
000001a0: 3693 36be 3ebc 7abc 8774 183e 2337 c0bc
000001b0: af72 593e beef 4e3e 3512 9bbd 67cc fc3d
000001c0: dd0e 73be b4d1 473d f73c a4bc c504 833e
000001d0: e62b 303e 95f8 063e 5f3a 48be 9e77 ae3d
000001e0: 30aa 37be 713a a2bd 7591 003d e920 d33c
000001f0: 41f6 60bd 0e2c 45bd 86ad c83d 49fb fdbd
00000200: 31d4 4bbb dbaf 0b3e 8cc5 7abd 455a c6bc
00000210: 44a1 77bd 6b0f 9b3d fc6e 653e 0308 3c3e
00000220: 7e6c cebc ed16 1cbd 8a3e 8b3c 0419 3abd
00000230: 980e 623e 7622 51bd 5aad 853c 02dd 7d3e
00000240: 8c27 153e cbaa b03e 44c8 643e c787 05be
00000250: d317 2fbd f273 983d 47bc 7ebe 2978 ed3d
00000260: 0a59 213e 0520 f93d 0e95 00be 75db f53d
00000270: 598e f7bc 6704 0bbe 0a4c d33d 5a36 da3c
00000280: 31c5 013f 9147 aebc 4af4 3d3b 3ab8 0abe
00000290: fd9a 53bd f3a8 8d3d dc3c f03d 0ca1 d93d
000002a0: c705 ecbd 2b34 043d 9905 033e c668 443d
000002b0: be5c 8b3e 216e 7cbd de0b 3f3c 6ecb 6ebd
000002c0: 3ca4 5f3e a92a 6d3d 40a3 b4bd c918 b6bd
000002d0: da32 0a3e b880 11be ed24 e13d c1d7 c23e
000002e0: 188d 87be 570b 65be 1266 9dbd 2e56 12bd
000002f0: c4e9 37ba 4bb0 c93d 168b 4abe af3a 05be
00000300: 8aed 8fbe bdb6 c0bd 7e23 963e 420d 5b3e
00000310: 36a9 a1bd 1c54 373e d72d 543c c67f 663d
00000320: fadd 2d3e 9b15 153c d0e9 a1be 121e bd3d
00000330: 3ca4 b3bc 8e43 213e 6a61 2e3d f23d 493e
00000340: 7a9a d2bd f5d5 403e 15d1 01bd 318a 67bd
00000350: faa2 003e 39bb 65bd f3e2 493d a95a 57bd
00000360: ccb8 02be 2cbf 96be 8a0d 8fbd d3ee 3d3e
00000370: 9685 8e3d 4316 4fbe d6fc fb3d 46fc 6abe
00000380: e8d1 b1bc 39fb 873e b406 06be 33ad 113e
00000390: 8d80 3f3d f996 3b3e 60b5 52be efb1 2d3e
000003a0: 7b35 133d 4821 633e befc 7c3e 3f62 363d
000003b0: ac97 54be c82c f03c 31e3 1e3d 4def f8bb
000003c0: 2149 f4bd 856d bbbd dc31 4c3c 8a72 91be
000003d0: 608e 723e 936f b1be c521 9d3d b13e cebe
000003e0: 55ef 373d f105 9fbd 42fa 5a3d 5230 6f3d
000003f0: 89fe 1bbd bf42 77be 8e1a 4ebe cac2 b6bb
-0.1458848 -0.009020107 0.22874011 -0.14613807 0.2837797 -0.14461638 -0.019342612 -0.16504185
0.04258407 0.0708999 -0.025910305 0.17513278 0.1758164 -0.17325598 -0.202255 0.0020768815
-0.009008851 0.053806603 -0.1336307 0.10569734 -0.009636885 -0.07081529 -0.046626836 0.30777997
0.21222125 -0.18595251 0.05642934 -0.26846954 0.103072986 0.20401989 0.20910847 0.22573201
-0.20248528 -0.35893333 0.26098117 -0.013826699 -0.14198941 0.19627911 -0.080315545 0.2507661
-0.19682348 0.07187923 0.037150983 -0.32557032 0.14324024 -0.09543015 -0.1441849 0.15134482
0.18312009 -0.055517677 -0.08412612 0.017173998 -0.42072153 -0.16867913 -0.18606812 0.114083715
-0.16523029 0.21136445 -0.39408472 -0.04487025 -0.2329051 -0.059704438 -0.12453265 -0.16819446
-0.2023229 0.06325646 -0.17049548 -0.007871019 -0.025168845 0.06394144 -0.139512 0.054781895
-0.10643641 -0.29616266 0.2280585 -0.048564527 0.21605305 0.29719484 -0.18053459 0.0465282
0.08858249 -0.034213334 0.11982912 0.15689713 0.040209055 0.22282235 0.30234042 0.11294322
-0.14215909 -0.118463896 0.10640038 -0.12339946 -0.042823393 0.16922173 0.050866593 -0.2718421
0.18179616 0.045910817 0.1857108 -0.0015817012 -0.101981185 -0.061922107 -0.22826709 0.17356803
-0.17829594 -0.0153036695 0.14888202 -0.023463791 0.21235155 0.20208642 -0.07571832 0.12343674
-0.23736139 0.048783973 -0.020048602 0.25589576 0.17204246 0.13180764 -0.19553517 0.08518909
-0.17936015 -0.07921303 0.03138872 0.025772529 -0.054922346 -0.048137717 0.09798722 -0.124014445
-0.0031101818 0.13641302 -0.06122355 -0.024212966 -0.06045653 0.075713 0.22405618 0.18362431
-0.025198217 -0.0381078 0.016997594 -0.045434013 0.2207588 -0.051058255 0.016318012 0.24791339
0.14565867 0.34505305 0.2234202 -0.13040076 -0.04274733 0.0744399 -0.2487651 0.11595184
0.15756622 0.1216431 -0.1255686 0.12004749 -0.030219244 -0.13575898 0.10317238 0.026637245
0.50691515 -0.02127436 0.002898472 -0.1354684 -0.05166148 0.0691699 0.11730358 0.106264204
-0.115245394 0.032276314 0.12795104 0.047951482 0.27219194 -0.061628465 0.011660544 -0.058299474
0.21839994 0.057902012 -0.088202 -0.08891446 0.13495961 -0.14209259 0.10993371 0.38055232
-0.26474833 -0.22367607 -0.07685484 -0.03572672 -0.000701573 0.09848078 -0.1977962 -0.13010667
-0.28110915 -0.094098546 0.29323953 0.21391776 -0.078936026 0.17903179 0.012950382 0.056274198
0.16979209 0.009099389 -0.31623697 0.09234251 -0.021928899 0.15748426 0.04257337 0.19652537
-0.1028337 0.18831618 -0.031693537 -0.056528274 0.1256217 -0.056086753 0.0492887 -0.052576695
-0.12765807 -0.29442728 -0.06985004 0.18548135 0.06959073 -0.20223336 0.12304084 -0.22947797
-0.021706536 0.26558855 -0.13088495 0.14226227 0.046753455 0.1831931 -0.20577002 0.16962408
0.035939675 0.22180665 0.24705788 0.04452729 -0.20760983 0.029318228 0.038790885 -0.0075968863
-0.11928011 -0.091517486 0.012463059 -0.284077 0.23687124 -0.34655437 0.07672457 -0.40282205
0.04490598 -0.07764805 0.05346132 0.05839569 -0.03808454 -0.24146555 -0.20127317 -0.00557742

pi.mu_net.0.bias f4 [128]
00000000: 47dc 2ebe c749 fdbd 756a d4bd 85b8 863e
00000010: 2208 653e 7b48 753e aa17 98bd 932b 813c
00000020: 412e 8f3e 0c09 37be 64d0 1ebe 4978 4abe
00000030: 9b50 bebd c030 b23d dd07 233d 4cdb febc
00000040: 9edc 0fbe 5130 723e 4f53 bcbd bdec 6fbe
00000050: 8637 e9bd d3b5 5dbe a43a 593e da3c 053e
00000060: 798f 07be 2fd9 24be eaa4 db3d 1a01 f73d
00000070: b609 49be 9721 a9be 7bed 3cbe 1234 f7bd
00000080: 8f86 133e 2db0 873b 1828 17be 97dc 383e
00000090: 03e4 25be 081f ea3b e388 403e 6ddf 67bd
000000a0: a819 32be 3b82 bcbd b79c e7bb cbda a8bd
000000b0: ebce 54be c423 c7bc 1f2b 763e 5499 0ebe
000000c0: 038e debc 5558 753d 4035 1e3e 3205 cd3d
000000d0: 1094 593e 8c9b aa3c 3266 a0bd f09f 343d
000000e0: 86d1 0dbe 0ea3 973d 678d 52bd cf63 e73d
000000f0: 1ec2 39be ac79 1bbb 75f4 80bb a735 56be
00000100: 5a31 4bbd 4168 7e3d 5f20 6a3d 3f10 46be
00000110: c8df 89bd 39b4 0dbc ae4f 84bd dd77 8ebe
00000120: f15a b5bc a5b3 5cbe 0349 37be ea1c b4be
00000130: 9cff 34be cfdc 4c3e 93aa d43d de2c 42be
00000140: 1817 e93c a425 d3bd cf9f 15be 3eb1 9e3d
00000150: b746 db3d cee4 2abe 7473 a73d 33f6 453e
00000160: 3e5a 11bd f21e 3abd 99de ddbd 33f5 973d
00000170: 1cb4 b43d 977c 073d f0b4 ee3d 0347 f2bd
00000180: 4deb 90bc c892 703d f7f1 e23d 0c19 04be
00000190: 8687 2bbd c33c 833e 98e1 32be 5332 1e3e
000001a0: 97e0 3bbe 6672 25bd ef02 0d3e fed5 133e
000001b0: 57b2 83be 2cfb 19bd 4ce8 d83d d1b9 36bd
000001c0: 8e18 983e 8b96 42bd 6616 7fbe 7325 1abe
000001d0: 0359 903e 9088 ee3d 76bc 953d 07e8 213e
000001e0: 33ac d5bd 7f8b 183e c0c6 e8bc 2a13 3dbe
000001f0: fd91 dd3c a83c 4e3c 34ef 6abe 7ae0 873e
-0.17076217 -0.123675875 -0.103718676 0.26312652 0.22366384 0.2395343 -0.074263886 0.015767848
0.27964976 -0.17874545 -0.15509182 -0.19772448 -0.09292718 0.087007046 0.03980242 -0.031110428
-0.14049003 0.23651244 -0.09195577 -0.23430152 -0.113875434 -0.21651392 0.21213776 0.13011494
-0.13238324 -0.16098474 0.10724814 0.12060757 -0.1963261 -0.3303344 -0.18449967 -0.120704785
0.14406799 0.004140875 -0.14761388 0.18052898 -0.16200261 0.0071448125 0.18802218 -0.05660956
-0.173926 -0.09204527 -0.0070682424 -0.082448564 -0.20782058 -0.024309047 0.24039887 -0.13925678
-0.027167326 0.059898693 0.15450001 0.100107566 0.21247888 0.020826124 -0.07831992 0.04409784
-0.13849458 0.07404147 -0.051404383 0.11298334 -0.18140456 -0.0023723645 -0.0039353915 -0.20918904
-0.049607612 0.062111143 0.057159778 -0.19342135 -0.06732136 -0.008648925 -0.0646051 -0.27825823
-0.02213809 -0.21552904 -0.17898946 -0.3517831 -0.17675632 0.20006107 0.10384097 -0.18962428
0.028453395 -0.10309914 -0.14611743 0.0774865 0.10706847 -0.16688845 0.08176318 0.19332199
-0.035486452 -0.045439668 -0.10833473 0.07419815 0.08823416 0.033077803 0.11655605 -0.11829951
-0.017690325 0.05873373 0.110813074 -0.1290018 -0.041877292 0.25632295 -0.1746887 0.15448885
-0.18347393 -0.040392302 0.1377065 0.144371 -0.25722 -0.03759305 0.10591182 -0.044610802
0.29706234 -0.04750685 -0.24910888 -0.15053348 0.2819291 0.11647141 0.07311337 0.15811168
-0.10433235 0.14896964 -0.028415084 -0.18464342 0.027047152 0.012587704 -0.22942811 0.2653845

pi.mu_net.2.weight f4 [128, 128]
00000000: 903a 42bd 33ff c5bd d53a 603d 8339 703d
00000010: 4216 853c 1d3b 1fbd 4593 9fbc 89cb 82bd
00000020: 4202 efbd 89dd cd3d bb8b 4c3d a041 d9bd
00000030: f7bf c7bc ad38 fbbc 95ca 99bc dc7e 0f3d
00000040: d1c4 b0bb 6cc0 783c 8594 a73c 415f 163d
00000050: e596 c8bc 4457 c83c 23e6 8bbd 5bb1 ccbd
00000060: 8509 653c 7ba1 18bd 5606 5f3d a620 423d
00000070: 21ca b13c f2ef 973d da4a dabd 957e a3bd
00000080: e9b0 e4bd 8461 dfbd cb13 ab3d 8ba4 6fbb
00000090: 3d7d 46bd 8231 2fbd 27dd d93d d2a2 613c
000000a0: 8a08 89bd 536d 83bd 0a11 d33d 1e23 a7bd
000000b0: 2fbb f7bc dc59 323d 5503 3fbd b0a1 f93b
000000c0: 280e 8ebd c6a2 cabd 7cc7 c9bc a67a f1bc
000000d0: 140b 8e3d 2139 423b d999 eebc 2feb 973c
000000e0: fca2 d53d f19e a43d e695 f3bc cb54 003b
000000f0: 380d 43bd c677 c53d e7e5 87bd 9633 b63d
00000100: a526 243d 8b8e 57bd 5a1b 63bd 33dd d8bc
00000110: e110 57bd d790 b33d 988b 7f3c 068c e8bd
00000120: 01a7 2abb 2789 703d ed7e 9a3d dd25 02bd
00000130: c671 d7bc 0be1 9dbc a219 de3d 3f7b 2ebc
00000140: 4045 8fbd aa52 37bd 8200 babd ca3d 3fbc
00000150: bc39 b43d df1f 79bd 2757 303c 2001 16bd
00000160: 63e7 0e3d 2c51 d53c 19fb 9cbc 320d 1cbe
00000170: c248 75bc 7bff 56bd f606 753d 79b3 04be
00000180: 5133 c9bb 455b 253d d4cd dbbd 1a90 acbd
00000190: 3054 44bd 732b 083d 48bd 9ebc 13bb 803d
000001a0: 3522 2ebd 4a2e d9bb 8b22 13bd 9442 68bd
000001b0: 409f a2bd 93ac 9cbd c110 aebd fce1 cb3d
000001c0: 6030 abbd ed70 0c3e 3c45 933c 7bbc 5f3c
000001d0: 78f8 a93c c62d 123e fcbd 983c c613 493c
000001e0: ee45 533c d545 0f3e ca5b 38bd f5fb f33c
000001f0: cfad ae3b 5287 413d 2977 17bb 57ce ea3d
00000200: da77 bb3d a2f8 9ebd 8641 f73c aecf a33d
00000210: 6ca1 ba3c 1739 86bd ef7a 7a3d 98c6 0a3e
00000220: 76c2 59be 65ba 053e 42d3 933c 4c62 a73c
00000230: 9652 d1bc 4f08 51bd de16 69bb eec5 1b3d
00000240: 20e9 d3bd 2cd0 203d 98a8 1c3e c371 003e
00000250: f325 313e 220b f7bb 4192 643d 7443 17be
00000260: 5285 e93c 461a b83d ac72 903d 0ca9 b9bc
00000270: f96b 78bd 5946 d8bc fc77 b33d 2056 a8bd
00000280: c25a 37bd 4145 bdb9 fce9 053e e9cc 0dbb
00000290: fb33 9bbc 4a92 06be 80b5 623d 7f4a aabd
000002a0: c1cf 95bc 9b4c b6bc 6e5c 92bd 47e2 ccbd
000002b0: 56bf 2abd 1e7e 52bd 9da0 aa3d ba9b 893d
000002c0: 0ca4 d4bc 0608 3a3d 5e23 0dbe 42d7 9ebd
000002d0: d329 50bd 80b0 923c f218 9dbd d9c3 00bd
000002e0: e7e3 5cbd 75b4 c5b9 e608 a23b 79bd 61bd
000002f0: 5cdf 1d3e 36ca 20ba bbb8 043d 2be8 bb3c
00000300: a25c 95bd 0fbe 22bb 5210 cebd cd0d ea3d
00000310: 99db bf3b 9c2d 35bb 45eb 803b 4a1b 98bd
00000320: ee12 c93d b530 ec3b 6603 613d b21b 613d
00000330: 3e9e 2f3d 7737 d1bc be8d fb3c 09ec ab3d
00000340: 1e66 b03b aa68 033e 981a e93d 009b d83c
00000350: be5a 893d 8c85 3dbd 1c49 66bd 0f7c 053d
00000360: 0a68 733d 5322 6cbc bc7b 61bd 68cc 5b3b
00000370: 482a 983a 5334 17bd 476d cbbd 51bf 643d
00000380: a912 8cbd 9146 8bbb 24d2 73bd 9387 043c
00000390: 24c2 11bd a7dc 4fbd eb0b 1c3d abc3 ba3d
000003a0: 5c18 423d eacc a8bd 8518 62bc e851 46bd
000003b0: eb6f 8cbc 85a5 bc3d eeec 973c 798c e6bc
000003c0: 9c1f f53d 56f3 893d 76f7 4f3d d646 2fbc
000003d0: c708 b6bd 5f1d 98bd 32d5 b03c 0da7 8dbd
000003e0: 7437 74bd e003 debd e7bc ef3d 9c58 563d
000003f0: 2c4b c53b f7b9 243d e65d d93d c40c 11bd
-0.04741913 -0.09667816 0.054743607 0.058648597 0.016245965 -0.038874734 -0.019479403 -0.063864775
-0.116703525 0.1005202 0.049937945 -0.1060822 -0.024383528 -0.030666674 -0.018773356 0.035033092
-0.005394556 0.015182596 0.020456562 0.036711935 -0.024486015 0.024455674 -0.068310045 -0.09994765
0.01397932 -0.037263375 0.0544494 0.047394417 0.021702828 0.07418813 -0.10658808 -0.07983128
-0.111665554 -0.109072715 0.083533846 -0.003656658 -0.04845928 -0.042771824 0.106378846 0.01377173
-0.06691082 -0.06417336 0.10305984 -0.08160995 -0.030240623 0.043542728 -0.046634037 0.0076181516
-0.06936294 -0.09894328 -0.024631254 -0.029477429 0.06935707 0.0029636102 -0.029126095 0.018544761
0.104314774 0.08038128 -0.029734563 0.001958179 -0.04762003 0.096419856 -0.06635647 0.08896558
0.040075917 -0.052626174 -0.055446006 -0.026472664 -0.05250633 0.087678604 0.015597247 -0.11354832
-0.0026039483 0.05872455 0.075437404 -0.03177439 -0.026299369 -0.019272348 0.10844733 -0.010649501
-0.0699563 -0.04475657 -0.09082128 -0.0116724465 0.088000745 -0.06082141 0.010762966 -0.036622167
0.034888636 0.026039682 -0.019162701 -0.15239409 -0.01497096 -0.05248974 0.05982109 -0.12959088
-0.0061401506 0.040370245 -0.10732618 -0.08425923 -0.04793185 0.03324456 -0.019377366 0.062856816
-0.04251309 -0.0066278325 -0.035921615 -0.05670412 -0.07940531 -0.076501034 -0.08499289 0.099552125
-0.08358836 0.13714953 0.01797735 0.013655777 0.020748362 0.14275274 0.01864528 0.012272781
0.0128950905 0.13991483 -0.045009412 0.029783228 0.005330778 0.047248192 -0.0023111796 0.114651375
0.09153719 -0.07762267 0.030182611 0.07998596 0.02278205 -0.06553858 0.061152395 0.1355232
-0.21265587 0.13059385 0.018045072 0.020432614 -0.025552075 -0.051033314 -0.0035566608 0.038030557
-0.103471994 0.03926103 0.15298688 0.12543397 0.17299633 -0.007539169 0.05580354 -0.14771825
0.028505955 0.08989386 0.07053122 -0.022663616 -0.060649846 -0.026400732 0.087631196 -0.08219552
-0.044764288 -0.00036100487 0.13077539 -0.0021637029 -0.018945685 -0.13141742 0.055348873 -0.0831499
-0.018287541 -0.022253325 -0.07146536 -0.100040965 -0.04168638 -0.051389806 0.08331416 0.067191556
-0.02595713 0.045417808 -0.13783023 -0.07755901 -0.050821137 0.017906427 -0.076707736 -0.031436775
-0.053928282 -0.0003770922 0.0049449084 -0.055112336 0.15417236 -0.00061336474 0.032402735 0.022937855
-0.07293059 -0.0024832522 -0.100617066 0.114284135 0.0058550355 -0.0027645594 0.0039342963 -0.0742708
0.09818064 0.007207955 0.05493488 0.054958053 0.04287552 -0.025539143 0.030707236 0.083946295
0.005383267 0.12832895 0.113820255 0.026441097 0.06706761 -0.04626994 -0.056222066 0.032589015
0.05942539 -0.01441248 -0.055049643 0.0033538584 0.001160928 -0.036915135 -0.099329524 0.055846516
-0.06839497 -0.0042503555 -0.059526578 0.008088964 -0.035585538 -0.05074754 0.038097303 0.09119352
0.047386512 -0.08242209 -0.013799791 -0.048417956 -0.01714321 0.09211258 0.018545594 -0.028143154
0.1196892 0.06735866 0.050773107 -0.010698041 -0.08888393 -0.07427477 0.021586034 -0.06916628
-0.059623197 -0.10840583 0.11705952 0.0523306 0.006020924 0.040216412 0.10613613 -0.035412565

pi.mu_net.2.bias f4 [128]
00000000: 6fbd 633c 0e2e a63b 4d36 28bd 9c1a 94bc
00000010: 4988 e33c f19f 8fbc 927e ce3d ce18 7dbd
00000020: 8745 713d 33cb e03c efdc 953d bd6b a93d
00000030: c77d e6ba 9ba9 5b3d 213c 50bd 302b b33d
00000040: b5ea 6f3d c232 8bbd 7a72 113d 8e07 16bc
00000050: f95a a0bd 9771 1dbe 31e1 60bc 1bef a03d
00000060: 1839 223d 3f98 9f3d 85e9 c43d 12e1 8fbc
00000070: 1ec1 4a3d 95d5 06bb 5dc3 88bd abc3 2a3d
00000080: 13a6 8ebc 7c60 b53d 1988 263c 77aa e3bc
00000090: 7d10 943c 0634 d6bd c65e 19bd 3ede 11bd
000000a0: c311 18bd bd62 4f3d 1b8a 15be 3da7 81bc
000000b0: 4628 9ebd 4d9f c03d d876 1dbb f2b9 f23d
000000c0: f4c6 d93d 1ef3 c6bd 566f 54bd 26ea a13d
000000d0: 0169 60bd f44d 29bd d685 06be fec5 aa3d
000000e0: 862a 853d 1168 503d 584e 993c 8952 9e3d
000000f0: b834 963c bc01 193d c244 f43b 77e5 7e3d
00000100: c272 023e abee fdbb 7f64 df3c 8368 30bd
00000110: afdd e53c 324b 883c 0f67 a1bd 659c aabd
00000120: aa50 93bc fad1 88bd e8de 803d 29b9 99bd
00000130: 8d5d bb3d 88f8 a7bc 22fd a93d 3193 3dbd
00000140: 9dc0 a0bd bf63 85bc 4bf4 6e3d d8bc c43d
00000150: a796 97bd 3db2 f83d ef93 d3bb d547 eaba
00000160: 7ca6 993d 1ad4 20bc 72ec 763d 4c00 8a3c
00000170: 52b2 67bd 7457 0bbe 4652 2a3c 8c2a e23d
00000180: 1bc5 cd3a a60b fe3d 3c17 18bd 586f 8a3d
00000190: af34 5c3b b031 24bb 28e2 703d 9ea0 05bd
000001a0: cf05 a7bc d385 ed3d 6e32 f4bd a351 553c
000001b0: 505e fbbc aff4 343d 9712 a0bd 5164 bbbd
000001c0: d7f1 6dbd 8626 743d 8429 8ebd 1459 663c
000001d0: 3635 813d f626 f53d 0e56 133d e1cd c5bd
000001e0: e491 973c 4bb2 a8bb 0c80 90bd 21ab 2c3d
000001f0: 8057 b9bd 5e2a 953d 49ea ba3c 8a75 213d
0.013900145 0.005071408 -0.04106741 -0.018079095 0.027774947 -0.01753232 0.10082735 -0.061791234
0.058904197 0.027440643 0.0731753 0.082725026 -0.0017585092 0.053628545 -0.050838593 0.08748472
0.058573443 -0.06796791 0.035509564 -0.009157075 -0.07829852 -0.15375362 -0.013725565 0.07858106
0.03960523 0.077927105 0.09614853 -0.017563377 0.049500577 -0.0020574082 -0.066778876 0.04169051
-0.017413175 0.088562936 0.010164284 -0.027791245 0.018074268 -0.104591414 -0.0374439 -0.035612337
-0.037126314 0.050631274 -0.14603464 -0.015826816 -0.07722525 0.09405384 -0.0024027135 0.118518725
0.106336504 -0.0971434 -0.05186399 0.079059884 -0.05478764 -0.041334108 -0.13136992 0.08338545
0.06502251 0.050880495 0.018714115 0.07730586 0.018335685 0.03735517 0.0074544856 0.062230553
0.12739089 -0.0077493987 0.0272696 -0.04306842 0.028059809 0.016637418 -0.07880985 -0.08330611
-0.0179828 -0.06680675 0.06292516 -0.075060196 0.09148703 -0.020504251 0.083002344 -0.04628295
-0.07849238 -0.016282914 0.058338445 0.096063316 -0.074017815 0.12143371 -0.006456844 -0.0017874191
0.075024575 -0.009816194 0.060284086 0.016845845 -0.056566544 -0.1360758 0.010395592 0.110432714
0.0015699001 0.124045655 -0.037131533 0.067595184 0.0033600738 -0.002505403 0.05880943 -0.03262388
-0.020388512 0.115977906 -0.11923681 0.013019952 -0.03068462 0.04417866 -0.07816046 -0.09149993
-0.058091965 0.05960705 -0.06941512 0.014059324 0.06308977 0.11970322 0.03597074 -0.09658409
0.018502183 -0.0051482073 -0.07055673 0.04215539 -0.090498924 0.072834715 0.022816794 0.039418735

pi.mu_net.4.weight f4 [6, 128]
00000000: 353b d63c 1ab2 b23d 66dc 94bd 4af8 733d
00000010: dd0a 3e3d 572a 7fbc fe4f 943d f959 38bd
00000020: 91e4 083d 9891 1a3e 35cd f4bc c7d1 20bd
00000030: 400f 34be bde8 c43d df10 c1bd 8b3b 753c
00000040: 4678 023d d712 9fbd d693 0b3d 6177 cdbd
00000050: 6555 793c 5735 3c3d 2764 07be 98d2 0c3e
00000060: 56a2 90bd 9865 a03d 2a76 c5bd 9439 f23d
00000070: 13dc 52bd 07c1 4ebd 88f2 c53a 8eb3 e33d
00000080: ed06 cfbd d1a3 8b3d bddc eb3b 5d30 0abe
00000090: 8e32 74bd e819 3abd 0e80 9abd 6690 0b3e
000000a0: 6be5 093e e791 5b3d 7c94 f83d f67c 563c
000000b0: 2f79 82bc 252f 3f3e 2843 6bbc a255 dbbd
000000c0: 8cba 81bb 03e3 7ebd e9e2 34be 14b3 6f3d
000000d0: 2935 253e 83c3 663d 7262 163d dbc2 f73d
000000e0: 4af6 2dbe 1798 a33d 9451 513d 2331 263d
000000f0: 8eaf 9fbd 6611 4f3d 9dd3 f43d 7e13 553d
00000100: c970 e63b dc8c 243d 310c ed3c dd97 84bd
00000110: 4d0c 7dbb 3a56 08be 9b15 04be ca60 153e
00000120: de93 a3ba e964 e4bd 890c 863d 5c56 353c
00000130: be62 a4bd d9a9 29bc 92b2 4b3c da4b 153d
00000140: f181 333d 148b 15bd 5e82 37be 5f82 9e3d
00000150: a234 f23d 736d c1bd e5a7 6dbc 3c94 2fbe
00000160: 8ac9 5cbd 1a3c 9cbd 4668 163e 2516 f53d
00000170: 6f67 1abd 65b7 e1bd 8561 2fbd d7f0 4dbe
00000180: dca8 333d 2bb2 f13c 1190 b3bd 1a3c d03d
00000190: 19c2 273e 8d06 eb3d e9b6 bebd 9aad cd3d
000001a0: dcf5 d23c 7f76 913d 4c4e debd 34d5 12bd
000001b0: da6c 0dbe 0ea6 cf3d 217a 71bd 6d15 c3bd
000001c0: d2cd 85bd 705f 0dbc 0d43 1abe be2e 1dbe
000001d0: 28d0 523d 51c6 d2bd 9ded 413d 5014 a8bd
000001e0: 15af d3bd bc77 693d 6b14 a13c bc3f 2bbc
000001f0: f504 e4bc d354 cf3d 749f 99bd 0720 01bd
00000200: bd15 2d3d 9313 eb3c 5fd7 d83d 549a 283e
00000210: 744b d33c a67e d5bb dc50 a4bd ed3f 243e
00000220: 3c05 a2bd 736e 04be f2dc e13d a55d cdbc
00000230: 5b40 02be 6717 373e c60f de3d 674d a23d
00000240: a717 c2bd 2d07 7bbd 494b d7bc e592 adbd
00000250: 253a ab3d bca2 9fbb 95f0 cd3d 4d2c 353d
00000260: 3dc6 933c 27f4 8fbd c1d4 0d3e 3d2c f73c
00000270: 3831 bcbd 76ce 9d3d bc07 bb39 a418 98bc
00000280: 37fb cbbd a493 92bd 1a2e dbbc e256 93bd
00000290: 9188 eebb ff70 a5bd 799a 95bd 3be6 d9bd
000002a0: 201d e9bd b172 0d3e f483 43bd ec45 babd
000002b0: d09c 2fbd 4ab1 b13d cb43 e03d 7dba 8b3d
000002c0: a146 473e a1d4 f7bd 7bf4 fbbd aaed c5bc
000002d0: 0c4f 143d dcdc 473d 705b 8bbc addd 773d
000002e0: c49c 2ebd 3cce 793c 67cb c6bd d45f e33c
000002f0: 533a 233d be5e 1fbd 015a 073e c104 e63d
00000300: 35ce c1bc 5488 89bd b6d5 e53d ce9a 0e3e
00000310: cb39 6f3d 9b1e f6bd 3089 b2bd 6730 f83c
00000320: 7ee6 adbd e162 073e 630c df3d 4e48 00be
00000330: 0554 9fbd cfc3 f8bd 7874 c4bd fb80 12bd
00000340: 3a96 10be a42f 54be 29af 9a3c bf05 b63c
00000350: 1030 6a3e 11b2 843d e99b c0bd 034a 5abe
00000360: c0a3 60be e083 1e3d 3f86 183e bee4 debd
00000370: dc0d f53c 85ae 4ebd 3721 25be 168e 09be
00000380: d2b0 8ebd efb8 dbbd 5c6e 933c aa73 5a3c
00000390: 76f7 4cbc 84ab 0dbe a8f1 02be cd76 a93d
000003a0: 00c0 f83d ef7d 0bbe 22e7 21be 3d68 08be
000003b0: 286d 913d 6864 703c 771a be3d b651 693d
000003c0: 4055 abbc 0d57 78bd 6868 8abd 4c56 0e3e
000003d0: f17e 433d 7fa7 073e 7043 3abc 97bf fc3d
000003e0: 47c6 1bbe 531b ddbd aab4 c2ba 90f8 a4bd
000003f0: 1fdf 23be e676 07be a14a a2bd 2951 693d
0.026151279 0.087253764 -0.072686 0.05956296 0.04639708 -0.015574059 0.0724182 -0.04500768
0.033421103 0.15094602 -0.029883007 -0.03926256 -0.17583942 0.09614704 -0.09427046 0.014967809
0.031852983 -0.07767265 0.034076534 -0.10032535 0.015218114 0.045949306 -0.13221799 0.1375221
-0.07062213 0.078318775 -0.09641679 0.118273884 -0.05147941 -0.050477054 0.0015102187 0.11118232
-0.10108743 0.06818355 0.007197945 -0.13495012 -0.059618525 -0.045434862 -0.07543956 0.13629302
0.13466422 0.05360594 0.12137696 0.013091316 -0.015926925 0.18670328 -0.014359273 -0.107096925
-0.0039590057 -0.062228214 -0.17664684 0.05852039 0.1613356 0.0563388 0.03671498 0.120977126
-0.16988483 0.07987993 0.05110319 0.040574204 -0.07797156 0.0505537 0.119544245 0.052020542
0.007032488 0.040173396 0.028936477 -0.06474278 -0.0038612068 -0.13314143 -0.12898867 0.14587703
-0.0012479981 -0.111520596 0.0654536 0.011067953 -0.08026646 -0.010355436 0.012432711 0.03644929
0.043825094 -0.03650959 -0.17920825 0.0773971 0.11826445 -0.09444704 -0.014505361 -0.1714639
-0.05390314 -0.07628651 0.14688215 0.11967114 -0.0376963 -0.11021308 -0.04281761 -0.20111404
0.04386221 0.029503902 -0.08767713 0.101677135 0.16382636 0.11475859 -0.09312231 0.100428775
0.025752 0.071026795 -0.10854778 -0.035847858 -0.13811055 0.10139094 -0.05895436 -0.09525571
-0.06533398 -0.008628711 -0.1506464 -0.15349862 0.051468045 -0.10291732 0.047345746 -0.08206999
-0.103361286 0.056998953 0.019663056 -0.010452207 -0.027834395 0.10123601 -0.075011164 -0.031524684
0.04225706 0.028695857 0.10587954 0.16465122 0.025792815 -0.006515342 -0.08023235 0.16040011
-0.07911155 -0.12932758 0.1102847 -0.025069067 -0.12719862 0.17880021 0.10842852 0.079249196
-0.094771676 -0.06128614 -0.026281016 -0.084752835 0.083606996 -0.0048716944 0.10055653 0.0442317
0.018038863 -0.0702899 0.1385069 0.030172462 -0.09189075 0.07705395 0.00035673182 -0.018566437
-0.09960025 -0.071570665 -0.026755381 -0.07194306 -0.0072794636 -0.08078193 -0.07304854 -0.10639616
-0.11382508 0.13813283 -0.047733262 -0.09095368 -0.042874157 0.08676393 0.109504305 0.06822679
0.19460537 -0.121011026 -0.1230249 -0.024161179 0.036208197 0.048794612 -0.017011374 0.06051414
-0.042629972 0.015246924 -0.09706765 0.027755655 0.039850544 -0.038908713 0.13217928 0.112313755
-0.023657897 -0.06715456 0.11222403 0.13926241 0.058404725 -0.12017556 -0.08717573 0.030296518
-0.084912285 0.13221313 0.108910345 -0.12527582 -0.07779697 -0.121467225 -0.09592527 -0.035767537
-0.14119807 -0.20721298 0.018882351 0.022219537 0.22869897 0.06479276 -0.094047375 -0.21317296
-0.21937466 0.038699985 0.14894961 -0.10883473 0.029913835 -0.050459404 -0.16125952 -0.13433108
-0.069673195 -0.10728633 0.01799696 0.0133332405 -0.012510171 -0.1383496 -0.12787497 0.082746126
0.12145996 -0.13622259 -0.15810826 -0.13321014 0.07100898 0.014672376 0.092823915 0.05696269
-0.020914674 -0.060629893 -0.06758195 0.13900107 0.047728483 0.13247488 -0.011368617 0.1234123
-0.15212356 -0.10796227 -0.0014854867 -0.08055222 -0.16003083 -0.1322895 -0.079243906 0.056962166

pi.mu_net.4.bias f4 [6]
00000000: ce8e ca3d b9d9 a5bc 2c37 983d 6ff3 8fbd
00000010: f93d b13c 2125 c03d
0.09890519 -0.02024542 0.07432398 -0.07028853 0.021635996 0.09382082

vf.v_net.0.weight f4 [128, 24]
00000000: 3a90 d3bf 7cf9 3a3f a2a4 113f 8230 003f
00000010: 308d c4be d120 a93e 6ad0 a8bd 6325 5bbe
00000020: 10cf a33e cd51 9c3e 6fcf ff3d 7dc8 37be
00000030: 5afa 1e3d 2255 eb3d 305e 0fbf 02b6 febe
00000040: 6d7f 513f 704a 0bbd 4795 093c 0d99 2fbd
00000050: 82b5 f8bd 13cb a53d d20a 41be 8bd2 33be
00000060: 8404 723d edef 8c3f 57c7 373e 0357 42be
00000070: c871 323e cc4e 40bf e626 14be 9095 27be
00000080: d0bd f93c 0e41 303e e0b5 cebf 7242 503f
00000090: 19b2 b2bf 619d 3ebe 0bbc 80bf e495 68bf
000000a0: f0b7 74be 3fa3 ad3e 0be3 d6bd 3480 89bc
000000b0: 3213 fabc 8b9e 0bbe 161d 71be 3d64 01bd
000000c0: 49a1 1e3e e0b4 1dbf 829e a1bd 256f 663e
000000d0: 6cd5 17be 7293 4f3e 319d a8bd 88bc ea3e
000000e0: c705 8bbf 0a8f 24bf 22ab 763f 6db5 ecbf
000000f0: bf8e 853f 10ce 01be 5db9 3e3a d0aa 41bf
00000100: 3faf 50bf 34cb cb3c a4c1 043d e040 0d3e
00000110: 04a7 a0bc 836a 09be 5867 ad3d fbcc 3dbd
00000120: c13d 51bf 3554 1cbe ed9c f03e f1f3 a83d
00000130: 84b2 253e 4e3c df3e b425 683e 0572 fc3e
00000140: cdae 6c3e 9e7a 463e ddfe 5d3f feb1 81be
00000150: 8edf d13e 3ff1 c93d bb0a 7f3f 2656 4a3f
00000160: a367 28be f724 19bf 4b74 b7bd 060e 38be
00000170: 9d18 c2bc 7db2 943e 0116 8fbe fd62 2abd
00000180: a2cf 98be a25b 953f 15e0 94bd 9924 c93d
00000190: 57f0 7fbd 4094 c4be c9a7 e23d dbfd 8a3d
000001a0: 66a0 7b3e a082 c63e 1a4d a5bf 13d9 203f
000001b0: 6f9b c0be 6315 bb3d 01fe e8be 53b8 dabe
000001c0: a6a9 493d 6bfc 2cbd ecc1 26be fb36 af3e
000001d0: 8fde 903d 6176 f03d 1a8b d63d e7d9 84bd
000001e0: 6e65 953e 0338 44bf a8c4 f4be 691c e9be
000001f0: 2ffe 5c3e 0a48 b7be 6357 adbe 96f8 78be
00000200: 2aa9 d73d b27c d73d 54ee d0be 9842 62bd
00000210: 42b9 01bf f441 2dbf 4c21 e5bd d97b 563f
00000220: bfd2 78bf aa6e 27bc 7539 8f3e d391 943e
00000230: 9244 d8bd 9a71 bcbd 9828 86bd 2547 b43d
00000240: 112a e3be ff98 87be c740 603e 5eef 7e3d
00000250: 8407 ddbe 3cba 113f 58bf 04bf 0bdc 293f
00000260: fead 9dbe c18b 15bc f4f2 573d 0438 d53e
00000270: 8b57 36be 7168 8bbe a42a 6b3f 41e9 d23e
00000280: 53e8 453f 5f4a 123e 40e0 f7bd de73 41be
00000290: eb51 953d b5ec 2fbd e9b3 16bf afc1 c9bd
000002a0: 6f68 26bf f99b 48be 6c04 f33e 782e 123f
000002b0: 47f2 dd3e b2ff 803f 202d b5bd 74e6 2c3f
000002c0: 5021 b63e c044 873d 9a7c 943f fdc6 c83e
000002d0: 443c 3c3e 9eac f53e a85f 1b3f ff98 d9be
000002e0: 4e03 a1be 8ec9 c1be abf7 013d 2bf5 4b3d
000002f0: 22fe ccbc 0512 e43d a410 2f3e 8bdc e1be
00000300: 8d5e dc3e 5418 cfbe 902f d33e 40b9 9b3e
00000310: ab7d 14be 8c90 fa3e 2455 90bd b046 d23e
00000320: 7550 68be ada8 8a3e 7747 623e e429 463d
00000330: 7db4 d73e 19a3 7e3e d130 183f 25ef 88bf
00000340: 2286 573a 0452 f13d 3a2c 0f3d 2b7f f8be
00000350: 7e57 b9bd 55aa aabc 8e1d 03bf 9f5d 193e
00000360: 2a11 16bf 30ea 993e 78e6 f9bd e3f8 883f
00000370: 384e 01bf c40c ab3e e3eb 923d 71c5 8ebe
00000380: 2bde 423e 87ae 343f bc2c 223e e774 f03d
00000390: 7e3a 823d 75ea 1fbc 84c5 4dbf 53c8 b2bf
000003a0: 7537 503e 44ff f3be 2884 713e 37ae 603a
000003b0: b6c8 2a3d 2c49 97bd 948f d6bd 1aff 6cbd
000003c0: 4fd9 02bf 87b1 bc3f e9e1 26bf 3e56 9ab9
000003d0: cace 45bf 7e25 893e 7d52 3fbf dc03 c13c
000003e0: 1717 e6be fc0d 81bd d0e3 27be 05a7 17be
000003f0: c3ff a7be 6aec 663e 3141 22bf 858e 5c3e
-1.652839 0.7303693 0.56891835 0.5007402 -0.38388968 0.3303285 -0.08242877 -0.2140098
0.31993914 0.3053116 0.12490737 -0.17947574 0.038812973 0.11490847 -0.56003094 -0.49748236
0.8183506 -0.034006536 0.008397407 -0.04287057 -0.12143995 0.08095374 -0.18851784 -0.17560785
0.059086338 1.101072 0.17947136 -0.18978505 0.17426217 -0.75120234 -0.14467964 -0.16365647
0.030486017 0.17212316 -1.6149254 0.8135139 -1.3960601 -0.18614723 -1.0057386 -0.90853715
-0.23898292 0.3391361 -0.10492524 -0.016784765 -0.030526731 -0.13634698 -0.23546252 -0.031589735
0.15491213 -0.6160412 -0.07891561 0.22503336 -0.14827508 0.2027109 -0.08233107 0.45846963
-1.0861138 -0.6428076 0.9635488 -1.8492867 1.0434188 -0.12676263 0.0007275546 -0.75651264
-0.81517404 0.024877168 0.032411233 0.13794279 -0.01961089 -0.13419537 0.08466977 -0.046338063
-0.81734854 -0.15266497 0.46994725 0.08249653 0.1618138 0.43600696 0.22670633 0.4930574
0.23113556 0.19382712 0.86717016 -0.2533111 0.4099087 0.09860467 0.9962575 0.790377
-0.16445784 -0.5982203 -0.08957728 -0.179741 -0.023693377 0.29042426 -0.27946475 -0.04159831
-0.2984591 1.1668589 -0.07269303 0.098214336 -0.062485065 -0.38394356 0.11067159 0.067867
0.24572906 0.38771534 -1.2914155 0.6283123 -0.37618586 0.091349386 -0.4550629 -0.42718753
0.049234055 -0.042232912 -0.16284913 0.34221634 0.070737 0.11741329 0.1047575 -0.06486874
0.29178947 -0.7664797 -0.47806287 -0.45529488 0.21581338 -0.3579715 -0.33855733 -0.24313578
0.10530312 0.105218306 -0.4080683 -0.05523929 -0.50673306 -0.6767876 -0.111879915 0.83782727
-0.97196573 -0.010219255 0.27973524 0.29017505 -0.10559954 -0.09201355 -0.065507114 0.08802632
-0.44368032 -0.26483914 0.2189971 0.062239997 -0.43169796 0.56924796 -0.5185447 0.66351384
-0.30796808 -0.009127558 0.052721933 0.416443 -0.17806832 -0.2722812 0.9186194 0.41193584
0.77307624 0.14286183 -0.12103319 -0.18891856 0.07291015 -0.04295035 -0.5886827 -0.09851395
-0.65003103 -0.19590749 0.4746431 0.57102156 0.43348905 1.0078032 -0.088464975 0.67539144
0.3557229 0.0660491 1.1600525 0.39214316 0.18382365 0.4798326 0.60692835 -0.4249954
-0.31447834 -0.37849087 0.031730335 0.049794357 -0.025023524 0.111362495 0.17096192 -0.44113573
0.43040887 -0.40448248 0.41247225 0.30414772 -0.14501064 0.48938406 -0.07047489 0.41069555
-0.22686942 0.27081814 0.22097574 0.048379794 0.4212989 0.24866904 0.5944949 -1.0697981
0.00082215865 0.11783221 0.034954287 -0.4853452 -0.09049891 -0.020833174 -0.5121697 0.1497712
-0.5861994 0.30061483 -0.122021616 1.0700954 -0.5050998 0.33408177 0.07173898 -0.2788501
0.19030063 0.7057881 0.15837377 0.11741047 0.06358813 -0.009760489 -0.8037951 -1.3967384
0.20333655 -0.4765569 0.2358557 0.0008570882 0.04169532 -0.07387003 -0.10476604 -0.05786047
-0.51112837 1.4741677 -0.6518846 -0.00029437424 -0.7726866 0.26786417 -0.7473524 0.02356141
-0.4493949 -0.063014954 -0.16395497 -0.14809807 -0.32812318 0.22551122 -0.63380724 0.21538742

vf.v_net.0.bias f4 [128]
00000000: e778 b9bd 2e4b 5bbe c370 9dbf 1277 bcbd
00000010: 7e37 d03d cebc 0abf 194e 423f 1711 f13e
00000020: a3df 153f 40a7 cf3d 3794 33bf 78d4 91be
00000030: 9a87 5c3d 2630 623e ad21 78be c379 9f3d
00000040: 37dd ea3c 3c76 5d3f 887f dd3d 5da9 2abd
00000050: 1024 13be 52d8 08be 21c6 853e 90f8 bebe
00000060: 9e1d 4f3c 5e75 37be 7532 dfbd ca1a 0fbf
00000070: ead8 873e f0a5 0b3f 512b 483e 0115 6fbe
00000080: 5d70 013f b2be cb3e 88fa 833e 7077 c6be
00000090: efcb 193f d4bb e63d f125 e93d 72e8 2f3e
000000a0: 7315 31bf e7a3 2f3f ec82 723f 6fa2 f6bd
000000b0: 2f2f 743f 31fa 723f da41 523f 3898 b73e
000000c0: d713 003f 937d 8bbe 6c04 58bf 30ae 843f
000000d0: 20c7 e63e 1e0d 38bf 89f3 093e 81dd b2be
000000e0: 81d7 db3e 1f27 b73e 8e16 963c bf5e c0be
000000f0: b2b3 2a3f 9226 893e c693 a53c 6451 8ebf
00000100: fcd1 9cbe 9e03 35bf 4a81 123f 9d0e 723f
00000110: d69b 44be 4220 07bd d61c cd3e 9670 81bf
00000120: 3bd3 c9be c01f e43e c6cf 46bf e085 403e
00000130: 156b 283f e597 393d 5f4f d33e dd34 08be
00000140: b98c c33e 752f b3be 06c7 23bc e78f 96be
00000150: 3506 473f 72b5 bbbe f98f 5e3e 3b96 483f
00000160: 9a26 543e be0b 7e3d ccae 39be 633b 23bf
00000170: a365 833f de2e ac3e 750a ac3e 4ee2 33bf
00000180: fcda 323f bf61 093e 5c30 933f 9619 85be
00000190: b3bf ec3e 4248 093f b978 c13c 5681 a13b
000001a0: d3d3 1bbe 091e 8a3f 6772 ce3e ae53 293f
000001b0: 4928 ba3d 6f3f d43d df87 763e a29c 513f
000001c0: 9b5d 793f 6497 5f3d 938d ddbe 71ff 0dbe
000001d0: 5c1e 7c3e 9a1f 273f 5279 5f3d 103c c2be
000001e0: 7036 cdbd c593 edbe cc0d dc3e 403a 023c
000001f0: 172b ff3e 370a 8d3e 10c4 a73e e255 96be
-0.090562634 -0.21415398 -1.2300037 -0.09202398 0.10166834 -0.54194343 0.7590042 0.4708335
0.5854437 0.10139322 -0.7014803 -0.28482413 0.053840257 0.2208868 -0.24231596 0.07786896
0.028669937 0.86508536 0.1081534 -0.041665424 -0.14369226 -0.1336377 0.26127723 -0.37299013
0.012641339 -0.17915866 -0.10898296 -0.5590025 0.2653268 0.54550076 0.19547774 -0.23347856
0.5056208 0.39793926 0.25777078 -0.38763 0.600768 0.11266294 0.1138419 0.17178515
-0.69173354 0.6860947 0.9473102 -0.120427005 0.95384496 0.9491301 0.8213173 0.3585832
0.50030273 -0.27244243 -0.8438175 1.0365658 0.45073795 -0.71895015 0.13471808 -0.3493462
0.42937854 0.35772035 0.018321302 -0.37572286 0.66680443 0.2678724 0.020212065 -1.1118588
-0.30628955 -0.70708644 0.5722853 0.9455355 -0.19200072 -0.032989748 0.40061063 -1.0112484
-0.3941897 0.44555473 -0.7766079 0.1880107 0.65788394 0.045310874 0.41271493 -0.13301416
0.381933 -0.34997144 -0.009996181 -0.29406664 0.77743846 -0.3666187 0.21734609 0.78354234
0.2071785 0.062022917 -0.18133086 -0.6376249 1.0265392 0.33629507 0.33601728 -0.7026719
0.69865394 0.13416193 1.1499133 -0.25996083 0.46240005 0.5362588 0.023617135 0.004928748
-0.15217523 1.0790416 0.40321657 0.6614331 0.09089715 0.103636615 0.24075268 0.8187963
0.97408456 0.054587737 -0.43272075 -0.13866974 0.24620956 0.65282595 0.05455906 -0.3793645
-0.10020149 -0.46401802 0.42979276 0.007948458 0.49837562 0.27546856 0.3276677 -0.29362398

vf.v_net.2.weight f4 [128, 128]
00000000: 295e 72be a9f5 cbbd 7c1b c43e 9e34 8ebe
00000010: 7245 963e 6996 e33c 6f1c e2bd 4368 18be
00000020: 511a 8fbe 563f ddbd 2abe 623e c29d 5c3d
00000030: fc80 67be 3c92 1a3f 8cb3 cd3e 026d 28bd
00000040: b1cb 02be 7af7 21be c83e c6bc 3f7a 8e3d
00000050: e92f 89be ad4d e8be a1ba 7dbd d8f0 10be
00000060: 10d5 6fbe 5004 df3d 5301 8fbe 7f7f 1d3d
00000070: 0179 cabe fa65 78be 95a6 413e ac1f 81bd
00000080: 5aa7 d6be d072 2dbe 2920 a83e 540a a43d
00000090: c959 0abe cdd5 80bd 0d1d e2be 8b55 45be
000000a0: 15ba 9dbd 2b54 ba3d 20ad a13e fd87 44ba
000000b0: b768 65bd aca3 d33d afce 2f3e e096 b03e
000000c0: e79f 92bd ff2f 7ebe 282b 3d3e 7717 3cbe
000000d0: 498b d0bb 109e 253e 8298 823e 2dba 433e
000000e0: 79b2 3c3f f84f 703c c257 4dbd 72cd 46be
000000f0: 7327 8a3e 3353 5c3e 215c c23e b431 c4bd
00000100: 4b30 c33d 8543 853e 22c6 683e ab1b a1be
00000110: 456d 2dbe 2de7 9abe a048 89be 2493 5dbd
00000120: 15bf 8c3e 0924 8fbd 83aa 8c3e 8112 debe
00000130: 8bea febc 1422 143f bb11 033e f7be 943d
00000140: 351c ce3e c21e 1ebf f27f fabd 8fc8 623e
00000150: 4e46 1abe faff 283d bbf9 393e f1b5 c83c
00000160: 98b2 453e 7ee0 703c 6cf5 d13d c124 753c
00000170: 3d7b ec3d 0741 653e def1 c03d 7b3e 423e
00000180: 6cbe 393f 6538 6a3e 185d 0abe 86c2 40be
00000190: 667b 083d a1d3 27bd 08cd 8e3c 797c 10bd
000001a0: b3b6 cf3e a4d8 29be a76b b23d e276 b53a
000001b0: 4cec 61be bca1 433e e322 e43c 8ce0 18bd
000001c0: 05bd 00be 326c 76bd cc00 013e 5e40 3abd
000001d0: 1cef 913e a420 68be 15ce a3be dd3b 85be
000001e0: e393 ec3d 7952 103d 8f7c 7b3c 55b9 913d
000001f0: 2d51 753e 2c7f 0d3e 60ed 1cbf e9de 2b3d
00000200: 56f9 ae3e fd2f cb3c 6bcb 24bd f992 bc3e
00000210: 4c05 94be 1b63 28bb 4783 163b c5f3 2a3e
00000220: 71ee 13be cb41 de3e 01d7 ea3d 9b4f d63c
00000230: 7b9c f33b e24d c9bc 32e3 483e 582f 143d
00000240: ba08 4fbf 99c8 8d3e e3bf 3b3d 0485 86bd
00000250: 273f 3c3e 7f94 253f 91b9 15be b2cf 3c3e
00000260: b886 e33c 1823 f03d d3dc d6bd ac47 d83c
00000270: 545e 673b 4614 dfbd 1d22 a2bd 9162 3cbe
00000280: 696f e83d b7eb 9b3e e4b2 073e 51c4 583e
00000290: 3e21 4ebe 7b71 0abd 1dac ee3e 48cb 0f3f
000002a0: 11b5 85bd b08c e3be 8351 df3e 3d03 9e3e
000002b0: da93 1c3e 7d66 543e 3bc7 763c 3deb b03d
000002c0: 774e b13d 1a8f 6fbd 6826 bd3e 3e49 29be
000002d0: b7e5 0fbe 3ef0 acbd 133f 9bbc db48 a83d
000002e0: 0585 0bbe 30ed e53d 19c8 513e fd9f 323f
000002f0: a9c7 e83e df0b dabd 1c24 db3e cafd 0dbe
00000300: 40ad c73e 0ff3 71bc a4e0 3fbd 590c 4d3e
00000310: 8556 02bc 0364 d43c 91a6 ca3d c212 c23d
00000320: fe57 babe 118a ac3d 0289 78bd 7ddf 383d
00000330: 7485 053e bae4 24be f5a7 e33e b53b abbe
00000340: 55ae d43e 8dcc b1be fc23 3b3e 4dd8 453d
00000350: 5d5d 12be f830 083e ca30 8ebe f004 113b
00000360: 162c 50bf fb76 103c e040 63be f60e 1bbf
00000370: 275d 94be 6621 2b3d d124 14be 0430 bcbe
00000380: 769c 0e3f ea65 303d 09f8 c7bd 416c 6cbc
00000390: e129 c53d 6fd5 8dbe 0c56 563e 9feb 063e
000003a0: af03 ad3d c6ec ec3d abdc 953e 748c 133d
000003b0: c529 f03e 56bc 6b3c ff22 51be c9f6 9c3d
000003c0: 7ea9 02bd adf1 f73c e2dc dd3e a66b 55be
000003d0: a3cb 2e3d 4369 b4bd 398f 7abe d39f 9ebe
000003e0: b5d9 4dbe 1d4a a23d e066 8c3d 565b dc3e
000003f0: 52e7 4bbd 8c9e 903e b85d 4ebe dc92 e63d
-0.23668732 -0.09958965 0.3830222 -0.2777452 0.29349858 0.027781682 -0.110405795 -0.14883523
-0.27949765 -0.10803096 0.22142854 0.053861387 -0.22607797 0.60379386 0.40176046 -0.041119583
-0.12773015 -0.15817061 -0.024199858 0.0695691 -0.26794365 -0.45371762 -0.06194556 -0.14154375
-0.2342112 0.108894944 -0.27930698 0.038451668 -0.39545444 -0.24257651 0.18911202 -0.06304869
-0.41924554 -0.16938329 0.32837036 0.080097824 -0.13510813 -0.06290779 -0.4416279 -0.19270913
-0.07701508 0.09098085 0.31577396 -0.00074970705 -0.056008067 0.10333952 0.17168687 0.34490108
-0.07159405 -0.24822997 0.18473494 -0.18368326 -0.0063642603 0.16173577 0.2550698 0.19113989
0.7370983 0.014667504 -0.05013252 -0.19414309 0.26983222 0.21516113 0.37960914 -0.095797926
0.095306955 0.26028076 0.22731832 -0.3146642 -0.16936214 -0.30254498 -0.2681322 -0.054095402
0.27489534 -0.06989295 0.2747384 -0.43373492 -0.031117698 0.578645 0.12799732 0.07262986
0.40255895 -0.6176568 -0.12231435 0.2214682 -0.15065882 0.041259743 0.18161671 0.024500819
0.1930641 0.014701961 0.10251889 0.014962376 0.11546943 0.22388087 0.094211325 0.18969147
0.72556186 0.22873075 -0.13512075 -0.18824205 0.033320807 -0.04097331 0.01743175 -0.035274956
0.40569076 -0.16586548 0.08711939 0.0013844634 -0.22062796 0.19104666 0.027848667 -0.03732352
-0.12572105 -0.060161777 0.1259796 -0.04547154 0.28502738 -0.22668701 -0.31993166 -0.26022235
0.11551645 0.035234902 0.015349521 0.071154274 0.23956747 0.13818043 -0.61299706 0.04196063
0.34174603 0.024803156 -0.040233057 0.3683088 -0.2891029 -0.0025693837 0.002296643 0.16694553
-0.14446427 0.4340957 0.1146679 0.026161006 0.0074344254 -0.02457327 0.19617918 0.036177963
-0.8087269 0.27692106 0.045837294 -0.065683395 0.18383466 0.6467971 -0.14621569 0.18438604
0.0277742 0.117254436 -0.104913376 0.026401363 0.0035304027 -0.10892539 -0.07916663 -0.18396975
0.11349375 0.30453274 0.13251835 0.21168639 -0.20129868 -0.03379963 0.46615687 0.5616956
-0.06528676 -0.44443274 0.43616876 0.30861846 0.15290776 0.20742221 0.015062149 0.08638618
0.08657544 -0.05848608 0.36943364 -0.16531846 -0.14052473 -0.0844426 -0.018950975 0.08217021
-0.13624962 0.112268806 0.20486487 0.6977537 0.4546483 -0.106467955 0.42800987 -0.13866344
0.38999367 -0.014767422 -0.046845093 0.20024242 -0.007955198 0.025926596 0.09895051 0.09476234
-0.36395258 0.084247716 -0.060677536 0.04513501 0.1303919 -0.16102877 0.4446408 -0.3344399
0.41539255 -0.34726372 0.18275446 0.048301984 -0.14293428 0.1329993 -0.27771598 0.0022128187
-0.8131727 0.00881743 -0.22192717 -0.60569704 -0.2897732 0.041779898 -0.1446717 -0.36755383
0.5570749 0.043065943 -0.09764106 -0.014430107 0.096271284 -0.277019 0.20931262 0.1317582
0.08447968 0.115685984 0.2926992 0.03602262 0.46906868 0.0143881645 -0.20423506 0.07664258
-0.03189992 0.030266607 0.43332583 -0.20841846 0.04267467 -0.088091396 -0.24468698 -0.3098131
-0.2010258 0.07924292 0.06855559 0.43038434 -0.04978115 0.28245962 -0.20152938 0.1125848

vf.v_net.2.bias f4 [128]
00000000: c40c 8a3e d4a8 273e 5f7e 6e3e d922 3dbe
00000010: d089 49bf 6e44 8c3e 57f8 27bf e267 39bf
00000020: 3774 c3be 9165 523e f5a7 b83c c99f 83bf
00000030: d42a f4bd 2dec 783d 2956 aabe fde5 333e
00000040: 8d73 a93c 7f0c ce3d 73af afbd 5e40 5dbd
00000050: fb9d a4be 7247 adbe 7ba9 bcbe b4bc 943e
00000060: b99d 253d 8bc6 163c bcf0 1ebf 47a1 f1be
00000070: 897a 7cbe 2168 fabd 2578 4e3e b301 093e
00000080: 6102 343b b213 83be 8472 a5be c8ca 47bf
00000090: 7f20 bcbe e251 29bf 16ec 8d3e b723 3ebe
000000a0: 9ca4 1dbf 0fa0 a1be 1d67 3e3e 991a ecbe
000000b0: 6a36 8d3d c032 213e d880 e7be d4cc 3b3e
000000c0: 5157 823c 4085 b1be 03a8 17bb 680c 043c
000000d0: 033a 81be d47d 683e 7115 353e 19bb 0d3e
000000e0: cd1d 13bf 2751 8a3d 4a45 a9be 32b8 9bbe
000000f0: 0318 62bd f721 b9be 89a1 54bf b0bf fe3c
00000100: c581 99bd 4bd2 63be d2f9 00bf 5c77 5f3e
00000110: 938d 9e3d 7504 cdbe 000d dfbe dbd6 1d3e
00000120: 5da0 c43d 74e5 073e daed 0d3e d7d8 71bd
00000130: a6d7 c9be 1750 f93d 8580 cc3c 8006 dfbe
00000140: 56d3 ac3e acbe bdbd cdbd 92be be00 fdbd
00000150: a9ad dcbe 1252 e83d 4e71 cc3d cbd2 cb3d
00000160: b94c ff3d 4ba7 aebe 289a 043e 2432 90be
00000170: 96cc 15be f5c8 303e fb8e 553d bd7b cdbc
00000180: ec7e 843e 4530 a7be f068 543c 3509 613d
00000190: a68e 15bf 9189 033e 66bb 20bf c50e bd3d
000001a0: dbbf dabb 77bc 5cbd e95d 4fbf cd61 8e3e
000001b0: c718 f6bd a65f 08be 1bb1 2cbe 5e9a 11bf
000001c0: 1867 9e3c 4281 0abe 55c3 2e3e 4d5d 55bd
000001d0: c0c4 803e 7b7f 1bbe 7a3f dcbe ee10 d4be
000001e0: 2cd6 24be 1b7f e2be a163 a5bd a793 22be
000001f0: 2c3e 65be 4290 4a3d 0833 14be 270d 31bc
0.26962864 0.16372997 0.23290394 -0.18470325 -0.7872591 0.27395958 -0.6561331 -0.7242414
-0.38174602 0.20546557 0.022541026 -1.0283138 -0.11922231 0.06077211 -0.3326886 0.17568202
0.020684982 0.10060977 -0.08578386 -0.054016463 -0.3215178 -0.3384357 -0.36848053 0.2905022
0.04043362 0.00920261 -0.6208608 -0.47193357 -0.24656118 -0.12226892 0.20163019 0.13379554
0.0027467238 -0.25600964 -0.3231393 -0.78043795 -0.36743543 -0.6614057 0.27719182 -0.18568312
-0.615793 -0.31567428 0.18594022 -0.46114042 0.06895144 0.15742016 -0.45215487 0.18339854
0.015910776 -0.34671974 -0.0023140914 0.0080595985 -0.25239572 0.2270425 0.1768396 0.13840903
-0.5746735 0.0675376 -0.33060676 -0.30413967 -0.05519868 -0.36158726 -0.83058983 0.031097263
-0.07495455 -0.22248189 -0.50381196 0.21822876 0.07741847 -0.40042463 -0.43564606 0.15413992
0.09600899 0.13271123 0.13860264 -0.059044685 -0.3942234 0.12173479 0.024963627 -0.43559647
0.33754987 -0.092648834 -0.28660432 -0.12353657 -0.43101242 0.11343779 0.09982549 0.09952315
0.124658056 -0.3411201 0.12949431 -0.28163254 -0.14628825 0.17264159 0.05213831 -0.025083417
0.25878084 -0.32654014 0.012964472 0.05494042 -0.5842079 0.12845446 -0.6278595 0.09231333
-0.006675703 -0.05389067 -0.8100267 0.2780899 -0.12016445 -0.13317737 -0.16864435 -0.5687617
0.019336268 -0.1352587 0.17066701 -0.05209093 0.25150108 -0.15185349 -0.4301718 -0.41419166
-0.16097325 -0.442376 -0.08075643 -0.15876637 -0.22386998 0.04945398 -0.14472592 -0.010806358

vf.v_net.4.weight f4 [1, 128]
00000000: b7c1 153e 05ab 253e 21f1 263e 24d0 c83e
00000010: c9ab 41be 7379 253e 6a65 fcbd 0a55 bfbd
00000020: e1b5 84bd 994b 2e3e 12c9 273e 69de 08be
00000030: 0fb0 4b3d b645 363e 1ea8 6e3d 8a9d 733e
00000040: ef19 b63d e56c 333e 1e0d 833e 4b4a 963e
00000050: 1b1a 873e 7dc8 963d 22ed ac3d b1bb 893e
00000060: a759 783d eb28 513e 9b5a 343e 1626 a43d
00000070: 2fb0 bd3d 5dc4 dabe e562 383e 18f5 233e
00000080: 425b 173e 5957 df3d a61e dd3c f2bc 93be
00000090: ae5b 06bd a7c7 07bc ea43 bb3d 0a40 053e
000000a0: 6f2f 4b3e 1a21 4a3e eb36 043e af20 ac3d
000000b0: 99b2 8b3e c9b3 373e 4286 103d 65e5 443e
000000c0: fb42 0c3e 4213 823c 333c f23d 6a86 563e
000000d0: 26fb 8b3c ba6e 163e cac9 a23e b0a0 5a3e
000000e0: 6339 2cbc c0b8 8a3e 2570 f63d db22 acbe
000000f0: c70f 1d3e cf2e 963e 9239 433d 700a 663d
00000100: f9eb 343e 9fd5 373e 47c1 3f3e bd35 7b3e
00000110: fc47 273e 4d49 34bc 60aa 9fbd a3ad be3c
00000120: 22bc 9b3d 80eb bd3d 7657 cb3d 39aa e6bc
00000130: ae79 87bc e744 863d fac2 9d3d 7ac4 ab3c
00000140: 2688 493e ce9c 173e 5694 863e 628c f73c
00000150: 4154 733e 20f9 a03d d5a1 c03d 04bd 8dbc
00000160: be58 1d3e 9664 d6bd 554b 403e ef87 3b3e
00000170: c185 a03d b9f1 243e 3f0d 6e3e 6839 c13e
00000180: 059b 4b3e a597 e83d 2a75 4d3e c1df 083c
00000190: 3a66 c6bb 039b 923e 8c92 37be 35e8 c03d
000001a0: 4b28 eb3d bb0e cc3e afff e9bd 02d5 b63e
000001b0: b2b9 66bc 25a4 93bc d8bc 7ebd f4aa f13b
000001c0: 3c0d b33e 1e08 503d 204e 763e 6f5d 533e
000001d0: 0c4f c03e 2ebc 5e3e e504 ba3b 23de d93d
000001e0: 66b6 293c e0bf 023e ae9d 313d 199b 433e
000001f0: 6b5b 9f3e 0235 873d 8273 7e3d 8399 adbb
0.14624678 0.1617852 0.16302921 0.392213 -0.18913187 0.1615961 -0.12324031 -0.09342392
-0.06480003 0.17021026 0.16385296 -0.13366093 0.04972845 0.1780003 0.058265798 0.23790565
0.08891665 0.17522009 0.25595945 0.29353556 0.26387104 0.07362459 0.08443667 0.2690101
0.060632374 0.20425765 0.17612688 0.08015077 0.0926212 -0.42727938 0.18006475 0.16011465
0.14780906 0.10905332 0.026992153 -0.2885509 -0.032802276 -0.008287347 0.09143813 0.1301271
0.19842313 0.1973919 0.12911575 0.084046714 0.27284697 0.17939676 0.03528429 0.19228132
0.13697426 0.015878323 0.11827888 0.20949712 0.01708753 0.14690676 0.31794578 0.2135036
-0.010511729 0.27094078 0.120331086 -0.33620343 0.1533805 0.29332587 0.047662325 0.056162298
0.17668141 0.17952584 0.18726073 0.24532218 0.16336054 -0.011003804 -0.07796168 0.023276156
0.07604243 0.09273434 0.09928791 -0.02815734 -0.016537514 0.06556111 0.077032045 0.02096771
0.19680843 0.1480591 0.26285046 0.030218307 0.23762609 0.07860017 0.09405867 -0.017302044
0.15365884 -0.10468404 0.18778737 0.18313573 0.078380115 0.16107835 0.2324724 0.3773911
0.19883354 0.11357049 0.20064226 0.008354128 -0.006054667 0.2863389 -0.17926997 0.0941929
0.11482295 0.39854988 -0.11425721 0.35709387 -0.014082359 -0.018022606 -0.062191814 0.0073751155
0.34971035 0.05078899 0.2405324 0.20641111 0.37560308 0.21751472 0.005676853 0.10638072
0.010358429 0.12768507 0.043363266 0.19102134 0.31124434 0.06601907 0.062121876 -0.005297841
