HW4/ppo_dm_control-master/training/walker/walk/ppo_ac_model - Copy (3).pth (torch, 166148 bytes, 12 tensors)

pi.log_std f4 [6]
-2.2673533 -2.2460651 -2.1226757 -2.6928363 -2.7510138 -2.4131334
00000000: 511c 11c0 88bf 0fc0 ebd9 07c0 6e57 2cc0
00000010: 9c10 30c0 c770 1ac0

pi.mu_net.0.weight f4 [128, 24]
-0.15434098 -0.015734559 0.21961077 -0.15112127 0.2872017 -0.15626979 -0.009850778 -0.18370305
0.037717544 0.0692885 -0.021780308 0.16034639 0.18931398 -0.18137993 -0.21028273 0.004257205
-0.03596028 0.061780486 -0.12630191 0.11019618 -0.025032042 -0.058152165 -0.043300502 0.2981416
0.21478482 -0.18586777 0.06566396 -0.2681828 0.10089149 0.20914954 0.20394519 0.2335863
-0.19464022 -0.35917455 0.26160145 -0.0079525905 -0.14699712 0.19956 -0.0737046 0.25540322
-0.1941812 0.07279543 0.03720684 -0.32796556 0.14676836 -0.094909385 -0.14268859 0.14559379
0.18495417 -0.055683672 -0.08380338 0.013836288 -0.4156165 -0.16766785 -0.18976283 0.11554074
-0.1667063 0.20711623 -0.3914103 -0.041850448 -0.23722625 -0.05629126 -0.12433342 -0.17177592
-0.19676256 0.0637235 -0.170718 -0.009129965 -0.026520673 0.06348572 -0.14044416 0.05605305
-0.11566293 -0.30897674 0.22548038 -0.027433345 0.2093903 0.28751254 -0.18522282 0.0412723
0.07973356 -0.015619789 0.11403078 0.14666994 0.046483472 0.2115438 0.293249 0.13232492
-0.14592335 -0.13302524 0.10559761 -0.116995595 -0.052411813 0.16547441 0.05301776 -0.2646736
0.17791954 0.044736393 0.18449451 0.010509052 -0.111461304 -0.068291865 -0.22733237 0.16839811
-0.18270896 -0.0025346328 0.1425524 -0.028367026 0.21438043 0.19379634 -0.07867459 0.1536898
-0.23181702 0.045217127 -0.022809807 0.26296243 0.16181797 0.13060361 -0.19577095 0.0719926
-0.18553188 -0.09007898 0.025654953 0.036594287 -0.057474405 -0.054225072 0.106623344 -0.13099404
-0.0075190784 0.1441658 -0.065399334 -0.02733195 -0.057730716 0.06906816 0.21620533 0.18513377
-0.032054022 -0.031024495 0.02338035 -0.047244683 0.21228081 -0.047507875 0.009793059 0.26302877
0.14580995 0.34038025 0.22069421 -0.12957412 -0.02969157 0.074686155 -0.23497641 0.11738788
0.15673998 0.123550415 -0.12080049 0.11485978 -0.028054975 -0.13884188 0.10781433 0.027841005
0.49956962 -0.022378562 0.002139242 -0.13448018 -0.045824543 0.0701041 0.11497169 0.11495998
-0.11895775 0.047921106 0.122424096 0.053521983 0.26955152 -0.067773655 0.014140523 -0.065140754
0.21235636 0.06674969 -0.092885174 -0.0913775 0.13149904 -0.14660211 0.10700724 0.3814705
-0.2622109 -0.2262787 -0.078915425 -0.034439623 -0.0039434177 0.09611709 -0.19635224 -0.11373041
-0.28154662 -0.10236835 0.29148522 0.2175582 -0.08589793 0.1776856 0.0089620855 0.055422343
0.16915683 0.010679333 -0.3118017 0.09075735 -0.01612564 0.15875135 0.0431071 0.19410256
-0.10851959 0.1893732 -0.03074826 -0.0588338 0.12387419 -0.056678176 0.049315587 -0.05769558
-0.11348975 -0.29646057 -0.06858889 0.18031886 0.07566978 -0.20266528 0.12485307 -0.22803698
-0.01961901 0.2614321 -0.12519546 0.1579363 0.046910662 0.19574726 -0.1966603 0.17264307
0.04372594 0.2219257 0.257715 0.04024503 -0.20520483 0.032145556 0.04145491 -0.001851757
-0.11890457 -0.0953565 0.014243887 -0.2693796 0.22590621 -0.34944084 0.07563384 -0.40442452
0.049203042 -0.061746847 0.048435584 0.064153396 -0.04576584 -0.2367426 -0.19709052 -0.00204544
00000000: 900b 1ebe c3e5 80bc a5e1 603e 89bf 1abe
00000010: 1a0c 933e 3005 20be 2865 21bc a71c 3cbe
00000020: b67d 1a3d 21e7 8d3d 9e6c b2bc d831 243e
00000030: 86db 413e a9bb 39be 5b54 57be 0680 8b3b
00000040: 164b 13bd 890d 7d3d 4a55 01be 89ae e13d
00000050: ff0f cdbc f730 6ebd de5b 31bd 04a6 983e
00000060: 8df0 5b3e 1f54 3ebe d47a 863d 424f 89be
00000070: 33a0 ce3d 4c2b 563e 02d7 503e 3f31 6f3e
00000080: c44f 47be bae5 b7be a0f0 853e 954b 02bc
00000090: 6a86 16be 7559 4c3e 70f2 96bd 36c4 823e
000000a0: 70d7 46be c515 953d 3366 183d 1aeb a7be
000000b0: 724a 163e da5f c2bd f51c 12be 8a16 153e
000000c0: a064 3d3e 9014 64bd 1ba1 abbd 99b1 623c
000000d0: b0cb d4be 1fb1 2bbe 3051 42be a0a0 ec3d
000000e0: 0eb5 2abe 4716 543e ee66 c8be 606b 2bbd
000000f0: 70eb 72be aa91 66bd 85a2 febd 07e6 2fbe
00000100: 207c 49be 7781 823d b3d0 2ebe d995 15bc
00000110: e241 d9bc cd04 823d 98d0 0fbe e297 653d
00000120: b0e0 ecbd 3332 9ebe 54e4 663e e5bb e0bc
00000130: 696a 563e d834 933e 0dab 3dbe 250d 293d
00000140: 594b a33d 25ea 7fbc f888 e93d a530 163e
00000150: 7465 3e3d f09e 583e bc24 963e 2f80 073e
00000160: ee6c 15be c537 08be 8f43 d83d 639b efbd
00000170: c5ad 56bd 2072 293e 2729 593d 4c83 87be
00000180: 8a30 363e 823d 373d 21ec 3c3e 292e 2c3c
00000190: d345 e4bd 9bdc 8bbd d1c9 68be 8e70 2c3e
000001a0: 0f18 3bbe 151c 26bb 42f9 113e f761 e8bc
000001b0: 8b86 5b3e 8c72 463e 2520 a1bd dc60 1d3e
000001c0: 7161 6dbe 9835 393d a2db babc 03a3 863e
000001d0: 9cb3 253e f4bc 053e 2e78 48be db70 933d
000001e0: 12fc 3dbe 547b b8bd 562a d23c e4e3 153d
000001f0: 486a 6bbd 1c1b 5ebd 575d da3d 4d23 06be
00000200: 9a62 f6bb 33a0 133e 16f0 85bd 41e7 dfbc
00000210: 0b77 6cbd 9c73 8d3d ee64 5d3e b593 3d3e
00000220: 144b 03bd 1527 febc 2688 bf3c a483 41bd
00000230: 2460 593e 9e97 42bd 1173 203c b5ab 863e
00000240: 344f 153e 5246 ae3e aafd 613e 14af 04be
00000250: bc3b f3bc 0ef5 983d a89d 70be 0f69 f03d
00000260: 7280 203e 0008 fd3d 3f66 f7bd 9b3b eb3d
00000270: 8cd3 e5bc 912c 0ebe c2cd dc3d d212 e43c
00000280: 97c7 ff3e 3f53 b7bc 8632 0c3b 2cb5 09be
00000290: 84b2 3bbd bd92 8f3d 4776 eb3d 2370 eb3d
000002a0: 1fa0 f3bd ec48 443d 7cb9 fa3d de39 5b3d
000002b0: a802 8a3e eacc 8abd a7ad 673c 8468 85bd
000002c0: f273 593e 10b4 883d 953a bebd 2024 bbbd
000002d0: afa7 063e dd1e 16be 9d26 db3d 1a50 c33e
000002e0: 8240 86be 9bb5 67be 699e a1bd 9010 0dbd
000002f0: c937 81bb 09d9 c43d 9010 49be 7deb e8bd
00000300: e126 90be 7fa6 d1bd 8d3d 953e 94c7 5e3e
00000310: 41eb afbd 37f3 353e b6d5 123c 8a02 633d
00000320: 7337 2d3e 5ef8 2e3c 79a4 9fbe fdde b93d
00000330: eb19 84bc b78f 223e 1291 303d d2c2 463e
00000340: 853f debd 0ceb 413e c6e3 fbbc b6fb 70bd
00000350: c0b1 fd3d 6027 68bd 24ff 493d 3352 6cbd
00000360: 506d e8bd aec9 97be 5578 8cbd 82a5 383e
00000370: c2f8 9a3d 7d87 4fbe f7b2 ff3d 8782 69be
00000380: 0cb8 a0bc 6eda 853e 3d33 00be 0eba 213e
00000390: 6525 403d f871 483e 5161 49be 58c9 303e
000003a0: f919 333d 7e40 633e 38f3 833e f9d7 243d
000003b0: 3721 52be 0fab 033d a0cc 293d a8b6 f2ba
000003c0: 3d84 f3bd 454a c3bd 315f 693c 1fec 89be
000003d0: f553 673e e9e9 b2be eae5 9a3d bb10 cfbe
000003e0: 2189 493d 43ea 7cbd 6464 463d db62 833d
000003f0: f674 3bbd a76c 72be 19d2 49be ca0c 06bb

pi.mu_net.0.bias f4 [128]
-0.18693757 -0.11571684 -0.10255813 0.2596258 0.22106105 0.23109104 -0.07300574 0.01364155
0.2777804 -0.1757521 -0.15071782 -0.19227082 -0.094353415 0.0873115 0.044391256 -0.03392122
-0.14168079 0.24370128 -0.09417245 -0.234331 -0.113766484 -0.20850876 0.2170633 0.13633555
-0.12984985 -0.15947595 0.10428333 0.11860227 -0.19276308 -0.33408397 -0.184853 -0.11827704
0.14834803 -0.0030869143 -0.16168433 0.17696139 -0.15508327 0.0065992237 0.18805718 -0.06868936
-0.17469339 -0.09092737 -0.00724965 -0.08318863 -0.20715238 -0.032985147 0.23677216 -0.13689679
-0.025465235 0.05759776 0.15793593 0.09906736 0.21438017 0.028566085 -0.07174391 0.04348621
-0.13382183 0.07129538 -0.056667093 0.107005656 -0.17956674 -0.0011314808 0.0016924754 -0.21062742
-0.04587039 0.06103274 0.056519337 -0.191525 -0.063210696 -0.007964993 -0.057789784 -0.27798715
-0.007180208 -0.2174481 -0.1852243 -0.34487933 -0.17241375 0.19952962 0.11561259 -0.18412398
0.027840111 -0.101232186 -0.1420241 0.07067154 0.105361894 -0.16248198 0.09472202 0.18746647
-0.031968284 -0.038539648 -0.108435445 0.0758756 0.08933626 0.03334779 0.1164682 -0.1158173
-0.018557798 0.057530276 0.12572333 -0.12845789 -0.04272575 0.26284802 -0.17546913 0.1585461
-0.18505615 -0.044383593 0.14232707 0.14310662 -0.25474164 -0.03660327 0.11797471 -0.042414326
0.29543382 -0.06542078 -0.24238402 -0.1499808 0.27029353 0.11779073 0.07155056 0.16483317
-0.0963747 0.15610416 -0.027626153 -0.18491592 0.022517001 0.016528238 -0.23549591 0.27157432
00000000: 906c 3fbe f3fc ecbd ff09 d2bd aced 843e
00000010: d45d 623e 21a3 6c3e 0984 95bd cf80 5f3c
00000020: 3c39 8e3e 5cf8 33be c655 1abe a4e2 44be
00000030: 5d3c c1bd 5fd0 b23d 9bd3 353d faf0 0abd
00000040: c514 11be d48c 793e 7cdd c0bd 77f4 6fbe
00000050: 67fe e8bd 5283 55be d745 5e3e 8c9b 0b3e
00000060: 5cf7 04be aa4d 23be 8092 d53d bfe5 f23d
00000070: af63 45be 0e0d abbe 1b4a 3dbe 3c3b f2bd
00000080: 8ce8 173e d44d 4abb 9490 25be 5e35 353e
00000090: 26ce 1ebe 4d3e d83b 1092 403e 02ad 8cbd
000000a0: d3e2 32be 2138 babd 798e edbb cd5e aabd
000000b0: c11f 54be 6f1b 07bd 6774 723e ac2e 0cbe
000000c0: 789c d0bc a1eb 6b3d f5b9 213e d4e3 ca3d
000000d0: 7a86 5b3e 6c03 ea3c 79ee 92bd 991e 323d
000000e0: 9708 09be 5003 923d c11b 68bd c825 db3d
000000f0: 58e0 37be 324e 94ba 0dd6 dd3a b7ae 57be
00000100: 97e2 3bbd 77fd 793d d280 673d 211f 44be
00000110: 9c74 81bd 9a7f 02bc fbb4 6cbd 5554 8ebe
00000120: f347 ebbb b7aa 5ebe 70ab 3dbe 0694 b0be
00000130: 3b8d 30be 7e51 4c3e 4bc6 ec3d ff8a 3cbe
00000140: f210 e43c d252 cfbd c46e 11be 3ebc 903d
00000150: fac7 d73d ad61 26be 9efd c13d 36f7 3f3e
00000160: 2df1 02bd c0db 1dbd 6713 debd ab64 9b3d
00000170: eef5 b63d b197 083d e186 ee3d 9f31 edbd
00000180: 8606 98bc dea4 6b3d 9ebd 003e 778a 03be
00000190: 3201 2fbd 0494 863e 2eae 33be e959 223e
000001a0: 5c7f 3dbe 92cb 35bd 30be 113e 8b8a 123e
000001b0: 7f6d 82be 4fed 15bd ba9c f13d a5ba 2dbd
000001c0: 1a43 973e 54fb 85bd 8433 78be 9194 19be
000001d0: ea63 8a3e 443c f13d 1a89 923d 07ca 283e
000001e0: 1960 c5bd c5d9 1f3e 3e50 e2bc 995a 3dbe
000001f0: 9375 b83c 3a66 873c d725 71be ca0b 8b3e

pi.mu_net.2.weight f4 [128, 128]
-0.04696183 -0.095844544 0.055762604 0.05910917 0.02351296 -0.037423268 -0.0158657 -0.06729301
-0.11810352 0.10459443 0.049433008 -0.105014294 -0.026461154 -0.028774463 -0.013095642 0.035615485
-0.0017838822 0.014977957 0.01594522 0.0389289 -0.029106224 0.02604693 -0.06449004 -0.09478061
0.015194954 -0.034962244 0.05195297 0.045228727 0.023926824 0.07394585 -0.10457682 -0.0812369
-0.11305381 -0.11130147 0.081103295 -0.00023718759 -0.045336414 -0.047578104 0.107511625 0.013627706
-0.0658694 -0.06387686 0.103578374 -0.081422366 -0.027869053 0.046159804 -0.043842264 0.0050448882
-0.06758594 -0.09794005 -0.019552017 -0.027418688 0.06995942 0.0021925839 -0.031792335 0.018323358
0.10143128 0.07984399 -0.025930546 -0.00039750387 -0.05085308 0.09680894 -0.063877486 0.08683177
0.03705008 -0.05625867 -0.048373513 -0.022648022 -0.05410304 0.084018156 0.01151303 -0.11058958
-0.0036214157 0.056489173 0.07861812 -0.030829176 -0.025184719 -0.01935301 0.10783053 -0.0109679615
-0.066062406 -0.04468249 -0.090315744 -0.010876149 0.0827446 -0.0590631 0.009760402 -0.034939315
0.031665333 0.02760739 -0.020933013 -0.14909343 -0.0126021765 -0.046035692 0.06539184 -0.1277792
-0.009729904 0.038197104 -0.10979968 -0.08308539 -0.045046095 0.031395175 -0.023199448 0.072557285
-0.03896264 -0.013087129 -0.03788851 -0.053208552 -0.07900723 -0.08115603 -0.08838882 0.10065453
-0.08131436 0.14067957 0.015986174 0.010252867 0.020330593 0.14479339 0.018074675 0.010541588
0.01685929 0.14381595 -0.04435943 0.035489988 0.002143395 0.05138717 -0.0044175154 0.11654035
0.09255067 -0.08000599 0.027728805 0.07808427 0.023803778 -0.068136185 0.06376931 0.13540593
-0.21499982 0.12848376 0.019919086 0.019750306 -0.020054832 -0.051013023 -0.0020076358 0.03652802
-0.104181305 0.039606117 0.15166697 0.12895729 0.17554078 -0.0061100866 0.055247992 -0.14566186
0.026404656 0.085557856 0.07287876 -0.018268893 -0.062055085 -0.030706655 0.08677055 -0.08222501
-0.04261436 -2.3713808e-05 0.12881081 -0.0028063015 -0.018254112 -0.12790306 0.055163477 -0.08724566
-0.017333532 -0.020214021 -0.074622296 -0.095139615 -0.042882405 -0.05424252 0.07966329 0.06831996
-0.026526844 0.043564163 -0.13698672 -0.076942086 -0.05399615 0.022866135 -0.07480487 -0.030439282
-0.052256983 -0.0016610236 0.0036498623 -0.058647595 0.15408988 -0.0003222928 0.030169932 0.02199653
-0.070372045 -0.012316916 -0.09940504 0.114824474 0.006326144 -0.0054546436 0.004074894 -0.06985656
0.09568868 0.010748037 0.053859286 0.057202347 0.041558295 -0.026376752 0.025141243 0.08479327
0.0031236645 0.12691082 0.11536899 0.025052136 0.067190275 -0.04613878 -0.05461023 0.030593283
0.06107619 -0.017259013 -0.05320344 0.007885753 3.9181436e-05 -0.040162977 -0.096731946 0.055782855
-0.06732509 -0.004939481 -0.059510782 0.0053275954 -0.03679408 -0.05178854 0.038667507 0.09631595
0.04796513 -0.086627506 -0.012119792 -0.040002946 -0.01378023 0.09191716 0.018525992 -0.030307937
0.12005803 0.06732512 0.052267723 -0.009571894 -0.089632906 -0.07615582 0.022091297 -0.06765236
-0.059209496 -0.10846523 0.11691937 0.05434608 0.0067963433 0.038997553 0.1062274 -0.038375463
00000000: 0c5b 40bd 254a c4bd 5467 643d 751c 723d
00000010: 409e c03c 2449 19bd c9f8 81bc ebd0 89bd
00000020: 42e0 f1bd 9b35 d63d 447a 4a3d bc11 d7bd
00000030: 10c5 d8bc 6cb8 ebbc 1b8f 56bc 8be1 113d
00000040: 27d1 e9ba 1b66 753c 8d9f 823c e973 1f3d
00000050: 2d70 eebc 5f60 d53c 5b13 84bd 561c c2bd
00000060: 42f4 783c 9234 0fbd a3cc 543d c241 393d
00000070: 3002 c43c ec70 973d 5f2c d6bd 885f a6bd
00000080: c288 e7bd 06f2 e3bd 7c19 a63d 8fb5 78b9
00000090: adb2 39bd 42e1 42bd 0e2f dc3d be46 5f3c
000000a0: 89e6 86bd dfd1 82bd e620 d43d c5c0 a6bd
000000b0: a44d e4bc 1012 3d3d f293 33bd 974f a53b
000000c0: 7f6a 8abd cb94 c8bd 8d2b a0bc 289d e0bc
000000d0: e246 8f3d 74b1 0f3b ae38 02bd de1a 963c
000000e0: 34bb cf3d 3f85 a33d 4c6c d4bc 1168 d0b9
000000f0: 524b 50bd c443 c63d 33d2 82bd dbd4 b13d
00000100: d3c1 173d 7e6f 66bd 4e23 46bd 5888 b9bc
00000110: 269b 5dbd b611 ac3d 26a1 3c3c ca7c e2bd
00000120: 4655 6dbb 3161 673d 8902 a13d 788d fcbc
00000130: 2f50 cebc 348a 9ebc 41d6 dc3d f7b2 33bc
00000140: ba4b 87bd fd04 37bd 76f7 b8bd e031 32bc
00000150: 0076 a93d 26ec 71bd 18ea 1f3c 871c 0fbd
00000160: 82b3 013d e528 e23c b67b abbc f3ab 18be
00000170: 5c79 4ebc ec8f 3cbd 28ec 853d 8dd8 02be
00000180: 2d6a 1fbc 9174 1c3d a8de e0bd ac28 aabd
00000190: 4182 38bd 3a98 003d c50c bebc ea98 943d
000001a0: 4a97 1fbd 666b 56bc fb30 1bbd 36f1 59bd
000001b0: 8bce a1bd 2235 a6bd 3305 b5bd f623 ce3d
000001c0: 2588 a6bd 4e0e 103e 70f5 823c a4fb 273c
000001d0: 588c a63c b844 143e 5711 943c a0b6 2c3c
000001e0: 7e1c 8a3c 7d44 133e 3cb2 35bd f35d 113d
000001f0: 3378 0c3b 5a7b 523d cec0 90bb b5ac ee3d
00000200: 358b bd3d 2eda a3bd 8527 e33c a5ea 9f3d
00000210: 2400 c33c fc8a 8bbd 7c99 823d daa7 0a3e
00000220: ea28 5cbe 3f91 033e 5a2d a33c 65cb a13c
00000230: 084a a4bc 08f3 50bd 8a92 03bb 689e 153d
00000240: 025d d5bd 063a 223d 964e 1b3e 610d 043e
00000250: f6c0 333e 1f37 c8bb b84b 623d 6228 15be
00000260: 944e d83c f538 af3d 7641 953d a5a8 95bc
00000270: 792d 7ebd 868c fbbc c2b4 b13d 9665 a8bd
00000280: 658c 2ebd 04ed c6b7 fbe6 033e ede9 37bb
00000290: a689 95bc 05f9 02be 19f3 613d daad b2bd
000002a0: 0dff 8dbc e097 a5bc 93d3 98bd 8fd8 c2bd
000002b0: 76a5 2fbd 682d 5ebd 8226 a33d 56eb 8b3d
000002c0: d34e d9bc 5670 323d 3f46 0cbe d093 9dbd
000002d0: 112b 5dbd c351 bb3c 4c33 99bd cd5b f9bc
000002e0: 6b0b 56bd b4b6 d9ba 8732 6f3b 7638 70bd
000002f0: bdc9 1d3e 68f9 a8b9 ef26 f73c 1132 b43c
00000300: 381f 90bd e4cc 49bc df94 cbbd 1829 eb3d
00000310: 8b4b cf3b debc b2bb b086 853b f510 8fbd
00000320: 6df8 c33d 8918 303c 8e9b 5c3d 024d 6a3d
00000330: 0839 2a3d 0f14 d8bc 02f5 cd3c 18a8 ad3d
00000340: 65b6 4c3b e9f4 013e 9446 ec3d 233a cd3c
00000350: 0e9b 893d 04fc 3cbd faae 5fbd c49e fa3c
00000360: 072b 7a3d c662 8dbc daeb 59bd 3f33 013c
00000370: bf56 2438 ef81 24bd 661b c6bd 907c 643d
00000380: bde1 89bd 5fdb a1bb 94c1 73bd 1c93 ae3b
00000390: 64b5 16bd 3820 54bd d261 1e3d 4c41 c53d
000003a0: 1677 443d c369 b1bd 1892 46bc 21da 23bd
000003b0: 79c6 61bc 103f bc3d d2c3 973c 5a48 f8bc
000003c0: fce0 f53d c1e1 893d ae16 563d 6fd3 1cbc
000003d0: 7591 b7bd 95f7 9bbd cff8 b43c 528d 8abd
000003e0: a885 72bd 0523 debd 6c73 ef3d ff99 5e3d
000003f0: dcb3 de3b e6bb 1f3d c08d d93d 972f 1dbd

pi.mu_net.2.bias f4 [128]
0.016102804 0.0022070676 -0.04053805 -0.018953847 0.029887293 -0.0176943 0.10109799 -0.05823292
0.05984279 0.026493037 0.06748759 0.08450217 0.0070006466 0.05554297 -0.05111104 0.089136496
0.06579792 -0.07079144 0.034938768 -0.008411368 -0.07813513 -0.15672095 -0.015113054 0.07660375
0.03978644 0.077091545 0.098524705 -0.01934251 0.05123281 0.00079789176 -0.06964303 0.044090953
-0.021097757 0.0910944 0.008301387 -0.026431123 0.020004302 -0.10670353 -0.031188047 -0.03490199
-0.035560712 0.04509595 -0.14681938 -0.012244875 -0.077001326 0.090329595 -0.007272465 0.12146134
0.108607 -0.0978084 -0.05037295 0.07892524 -0.06064099 -0.040489346 -0.13086726 0.07975834
0.066438 0.051443085 0.017529609 0.08065327 0.022135533 0.037697796 0.003803544 0.06393963
0.13081095 -0.0028334814 0.027511435 -0.041610695 0.029573882 0.022935089 -0.07850365 -0.08475354
-0.014116105 -0.06756804 0.06045364 -0.07312619 0.09549136 -0.021852786 0.082821995 -0.044128332
-0.078732125 -0.014903401 0.060858194 0.09856824 -0.073316194 0.12161429 -0.0065768985 0.0018094472
0.07563047 -0.010563793 0.057629175 0.009012914 -0.057539362 -0.13488853 0.01273806 0.10972792
-0.00075193116 0.1261519 -0.033086605 0.065930486 0.00329578 -0.0017058543 0.051557012 -0.034092877
-0.021910168 0.11489259 -0.12364024 0.011861974 -0.033330265 0.046503466 -0.08276046 -0.090891205
-0.05531015 0.059283625 -0.06917847 0.01847352 0.061185323 0.11642718 0.030819133 -0.09835861
0.018274643 -0.0066749896 -0.06990252 0.04249226 -0.0873436 0.0746045 0.029188959 0.04099798
00000000: 07ea 833c 73a4 103b 3a0b 26bd 1945 9bbc
00000010: 32d6 f43c a3f3 90bc 770c cf3d a485 6ebd
00000020: b71d 753d ed07 d93c ef36 8a3d 790f ad3d
00000030: ae65 e53b 0681 633d cf59 51bd 328d b63d
00000040: 0fc1 863d 1afb 90bd f41b 0f3d d6cf 09bc
00000050: 5005 a0bd 757b 20be be9c 77bc 6de2 9c3d
00000060: 1bf7 223d 2ce2 9d3d 52c7 c93d 2f74 9ebc
00000070: 7fd9 513d 9c29 513a 01a1 8ebd b798 343d
00000080: 34d5 acbc b38f ba3d 8a02 083c 1586 d8bc
00000090: 10e0 a33c 6187 dabd 137e ffbc 64f5 0ebd
000000a0: 1ca8 11bd 88b6 383d d257 16be ba9e 48bc
000000b0: dfb2 9dbd b9fe b83d dc4d eebb b9c0 f83d
000000c0: 596d de3d c54f c8bd de53 4ebd 8ea3 a13d
000000d0: b062 78bd 28d8 25bd 1102 06be 5758 a33d
000000e0: a510 883d fcb5 523d 419a 8f3c 8b2d a53d
000000f0: 9455 b53c 0169 1a3d e144 793b c8f2 823d
00000100: 4ef3 053e eeb1 39bb a95f e13c fa6f 2abd
00000110: ed44 f23c 5ee2 bb3c 86c6 a0bd 4493 adbd
00000120: 3c47 67bc 1d61 8abd 3c9e 773d 2fc3 95bd
00000130: f990 c33d 9d04 b3bc 949e a93d e9bf 34bd
00000140: 4f3e a1bd 652d 74bc 7146 793d 25de c93d
00000150: cd26 96bd ea10 f93d 0683 d7bb f92a ed3a
00000160: 26e4 9a3d c213 2dbc 920c 6c3d e7aa 133c
00000170: 65ae 6bbd 3820 0abe 4cb3 503c 08b9 e03d
00000180: 3f1d 45ba f72d 013e d285 07bd 9006 873d
00000190: 03fe 573b f996 dfba 722d 533d f9a4 0bbd
000001a0: f47c b3bc ce4c eb3d 1837 fdbd ba58 423c
000001b0: 5185 08bd 6b7a 3e3d 517e a9bd 2b25 babd
000001c0: e58c 62bd 63d3 723d 71ad 8dbd c855 973c
000001d0: 769d 7a3d 6071 ee3d 6878 fc3c 3d70 c9bd
000001e0: b4b4 953c dfb9 dabb 0d29 8fbd 5d0c 2e3d
000001f0: 34e1 b2bd 3eca 983d af1d ef3c 7fed 273d

pi.mu_net.4.weight f4 [6, 128]
0.025043156 0.0901148 -0.07997409 0.060491513 0.035629794 -0.016612412 0.07347548 -0.043569
0.03447698 0.14853248 -0.027648618 -0.03890458 -0.17478347 0.08777939 -0.09593956 0.011608959
0.032392852 -0.07317526 0.033649154 -0.100177005 0.014640805 0.0455538 -0.1311941 0.14007157
-0.06908112 0.07776921 -0.09703719 0.120555595 -0.05310757 -0.053210467 0.008636839 0.11185575
-0.098518595 0.06889269 0.002896716 -0.13582109 -0.0596212 -0.04564684 -0.06909624 0.13880491
0.13188884 0.055635422 0.11921432 0.01915148 -0.015597725 0.1890165 -0.008547249 -0.11262619
-0.0020653834 -0.06019051 -0.17129631 0.06076843 0.1591989 0.056159526 0.034672778 0.119875595
-0.16835435 0.080691606 0.051308326 0.042239696 -0.08262845 0.045665585 0.121188715 0.051816296
0.005876112 0.04285541 0.030039687 -0.066395506 -0.0028546078 -0.13596222 -0.128644 0.14899236
0.010605543 -0.11315059 0.06664508 0.007787445 -0.08612875 -0.009394659 0.013421096 0.037349638
0.04327214 -0.03777192 -0.17820609 0.078173175 0.114920646 -0.09332523 -0.01904534 -0.17893036
-0.052750204 -0.076346524 0.14210078 0.123801164 -0.037519626 -0.109607585 -0.042052936 -0.19807597
0.040911056 0.02925257 -0.08887151 0.103323966 0.15987128 0.11517123 -0.10641103 0.09942099
0.022951238 0.069313146 -0.10908957 -0.03324206 -0.14110564 0.10277562 -0.060932994 -0.097582
-0.06134136 -0.008585425 -0.15430282 -0.14920062 0.05206383 -0.09688202 0.04587275 -0.08093542
-0.101958 0.06134162 0.020281013 -0.0093334485 -0.043127432 0.097583264 -0.07242465 -0.032122098
0.039860576 0.026735876 0.10242253 0.1628533 0.02290196 -0.0050407224 -0.08191862 0.15755916
-0.07330096 -0.13814498 0.10676941 -0.029279241 -0.11880454 0.1774518 0.10848247 0.079092816
-0.08663612 -0.06287108 -0.022440577 -0.08390369 0.08561071 -0.00850626 0.09957228 0.04789362
0.017095052 -0.06699412 0.14025837 0.02730852 -0.09390096 0.08151789 -0.0042745564 -0.018068828
-0.0981897 -0.07413585 -0.030723032 -0.072466694 -0.012520729 -0.079947576 -0.07725746 -0.102715485
-0.1180781 0.13460924 -0.046986323 -0.0988709 -0.043053254 0.086951375 0.10969455 0.07096387
0.19233759 -0.11792938 -0.11937075 -0.029459234 0.041168734 0.04761927 -0.013790616 0.06471904
-0.044420835 0.01868172 -0.09431697 0.02787795 0.03524537 -0.037448026 0.13047656 0.107785046
-0.027758816 -0.06862523 0.112295926 0.13688773 0.058297347 -0.1200206 -0.08724778 0.02722089
-0.07652814 0.1260146 0.10975071 -0.12584437 -0.07883656 -0.11959444 -0.09481892 -0.034328952
-0.15158649 -0.20775189 0.020278346 0.026041256 0.22517145 0.06471785 -0.095167845 -0.20937535
-0.21896996 0.04161507 0.1476838 -0.10792162 0.025363743 -0.050258525 -0.15982808 -0.13811618
-0.073054634 -0.10574603 0.018373894 0.014489123 -0.013751835 -0.14004292 -0.12677974 0.08539296
0.12302461 -0.13488919 -0.15321772 -0.12496566 0.07303811 0.009218856 0.09011059 0.053771824
-0.023261325 -0.058732126 -0.06297024 0.13985357 0.04603673 0.13452052 -0.0063894615 0.123109266
-0.1517218 -0.11069877 -0.0015190151 -0.07868875 -0.16056935 -0.13677922 -0.07874459 0.052399825
00000000: 4e27 cd3c 1c8e b83d 75c9 a3bd f3c5 773d
00000010: 8cf0 113d c116 88bc 507a 963d 6875 32bd
00000020: bc37 0d3d e618 183e 5b7f e2bc 695a 1fbd
00000030: 70fa 32be aec5 b33d f67b c4bd 8133 3e3c
00000040: 5eae 043d e9dc 95bd b2d3 093d 9a29 cdbd
00000050: fddf 6f3c 9f96 3a3d bf57 06be ec6e 0f3e
00000060: 677a 8dbd 7745 9f3d 6fbb c6bd dae5 f63d
00000070: 5387 59bd 38f3 59bd 8781 0d3c a114 e53d
00000080: 1ec4 c9bd 9c17 8d3d d4d6 3d3b af14 0bbe
00000090: 5c35 74bd 2ef8 3abd 5482 8dbd e022 0e3e
000000a0: de0d 073e f8e1 633d a326 f43d 91e3 9c3c
000000b0: 9a8d 7fbc 8b8d 413e c309 0cbc 8fa8 e6bd
000000c0: 625b 07bb 538a 76bd 4d68 2fbe 51e8 783d
000000d0: 0905 233e 8807 663d 0b05 0e3d 5681 f53d
000000e0: 1565 2cbe a441 a53d ae28 523d 8803 2d3d
000000f0: 1b39 a9bd d60b 3b3d ca31 f83d 533d 543d
00000100: 668c c03b 2889 2f3d ca15 f63c 5efa 87bd
00000110: 5f14 3bbb ae39 0bbe 41bb 03be 7491 183e
00000120: dfc2 2d3c 7fbb e7bd 377d 883d d32d ff3b
00000130: 4564 b0bd 0eec 19bc 28e4 5b3c effb 183d
00000140: 213e 313d bbb6 1abd a87b 36be 4219 a03d
00000150: 845b eb3d 4c21 bfbd f904 9cbc 8539 37be
00000160: 9910 58bd 915b 9cbd de82 113e 778b fd3d
00000170: 2eae 19bd f179 e0bd b33f 2cbd 6dd4 4abe
00000180: 5a92 273d 16a3 ef3c 4402 b6bd 849b d33d
00000190: 4cb5 233e e5de eb3d 07ee d9bd 3b9d cb3d
000001a0: 3c04 bc3c 0df4 8d3d 5a6a dfbd d428 08bd
000001b0: ff7d 10be 067c d23d e094 79bd 12d9 c7bd
000001c0: 1441 7bbd e2a9 0cbc 8f01 1ebe 0cc8 18be
000001d0: e240 553d 156a c6bd 11e5 3b3d 78c1 a5bd
000001e0: 5bcf d0bd 5a41 7b3d 5e24 a63c 52eb 18bc
000001f0: 64a6 30bd bcd9 c73d 6053 94bd 7692 03bd
00000200: d844 233d 3205 db3c e7c2 d13d 04c3 263e
00000210: e49c bb3c a52c a5bb f3c4 a7bd 3057 213e
00000220: d01e 96bd e175 0dbe eca9 da3d 05db efbc
00000230: cb4f f3bd edb5 353e 0f2c de3d 6afb a13d
00000240: 476e b1bd 8ec2 80bd 4dd5 b7bc b3d5 abbd
00000250: ab54 af3d d75d 0bbc 8dec cb3d 1a2c 443d
00000260: ec0a 8c3c 3734 89bd e49f 0f3e 1eb6 df3c
00000270: 264f c0bd daf2 a63d 9411 8cbb 1405 94bc
00000280: ae17 c9bd 89d4 97bd deae fbbc 6b69 94bd
00000290: be23 4dbc 8ebb a3bd 2939 9ebd 7f5c d2bd
000002a0: eed2 f1bd 01d7 093e bb74 40bd d47c cabd
000002b0: 9c58 30bd 9013 b23d 89a7 e03d 8155 913d
000002c0: 25f4 443e f584 f1bd a778 f4bd 7e54 f1bc
000002d0: 8ca0 283d 6c0c 433d 09f2 61bc 6b8b 843d
000002e0: 9ff2 35bd 680a 993c 4129 c1bd 4c60 e43c
000002f0: 735d 103d 1a63 19bd a69b 053e 68be dc3d
00000300: 7566 e3bc 628b 8cbd 68fb e53d 4c2c 0c3e
00000310: 33c9 6e3d 5ccd f5bd f7ae b2bd 58fe de3c
00000320: c9ba 9cbd f909 013e fbc4 e03d 59dd 00be
00000330: 1075 a1bd eeed f4bd 6c30 c2bd 849c 0cbd
00000340: 7d39 1bbe e9bc 54be c61e a63c 7954 d53c
00000350: 5893 663e cb8a 843d 5ce7 c2bd 7e66 56be
00000360: a939 60be 9074 2a3d 6c3a 173e 0306 ddbd
00000370: a0c7 cf3c e2db 4dbd f9a9 23be 546e 0dbe
00000380: ab9d 95bd 6091 d8bd d984 963c c963 6d3c
00000390: 604f 61bc 6967 0fbe 8cd2 01be 81e2 ae3d
000003a0: 54f4 fb3d 6420 0abe 1be5 1cbe ffed ffbd
000003b0: 0195 953d af0a 173c e78b b83d d83f 5c3d
000003c0: 898e bebc 1991 70bd 8bf6 80bd c635 0f3e
000003d0: 0391 3c3d bfbf 093e b05e d1bb b620 fc3d
000003e0: f65c 1bbe 09b6 e2bd b019 c7ba 9127 a1bd
000003f0: 4b6c 24be da0f 0cbe d844 a1bd 33a1 563d

pi.mu_net.4.bias f4 [6]
0.098242715 -0.021030322 0.07482387 -0.06942367 0.02127303 0.09348313
00000000: 7a33 c93d c847 acbc 423d 993d ff2d 8ebd
00000010: c744 ae3c 1574 bf3d

vf.v_net.0.weight f4 [128, 24]
-1.5832453 0.7450468 0.58552456 0.5711286 -0.49708697 0.43383172 -0.16986942 -0.031734217
0.39232868 0.328067 0.1569905 -0.10819224 0.013485043 0.20361072 -0.44647494 -0.48908153
0.8661909 0.00950887 0.060680673 -0.041383617 -0.061258897 0.109661624 -0.18265004 -0.111587055
0.05077252 1.0597148 0.19733593 -0.1473347 0.11892791 -0.71889746 -0.20167817 -0.12838548
0.061359763 0.22616547 -1.5283176 0.8107586 -1.3434697 -0.15010312 -0.9634385 -1.0179793
-0.11685307 0.36437774 -0.06366242 -0.041921873 -0.043706875 -0.1372837 -0.180043 -0.0047118682
0.18804373 -0.6250644 -0.0680628 0.25812775 -0.20281391 0.21449625 -0.058468774 0.4477269
-1.0007892 -0.62563175 0.9081141 -1.6992258 0.9522809 -0.088146105 0.014727964 -0.83208936
-0.8921486 0.043206867 0.05107152 0.17018786 -0.024503682 -0.12831204 0.10546172 -0.05986164
-0.743195 -0.1367179 0.4596202 -0.01746972 0.21212323 0.46137303 0.1777498 0.4938797
0.14706266 0.14772148 0.85099787 -0.19260667 0.36288992 0.16877742 0.83407044 0.7375146
-0.10350657 -0.57377803 -0.095055476 -0.13730676 0.008805369 0.31966013 -0.35686344 -0.024934683
-0.3345038 1.1393436 -0.12074345 0.10401957 -0.06305545 -0.44283792 0.09278291 -0.047004588
0.18722245 0.37449726 -1.2929026 0.60956943 -0.34211946 0.050143886 -0.44238257 -0.42879343
0.14587778 -0.083419986 -0.18781564 0.31476846 0.010860828 0.08619973 0.073390275 0.045447014
0.2813467 -0.78771675 -0.52443063 -0.42860487 0.23127525 -0.39755154 -0.31541237 -0.21512929
0.10416627 0.07598168 -0.39819136 -0.082325816 -0.4878421 -0.62147886 -0.10884054 0.72388995
-1.0307878 -0.07461917 0.2112262 0.3675658 -0.11887083 -0.1317472 -0.00219593 0.06973684
-0.40262893 -0.25476432 0.32943803 0.055527184 -0.41345122 0.6407616 -0.58486515 0.56349415
-0.25525567 0.062109794 0.059527326 0.46590385 -0.21073772 -0.2297318 0.8374744 0.48179558
0.85827357 0.07197679 -0.15422194 -0.19618976 0.10538558 -0.10897226 -0.5198461 -0.05666224
-0.77288175 -0.15781848 0.45262095 0.5980838 0.4154138 0.9431643 -0.084706925 0.55017024
0.2730872 0.11679105 1.185637 0.32620114 0.26671526 0.41799343 0.3490342 -0.26268953
-0.45349184 -0.3639404 0.058708783 0.05582898 0.011760259 0.1710271 0.073398806 -0.67852366
0.49887627 -0.46590102 0.32706589 0.30685446 -0.08949512 0.37149483 -0.010855787 0.3184532
-0.27031934 0.15530017 0.27563813 -0.028447991 0.4928975 0.18552788 0.6056105 -1.1281346
-0.054619666 0.2172229 0.03559605 -0.32856563 -0.048267815 0.06195819 -0.46433264 0.07413047
-0.62027085 0.31093904 -0.10975189 1.1138976 -0.5659688 0.3599864 -0.029145028 -0.19561127
0.20624697 0.6700738 0.16846086 0.17468953 0.03746215 0.056729447 -0.7149129 -1.3962015
0.21287863 -0.38548014 0.25099328 0.07381183 -0.039143264 -0.029685047 -0.15014142 -0.049381137
-0.4939779 1.4666749 -0.6981478 -0.047417026 -0.76761365 0.28287503 -0.75068057 0.058763456
-0.48838085 -0.1287775 -0.096344545 -0.1802933 -0.2847294 0.2629814 -0.5773079 0.21067859
00000000: c8a7 cabf 63bb 3e3f f0e4 153f 7c35 123f
00000010: 2f82 febe 311f de3e 40f2 2dbe bdfb 01bd
00000020: 4edf c83e 66f8 a73e 1ec2 203e e593 ddbd
00000030: 5ff0 5c3c 547f 503e 5d98 e4be e568 fabe
00000040: b0be 5d3f 17cb 1b3c 4c8c 783d de81 29bd
00000050: 9cea 7abd 4696 e03d 9d08 3bbe c187 e4bd
00000060: d9f6 4f3d bca4 873f 6e12 4a3e e8de 16be
00000070: 7a90 f33d aa09 38bf b984 4ebe 7c77 03be
00000080: 6054 7b3d ec97 673e e99f c3bf e08d 4f3f
00000090: d1f6 abbf a2b4 19be e8a3 76bf 254d 82bf
000000a0: aa50 efbd b88f ba3e 7161 82bd 45b6 2bbd
000000b0: fb05 33bd 1994 0cbe 315d 38be 0466 9abb
000000c0: 898e 403e 3804 20bf 8264 8bbd 5229 843e
000000d0: 73ae 4fbe e8a4 5b3e f47c 6fbd 763c e53e
000000e0: dc19 80bf 6729 20bf 2a7a 683f 3b80 d9bf
000000f0: aec8 733f f285 b4bd 8f4d 713c cf03 55bf
00000100: da63 64bf aff9 303d 5f30 513d ba45 2e3e
00000110: f2bb c8bc 3b64 03be 50fc d73d 7b31 75bd
00000120: 0742 3ebf c7ff 0bbe 5753 eb3e a91c 8fbc
00000130: d536 593e 1639 ec3e 0b04 363e cddd fc3e
00000140: 9897 163e 4d44 173e ffda 593f af3a 45be
00000150: b5cc b93e fdd3 2c3e a485 553f c2cd 3c3f
00000160: 41fb d3bd 1ee3 12bf 72ac c2bd 259a 0cbe
00000170: 6544 103c 7eaa a33e ceb6 b6be d243 ccbc
00000180: 1544 abbe 03d6 913f 5848 f7bd 3608 d53d
00000190: 3723 81bd a7bb e2be f704 be3d e287 40bd
000001a0: 3eb7 3f3e 1bbe bf3e d57d a5bf be0c 1c3f
000001b0: 482a afbe ad63 4d3d f87f e2be d08a dbbe
000001c0: fc60 153e 19d8 aabd be52 40be 5529 a13e
000001d0: 9df1 313c 7c89 b03d a44d 963d a626 3a3d
000001e0: ad0c 903e cea7 49bf 1641 06bf 1972 dbbe
000001f0: 6bd3 6c3e e08b cbbe bb7d a1be da4a 5cbe
00000200: 2055 d53d 489c 9b3d bddf cbbe 709a a8bd
00000210: 71c6 f9be 3d19 1fbf cae7 debd da50 393f
00000220: dbf0 83bf efd1 98bd ae4b 583e 9631 bc3e
00000230: 8d72 f3bd bde8 06be 98e9 0fbb 30d2 8e3d
00000240: 6125 cebe 7870 82be 1aac a83e 7970 633d
00000250: e1af d3be f408 243f b9b9 15bf 2741 103f
00000260: dfb0 82be d766 7e3d edd2 733d f38a ee3e
00000270: a1cb 57be d03e 6bbe b964 563f e9ad f63e
00000280: d1b7 5b3f 9168 933d 5bec 1dbe f8e5 48be
00000290: 65d4 d73d d92c dfbd a214 05bf aa16 68bd
000002a0: 94db 45bf 2b9b 21be efbd e73e 051c 193f
000002b0: 1eb1 d43e 3773 713f d37a adbd f5d7 0c3f
000002c0: 16d2 8b3e 2530 ef3d f4c2 973f d603 a73e
000002d0: e78e 883e 3c03 d63e 9cb4 b23e 3e7f 86be
000002e0: 1530 e8be 6556 babe 9f78 703d eeac 643d
000002f0: 1aae 403c ba21 2f3e 1d52 963d bab3 2dbf
00000300: b66c ff3e 948a eebe 2e75 a73e 071c 9d3e
00000310: 3849 b7bd 9234 be3e 79dc 31bc 4c0c a33e
00000320: 4c67 8abe 0207 1f3e 7120 8d3e c30b e9bc
00000330: 105d fc3e 05fb 3d3e 4a09 1b3f b766 90bf
00000340: dfb8 5fbd ae6f 5e3e 2acd 113d c139 a8be
00000350: 79b4 45bd dfc7 7d3d 02bd edbe b7d1 973d
00000360: 12ca 1ebf 6733 9f3e 99c5 e0bd 3294 8e3f
00000370: 55e3 10bf 2350 b83e 8ec1 eebc 524e 48be
00000380: 6832 533e f589 2b3f 0181 2c3e d0e1 323e
00000390: e971 193d 235d 683d 8804 37bf bbb6 b2bf
000003a0: dbfc 593e a75d c5be 3182 803e a82a 973d
000003b0: b054 20bd 0e2e f3bc acbe 19be e043 4abd
000003c0: acea fcbe 01bc bb3f d0b9 32bf 5b38 42bd
000003d0: 5482 44bf ffd4 903e 9a2c 40bf f3b1 703d
000003e0: 0e0d fabe 40de 03be 4a50 c5bd cf9e 38be
000003f0: 0dc8 91be 80a5 863e 73ca 13bf 21bc 573e

vf.v_net.0.bias f4 [128]
-0.030166777 -0.2432284 -1.181815 -0.13307081 0.09894673 -0.5093416 0.7107319 0.2313061
0.63687897 0.18817356 -0.66692615 -0.26349133 0.11367957 0.32461867 -0.1951096 0.08365138
-0.010017783 0.859934 0.035532758 0.022134056 -0.15437537 -0.10970375 0.25079027 -0.29884484
0.0025268109 -0.2907923 -0.14094378 -0.5385297 0.272684 0.57779855 0.17797078 -0.20663543
0.53724533 0.2857956 0.28339303 -0.37181363 0.4901143 0.05201075 0.07965416 0.11989819
-0.76851594 0.67316365 0.9030166 -0.047969975 0.9501083 0.9531334 0.6854254 0.44925132
0.5311572 -0.32325467 -0.84911776 1.0397329 0.41796467 -0.6920048 0.12891059 -0.29507083
0.4292076 0.2901544 0.033376347 -0.36797178 0.6786073 0.26390925 0.046963636 -1.0831654
-0.29208764 -0.7423044 0.4780298 0.83405066 -0.17667572 -0.082100816 0.49527118 -0.9511349
-0.38270462 0.4096985 -0.862845 0.13509354 0.68006027 0.115507446 0.3731371 -0.1822086
0.361662 -0.36980063 -0.056452665 -0.26002547 0.7219204 -0.2609751 0.18775544 0.8268487
0.20371135 0.027040433 -0.29636836 -0.6227621 0.9781872 0.34326914 0.37354442 -0.6682292
0.67772555 0.22552355 1.1177499 -0.31065685 0.47249228 0.57404494 0.087420985 -0.107363485
-0.106108755 0.9698612 0.4053198 0.66101944 0.086118415 0.07693451 0.17531605 0.702162
0.9648438 0.0841527 -0.4012207 -0.2163991 0.1793425 0.6311297 -0.004514157 -0.42455432
-0.10058584 -0.45505825 0.3777549 0.07320292 0.58607996 0.2389878 0.279228 -0.20151289
00000000: 5120 f7bc de10 79be b745 97bf b743 08be
00000010: 95a4 ca3d 3664 02bf 87f2 353f 82db 6c3e
00000020: 800a 233f 92b0 403e acbb 2abf 56e8 86be
00000030: d6d0 e83d 6b34 a63e d0ca 47be 6a51 ab3d
00000040: a121 24bc a224 5c3f cc8a 113d 7b52 b53c
00000050: 9414 1ebe 5cac e0bd 9567 803e 3102 99be
00000060: da98 253b bae2 94be 9153 10be 15dd 09bf
00000070: 3d9d 8b3e 9bea 133f f93d 363e 3d98 53be
00000080: e988 093f cd53 923e e418 913e 5b5e bebe
00000090: 43f0 fa3e 3909 553d b821 a33d 2f8d f53d
000000a0: 76bd 44bf 7454 2c3f 192c 673f 2a7c 44bd
000000b0: 4c3a 733f 8d00 743f 0a78 2f3f 4504 e63e
000000c0: ebf9 073f a381 a5be c85f 59bf f815 853f
000000d0: 77ff d53e 3a27 31bf 2301 043e 8613 97be
000000e0: 19c1 db3e 1e8f 943e a3b5 083d cc66 bcbe
000000f0: 35b9 2d3f 1d1f 873e f15c 403d 2aa5 8abf
00000100: 838c 95be a907 3ebf 52c0 f43e 5884 553f
00000110: 7bea 34be 7924 a8bd 2f94 fd3e 947d 73bf
00000120: dcf1 c3be 00c4 d13e 69e3 5cbf f655 0a3e
00000130: 6e18 2e3f 2b8f ec3d d30b bf3e e494 3abe
00000140: c32b b93e 8256 bdbe e93a 67bd 0f22 85be
00000150: c6cf 383f 879e 85be f642 403e 5bac 533f
00000160: b599 503e e683 dd3c 98bd 97be 566d 1fbf
00000170: 7a6a 7a3f f9c0 af3e 3741 bf3e 1211 2bbf
00000180: 6c7f 2d3f a5ef 663e 6e12 8f3f 6a0e 9fbe
00000190: 82ea f13e 9cf4 123f c609 b33d 63e1 dbbd
000001a0: 8c4f d9bd d348 783f 1486 cf3e 9238 293f
000001b0: da5e b03d d78f 9d3d 0d86 333e e4c0 333f
000001c0: 0100 773f 4058 ac3d cd6c cdbe ba97 5dbe
000001d0: 8fa5 373e b791 213f 7eeb 93bb 2f5f d9be
000001e0: f3ff cdbd 65fd e8be 1769 c13e 6aeb 953d
000001f0: 5609 163f 38b9 743e f9f6 8e3e 6559 4ebe

vf.v_net.2.weight f4 [128, 128]
-0.2390484 -0.10425716 0.38419566 -0.3455139 0.27699614 0.028225247 -0.16845255 -0.15359625
-0.26003298 -0.07401414 0.21598211 0.0067297625 -0.24569874 0.6216609 0.37449187 -0.006399363
-0.16289018 -0.19122452 -0.04744365 0.022462023 -0.27140552 -0.45675087 -0.08678878 -0.15245642
-0.27837935 0.11784133 -0.2858225 0.04362297 -0.42147094 -0.26383644 0.16021596 -0.029968727
-0.38871634 -0.18610823 0.29578036 0.06615385 -0.20816402 -0.059230935 -0.44046432 -0.20248172
-0.04316323 0.07851082 0.3016481 0.05236322 -0.071258254 0.13851345 0.20815016 0.36484313
-0.09299383 -0.27428898 0.19851907 -0.19163722 0.011644332 0.16190176 0.2757937 0.1082876
0.7066059 0.042066608 -0.033809673 -0.17608313 0.24952185 0.23313227 0.35731235 -0.15114105
0.10510093 0.30349246 0.25817892 -0.26693192 -0.18089212 -0.3145361 -0.29740858 -0.08938359
0.30189258 -0.094447866 0.30502203 -0.45714235 -0.042937294 0.6149341 0.13499811 0.015057452
0.39905763 -0.5968883 -0.12220207 0.21618591 -0.09661711 0.02961247 0.21601191 0.03518689
0.17133434 0.054250024 0.11127453 -0.002249471 0.093464136 0.25301406 0.03183557 0.17147191
0.71774083 0.23269026 -0.13774025 -0.19692753 -0.009637192 0.03663234 -0.016343575 -0.031731367
0.37399012 -0.17667674 0.10022549 0.021864675 -0.2192519 0.17031918 0.013971751 -0.012667839
-0.14829294 -0.10247324 0.17151502 -0.045760352 0.3001858 -0.21120688 -0.29671615 -0.25409666
0.10400664 0.012561057 0.04112696 0.06709415 0.2737458 0.13255319 -0.5935064 0.01585247
0.3630713 0.057682537 -0.064428 0.39000112 -0.27773258 -0.029316798 0.013085089 0.15622485
-0.117307216 0.49056754 0.13586748 0.02315063 0.020682093 -0.05825228 0.18975332 0.009805094
-0.7728686 0.27713677 0.08026275 -0.05869855 0.2121592 0.6606643 -0.062061034 0.20952761
0.064194046 0.06887148 -0.103288926 0.042234126 0.031285547 -0.066593185 -0.10078229 -0.18505272
0.074496925 0.30933866 0.18126129 0.1818571 -0.19382794 0.0041569998 0.44685197 0.56707925
-0.09652118 -0.39795384 0.4275842 0.30120632 0.17673276 0.2546505 -0.007093676 0.06484654
0.114144385 -0.039972298 0.32496488 -0.09955591 -0.11060279 -0.10452371 -0.04677088 0.06256168
-0.16131864 0.15277888 0.17873488 0.6777385 0.43535733 -0.12061698 0.41804367 -0.16592436
0.3553329 -0.031535204 -0.03973363 0.24199194 0.04146877 -0.0028526764 0.11515613 0.08235372
-0.37725398 0.093073346 -0.082943276 0.07333686 0.15509562 -0.15159476 0.42812422 -0.32339856
0.41507855 -0.35544124 0.08822679 0.051271707 -0.106537126 0.17004476 -0.30278966 0.016030354
-0.79580814 -0.00028898174 -0.24174874 -0.64683235 -0.2544528 0.0768768 -0.045225117 -0.3883415
0.58037037 0.027739517 -0.07576339 0.026653592 0.08454942 -0.28855923 0.19144115 0.13572246
0.078559525 0.1515865 0.30182853 0.046192918 0.46438515 -0.0009797658 -0.17202036 0.08419507
-0.033763833 -0.015915109 0.41485804 -0.1866998 0.002398153 -0.094167516 -0.21786161 -0.2995474
-0.18488511 0.059158538 0.034297403 0.40094006 -0.07466629 0.25541857 -0.19529836 0.12001413
00000000: 1bc9 74be c784 d5bd 4bb5 c43e 33e7 b0be
00000010: 70d2 8d3e a238 e73c d37e 2cbe 5648 1dbe
00000020: 0b23 85be ba94 97bd 6a2a 5d3e 5785 dc3b
00000030: 7398 7bbe 2b25 1f3f 66bd bf3e bfb1 d1bb
00000040: afcc 26be 5cd0 43be 4654 42bd 4702 b83c
00000050: aaf5 8abe 40db e9be 51be b1bd 891d 1cbe
00000060: bd87 8ebe cc56 f13d 5457 92be 00ae 323d
00000070: 0acb d7be 9215 87be a70f 243e fa80 f5bc
00000080: d405 c7be 2893 3ebe 8670 973e ab7b 873d
00000090: f328 55be 239c 72bd 8a84 e1be 5e57 4fbe
000000a0: edcb 30bd 48ca a03d 9f71 9a3e d17a 563d
000000b0: d9ef 91bd 78d6 0d3e 5125 553e b8cc ba3e
000000c0: 8d73 bebd 9b6f 8cbe 9548 4b3e 8c3c 44be
000000d0: dec7 3e3c 93c9 253e d534 8d3e e4c5 dd3d
000000e0: 20e4 343f 094e 2c3d 037c 0abd 234f 34be
000000f0: a882 7f3e 3aba 6e3e a5f1 b63e b8c4 1abe
00000100: 283f d73d 5d63 9b3e 0730 843e 4dab 88be
00000110: c93b 39be e00a a1be f045 98be be0e b7bd
00000120: aa91 9a3e e26d c1bd d92b 9c3e 900e eabe
00000130: 04df 2fbd 526c 1d3f f23c 0a3e 88b3 763c
00000140: 4851 cc3e accd 18bf 1445 fabd d75f 5d3e
00000150: 31df c5bd da95 f23c 3a32 5d3e 2120 103d
00000160: 4572 2f3e 4635 5e3d e7e3 e33d dc6b 13bb
00000170: 206a bf3d 0f8b 813e 0466 023d 5596 2f3e
00000180: ddbd 373f 5b46 6e3e c80b 0dbe 5fa7 49be
00000190: 50e5 1dbc cb0b 163d f6e2 85bc c0f8 01bd
000001a0: a27b bf3e bfea 34be 0643 cd3d 8c1d b33c
000001b0: 9283 60be 2768 2e3e c5e9 643c c58c 4fbc
000001c0: 1bda 17be 7ddd d1bd a2a1 2f3e 356f 3bbd
000001d0: f4b1 993e 9e46 58be 2eeb 97be f518 82be
000001e0: 6f01 d53d e4cc 4d3c be74 283d a868 893d
000001f0: 6928 8c3e 06bc 073e 09f0 17bf 0add 813c
00000200: 7be4 b93e 8644 6c3d d4f2 83bd 3aae c73e
00000210: f732 8ebe c829 f0bc d762 563c 68f9 1f3e
00000220: c43e f0bd ab2b fb3e d820 0b3e 64a6 bd3c
00000230: 7e6d a93c f199 6ebd b24e 423e 8ca5 203c
00000240: b7da 45bf dfe4 8d3e cc60 a43d e46d 70bd
00000250: 4340 593e 4c21 293f b633 7ebd 688e 563e
00000260: 2b78 833d 7e0c 8d3d 2589 d3bd b1fd 2c3d
00000270: 4625 003d 0262 88bd f266 cebd 767e 3dbe
00000280: d891 983d a361 9e3e 8f9c 393e bf38 3a3e
00000290: d57a 46be 7137 883b c8c9 e43e 1b2c 113f
000002a0: e5ac c5bd 9bc0 cbbe 51ec da3e b737 9a3e
000002b0: 6ff9 343e 8d61 823e 1172 e8bb 43ce 843d
000002c0: 88c4 e93d feb9 23bd cc61 a63e f8e3 cbbd
000002d0: b783 e2bd 8710 d6bd d392 3fbd 5720 803d
000002e0: b730 25be 1172 1c3e 4706 373e 4580 2d3f
000002f0: 28e7 de3e 0906 f7bd d209 d63e 13e8 29be
00000300: 32ee b53e 0f2b 01bd bbbf 22bd bccc 773e
00000310: 28db 293d f8f3 3abb fad6 eb3d 11a9 a83d
00000320: 6f27 c1be 3d9d be3d 2ade a9bd a331 963d
00000330: 63d1 1e3e a83b 1bbe 1933 db3e 7f94 a5be
00000340: 2d85 d43e 65fc b5be 3fb0 b43d 4802 523d
00000350: 2330 dabd 3720 2e3e 3f07 9bbe 1752 833c
00000360: 15ba 4bbf 7982 97b9 fb8c 77be ce96 25bf
00000370: a347 82be 9571 9d3d f93d 39bd b2d4 c6be
00000380: 2793 143f fc3d e33c d629 9bbd a258 da3c
00000390: 3f28 ad3d 09be 93be 2609 443e d4fa 0a3e
000003a0: d1e3 a03d 7e39 1b3e 4589 9a3e c934 3d3d
000003b0: e4c3 ed3e 7c6b 80ba 1b26 30be 776e ac3d
000003c0: f24b 0abd 6760 82bc 4668 d43e 3b2e 3fbe
000003d0: 552a 1d3b e6da c0bd 1d17 5fbe 475e 99be
000003e0: 8652 3dbe 3950 723d 6f7b 0c3d 0448 cd3e
000003f0: a4ea 98bd 39c6 823e 4bfc 47be f8c9 f53d

vf.v_net.2.bias f4 [128]
0.31154722 0.17804325 0.23241237 -0.14709565 -0.8430518 0.30842742 -0.7095812 -0.7659187
-0.37495425 0.22386055 0.045567743 -1.0060344 -0.08638361 0.06544093 -0.3053048 0.20820126
0.05737048 0.12822977 -0.035010774 -0.042523246 -0.30178353 -0.26205558 -0.34979135 0.29309633
0.074254066 0.028421247 -0.5656875 -0.430741 -0.21659696 -0.15534897 0.21660204 0.13985157
0.05515705 -0.21318349 -0.2965823 -0.7729029 -0.31310102 -0.56688327 0.31345147 -0.18293153
-0.54762954 -0.2716592 0.1974713 -0.39725536 0.07436024 0.19696641 -0.38471934 0.19362123
0.03455136 -0.31428185 0.01310247 0.020515997 -0.1926505 0.26636583 0.18041264 0.1347595
-0.5337157 0.08037483 -0.30342028 -0.32570076 -0.0498683 -0.30813387 -0.7843764 0.051965848
-0.056361172 -0.20578726 -0.48260024 0.22925524 0.087235756 -0.33483896 -0.41953853 0.18913151
0.1708061 0.14780462 0.17361966 -0.013747422 -0.3121569 0.13409701 0.058304727 -0.3397736
0.33837488 -0.08034617 -0.25947073 -0.078264564 -0.40724552 0.12491947 0.155948 0.13343365
0.15211222 -0.37660483 0.1409807 -0.24971454 -0.1009745 0.19249041 0.055831194 -0.021971764
0.28787923 -0.30567834 0.0089298235 0.13710669 -0.5144936 0.13183515 -0.61723554 0.093403496
0.0072264094 -0.026771612 -0.77064514 0.31580475 -0.03497983 -0.104520895 -0.09318758 -0.51466763
0.02529953 -0.10626343 0.17254594 -0.03228926 0.25319093 -0.13958259 -0.34901613 -0.38636395
-0.09766847 -0.42631444 -0.04842578 -0.13389905 -0.2191026 0.06688628 -0.10650235 0.0096629355
00000000: 1e83 9f3e f850 363e 82fd 6d3e 3ea0 16be
00000010: 3ed2 57bf 33ea 9d3e 1da7 35bf 3f13 44bf
00000020: 01fa bfbe b33b 653e 3ea5 3a3d bcc5 80bf
00000030: e4e9 b0bd e505 863d e950 9cbe b632 553e
00000040: 4ffd 6a3d aa4e 033e 7567 0fbd db2c 2ebd
00000050: 5f83 9abe 262c 86be da17 b3be b910 963e
00000060: 8412 983d add3 e83c e5d0 10bf 168a dcbe
00000070: 98cb 5dbe cd13 1fbe edcc 5d3e 4035 0f3e
00000080: 5cec 613d c64c 5abe a3d9 97be f7dc 45bf
00000090: c74e a0be 431f 11bf b67c a03e 6752 3bbe
000000a0: 7331 0cbf ea16 8bbe eb35 4a3e 0e65 cbbe
000000b0: 2e4a 983d 90b1 493e eff9 c4be a544 463e
000000c0: ba85 0d3d 8de9 a0be beab 563c 2a11 a83c
000000d0: 2c46 45be 1a61 883e 17be 383e 65fe 093e
000000e0: 98a1 08bf 8f9b a43d e759 9bbe 40c2 a6be
000000f0: b442 4cbd b9c3 9dbe e4cc 48bf 24da 543d
00000100: f9da 66bd e5b9 52be 6117 f7be e3c1 6a3e
00000110: a9a8 b23d 0370 abbe c1cd d6be b1ab 413e
00000120: cbe7 2e3e 185a 173e 5ac9 313e de3c 61bc
00000130: 07d3 9fbe ba50 093e f0d0 6e3d cef6 adbe
00000140: 793f ad3e 888c a4bd 59d9 84be 2c49 a0bd
00000150: 7c82 d0be c7d5 ff3d d5b0 1f3e d5a2 083e
00000160: 4ec3 1b3e 59d2 c0be 3f5d 103e 2bb5 7fbe
00000170: b8cb cebd 351c 453e 40af 643d 21fe b3bc
00000180: e864 933e df81 9cbe 654e 123c b265 0c3e
00000190: dab5 03bf cbff 063e 2603 1ebf 554a bf3d
000001a0: 84cb ec3b 2450 dbbc 0049 45bf 29b1 a13e
000001b0: 0347 0fbd 0d0f d6bd 21d9 bebd 42c1 03bf
000001c0: f640 cf3c a4a0 d9bd e2af 303e be41 04bd
000001d0: 3ea2 813e bdee 0ebe 3eb2 b2be 7fd1 c5be
000001e0: 6806 c8bd e345 dabe 1c5a 46bd d51c 09be
000001f0: 6f5c 60be adfb 883d e71d dabd 4a51 1e3c

vf.v_net.4.weight f4 [1, 128]
0.16890962 0.16876714 0.16205125 0.4055403 -0.10760173 0.18696877 -0.019394152 -0.04603607
-0.030698702 0.18020755 0.18090579 -0.11930945 0.068258956 0.19019572 0.10532337 0.25698894
0.11578881 0.19250768 0.28672832 0.28361106 0.31489232 0.11167203 0.08789068 0.2674534
0.08305793 0.20523398 0.21534249 0.09637584 0.14038092 -0.40806678 0.18890928 0.17221653
0.19484712 0.15404597 0.05747799 -0.26662287 -0.025673637 0.04253476 0.10973896 0.1363874
0.23727725 0.22691067 0.13263719 0.1284064 0.27041352 0.18433829 0.070232116 0.19725849
0.14605074 0.05205351 0.12500295 0.2133275 0.05955815 0.16079372 0.3164094 0.20976721
0.062083717 0.26422015 0.16272214 -0.28789678 0.15586747 0.3418244 0.061591193 0.065634705
0.18997224 0.20446764 0.22293405 0.24784648 0.16177553 0.001776535 -0.038418993 0.05095706
0.12019182 0.10150249 0.115349956 -0.0046047927 -0.026749318 0.086423784 0.11585448 0.046740115
0.20366722 0.15365292 0.29358292 0.041994333 0.26010957 0.09075982 0.13835037 0.053992428
0.17010204 -0.039857678 0.19212033 0.2075716 0.113224454 0.16415878 0.23449104 0.3712874
0.21892066 0.121442005 0.20122479 0.04510766 0.05096147 0.2849305 -0.093800165 0.100516416
0.12330783 0.4070974 -0.010746178 0.4000997 0.013443545 0.024742404 0.00051317486 0.06707514
0.3432346 0.073195666 0.23480897 0.2090151 0.37173244 0.23771264 0.023254817 0.10641543
0.026740463 0.17044596 0.06450155 0.21517825 0.33402246 0.08287984 0.09350363 0.039177507
00000000: a5f6 2c3e 4bd1 2c3e c3f0 253e faa2 cf3e
00000010: 4c5e dcbd be74 3f3e 7ce0 9ebc 5190 3cbd
00000020: d87b fbbc 5488 383e 5e3f 393e 8358 f4bd
00000030: 5acb 8b3d abc2 423e c7b3 d73d 0e94 833e
00000040: af22 ed3d bc20 453e 0ece 923e 7835 913e
00000050: 9139 a13e 4eb4 e43d 0700 b43d a7ef 883e
00000060: 471a aa3d db28 523e be82 5c3e b260 c53d
00000070: 04c0 0f3e 21ee d0be 6f71 413e 8859 303e
00000080: 0186 473e 3abe 1d3e 0a6e 6b3d cb82 88be
00000090: 8551 d2bc ee38 2e3d d2be e03d 23a9 0b3e
000000a0: cff8 723e 455b 683e 0bd2 073e f87c 033e
000000b0: a473 8a3e 2dc3 3c3e dbd5 8f3d 21fe 493e
000000c0: 538e 153e 1036 553d c600 003e 8672 5a3e
000000d0: 3ff3 733d 1ca7 243e 6a00 a23e 37cd 563e
000000e0: 7f4b 7e3d dd47 873e a2a0 263e 3567 93be
000000f0: b99b 1f3e 9c03 af3e 0c47 7c3d 7d6b 863d
00000100: 1588 423e f75f 513e d348 643e 78cb 7d3e
00000110: 7ca8 253e 9fda e83a 3c5d 1dbd 5ab8 503d
00000120: 2127 f63d 8ae0 cf3d 993c ec3d cde3 96bb
00000130: 6321 dbbc f4fe b03d 1d45 ed3d 9072 3f3d
00000140: 248e 503e 3157 1d3e 8050 963e 4002 2c3d
00000150: 152d 853e 49e0 b93d b8ab 0d3e 2a27 5d3d
00000160: 3b2f 2e3e ce41 23bd 31bb 443e a68d 543e
00000170: 39e2 e73d 3d19 283e 6b1e 703e 6219 be3e
00000180: bd2c 603e 96b6 f83d df0d 4e3e cfc2 383d
00000190: f9bc 503d 69e2 913e 4d1a c0bd 8ddb cd3d
000001a0: d188 fc3d 126f d03e bd10 30bc ded9 cc3e
000001b0: 5142 5c3c 95b0 ca3c 9586 063a b15e 893d
000001c0: 72bc af3e 9ce7 953d c371 703e 0e08 563e
000001d0: b753 be3e f16a 733e e380 be3c 55f0 d93d
000001e0: d10e db3c 6389 2e3e 6319 843d b057 5c3e
000001f0: fe04 ab3e e8bc a93d d57e bf3d 9878 203d
