HW4/ppo_dm_control-master/training/walker/walk/ppo_ac_model.pth (torch, 166728 bytes, 12 tensors)

pi.log_std f4 [6]
-0.5585326 -0.5814453 -0.6054194 -0.57414037 -0.5533014 -0.5829696
00000000: fefb 0ebf 99d9 14bf c4fc 1abf ddfa 12bf
00000010: 29a5 0dbf 7f3d 15bf

pi.mu_net.0.weight f4 [128, 24]
0.0028741707 -0.03887151 -0.09317116 0.14639835 -0.042058762 -0.005705613 0.029203815 -0.0791111
-0.03718409 0.14433096 -0.110678576 0.13754645 0.13461259 -0.07944349 -0.1559054 -0.14858963
0.17701192 -0.062419195 -0.19661944 0.15002356 0.04809114 0.18039282 0.057411358 -0.10037173
0.07731792 -0.21393935 -0.16254732 0.10414922 0.107082695 -0.12880655 -0.070080526 0.038088355
-0.05369624 -0.18978421 -1.325785e-06 -0.19739059 -0.12286511 0.15727966 -0.068367586 -0.11902785
0.19829498 0.025259323 0.069355994 0.10488503 0.08430402 -0.14882936 0.11097673 0.16242783
0.124784485 0.13015577 -0.1980012 0.15255673 0.0035801667 0.13140048 0.025746478 -0.095635846
0.108334586 -0.08303155 -0.21205513 -0.10210686 -0.040168945 -0.21154016 0.024868704 -0.14395966
0.022708204 0.17045061 0.110128805 -0.025775027 0.14413652 0.057038724 -0.044656247 -0.06346623
-0.072651796 0.13195474 0.014853919 0.031745423 -0.048543163 -0.26060015 0.10440863 0.03478554
0.12992696 -0.06789424 -0.12791094 -0.09027174 0.059059214 -0.20892435 -0.11670823 0.23873045
-0.14235988 0.027313236 0.0640889 -0.10221627 0.16767713 0.10418746 0.080583945 -0.029011507
-0.07797188 -0.20715906 -0.11347889 -0.15990695 -0.13409154 0.047889154 0.14718093 -0.11962837
0.17482084 0.0025513635 0.015854415 0.030786326 -0.04763993 -0.05553555 0.110863864 0.086272664
-0.10361189 0.19278681 -0.063366346 0.008946094 -0.1272978 -0.016743664 -0.1924396 0.03474091
0.0005257599 0.016215513 -0.20667295 0.05532391 -0.050525516 -0.12723716 0.06949867 0.072815746
-0.13187426 -0.09227389 -0.15697202 0.1620843 0.032861333 0.20517181 -0.07921056 -0.02379006
0.035831686 0.09647624 0.17041226 0.03705243 0.13745704 -0.16253844 -0.14327645 -0.21338579
-0.07711202 0.055312794 0.15502305 -0.08591538 -0.1061268 -0.14044674 0.18595944 -0.017147204
-0.1364863 -0.027768498 -0.16067791 -0.04761523 0.12506917 0.06891864 -0.16765225 0.07960343
0.074935205 -0.2033501 -0.23070158 0.026055122 0.12609594 0.13282765 -0.14322844 0.02368626
-0.040385824 0.0016345868 -0.115009196 -0.052467868 0.012324963 0.09344858 0.11941579 -0.01794882
-0.13175559 -0.22094749 0.033666678 -0.035536606 -0.12437063 -0.1369504 -0.036731847 0.13662775
0.004860746 -0.13713807 0.17720765 -0.008942689 -0.18804395 -0.07878245 0.13084997 0.12939419
0.14477853 -0.24137053 -0.06072386 -0.075546905 -0.035846274 -0.15735488 -0.09316944 0.19578703
-0.013424161 0.07377678 -0.033080205 -0.037106346 0.1582326 -0.19162633 0.14249173 0.23105039
0.1269198 -0.15909673 -0.030300217 -0.06908177 0.044698037 -0.2077525 -0.0074228654 0.19622914
0.098885745 -0.10446007 0.17634475 0.15030394 0.03412147 -0.06446315 -0.16074331 0.05647434
0.008851626 0.14876862 0.12419323 0.15062365 -0.13930415 -0.025846858 -0.10646475 -0.014139272
-0.03196739 -0.032858897 0.017960513 0.0050881207 -0.0195324 0.010057539 0.1391807 0.024251988
0.18171437 -0.07158186 0.20409696 0.010288882 -0.13191721 0.019683313 -0.13287397 -0.014015033
-0.074246146 0.10201844 -0.06347585 0.14269668 -0.100437455 0.022825953 0.07322434 0.18566234
00000000: 955c 3c3b bc37 1fbd 85d0 bebd 73e9 153e
00000010: cf45 2cbd 27f6 babb d73c ef3c 0005 a2bd
00000020: 584e 18bd 7fcb 133e 73ab e2bd fad8 0c3e
00000030: e2d7 093e 45b3 a2bd aaa5 1fbe e127 18be
00000040: 9d42 353e 45ab 7fbd 9b56 49be c79f 193e
00000050: 37fb 443d e5b8 383e 2c28 6b3d b28f cdbd
00000060: dc58 9e3d eb12 5bbe ce72 26be 304c d53d
00000070: 2c4e db3d dde5 03be 6186 8fbd 8902 1c3d
00000080: 97f0 5bbd cb56 42be a0f1 b1b5 c220 4abe
00000090: b4a0 fbbd eb0d 213e 4e04 8cbd e0c4 f3bd
000000a0: d70d 4b3e a4ec ce3c 840a 8e3d f6cd d63d
000000b0: 96a7 ac3d b966 18be c547 e33d 7b53 263e
000000c0: 028f ff3d 8e47 053e d4c0 4abe d537 1c3e
000000d0: 3ba1 6a3b d98d 063e 47ea d23c badc c3bd
000000e0: 86de dd3d 720c aabd fb24 59be 671d d1bd
000000f0: 3188 24bd fc9d 58be 74b9 cb3c 296a 13be
00000100: 8e06 ba3c 9b8a 2e3e 368b e13d 2626 d3bc
00000110: 8698 133e 70a1 693d 78e9 36bd 95fa 81bd
00000120: 77ca 94bd 251f 073e da5d 733c 7d07 023d
00000130: 32d5 46bd 626d 85be 31d4 d53d 487b 0e3d
00000140: 930b 053e 230c 8bbd 16fb 02be 64e0 b8bd
00000150: 13e8 713d 44f0 55be b904 efbd c175 743e
00000160: cac6 11be 02c0 df3c 0b41 833d c456 d1bd
00000170: 8eb3 2b3e 3c60 d53d 3209 a53d 8aa9 edbc
00000180: b9af 9fbd 8121 54be 9f67 e8bd a6be 23be
00000190: 4b4f 09be 6b27 443d 99b6 163e b8ff f4bd
000001a0: 3c04 333e c734 273b 1ee1 813c 9b33 fc3c
000001b0: 1622 43bd 3f79 63bd 980c e33d b9af b03d
000001c0: 7832 d4bd e869 453e 37c6 81bd a392 123c
000001d0: 5b5a 02be 022a 89bc e30e 45be 7c4c 0e3d
000001e0: 26d3 093a 65d6 843c 13a2 53be 539b 623d
000001f0: d8f3 4ebd 754a 02be 5255 8e3d 6c20 953d
00000200: 0c0a 07be 18fa bcbd 46bd 20be 6df9 253e
00000210: 9b99 063d 8f18 523e 2539 a2bd 5fe3 c2bc
00000220: 3fc4 123d 5695 c53d 8d80 2e3e 4ac4 173d
00000230: 8ac1 0c3e 7a70 26be 10b7 12be ce81 5abe
00000240: e8ec 9dbd ab8f 623d 5dbe 1e3e 67f4 afbd
00000250: 0259 d9bd 45d1 0fbe 276c 3e3e 4b78 8cbc
00000260: 11c3 0bbe c37a e3bc c088 24be 3008 43bd
00000270: 2212 003e 3725 8d3d 08ad 2bbe 2007 a33d
00000280: a177 993d 023b 50be 093d 6cbe 8d71 d53c
00000290: 4b1f 013e f903 083e 7aaa 12be b009 c23c
000002a0: 9b6b 25bd a23f d63a f189 ebbd 8ce8 56bd
000002b0: a4ee 493c f861 bf3d 4490 f43d 6709 93bc
000002c0: f0ea 06be 0f40 62be 12e6 093d d58e 11bd
000002d0: 07b6 febd ba3c 0cbe 2274 16bd 25e8 0b3e
000002e0: e546 9f3b ec6d 0cbe ec75 353e 5b84 12bc
000002f0: 988e 40be b158 a1bd 89fd 053e e97f 043e
00000300: d340 143e d629 77be 95b9 78bd 56b8 9abd
00000310: 8bd3 12bd a321 21be 9fcf bebd 657c 483e
00000320: 03f1 5bbc 4818 973d 1c7f 07bd d3fc 17bd
00000330: ba07 223e b139 44be 5ae9 113e 7998 6c3e
00000340: 44f7 013e 41ea 22be 2938 f8bc be7a 8dbd
00000350: 4a15 373d 12bd 54be 823b f3bb 4bf0 483e
00000360: 9c84 ca3d 29ef d5bd b893 343e 47e9 193e
00000370: f4c2 0b3d 4205 84bd e599 24be a351 673d
00000380: 6906 113c cd56 183e 0559 fe3d 163d 1a3e
00000390: bfa5 0ebe cabc d3bc 310a dabd 68a8 67bc
000003a0: 3df0 02bd 0d97 06bd ed21 933c 40ba a63b
000003b0: 6902 a0bc 60c8 243c 6385 0e3e 1bac c63c
000003c0: 5513 3a3e 8399 92bd cbfe 503e b392 283c
000003d0: 4e15 07be e63e a13c 1d10 08be 4f9f 65bc
000003e0: 5d0e 98bd 0bef d03d a0ff 81bd 141f 123e
000003f0: 27b2 cdbd 7efd ba3c a5f6 953d 451e 3e3e

pi.mu_net.0.bias f4 [128]
0.13389878 -0.030218994 -0.08047623 -0.16761664 0.084138125 0.039975114 -0.10414597 -0.11454497
-0.20442843 -0.0029442643 -0.107938565 -0.006861341 0.022570001 0.20819022 -0.06713451 0.17886963
-0.03033439 -0.013905723 -0.051439848 0.15922 -0.09610282 0.09254487 -0.0018887828 -0.13685143
0.11110496 0.025734216 -0.14800265 -0.11025883 -0.030731909 -0.10494397 0.16771933 0.05779264
-0.14376298 0.13367282 -0.14522395 -0.049536865 -0.10274942 -0.18541382 -0.14387244 -0.1331227
0.18046348 -0.08472976 -0.19718349 0.13162403 -0.14362447 0.1922356 -0.10286815 -0.20098966
-0.025345642 -0.09550768 0.054003432 0.1681469 -0.06141016 0.049739257 0.100901246 -0.018272834
-0.18383585 0.05838284 -0.014453448 0.14997561 0.03354194 0.05872391 -0.016815936 -0.009584771
-0.20076516 0.116525866 -0.05294278 -0.081647314 -0.17011963 -0.08714689 0.008628012 -0.06703481
0.032598533 0.13581471 0.10563952 0.12005443 0.15716861 0.13340373 -0.09306795 -0.014798251
-0.10851017 0.1507777 -0.21336313 0.0969221 0.06456442 0.109171785 0.17790735 0.15466921
-0.12300743 0.1455264 0.12392574 0.048657853 0.05782241 0.19136503 -0.040697742 -0.08887303
-0.123063415 0.037853457 0.02555687 -0.14153342 -0.08662221 0.09875461 -0.13686751 0.17739956
-0.17160851 -0.034810808 0.13999858 0.16244431 -0.121974885 -0.11564505 0.1567974 0.21538143
-0.13531762 -0.031005565 -0.11875148 0.121837325 -0.14383814 -0.1456281 0.21087708 0.17028764
-0.08556876 0.10660489 -0.19978778 0.0076567377 0.0031004848 0.09231256 -0.04690382 -0.076936215
00000000: c31c 093e d38d f7bc b9d0 a4bd b2a3 2bbe
00000010: 9c50 ac3d f2bc 233d 7b4a d5bd 8e96 eabd
00000020: b055 51be 8ff4 40bb e50e ddbd 1ad5 e0bb
00000030: b9e4 b83c d12f 553e d17d 89bd 9a29 373e
00000040: d47f f8bc d4d4 63bc 97b2 52bd 910a 233e
00000050: 8ed1 c4bd 2a88 bd3d 0991 f7ba c822 0cbe
00000060: ff8a e33d 90d0 d23c 028e 17be 62cf e1bd
00000070: 7cc1 fbbc ddec d6bd 9ebe 2b3e fab7 6c3d
00000080: 9a36 13be 87e1 083e 96b5 14be 2be7 4abd
00000090: 4a6e d2bd 1fdd 3dbe 4c53 13be 5151 08be
000000a0: 6bcb 383e cc86 adbd 78ea 49be 73c8 063e
000000b0: 4b12 13be 69d9 443e 89ac d2bd 3cd0 4dbe
000000c0: aaa1 cfbc 8899 c3bd b432 5d3d b32e 2c3e
000000d0: 3889 7bbd 64bb 4b3d 50a5 ce3d e9b0 95bc
000000e0: 773f 3cbe d822 6f3d 28ce 6cbc 3593 193e
000000f0: 4663 093d 7c88 703d 93c1 89bc 7109 1dbc
00000100: 6295 4dbe 1da5 ee3d 87da 58bd b536 a7bd
00000110: d733 2ebe 127a b2bd 815c 0d3c 8c49 89bd
00000120: 0a86 053d 0313 0b3e 8859 d83d 19df f53d
00000130: cff0 203e fd9a 083e 699a bebd 5d74 72bc
00000140: 943a debd 7865 1a3e dd7b 5abe 187f c63d
00000150: 5a3a 843d 7595 df3d 582d 363e 9b61 1e3e
00000160: 52eb fbbd df04 153e c7cc fd3d 754d 473d
00000170: 31d7 6c3d 32f5 433e adb2 26bd 1003 b6bd
00000180: ac08 fcbd 3a0c 1b3d a45c d13c 23ee 10be
00000190: fc66 b1bd db3f ca3d ff26 0cbe 3ba8 353e
000001a0: 24ba 2fbe c795 0ebd ca5b 0f3e cd57 263e
000001b0: f8cd f9bd 50d7 ecbd 7f8f 203e f38c 5c3e
000001c0: b490 0abe 62ff fdbc fa33 f3bd d985 f93d
000001d0: 4e4a 13be 881f 15be 29f0 573e e25f 2e3e
000001e0: ad3e afbd aa53 da3d 2b95 4cbe 5fe5 fa3b
000001f0: 8131 4b3b 5e0e bd3d 381e 40bd bc90 9dbd

pi.mu_net.2.weight f4 [128, 128]
-0.06601899 0.061594263 0.06935881 -0.095359854 -0.032407638 -0.0017347453 -0.058947172 0.008619001
-0.06542758 -0.014006605 -0.0054335347 -0.00342268 0.024808975 0.0024623666 0.06910362 -0.020986894
0.08740929 -0.007889882 0.08646373 -0.042964768 0.027462764 0.03683693 0.059043355 -0.00551984
-0.035288706 -0.06877281 -0.042997345 -0.031995714 0.00011370651 0.023309123 0.04283996 0.021991001
0.0006601256 -0.047879104 0.06724722 -0.017350314 0.0944508 0.06493692 -0.034409344 -0.041926567
-0.049936272 -0.009866548 0.025887532 0.07351468 -0.058243144 -0.08279411 0.05641802 -0.056926325
-0.04302125 -0.07745513 0.03698561 0.038680177 -0.010818939 0.08654291 0.06984804 0.07274526
0.037805088 -0.02644862 0.012904779 0.07613251 -0.0060339444 -0.049411584 0.04133514 0.0052105295
-0.05830072 0.039503608 -0.042133264 -0.0313552 0.033461012 0.06160951 0.08554036 0.004323349
0.031906344 0.014425198 -0.017298913 -0.045483153 -0.0031583328 0.011822465 -0.07237108 0.10057824
-0.06910493 0.009259168 -0.045392606 0.016874429 0.060022123 0.014779014 0.019070288 0.029384082
-0.010693597 -0.048806533 0.07265434 -0.08187956 -0.069800586 0.08407754 0.013736844 -0.10882701
0.013135693 -0.09942981 -0.09900397 -0.047304206 0.02333613 0.05397439 -0.015265997 0.039457925
-0.04080644 0.013593001 -0.06198004 0.022297988 0.048246972 -0.0134716425 -0.02206786 -0.029939659
0.018795257 -0.06560057 -0.0019801399 0.082366094 0.009912607 0.053123914 0.034587935 -0.040040668
-0.03565789 -0.023302715 -0.09831066 0.05760415 -0.0691442 0.033079658 -0.07522557 -0.060010478
-0.0057739927 0.004105307 -0.06883154 -0.027107948 0.03616266 0.0802581 0.013664349 -0.025475247
0.029138017 -0.025690557 -0.04295922 0.013790961 0.04056604 0.00050998095 0.06727109 -0.015516388
0.06216407 0.031970844 -0.059573174 0.0077915345 0.032651376 -0.072944626 -0.015100375 0.04283539
-0.060848016 -0.021366365 0.06840978 0.061360512 -0.0063849553 -0.066346966 -0.09261942 0.03610206
0.013968824 -0.05958928 0.002205332 0.014980159 0.040609162 -0.07006605 0.022783423 0.0057990453
-0.006021823 -0.032400627 0.10323194 -0.050095845 -0.0021618214 0.048269562 0.083817534 -0.015103985
0.02774726 0.086475976 -0.09132206 -0.00343894 -0.014450194 -0.05478519 0.03559778 -0.027012913
-0.05265879 -0.051992267 -0.0650708 0.07748684 0.018737262 -0.009813697 0.011653763 -0.068769604
-0.011702049 -0.0687102 -0.0745305 -0.033496846 0.06568043 -0.043212164 -0.05316758 0.022560673
-0.027505917 0.076581225 0.023505917 0.06753851 0.08338474 -0.034122974 0.060010657 -0.016990568
-0.027690653 0.06055785 0.07663017 0.021025438 0.062547244 0.013506007 -0.08902545 0.016608674
0.00041358473 0.08517013 0.08367969 -0.07740452 -0.07320736 0.07207689 0.049341083 0.07763016
-0.1064045 0.086457856 0.076685674 0.07933042 0.00021197785 0.05427722 0.006119596 0.037658714
-0.048862293 -0.05399379 0.05011516 0.05369761 0.079903625 -0.019888636 0.05009915 -0.0073990477
0.003893365 0.023701457 0.033076413 0.07642779 -0.0787234 0.058248725 0.018135067 0.013791506
-0.021639265 -0.0012449002 -0.07489981 0.07174 0.063692495 0.113942415 0.040192496 0.057038758
00000000: f734 87bd 444a 7c3d fe0b 8e3d 074c c3bd
00000010: dfbd 04bd 6560 e3ba 9772 71bd b636 0d3c
00000020: e5fe 85bd f67b 65bc cb0b b2bb 0b4f 60bb
00000030: 313c cb3c a85f 213b 3386 8d3d b5ec abbc
00000040: a403 b33d 9044 01bc e513 b13d d3fb 2fbd
00000050: 97f9 e03c 52e2 163d 72d7 713d c6df b4bb
00000060: e48a 10bd c2d8 8cbd fc1d 30bd f00d 03bd
00000070: b875 ee38 c6f2 be3c f478 2f3d 7926 b43c
00000080: 470c 2d3a e11c 44bd e9b8 893d 3f22 8ebc
00000090: 6c6f c13d a6fd 843d d0f0 0cbd 31bb 2bbd
000000a0: fa89 4cbd 4da7 21bc 1712 d43c dd8e 963d
000000b0: 5d90 6ebd f58f a9bd 9516 673d 942b 69bd
000000c0: 0d37 30bd cca0 9ebd 397e 173d 1b6f 1e3d
000000d0: eb41 31bc 693d b13d 7d0c 8f3d 78fb 943d
000000e0: 82d9 1a3d c7aa d8bc 916e 533c 5deb 9b3d
000000f0: 65b8 c5bb cd63 4abd 094f 293d 17bd aa3b
00000100: bccc 6ebd 89ce 213d ee93 2cbd 4f6e 00bd
00000110: 6a0e 093d 415a 7c3d c92f af3d e1aa 8d3b
00000120: 3ab0 023d aa57 6c3c 73b6 8dbc 8b4c 3abd
00000130: 08fc 4ebb 03b3 413c 4a37 94bd f7fb cd3d
00000140: e386 8dbd c4b3 173c 99ed 39bd 3e3c 8a3c
00000150: c2d9 753d ad23 723c 4b39 9c3c e3b6 f03c
00000160: 3234 2fbc 5ce9 47bd cccb 943d 79b0 a7bd
00000170: 9cf3 8ebd d830 ac3d 8010 613c b2e0 debd
00000180: 1737 573c dba1 cbbd 98c2 cabd 0ec2 41bd
00000190: 692b bf3c 4014 5d3d 3b1e 7abc a29e 213d
000001a0: a724 27bd 2eb5 5e3c c8de 7dbd 45aa b63c
000001b0: 9e9e 453d 2ab8 5cbc a8c7 b4bc 0444 f5bc
000001c0: 83f8 993c 9759 86bd 3cc5 01bb 8eaf a83d
000001d0: 7d68 223c 7698 593d 14ac 0d3d af01 24bd
000001e0: 020e 12bd 56e5 bebc 1957 c9bd 54f2 6b3d
000001f0: 799b 8dbd 897e 073d dd0f 9abd 8ccd 75bd
00000200: c333 bdbb d085 863b 8df7 8cbd 7d11 debc
00000210: 4c1f 143d 5c5e a43d 6fe0 5f3c 77b1 d0bc
00000220: dab2 ee3c 0175 d2bc 02f6 2fbd 7cf3 613c
00000230: 9328 263d 3eb0 053a 6dc5 893d 7338 7ebc
00000240: c09f 7e3d dcf3 023d 0003 74bd 2150 ff3b
00000250: 73bd 053d fe63 95bd 9067 77bc 2974 2f3d
00000260: c53b 79bd 8408 afbc 6d1a 8c3d 2955 7b3d
00000270: e338 d1bb ebe0 87bd 40af bdbd c1df 133d
00000280: 7fdd 643c e413 74bd 5587 103b 576f 753c
00000290: cb55 263d ca7e 8fbd 4da4 ba3c eb05 be3b
000002a0: b652 c5bb 85b6 04bd 446b d33d 4d31 4dbd
000002b0: 58ad 0dbb 4eb6 453d 87a8 ab3d b476 77bc
000002c0: 394e e33c 511a b13d 0f07 bbbd d75f 61bb
000002d0: 82c0 6cbc 6f66 60bd face 113d 2f4a ddbc
000002e0: beb0 57bd d8f5 54bd d743 85bd 6cb1 9e3d
000002f0: e37e 993c a1c9 20bc 6def 3e3c 14d7 8cbd
00000300: f3b9 3fbc efb7 8cbd 72a3 98bd fd33 09bd
00000310: 7683 863d 3dff 30bd 40c6 59bd 29d1 b83c
00000320: 1754 e1bc 9ed6 9c3d 7b8f c03c a151 8a3d
00000330: 9ec5 aa3d 88c4 0bbd bccd 753d ce2f 8bbc
00000340: 82d7 e2bc 820b 783d 47f0 9c3d 8a3d ac3c
00000350: c518 803d 4d48 5d3c fa52 b6bd ea0e 883c
00000360: 67d6 d839 ad6d ae3d 4260 ab3d 4386 9ebd
00000370: beed 95bd 0c9d 933d e019 4a3d 90fc 9e3d
00000380: 9aea d9bd d110 b13d 610d 9d3d fd77 a23d
00000390: 5f46 5e39 ca51 5e3d e486 c83b 0640 1a3d
000003a0: d423 48bd 9828 5dbd 8e45 4d3d 06f2 5b3d
000003b0: 83a4 a33d 7eed a2bc c434 4d3d b673 f2bb
000003c0: d327 7f3b 8f29 c23c 227b 073d 2c86 9c3d
000003d0: bc39 a1bd 3796 6e3d fe8f 943c c5f5 613c
000003e0: d444 b1bc eb2b a3ba 1265 99bd 6cec 923d
000003f0: 3671 823d a45a e93d e3a0 243d 79a1 693d

pi.mu_net.2.bias f4 [128]
-0.04059838 -0.0508716 0.0041176067 -0.07787263 0.031751145 0.022357786 -0.03969092 0.08562471
0.005819328 0.06940668 0.05663977 0.075530455 -0.035548057 0.013897181 0.017034411 -0.03531778
0.060107518 -0.08611713 0.02545495 0.037704226 -0.07074125 0.0784755 0.0047455262 -0.030436499
0.030909846 -0.099343605 -0.023540556 0.08655864 -0.070651785 -0.0133881625 0.02857011 0.07334842
0.0155477375 -0.09429746 0.10465941 -0.036438502 0.068480484 -0.04825001 0.07799377 0.061450146
0.022252312 -0.03305967 -0.052259084 -0.010501124 -0.07949526 0.011484656 -0.010693116 -0.07122476
0.01437704 -0.024851585 0.02523336 0.04816928 -0.030042194 -0.0061755017 -0.08597897 -0.019755049
-0.06851818 -0.02613448 -0.0174467 -0.07100339 0.055604313 -0.03196111 0.06995237 0.062297877
0.04569431 -0.060688507 -0.020214744 -0.008935632 0.012066902 -0.016643753 0.019455733 -0.031816065
0.029487774 -0.019844037 0.07366315 0.021286735 0.030414354 -0.051134247 -0.019764328 -0.048955575
-0.02975918 0.055626545 -0.07015708 -0.066618375 -0.07036866 0.016436039 0.013553004 0.0379107
-0.048021335 -0.02329347 -0.03346405 0.00027706943 -0.088869244 -0.05975125 -0.03473368 -0.075962365
-0.011124822 -0.045854926 0.011207109 0.08295693 0.0069978535 0.04494454 0.060668077 0.010188701
-0.07701777 -0.027820218 -0.031587835 0.07817366 -0.035768885 -0.0032898264 0.054911923 0.030376472
0.012658746 -0.03517097 -0.062705904 0.013467043 -0.025157532 -0.015190815 -0.046078578 0.0641612
-0.057810556 0.007181186 0.061456595 -0.006100201 0.054169253 -0.046283375 -0.04593114 -0.040610857
00000000: 7d4a 26bd bd5e 50bd fdec 863b af7b 9fbd
00000010: 7d0d 023d ad27 b73c f292 22bd 025c af3d
00000020: 10b0 be3b 1725 8e3d 1aff 673d b6af 9a3d
00000030: d79a 11bd 00b1 633c c08b 8b3c 60a9 10bd
00000040: 4d33 763d 2e5e b0bd e686 d03c bf6f 1a3d
00000050: cae0 90bd c3b7 a03d 5c80 9b3b f755 f9bc
00000060: a536 fd3c a974 cbbd 20d8 c0bc a845 b13d
00000070: e2b1 90bd 065a 5bbc dd0b ea3c b237 963d
00000080: f0bb 7e3c 071f c1bd ac57 d63d 8a40 15bd
00000090: 7f3f 8c3d cda1 45bd 33bb 9f3d 26b3 7b3d
000000a0: 7b4a b63c 9469 07bd 9f0d 56bd e80c 2cbc
000000b0: 69ce a2bd 232a 3c3c 2e32 2fbc 49de 91bd
000000c0: ad8d 6b3c 8d95 cbbc 31b6 ce3c 274d 453d
000000d0: 0c1b f6bc dd5b cabb be15 b0bd 57d5 a1bc
000000e0: 4253 8cbd fa17 d6bc 62ec 8ebc 3a6a 91bd
000000f0: 59c1 633d a7e9 02bd 3043 8f3d 0f2c 7f3d
00000100: f529 3b3d 8394 78bd 6499 a5bc c266 12bc
00000110: 41b4 453c 7b58 88bc a161 9f3c 9051 02bd
00000120: 5890 f13c f68f a2bc b5dc 963d 8561 ae3c
00000130: 8627 f93c 2572 51bd cde8 a1bc a485 48bd
00000140: 86c9 f3bc a9d8 633d 84ae 8fbd 376f 88bd
00000150: 721d 90bd dfa4 863c 6b0d 5e3c 4048 1b3d
00000160: 05b2 44bd f2d1 bebc 9a11 09bd a143 9139
00000170: 1401 b6bd babd 74bd e744 0ebd 2892 9bbd
00000180: e344 36bc 60d2 3bbd 069e 373c 53e5 a93d
00000190: 404e e53b c417 383d 177f 783d 82ee 263c
000001a0: 7ebb 9dbd 3ae7 e3bc 3f62 01bd 8319 a03d
000001b0: 6582 12bd 219a 57bb 53eb 603d 14d8 f83c
000001c0: a166 4f3c 6f0f 10bd f46b 80bd dfa4 5c3c
000001d0: 2b17 cebc e5e2 78bc e4bc 3cbd f266 833d
000001e0: c3ca 6cbd 2850 eb3b e9b9 7b3d 32e4 c7bb
000001f0: 94e0 5d3d a393 3dbd 4b22 3cbd 9257 26bd

pi.mu_net.4.weight f4 [6, 128]
0.07329832 -0.029317629 0.11024882 -0.0203063 -0.037855193 0.010400422 0.064324304 -0.03158443
-0.1016062 -0.08152028 -0.084283166 -0.119535655 0.042655107 -0.08378542 0.059110556 0.024358762
0.058230076 -0.09548613 0.049710773 -0.076360084 -0.099488385 -0.0001085736 0.026899837 0.072287135
0.0006556948 0.06551975 0.042449947 0.022766475 0.086416684 0.033705376 0.0007407082 0.062149968
-0.0071509336 -0.018123051 0.085119426 -0.019998366 0.053454522 0.06808199 0.09738694 -0.10347648
-0.017090319 0.032094467 -0.05632058 -0.018722787 -0.06321975 -0.02518582 -0.013528304 -0.08732276
0.06529075 -0.047134705 0.011018308 -0.07650103 -0.066039205 -0.10958442 0.05118781 -0.077726625
-0.016128713 0.011191983 0.00046216891 0.012933002 -0.1153164 -0.0842623 -0.04259098 -0.065978296
-0.067470536 -0.046450626 0.029383766 0.10988874 -0.048287608 -0.039726913 -0.00753452 0.08135971
-0.026053721 0.049684547 -0.07203733 0.072950915 0.018234711 -0.019866956 -0.07589442 0.020684144
0.009574152 -0.026763102 -0.08510534 0.031577688 0.011112765 0.035968974 0.065462574 0.102963455
-0.038385846 0.0015482416 0.032348465 -0.07803062 0.10059223 -0.04899714 0.060308833 0.012863901
0.040707286 -0.031709068 0.04050325 -0.05159637 0.054608706 0.07019348 -0.03877689 0.018714322
-0.09251914 -0.04752834 0.10007456 0.04724037 0.056128234 0.07455114 -0.014820115 0.07590599
-0.017297141 -0.11655962 -0.06232002 -0.061530262 -0.089584015 -0.039455164 0.013231088 0.065196894
0.09507014 0.051934123 -0.12468605 0.06911696 -0.04514822 0.0032671683 0.061269704 -0.09027316
0.062943004 -0.059603956 0.018650992 0.020181252 0.011994734 0.00078811654 0.038073327 -0.0041211764
0.07957982 -0.075908914 0.09815764 0.04794125 -0.098593906 -0.0064600925 0.040879093 0.022584647
-0.06625467 0.0024074735 0.08159609 0.00030096204 0.07724319 0.09091159 0.030001005 0.07427013
0.083956055 0.04768522 0.005596543 -0.09534017 -0.026086954 -0.06431574 0.0452138 -0.046724852
0.011498155 0.059184164 -0.060111314 -0.08182893 0.06556694 -0.04631251 -0.06339 0.07022527
0.07137 0.03840134 -0.087608986 -0.08194995 0.09326924 0.0320222 0.06574184 0.0072869547
-0.079755485 0.023190476 0.0730255 -0.09662932 0.06595331 -0.050477874 -0.023220094 0.039004453
0.02041945 -0.0066729537 0.027391927 0.104731746 -0.054930396 0.03548762 0.064690046 0.026775904
-0.016369915 -0.085007645 -0.041292243 -0.00013805783 -0.02239921 0.049149014 0.060432166 -0.06779491
0.01935361 0.07444305 -0.10970948 0.04898215 0.07076512 0.08027275 -0.025689198 -0.09395928
0.09955506 -0.082075804 0.074087776 -0.096598834 0.10358062 0.041072577 -0.020051088 0.08404712
-0.08459751 -0.1086506 -0.054139357 0.023676638 -0.003261611 0.023089988 0.028615864 0.08114715
0.0055191643 0.08112951 0.002596114 0.040514097 0.0004306669 -0.020228514 -0.08516944 -0.11416326
0.08824061 -0.009518929 0.022210376 0.064997435 0.059216764 0.067065954 -0.021368941 0.027216658
-0.06923772 0.066756055 -0.081294745 -0.06564875 -0.009217872 -0.024975251 -0.040692937 0.0518552
0.040507216 -0.039940655 0.061040644 0.046545614 0.05400371 -0.05921844 0.057624258 -0.02494865
00000000: 6e1d 963d 862b f0bc 22ca e13d 6659 a6bc
00000010: 0c0e 1bbd 8866 2a3c 76bc 833d ad5e 01bd
00000020: e916 d0bd 1bf4 a6bd a79c acbd 1ccf f4bd
00000030: 1fb7 2e3d b197 abbd e91d 723d 078c c73c
00000040: a982 6e3d 3b8e c3bd 869d 4b3d ad62 9cbd
00000050: 91c0 cbbd 02b2 e3b8 0c5d dc3c 470b 943d
00000060: efe2 2b3a 382f 863d ffdf 2d3d c280 ba3c
00000070: 3bfb b03d a60e 0a3d 162c 423a f790 7e3d
00000080: 6152 eabb cb76 94bc 1853 ae3d 9dd3 a3bc
00000090: 21f3 5a3d 926e 8b3d ce72 c73d 7aeb d3bd
000000a0: ff00 8cbc 7d75 033d 69b0 66bd 8860 99bc
000000b0: 5b79 81bd 7e52 cebc d2a5 5dbc 46d6 b2bd
000000c0: 28b7 853d 5210 41bd 2286 343c 92ac 9cbd
000000d0: 903f 87bd cc6d e0bd 4faa 513d 232f 9fbd
000000e0: 5d20 84bc 945e 373c 434f f239 f1e4 533c
000000f0: 012b ecbd b691 acbd e173 2ebd a11f 87bd
00000100: fe2d 8abd 0343 3ebd 39b6 f03c 590d e13d
00000110: 3ac9 45bd b0b8 22bd 22e4 f6bb eb9f a63d
00000120: 9d6e d5bc 0682 4b3d 4f88 93bd 4a67 953d
00000130: f660 953c 07c0 a2bc 896e 9bbd cb71 a93c
00000140: e7dc 1c3c 4b3e dbbc b54b aebd 9b57 013d
00000150: 5112 363c 3454 133d 3e11 863d 81de d23d
00000160: 7a3a 1dbd 5eee ca3a d37f 043d 85ce 9fbd
00000170: 4d03 ce3d 3ab1 48bd 6506 773d 1dc3 523c
00000180: afbc 263d 5ee1 01bd bce6 253d b756 53bd
00000190: 61ad 5f3d 99c1 8f3d 84d4 1ebd c74e 993c
000001a0: ad7a bdbd 14ad 42bd e4f3 cc3d 1e7f 413d
000001b0: b8e6 653d 45ae 983d 11d0 72bc 9a74 9b3d
000001c0: bcb2 8dbc cfb6 eebd 4743 7fbd 2807 7cbd
000001d0: d377 b7bd bd9b 21bd 35c7 583c f385 853d
000001e0: 22b4 c23d e0b8 543d 665b ffbd 318d 8d3d
000001f0: 57ed 38bd fd1d 563b f1f5 7a3d 22e1 b8bd
00000200: 43e8 803d 4723 74bd f7c9 983c 2753 a53c
00000210: 9085 443c 9b99 4e3a c7f2 1b3d ef0a 87bb
00000220: bffa a23d 2276 9bbd df06 c93d 0b5e 443d
00000230: 9aeb c9bd 2faf d3bb d670 273d 7003 b93c
00000240: 87b0 87bd b4c6 1d3b da1b a73d 71ca 9d39
00000250: ad31 9e3d db2f ba3d abc4 f53c f01a 983d
00000260: 27f1 ab3d 9451 433d 3563 b73b b541 c3bd
00000270: 4fb4 d5bc f8b7 83bd 1b32 393d 8f62 3fbd
00000280: c262 3c3c 186b 723d 4837 76bd ed95 a7bd
00000290: f647 863d 30b2 3dbd 9ed2 81bd 44d2 8f3d
000002a0: 6f2a 923d b94a 1d3d 576c b3bd 60d5 a7bd
000002b0: f103 bf3d b629 033d a8a3 863d 68c7 ee3b
000002c0: d856 a3bd f4f9 bd3c 658e 953d 98e5 c5bd
000002d0: 8712 873d e3c1 4ebd 1138 bebc 22c3 1f3d
000002e0: b146 a73c cba8 dabb 0965 e03c 997d d63d
000002f0: b2fe 60bd 775b 113d 377c 843d 2459 db3c
00000300: 331a 86bc 7d18 aebd 0e22 29bd 9ec3 10b9
00000310: 8c7e b7bc 7a50 493d b887 773d 0fd8 8abd
00000320: 768b 9e3c 9975 983d 5daf e0bd 82a1 483d
00000330: 4eed 903d 0a66 a43d 2772 d2bc b96d c0bd
00000340: 86e3 cb3d 5c17 a8bd 55bb 973d 9cd5 c5bd
00000350: 1322 d43d b83b 283d 2e42 a4bc e520 ac3d
00000360: 7641 adbd 3584 debd 3bc1 5dbd 82f5 c13c
00000370: c1c0 55bb 3727 bd3c d16b ea3c 7a30 a63d
00000380: 1bda b43b 3b27 a63d 9123 2a3b 1cf2 253d
00000390: 22cb e139 45b6 a5bc 516d aebd 6dce e9bd
000003a0: 7eb7 b43d 48f5 1bbc 89f2 b53c 601d 853d
000003b0: 478d 723d e059 893d eb0d afbc 78f5 de3c
000003c0: 81cc 8dbd 66b7 883d dc7d a6bd da72 86bd
000003d0: 8f06 17bc e698 ccbc a3ad 26bd 1e66 543d
000003e0: e5ea 253d d098 23bd c105 7a3d 9da6 3e3d
000003f0: ff32 5d3d 098f 72bd 6a07 6c3d 1c61 ccbc

pi.mu_net.4.bias f4 [6]
-0.0073496797 -0.028200988 -0.05477801 0.069193855 0.058000814 0.074798346
00000000: 95d5 f0bb c205 e7bc e85e 60bd 82b5 8d3d
00000010: 4392 6d3d e02f 993d

vf.v_net.0.weight f4 [128, 24]
-0.14645274 -0.06554022 -0.09193531 0.0917371 -0.021167375 -0.17325096 0.07300015 -0.05373518
-0.112827875 0.004995269 0.020729866 0.16820428 -0.01768881 0.17730404 0.032194234 -0.3518862
0.06723541 -0.07931789 0.20883892 0.052055936 0.33753222 -0.09406518 -0.0050326213 -0.00089713227
0.2798418 -0.0011634477 -0.072267756 -0.044276875 0.034184832 0.12814723 0.08155975 -0.20543991
0.28550145 -0.11550357 -0.16787595 0.026484264 0.07569167 0.120443195 0.2541724 0.011858061
0.20404766 0.17351757 0.07878288 -0.031578176 0.07317024 -0.108877726 0.0040404033 -0.112018816
0.27595863 -0.118632756 -0.04722545 -0.107130036 -0.048755996 0.12291564 -0.1303403 -0.109975785
0.24373308 0.06638139 -0.1618296 -0.006445185 -0.22184585 0.1497288 0.14118107 -0.034263857
-0.02672409 -0.11874647 0.13084328 0.04986364 -0.154463 -0.011504154 0.24443264 -0.14165285
0.08288795 0.022376223 0.0738569 -0.025726462 -0.04285811 -0.22726344 0.04212641 0.047046706
-0.1492105 -0.06459177 -0.0045896354 -0.009236581 -0.05443205 -0.041298438 0.16876277 0.038518015
-0.12879077 -0.09457892 0.19042003 0.19043763 0.24153861 -0.05249776 -0.05115937 0.3421866
0.078203216 -0.087310225 0.014544155 0.14682905 -0.134515 0.11757071 -0.11819843 -0.13780986
-0.1517264 -0.044408467 -0.06262569 -0.18117717 -0.06342304 -0.029686159 0.2550061 -0.20642427
-0.15756033 0.118360676 0.03724437 0.20473716 -0.08451438 -0.077323765 -0.11124889 0.037050046
0.054196797 0.13236688 0.27912664 -0.20697986 0.16461544 0.048261285 -0.18478388 0.15708286
0.13416718 0.16477165 0.059099216 0.015403563 -0.03954035 -0.111987464 0.18831652 0.020869045
-0.2857739 0.18829693 0.16361924 -0.22828558 0.006517202 -0.17402878 0.1424499 -0.037035957
0.07051519 -0.06472172 0.16274032 -0.038880646 -0.07941142 0.23729509 0.14168435 0.13126823
-0.032893576 -0.10026351 -0.06907102 -0.0041686995 0.19796248 0.04616451 0.12590869 -0.105425864
-0.13542692 0.05735721 -0.19975154 0.14564599 0.24291617 0.0240422 0.2537127 -0.18368666
-0.09615645 -0.13340077 0.0507102 0.12893996 0.0024235786 0.1627532 -0.15315984 0.17486125
-0.017006565 0.24472293 -0.17210189 -0.11768365 -0.106506705 -0.04772523 -0.19706342 -0.080853805
-0.3711919 0.09298168 0.030331071 -0.1303236 -0.011368302 -0.09364601 0.13817884 0.026231036
0.09882972 0.024658725 0.17955886 0.030677164 -0.18775302 -0.08375754 0.032894626 -0.12524627
-0.04760982 -0.04856316 -0.11612478 0.044120897 -0.27523074 -0.05683188 -0.09833135 0.034025997
-0.16555965 -0.109412745 -0.19679497 -0.19045712 -0.16161644 -0.22055057 -0.08664733 -0.05883298
-0.002298496 0.25523707 -0.0012032166 -0.0554206 -0.16930999 -0.05877047 -0.18321371 -0.07720212
0.18904589 0.19687726 -0.17249179 -0.1110804 -0.039405607 -0.10840229 -0.29352608 -0.03962235
0.18484212 -0.02261788 -0.08524733 0.4227942 -0.14713928 0.042258024 0.347562 0.074285984
0.06604644 -0.04877195 0.19017012 0.08121961 0.15348986 -0.19276361 0.17867306 0.15933411
-0.16388926 -0.07748255 0.22107758 0.1949605 0.040051404 -0.1052276 0.3854211 0.1490193
00000000: b5f7 15be f339 86bd 9448 bcbd a9e0 bb3d
00000010: 3467 adbc b368 31be 1a81 953d 6c19 5cbd
00000020: 4d12 e7bd 5aaf a33b aed1 a93c be3d 2c3e
00000030: 20e8 90bc 318f 353e 1ade 033d 6e2a b4be
00000040: b8b2 893d 6b71 a2bd dfd9 553e 9b38 553d
00000050: 06d1 ac3e 3fa5 c0bd b0e8 a4bb 872d 6bba
00000060: 6d47 8f3e d47e 98ba 1e01 94bd ab5b 35bd
00000070: 6505 0c3d 0739 033e cc08 a73d d75e 52be
00000080: 3f2d 923e 238d ecbd ace7 2bbe 87f5 d83c
00000090: 3c04 9b3d ecaa f63d e322 823e 5048 423c
000000a0: dff1 503e 97ae 313e eb58 a13d 1e58 01bd
000000b0: 47da 953d 49fb debd 5c65 843b 1f6a e5bd
000000c0: 734a 8d3e bbf5 f2bd 796f 41bd fe66 dbbd
000000d0: 5eb4 47bd 32bb fb3d ed77 05be fc3a e1bd
000000e0: 2a95 793e f7f2 873d a9b6 25be 2132 d3bb
000000f0: 8f2b 63be 8252 193e c591 103e 4258 0cbd
00000100: 7bec dabc 5931 f3bd c8fb 053e d13d 4c3d
00000110: 8c2b 1ebe eb7b 3cbc 8d4c 7a3e 720d 11be
00000120: 28c1 a93d 574e b73c 4942 973d 4dc0 d2bc
00000130: fc8b 2fbd bfb7 68be be8c 2c3d 0cb4 403d
00000140: a3ca 18be b148 84bd a764 96bb 0755 17bc
00000150: 24f4 5ebd 8d28 29bd 26d0 2c3e 11c5 1d3d
00000160: bae1 03be 98b2 c1bd 78fd 423e 1502 433e
00000170: e655 773e e407 57bd 7d8c 51bd 1533 af3e
00000180: 0229 a03d b4cf b2bd 9c4a 6e3c 5b5a 163e
00000190: 4dbe 09be eac8 f03d 0512 f2bd 071e 0dbe
000001a0: 2a5e 1bbe a7e5 35bd e641 80bd 8286 39be
000001b0: f0e3 81bd 6330 f3bc 2990 823e e260 53be
000001c0: 7f57 21be 1567 f23d 8d8d 183d 9ea6 513e
000001d0: e015 adbd ec5b 9ebd 75d6 e3bd cac1 173d
000001e0: 76fd 5d3d 2f8b 073e b0e9 8e3e 87f2 53be
000001f0: f390 283e a0ad 453d fc37 3dbe 54da 203e
00000200: 1f63 093e e6b9 283e 0512 723d 3a5f 7c3c
00000210: 10f5 21bd af59 e5bd 0cd6 403e 8ff5 aa3c
00000220: f550 92be e9d0 403e cd8b 273e b2c3 69be
00000230: 418e d53b 9a34 32be 63de 113e 04b3 17bd
00000240: 456a 903d d28c 84bd 66a5 263e 5041 1fbd
00000250: 74a2 a2bd 7cfd 723e b415 113e 2e6b 063e
00000260: 6abb 06bd f556 cdbd 1b75 8dbd 9699 88bb
00000270: adb6 4a3e ff16 3d3d 35ee 003e 84e9 d7bd
00000280: 5bad 0abe 65ef 6a3d ab8b 4cbe 3924 153e
00000290: 04bf 783e 26f4 c43c a2e6 813e 5b18 3cbe
000002a0: aced c4bd 369a 08be 80b5 4f3d d608 043e
000002b0: e7d4 1e3b c6a8 263e efd5 1cbe d40e 333e
000002c0: 5a51 8bbc a698 7a3e 7a3b 30be 2004 f1bd
000002d0: 3020 dabd 887b 43bd feca 49be ae96 a5bd
000002e0: dd0c bebe 2e6d be3d de78 f83c 8d73 05be
000002f0: 1d42 3abc 7bc9 bfbd c17e 0d3e 78e2 d63c
00000300: 3c67 ca3d 1801 ca3c 47de 373e ad4e fb3c
00000310: 5442 40be 1389 abbd 84bc 063d 8f40 00be
00000320: 8402 43bd 2aea 46bd d4d2 edbd 1db8 343d
00000330: 0beb 8cbe 8cc8 68bd f261 c9bd d85e 0b3d
00000340: 7888 29be ca13 e0bd 9f84 49be 3107 43be
00000350: c87e 25be 02d8 61be 2874 b1bd dafa 70bd
00000360: 5da2 16bb 6fae 823e 40b5 9dba b600 63bd
00000370: 995f 2dbe 4eb9 70bd 609c 3bbe 251c 9ebd
00000380: 3f95 413e 319a 493e b0a1 30be 1f7e e3bd
00000390: c667 21bd 0502 debd 0d49 96be 0c4b 22bd
000003a0: 4147 3d3e 2249 b9bc 2796 aebd 7b78 d83e
000003b0: aeab 16be c016 2d3d a5f3 b13e 4023 983d
000003c0: 5b43 873d 19c5 47bd f5bb 423e 7856 a63d
000003d0: 722c 1d3e d363 45be 12f6 363e 7b28 233e
000003e0: 96d2 27be 2caf 9ebd 2962 623e baa3 473e
000003f0: f10c 243d 9181 d7bd ea55 c53e 8498 183e

vf.v_net.0.bias f4 [128]
0.18029894 0.28112733 0.05624296 0.16757566 0.04467426 -0.10614392 -0.23900239 0.05266004
-0.116783544 0.059633885 0.24270761 0.07128674 0.31355938 -0.37606964 0.0049556377 0.15311211
-0.37157875 0.025526807 -0.33429 0.18847641 -0.10129756 -0.3656207 -0.2605222 0.26136836
-0.3142228 -0.07547012 -0.01819998 -0.045790058 0.20066488 0.35854742 -0.24435909 -0.18639533
0.022800831 0.27791312 0.34994876 0.016345723 0.4236771 0.14986503 -0.34803507 0.36384425
0.09902447 -0.29192197 0.35403112 -0.23970723 0.31792864 -0.2891945 0.08275874 0.21702859
0.20242737 -0.32252106 -0.22909376 0.33294302 -0.14397669 -0.16758983 -0.3079569 0.431257
-0.2732895 0.095410734 -0.026810585 0.33286878 -0.36222723 -0.22454488 0.25310048 -0.40944654
0.27751097 0.29577082 -0.11856601 -0.31087866 0.33088866 -0.25803238 -0.22525012 0.2737359
0.3669014 0.35494462 0.03486057 0.08737558 -0.41573265 -0.07790775 -0.2508548 -0.3300258
0.35387456 0.18242303 -0.31250355 0.44547275 0.18697831 0.0741467 -0.23765002 0.11565774
-0.37883008 -0.27715486 -0.29595774 -0.36965668 0.25607285 0.35293868 0.14583613 0.0090614995
-0.28410614 0.42553952 0.042623922 0.21882968 0.25044855 -0.40597376 -0.52869254 0.34373644
-0.28126404 0.1809913 -0.2868575 -0.26928988 0.096355364 0.32147053 0.28860632 -0.1564713
0.37113938 0.29599744 -0.26217926 0.2855581 0.108100735 0.147478 -0.18275851 0.19135833
-0.18768919 0.28587297 -0.40200093 -0.4021413 0.24526145 -0.34916446 -0.32526916 -0.28684017
00000000: 49a0 383e ecef 8f3e 055f 663d f498 2b3e
00000010: 5bfc 363d fc61 d9bd 0bbd 74be 0eb2 573d
00000020: 362c efbd a942 743d 5888 783e c8fe 913d
00000030: db8a a03e 338c c0be e762 a23b 6cc9 1c3e
00000040: 923f bebe 981d d13c 0f28 abbe f6ff 403e
00000050: 1875 cfbd a332 bbbe 2a63 85be 13d2 853e
00000060: d0e1 a0be 1490 9abd 2018 95bc 5b8e 3bbd
00000070: 187b 4d3e 8793 b73e 4539 7abe 6bde 3ebe
00000080: cfc8 ba3c a14a 8e3e 7c2c b33e 77e7 853c
00000090: 34ec d83e 3876 193e a731 b2be cb49 ba3e
000000a0: 57cd ca3d cc76 95be 9143 b53e d075 75be
000000b0: 8bc7 a23e 4d11 94be 6a7d a93d be3c 5e3e
000000c0: 1f49 4f3e 7b21 a5be 8e97 6abe 8277 aa3e
000000d0: a06e 13be ab9c 2bbe 87ac 9dbe b8cd dc3e
000000e0: 9aec 8bbe b466 c33d dfa1 dbbc c76d aa3e
000000f0: d975 b9be 18ef 65be 6396 813e faa2 d1be
00000100: eb15 8e3e 466f 973e bcd2 f2bd 7d2b 9fbe
00000110: 3d6a a93e d21c 84be f8a7 66be 1d27 8c3e
00000120: 80da bb3e 4dbb b53e f5c9 0e3d f8f1 b23d
00000130: e9da d4be 198e 9fbd 0a70 80be 24f9 a8be
00000140: 0c2f b53e 1acd 3a3e 7700 a0be 0115 e43e
00000150: 3e77 3f3e 3ada 973d 875a 73be f7dd ec3d
00000160: 04f6 c1be 3ee7 8dbe c687 97be a443 bdbe
00000170: fb1b 833e 61b4 b43e 1156 153e af76 143c
00000180: 5c76 91be 51e0 d93e 6c96 2e3d e314 603e
00000190: cb3a 803e cbdb cfbe 6558 07bf 39fe af3e
000001a0: d701 90be c955 393e fcde 92be 5de0 89be
000001b0: f655 c53d c997 a43e 35c4 933e 033a 20be
000001c0: fb05 be3e fa8c 973e 5c3c 86be ac34 923e
000001d0: eb63 dd3d 7904 173e 0c25 3bbe 70f3 433e
000001e0: 9831 40be f15d 923e 11d3 cdbe 77e5 cdbe
000001f0: d125 7b3e afc5 b2be ae89 a6be b7dc 92be

vf.v_net.2.weight f4 [128, 128]
0.016791109 0.008368523 -0.04393716 0.005439236 -0.16317953 -0.006138127 0.15073793 -0.016620465
-0.06486811 0.12042703 0.051454622 0.067775615 -0.055782635 -0.12994756 -0.023187326 -0.047836944
0.014325712 0.072467126 0.021878503 -0.011820349 -0.16761205 -0.06718093 0.20025414 0.030333702
0.09586982 -0.02279955 -0.082037166 -0.06944532 0.015056302 0.09746998 -0.012663248 0.122455925
0.109010644 0.04405964 -0.09963477 0.19349217 0.049612794 -0.2068395 0.02585211 0.14570944
-0.072796874 -0.14176027 0.14052194 -0.15035975 -0.12692843 -0.08419545 0.11981137 -0.03855837
0.07358123 0.08790193 -0.01059119 -0.08526442 0.03876306 0.036943056 -0.17114559 0.15568483
-0.11755171 0.19623639 -0.076778024 -0.041931067 -0.051698487 0.107209615 -0.008846331 -0.031791344
0.044554465 -0.14630339 0.029162535 -0.06359645 0.12972622 -0.21137692 0.011452918 0.057492364
-0.00921969 0.018313324 -0.041555997 -0.05253219 -0.08019624 -0.075115755 -0.036031235 -0.026151627
0.13127047 0.00956258 0.11576005 0.041587066 -0.01026107 -0.011408605 0.0467127 -0.12785555
-0.023403248 0.023753501 -0.08654453 0.0059313388 0.15630819 -0.012362242 0.10065373 0.07527682
-0.014894043 0.1276066 0.13043067 -0.07719248 0.07794325 0.10351037 -0.1051397 0.0056528887
-0.09443853 0.06798028 -0.110608846 0.020705692 -0.12395888 -0.06369913 -0.06578206 -0.076104745
0.029075745 -0.0141459685 -0.09725816 -0.074760295 0.014407784 0.16472213 -0.16809127 -0.08573038
0.06685575 0.06965132 -0.10529763 -0.05781019 0.15972069 -0.10574669 -0.02797927 0.058773722
-0.061049994 0.051836565 -0.063227475 0.014366882 -0.04351738 0.042249203 0.112415925 -0.1311151
-0.05593835 0.047589153 0.085426584 0.010469497 -0.19329228 0.10870582 0.05403428 -0.04972278
-0.0037666303 0.122684434 0.09476469 0.04565081 -0.04988239 0.059448294 -0.008992926 0.020094959
-0.083797984 -0.11287223 -0.06957135 0.0916451 -0.015936071 -0.09801087 -0.051616915 -0.045258686
-0.07164301 0.18524927 -0.034309257 -0.09507908 -0.016991638 0.10920004 -0.037386168 0.094057016
0.010817381 -0.07741725 0.13435812 -0.065830894 -0.12603122 -0.0473581 0.14429612 -0.013247194
0.1338648 -0.13474597 -0.055022113 -0.058317345 -0.059585918 -0.042032085 -0.060494736 0.14166708
-0.13765562 0.10102587 -0.07255274 -0.08873386 -0.10124679 -0.014522408 0.09108983 -0.03258805
0.0757584 -0.03718372 -0.036490582 -0.10191676 -0.0209048 -0.20408417 0.12993887 -0.115102395
0.04200438 -0.11095926 -0.015530303 0.044767875 -0.09658988 -0.15532534 -0.08043938 -0.0459719
0.14391707 0.006856093 0.14527267 -0.019330753 0.1238149 0.0049712914 0.13252099 0.089171365
0.047101937 -0.027945645 -0.06128079 -0.05767973 -0.060827635 -0.00782596 -0.058496647 -0.07867151
0.016687058 0.0033586985 -0.0048507573 0.07569213 0.12090589 0.072159626 -0.119961455 0.09208379
-0.10234073 0.10141827 -0.2130419 -0.032356713 -0.21336311 0.089356236 -0.16738726 -0.070210665
0.018362802 0.004076559 -0.085722 -0.072913714 0.044827852 0.1355896 -0.0064580245 -0.016121013
0.051353864 -0.019996798 0.03385842 -0.0661366 0.09035694 -0.0076503824 -0.012211225 -0.012284172
00000000: 828d 893c 211c 093c 74f7 33bd 9e3b b23b
00000010: 8918 27be 5722 c9bb 0b5b 1a3e a427 88bc
00000020: 92d9 84bd 72a2 f63d 15c2 523d f1cd 8a3d
00000030: 557c 64bd f910 05be 59f3 bdbc acf0 43bd
00000040: 64b6 6a3c a569 943d 8c3a b33c 23aa 41bc
00000050: 7ea2 2bbe 2896 89bd 6c0f 4d3e 627e f83c
00000060: 6557 c43d 1fc6 babc 1a03 a8bd 5939 8ebd
00000070: b5ae 763c 579e c73d 8379 4fbc 2cca fa3d
00000080: f940 df3d e277 343d 500d ccbd d022 463e
00000090: c936 4b3d bccd 53be cec7 d33c db34 153e
000000a0: 8716 95bd 9b29 11be fce4 0f3e e8f7 19be
000000b0: 87f9 01be aa6e acbd aa5f f53d 62ef 1dbd
000000c0: c2b1 963d ed05 b43d ac86 2dbc 1d9f aebd
000000d0: 04c6 1e3d 9a51 173d ca40 2fbe d86b 1f3e
000000e0: f3be f0bd 31f2 483e cc3d 9dbd e9bf 2bbd
000000f0: cbc1 53bd b790 db3d 34f0 10bc a437 02bd
00000100: be7e 363d 8ed0 15be 45e6 ee3c db3e 82bd
00000110: f3d6 043e 3173 58be 05a5 3b3c 1d7d 6b3d
00000120: 2f0e 17bc d305 963c 9f36 2abd fe2b 57bd
00000130: ed3d a4bd 4ad6 99bd 7d95 13bd f03b d6bc
00000140: c46b 063e 5eac 1c3c 9b13 ed3d 3357 2a3d
00000150: 0c1e 28bc 28eb 3abc d155 3f3d 91ec 02be
00000160: 2bb8 bfbc b496 c23c 423e b1bd ad5b c23b
00000170: 410f 203e 008b 4abc 8b23 ce3d bc2a 9a3d
00000180: 2506 74bc 4eab 023e 9e8f 053e 1717 9ebd
00000190: b6a0 9f3d 3ffd d33d 7c53 d7bd de3b b93b
000001a0: fd68 c1bd 3f39 8b3d e486 e2bd fc9e a93c
000001b0: 27de fdbd b174 82bd bfb8 86bd cedc 9bbd
000001c0: 4230 ee3c 7ec4 67bc 492f c7bd ed1b 99bd
000001d0: a00e 6c3c ebac 283e 1e20 2cbe 6993 afbd
000001e0: abeb 883d 5aa5 8e3d 49a6 d7bd 61ca 6cbd
000001f0: d28d 233e b891 d8bd c834 e5bc b7bc 703d
00000200: 8f0f 7abd 9452 543d 687d 81bd 1263 6b3c
00000210: 483f 32bd 800d 2d3d 523a e63d 0943 06be
00000220: 9c1f 65bd d8ec 423d 22f4 ae3d 4188 2b3c
00000230: 69ee 45be 28a1 de3d 0d53 5d3d 1daa 4bbd
00000240: 92d9 76bb fa41 fb3d fd13 c23d 58fc 3a3d
00000250: 7a51 4cbd 0e80 733d 1157 13bc 2f9e a43c
00000260: 479e abbd 8e29 e7bd 6d7b 8ebd 6db0 bb3d
00000270: 5d8c 82bc ecb9 c8bd 426c 53bd 2c61 39bd
00000280: 92b9 92bd fcb1 3d3e dd87 0cbd d2b8 c2bd
00000290: 0c32 8bbc 45a4 df3d 3d22 19bd f7a0 c03d
000002a0: 623b 313c ef8c 9ebd 2d95 093e 59d2 86bd
000002b0: 540e 01be 91fa 41bd 5dc2 133e c20a 59bc
000002c0: db13 093e d9fa 09be de5e 61bd 2bde 6ebd
000002d0: 5d10 74bd d629 2cbd 54c9 77bd 2d11 113e
000002e0: 98f5 0cbe a7e6 ce3d 8896 94bd 19ba b5bd
000002f0: 7a5a cfbd 65ef 6dbc 4e8d ba3d 0c7b 05bd
00000300: 3827 9b3d f54d 18bd 2677 15bd bcb9 d0bd
00000310: 8b40 abbc 71fb 50be b20e 053e ceba ebbd
00000320: c90c 2c3d 9c3e e3bd d072 7ebc 855e 373d
00000330: ead0 c5bd 9b0d 1fbe 67bd a4bd 084d 3cbd
00000340: ff5e 133e 14a9 e03b 5cc2 143e 875b 9ebc
00000350: ab92 fd3d 37e6 a23b 95b3 073e 7a9f b63d
00000360: f6ed 403d 44ee e4bc 9101 7bbd 9541 6cbd
00000370: 6626 79bd 7538 00bc 2e9a 6fbd 871e a1bd
00000380: 4cb3 883c 9c1d 5c3b 1af3 9ebb 7a04 9b3d
00000390: 829d f73d 6dc8 933d 5aae f5bd 6d96 bc3d
000003a0: 0498 d1bd 62b4 cf3d a827 5abe 7988 04bd
000003b0: dc7b 5abe 6700 b73d 9167 2bbe 9cca 8fbd
000003c0: 966d 963c a894 853b 048f afbd c953 95bd
000003d0: 699d 373d 00d8 0a3e d69d d3bb 3710 84bc
000003e0: 6e58 523d 53d0 a3bc 20af 0a3d a072 87bd
000003f0: 0f0d b93d 0fb0 fabb 9711 48bc 8d43 49bc

vf.v_net.2.bias f4 [128]
0.07351543 0.15110102 0.04370841 0.038487006 -0.10875256 0.1624576 -0.08216729 0.14543648
-0.1308075 0.08304512 0.15742318 0.137702 0.09374834 0.045944758 0.06372531 0.060370084
-0.0872286 0.18629433 0.21013355 -0.108241856 0.12689142 -0.0032857335 0.20094688 -0.1288909
0.0925706 0.09643683 -0.013371992 0.19626412 0.19430755 0.19918515 0.0970262 0.088274665
0.08365763 -0.10038023 -0.029303866 0.15187827 0.15934788 0.16602504 -0.013877553 0.035771504
0.085463345 0.083766095 -0.014590388 0.003464503 0.10371139 0.01232451 0.08137325 -0.11643375
0.10275725 -0.0321474 0.12962517 -0.17727779 -0.102873296 0.12952295 0.13781883 0.121281035
0.17293918 -0.005608092 -0.09273284 0.105802715 -0.112350844 0.042693533 -0.06165918 0.012332052
0.06847074 0.098365046 -0.124121115 0.16734217 0.13831465 -0.1418356 0.08529175 -0.033704262
-0.043374557 0.06590681 0.052345388 0.06182471 0.14542055 -0.17928116 0.11169793 0.15994075
0.19777662 -0.13076967 0.10508901 -0.07007057 0.08567516 0.18862002 -0.01564438 0.16352348
0.1913701 -0.038262162 -0.028277367 0.1651406 0.18089946 0.06285297 0.13216914 -0.08278369
0.04748504 0.14743923 -0.02814095 0.030752508 0.033319827 0.067282826 0.0727569 -0.078670606
0.07406637 0.04500006 0.16180256 0.08211659 -0.025973048 0.0858812 -0.0046331286 -0.107037194
0.1874077 0.087890096 0.13519052 -0.12646961 0.035184935 -0.0822362 -0.06173723 0.20940636
0.17027953 -0.048511922 -0.064984664 0.086105876 -0.092359416 0.05022453 0.12449827 -0.022870049
00000000: 428f 963d 3aba 1a3e 9707 333d 8da4 1d3d
00000010: aab9 debd 495b 263e 5347 a8bd 4ded 143e
00000020: 67f2 05be 8f13 aa3d 8b33 213e c101 0d3e
00000030: 21ff bf3d 9230 3c3d 6a82 823d 9f46 773d
00000040: e9a4 b2bd f1c3 3e3e 402d 573e e8ad ddbd
00000050: d3ef 013e 7655 57bb 05c5 4d3e fafb 03be
00000060: a895 bd3d ac80 c53d 3316 5bbc 76f9 483e
00000070: 8ff8 463e 31f7 4b3e acb5 c63d 59c9 b43d
00000080: b154 ab3d 2694 cdbd a90e f0bc fa85 1b3e
00000090: 172c 233e 7802 2a3e ad5e 63bc 2485 123d
000000a0: 6807 af3d 8f8d ab3d 860c 6fbc b70c 633b
000000b0: a366 d43d beec 493c 05a7 a63d d174 eebd
000000c0: 6572 d23d feac 03bd 76bc 043e 4f88 35be
000000d0: 3caf d2bd aaa1 043e 6120 0d3e 3162 f83d
000000e0: f816 313e 16c4 b7bb b7ea bdbd 18af d83d
000000f0: 3318 e6bd 6adf 2e3d 568e 7cbd 600c 4a3c
00000100: 633a 8c3d 9d73 c93d 3633 febd bf5b 2b3e
00000110: 5ba2 0d3e 5a3d 11be 71ad ae3d 7b0d 0abd
00000120: 85a9 31bd 26fa 863d 1e68 563d e83b 7d3d
00000130: 20e9 143e 7b95 37be e2c1 e43d 82c7 233e
00000140: f485 4a3e 7ce8 05be e838 d73d 2981 8fbd
00000150: 7576 af3d 9b25 413e a528 80bc b372 273e
00000160: 86f6 433e c9b8 1cbd f0a5 e7bc 9e1a 293e
00000170: b53d 393e 0fb9 803d 5957 073e 7f8a a9bd
00000180: ac7f 423d 4ffa 163e d987 e6bc afec fb3c
00000190: 5f7a 083d 94cb 893d 9201 953d 0e1e a1bd
000001a0: 1cb0 973d fc51 383d 92af 253e be2c a83d
000001b0: 6ec5 d4bc 7ce2 af3d 80d1 97bb 5136 dbbd
000001c0: cee7 3f3e b9ff b33d 626f 0a3e 4081 01be
000001d0: 141e 103d 746b a8bd 2de0 7cbd 9f6e 563e
000001e0: c25d 2e3e 70b4 46bd ae16 85bd 4758 b03d
000001f0: ef26 bdbd 3db8 4d3d f3f8 fe3d f859 bbbc

vf.v_net.4.weight f4 [1, 128]
0.145146 0.08246221 0.00047558753 0.040368486 -0.0051834234 0.06962599 -0.002451731 0.14199762
-0.025476508 0.12684539 0.16397761 0.10906229 0.07723062 0.09005076 0.08444176 0.07373529
-0.0043490813 0.12686673 0.14813004 -0.006241714 0.12695535 0.0070209005 0.1464017 -0.031197617
0.07204643 0.08952364 -0.0037233229 0.10320142 0.07335793 0.08020318 0.098866366 0.14311223
0.069336645 -0.0023709154 0.020625282 0.082514636 0.12446971 0.16446938 0.006606544 0.023829162
0.15329522 0.14011852 0.05112297 0.0387556 0.06709039 0.0030260768 0.08226401 -0.0100804595
0.10157704 -0.005942537 0.07150281 0.018643882 0.023749677 0.09425305 0.13831367 0.07740779
0.13948466 -0.0110245105 0.017301193 0.11843645 -0.000119116004 0.022808203 0.015736936 -0.0037713016
0.064633936 0.12194354 0.017304132 0.09525456 0.08693793 0.0069758836 0.13607244 0.000102861304
0.027350338 0.1203439 0.112225294 0.08215296 0.07310353 0.005190525 0.12107468 0.12400258
0.06925592 0.0004245871 0.13743162 0.010617234 0.13576919 0.10084498 0.0039529405 0.15070418
0.1405546 -0.0059753754 0.0015318627 0.1393221 0.114738226 0.025444428 0.040679652 0.056528307
0.12783414 0.14838162 0.0059286444 0.088009894 -0.012884607 0.035172973 0.122130826 0.021826653
0.100545235 0.04777824 0.13928814 0.104640424 0.030271946 0.073283955 -0.0066647846 0.012790749
0.07529349 0.08818752 0.07148549 -0.012446338 0.09536089 0.011871984 0.007948514 0.07825085
0.107024305 0.016171653 0.011784405 0.09149221 0.01812427 0.058937095 0.12416484 0.011762634
00000000: 27a1 143e f2e1 a83d 4758 f939 6d59 253d
00000010: b5d9 a9bb 1298 8e3d 38ad 20bb d367 113e
00000020: 1cb4 d0bc c2e3 013e bfe9 273e 0d5c df3d
00000030: 162b 9e3d 886c b83d cdef ac3d 8702 973d
00000040: bd82 8ebb 5ae9 013e 67af 173e 4b87 ccbb
00000050: 9500 023e 950f e63b 54ea 153e 2592 ffbc
00000060: 148d 933d 2c58 b73d fe02 74bb 445b d33d
00000070: af3c 963d 9141 a43d 737a ca3d 038c 123e
00000080: 5f00 8e3d 5c61 1bbb 5af6 a83c 6ffd a83d
00000090: fae9 fe3d a96a 283e b57b d83b 6035 c33c
000000a0: 6cf9 1c3e 3b7b 0f3e 5266 513d 31be 1e3d
000000b0: b066 893d 2551 463b 097a a83d 8328 25bc
000000c0: a007 d03d 9db9 c2bb 1170 923d 0ebb 983c
000000d0: af8e c23c be07 c13d 19a2 0d3e fa87 9e3d
000000e0: 11d5 0e3e 26a0 34bc 3bbb 8d3c cf8e f23d
000000f0: ebcd f9b8 45d8 ba3c bfea 803c f127 77bb
00000100: cc5e 843d 89bd f93d 65c1 8d3c d314 c33d
00000110: 830c b23d f495 e43b 9356 0b3e 3eb7 d738
00000120: d10d e03c dd76 f63d 60d6 e53d d03f a83d
00000130: 4eb7 953d 4815 aa3b 00f6 f73d 11f5 fd3d
00000140: 0cd6 8d3d 1e9b de39 e0ba 0c3e e8f3 2d3c
00000150: 1407 0b3e d087 ce3d ab87 813b 3252 1a3e
00000160: 8ced 0f3e 15cd c3bb c8c8 c83a 74aa 0e3e
00000170: e0fb ea3d d570 d03c b59f 263d 3a8a 673d
00000180: f4e6 023e 5af1 173e 1345 c23b 883e b43d
00000190: f519 53bc 8911 103d ba1f fa3d cfcd b23c
000001a0: a9ea cd3d 1eb3 433d 8da1 0e3e b84d d63d
000001b0: dffc f73c e615 963d 4464 dabb 4a90 513c
000001c0: 7933 9a3d a99b b43d fc66 923d baeb 4bbc
000001d0: 924c c33d b682 423c 7c3a 023c fb41 a03d
000001e0: 8f2f db3d 6a7a 843c 6113 413c 4560 bb3d
000001f0: 5979 943c 0668 713d 234a fe3d 10b8 403c
