HW4/ppo_dm_control-master/training/walker/walk/ppo_ac_model - Copy (4).pth (torch, 166148 bytes, 12 tensors)

pi.log_std f4 [6]
000000 ae 24 13 c0 97 d3 11 c0 23 fb 09 c0 9f 04 2e c0
       -2.2991138 -2.2785394 -2.1559532 -2.719032
000010 8b 72 33 c0 9b b0 1c c0
       -2.8038661 -2.4482791

pi.mu_net.0.weight f4 [128, 24]
000000 0e 96 1c be cc 46 2c bc 2b 7b 62 3e b4 28 1b be
       -0.15291616 -0.010514926 0.22117297 -0.15152246
000010 19 c3 92 3e ce f8 1b be 54 74 9a bc af c4 37 be
       0.28664473 -0.1523163 -0.018854298 -0.17946123
000020 ae cf 06 3d a0 3e 87 3d de 8a 95 bc 35 28 2c 3e
       0.032912903 0.06603742 -0.018254694 0.16812213
000030 70 3e 3e 3e 4a 0d 33 be 29 d1 58 be 11 34 8d 3b
       0.18578506 -0.17485538 -0.21173538 0.0043091853
000040 36 98 d6 bc e2 73 6d 3d 11 1d 02 be 2a e9 d1 3d
       -0.026195627 0.057971843 -0.127064 0.10249551
000050 1b 48 2a bc 31 00 83 bd 27 b6 45 bd 57 44 9a 3e
       -0.010393168 -0.06396521 -0.048269417 0.30130264
000060 af 30 5c 3e b6 ec 36 be d5 a1 80 3d 7a d4 8a be
       0.21502946 -0.17863736 0.06280867 -0.27115232
000070 ce c2 cc 3d 30 d8 55 3e 8d 92 4f 3e ee e8 6f 3e
       0.099980935 0.2088325 0.20270748 0.234287
000080 f7 50 4a be 3e 13 ba be 40 37 88 3e e1 8f 08 bc
       -0.19757448 -0.36342806 0.26604652 -0.008335085
000090 0f d7 13 be cc b6 4e 3e b8 fd 95 bd 96 2b 85 3e
       -0.14437507 0.20186919 -0.07323784 0.26009816
0000a0 b4 17 43 be 74 ee 8f 3d 3c 52 0d 3d 38 f2 a6 be
       -0.19052011 0.07027903 0.034502253 -0.32606673
0000b0 10 22 22 3e 40 e1 c7 bd 1e a3 0f be de 3a 07 3e
       0.15833306 -0.0975976 -0.14027068 0.1320605
0000c0 eb 4f 3d 3e 82 8f 66 bd 21 c0 aa bd 91 8c 8b 3c
       0.18487518 -0.056289203 -0.08337427 0.0170348
0000d0 30 a2 d6 be ab 18 2c be 40 d3 3f be 89 36 eb 3d
       -0.41920614 -0.16806285 -0.18732929 0.11485011
0000e0 a7 28 28 be 17 63 56 3e 15 37 ca be 8a c8 2c bd
       -0.16421758 0.20936237 -0.3949515 -0.042183436
0000f0 69 e7 73 be eb b1 6e bd 53 2a fe bd b8 35 2e be
       -0.23818745 -0.058275145 -0.124104165 -0.1701268
000100 ac b9 49 be 75 8e 82 3d 24 89 2e be 46 ad 05 bc
       -0.19699734 0.06374828 -0.17044502 -0.008158987
000110 d5 11 c5 bc cd 89 82 3d e8 f2 0e be ad cb 53 3d
       -0.024056355 0.0637394 -0.13959849 0.051707912
000120 95 b7 ec bd 5a d5 99 be a4 ce 67 3e c2 a9 20 bd
       -0.11558453 -0.30045587 0.22637421 -0.039224394
000130 30 b3 59 3e b0 a9 94 3e 31 30 39 be 0a c2 2f 3d
       0.21259761 0.2903571 -0.1808479 0.04290966
000140 a2 b6 ae 3d b3 f3 d3 bc a7 09 f4 3d 4a 77 17 3e
       0.08530928 -0.02587304 0.119159035 0.14791599
000150 9e bb 3f 3d 1c ea 5b 3e c6 e8 95 3e d8 00 05 3e
       0.046809785 0.21476024 0.29279155 0.12988603
000160 05 4e 15 be 76 c7 04 be 52 fc d5 3d 51 64 fe bd
       -0.14580543 -0.12966713 0.10448517 -0.124214776
000170 52 3a 4b bd 91 b5 2e 3e ae d4 3d 3d 62 75 8c be
       -0.049616165 0.1706145 0.046345405 -0.27433306
000180 ea 96 36 3e 33 ae 36 3d ca 8f 39 3e 34 7e 8e 3b
       0.17831007 0.044599723 0.18121257 0.0043485407
000190 f4 e1 da bd a9 88 89 bd 82 77 68 be 4f 73 2e 3e
       -0.106876284 -0.06715519 -0.22701839 0.17036174
0001a0 07 34 3a be 59 c6 06 bc dc 4e 18 3e 3c 75 ed bc
       -0.1818391 -0.008226001 0.14873832 -0.028986566
0001b0 82 4b 60 3e 8f a7 49 3e 3e 48 a1 bd be 48 13 3e
       0.21903804 0.19692825 -0.07875107 0.14383218
0001c0 ee b3 75 be b6 ad 44 3d 78 99 9e bc 66 07 83 3e
       -0.23994419 0.048017226 -0.019360289 0.25591582
0001d0 80 4f 2c 3e 2e f1 07 3e 26 40 47 be 16 27 a1 3d
       0.16827202 0.13275596 -0.19458064 0.07868783
0001e0 1a 7d 3a be ca de ad bd 45 ec 00 3d a0 68 f1 3c
       -0.18211785 -0.08489759 0.031475324 0.029468834
0001f0 50 3b 7a bd a2 9d 4b bd ea 3b cc 3d d9 c1 00 be
       -0.06109172 -0.049710877 0.09972365 -0.12573947
000200 94 04 3e bb a1 da 0d 3e 7b 23 74 bd a2 c3 c7 bc
       -0.0028994428 0.13852932 -0.05960415 -0.024385277
000210 8b b6 70 bd e2 4b 9c 3d 81 74 62 3e aa 7c 40 3e
       -0.058767837 0.07631661 0.22114755 0.18797556
000220 4a d6 de bc c1 54 17 bd 8c c7 94 3c 63 ca 2f bd
       -0.02720179 -0.036946062 0.018161558 -0.04291762
000230 52 7d 59 3e e9 94 52 bd 27 fc 8a 3c a9 e7 81 3e
       0.21239212 -0.051411543 0.016965939 0.25372055
000240 22 05 14 3e eb cc af 3e 02 25 67 3e 8d 85 03 be
       0.14455083 0.34336028 0.22572711 -0.12843914
000250 28 e0 22 bd 94 e3 99 3d 83 dc 7a be 98 b0 eb 3d
       -0.039764553 0.0751411 -0.24498181 0.11508292
000260 19 2b 22 3e d3 a1 ff 3d c5 2f fa bd 5c 0d f6 3d
       0.15836753 0.124820374 -0.122161426 0.12014267
000270 ea 7f 04 bd 25 69 0b be 25 6b da 3d 70 76 ec 3c
       -0.03234855 -0.13614328 0.106649674 0.02886507
000280 0a 18 01 3f 1f b3 ab bc e6 68 59 3b d5 bb 0a be
       0.50427306 -0.020959435 0.0033174097 -0.13548215
000290 b6 89 5a bd 7c 39 8e 3d dc 6c ef 3d 62 69 e1 3d
       -0.053353988 0.06944558 0.11690685 0.11006428
0002a0 68 71 eb bd 0c d9 1e 3d fa de 00 3e d2 c5 46 3d
       -0.1149624 0.03878121 0.12585059 0.0485285
0002b0 b9 5c 8b 3e f5 c9 81 bd 19 be 1d 3c 94 63 77 bd
       0.2721918 -0.06337348 0.009627842 -0.0603977
0002c0 e2 6c 5c 3e 29 bc 75 3d 72 24 b2 bd 4d d4 ba bd
       0.2152591 0.059993897 -0.08698358 -0.091225244
0002d0 01 f7 0b 3e b8 e2 12 be 4c 04 e0 3d 04 c6 c3 3e
       0.13668443 -0.14344299 0.109383196 0.3823701
0002e0 cc 68 85 be 1f a2 67 be d5 1f a0 bd da 92 0f bd
       -0.26056516 -0.22620438 -0.078185715 -0.035052158
0002f0 bb 1d 50 bb a7 d9 c5 3d f3 99 49 be 7d 14 f7 bd
       -0.0031756002 0.096606545 -0.19687633 -0.12064455
000300 dd af 8f be 1c 50 c6 bd ff af 96 3e a4 ed 5c 3e
       -0.2806386 -0.096832484 0.2943115 0.21575028
000310 ac 6c aa bd 86 f2 37 3e 5c 60 29 3c 60 a3 68 3d
       -0.08321509 0.17963609 0.010337915 0.05679643
000320 90 73 2f 3e 0c 1c 2e 3c 67 af a0 be 78 7a bd 3d
       0.17133927 0.010626804 -0.3138382 0.09251875
000330 8e 80 a9 bc 02 0b 23 3e 3f e2 32 3d 12 e2 49 3e
       -0.020691182 0.15922168 0.043672796 0.19715145
000340 0a 58 d7 bd 48 ef 40 3e 5e 87 ff bc 06 e1 67 bd
       -0.10514839 0.18841279 -0.031192478 -0.056611083
000350 52 29 ff 3d e8 b3 66 bd 75 eb 4b 3d 99 07 69 bd
       0.12459053 -0.056323916 0.049785096 -0.05689201
000360 70 08 f1 bd cc 77 95 be f0 47 8f bd 3e de 3c 3e
       -0.117691875 -0.2919296 -0.06996143 0.18444154
000370 4d 0c 94 3d 1c 61 51 be 6f 3b 00 3e 02 37 6b be
       0.07228909 -0.204472 0.12522672 -0.22970203
000380 e1 e9 c1 bc 78 4e 86 3e d4 5b 05 be f6 61 16 3e
       -0.023671092 0.26231742 -0.13023311 0.14685807
000390 db b2 44 3d ff 28 40 3e 34 bc 4e be 6b 5f 2e 3e
       0.048022132 0.18765639 -0.20188981 0.17028587
0003a0 36 c5 29 3d 6f 6b 65 3e 43 c5 82 3e e7 90 0c 3d
       0.04144784 0.22404264 0.25541124 0.034317877
0003b0 31 6e 54 be 43 f0 09 3d 0b 20 1b 3d 76 91 30 bb
       -0.2074516 0.033676397 0.037872355 -0.002694217
0003c0 5f 18 f5 bd 2e b1 b6 bd 94 9a 1f 3c 91 16 8f be
       -0.11967539 -0.08920513 0.009741444 -0.27946904
0003d0 ba 8d 6d 3e 92 ae b2 be 1d dc 99 3d f7 90 ce be
       0.23198596 -0.34898812 0.075126864 -0.40344974
0003e0 15 a9 30 3d 7f 69 90 bd da bc 47 3d 3b d3 6d 3d
       0.04313 -0.07051372 0.048764087 0.058062773
0003f0 79 57 20 bd 2f f8 76 be 9b 6a 4e be ee 3c e4 bb
       -0.03914592 -0.24118112 -0.20157854 -0.006965271

pi.mu_net.0.bias f4 [128]
000000 6d 15 3d be 65 2e f0 bd c8 db d3 bd d9 dd 83 3e
       -0.18465205 -0.11727599 -0.10344654 0.25755194
000010 34 fd 61 3e 67 3f 70 3e e9 17 97 bd 5b b0 80 3c
       0.22069246 0.23461686 -0.073776074 0.015709093
000020 53 0f 8f 3e 7f 68 33 be f0 aa 1c be 96 11 44 be
       0.2794138 -0.17520331 -0.15299582 -0.19147334
000030 9c 0a c4 bd 2c df b9 3d 61 58 2c 3d 2b 0c 04 bd
       -0.09572336 0.0907577 0.042076472 -0.032238167
000040 b3 d2 11 be 30 88 77 3e 59 fa bd bd 3f dd 6f be
       -0.14240532 0.24173045 -0.09276266 -0.23424242
000050 8c 18 e7 bd 62 fa 5b be a7 f9 5b 3e 21 ce 0b 3e
       -0.11283979 -0.21482232 0.21481954 0.1365285
000060 c5 2f 0e be ea 33 24 be 0a 9d d1 3d 2b 11 f1 3d
       -0.1388541 -0.16035429 0.10235031 0.11770853
000070 87 5b 47 be f3 b7 a9 be 5e 8d 3b be 15 8a f7 bd
       -0.19468509 -0.33148155 -0.18315646 -0.12086884
000080 11 03 16 3e 14 38 f1 3b 14 65 1c be ca 05 37 3e
       0.14649607 0.0073614214 -0.15272933 0.17873302
000090 e1 5b 26 be c3 a1 14 3c dc bf 3b 3e 4e a9 84 bd
       -0.16245987 0.00907177 0.18334907 -0.06477605
0000a0 0d d2 32 be a7 0a be bd af 81 19 bc cd 6c aa bd
       -0.1746294 -0.092793755 -0.009369298 -0.08321533
0000b0 35 31 53 be 5f b2 e2 bc 48 72 76 3e 2e 3c 0c be
       -0.2062424 -0.027672945 0.24067032 -0.13694832
0000c0 24 83 de bc dc 61 69 3d b3 f8 20 3e a6 ef c9 3d
       -0.027162142 0.05697809 0.15719871 0.098601624
0000d0 b7 11 5c 3e 62 df cf 3c 34 1b a5 bd fb 0d 2d 3d
       0.21491133 0.025375072 -0.08061829 0.04224966
0000e0 81 fb 07 be 8e 43 90 3d 58 e9 65 bd cd cf e5 3d
       -0.13279535 0.07044135 -0.056130737 0.112212755
0000f0 b1 51 39 be 10 36 e3 3a 53 29 23 3a 5f 70 58 be
       -0.18097569 0.0017334837 0.00062241143 -0.21136616
000100 7f 29 3a bd e5 02 7e 3d 90 e9 5c 3d cc 94 43 be
       -0.04544973 0.06201448 0.05393368 -0.1909973
000110 9a 19 8d bd cd 11 20 bc 9c 28 6f bd 7b a8 8d be
       -0.06889649 -0.009769869 -0.058388337 -0.27667603
000120 00 23 27 bc e3 ef 5b be cf 08 40 be da 85 b3 be
       -0.010201216 -0.21478228 -0.1875336 -0.35063058
000130 c5 91 30 be 6e 73 4a 3e 77 cd de 3d 67 29 3e be
       -0.17243107 0.19770595 0.10879033 -0.18570481
000140 43 d9 ec 3c ac 26 ce bd 23 8f 13 be 88 84 93 3d
       0.028912192 -0.1006597 -0.14410071 0.07203013
000150 82 73 d9 3d 91 18 29 be 29 45 ba 3d 33 67 45 3e
       0.106177345 -0.16513278 0.090952225 0.19277649
000160 f8 68 0d bd 0d 2f 39 bd 75 c4 e1 bd 7b ae 9b 3d
       -0.034523934 -0.045210887 -0.11023799 0.07601639
000170 e8 b4 b1 3d a7 89 02 3d 68 06 ee 3d a8 67 f8 bd
       0.08677083 0.031869557 0.11622316 -0.12129146
000180 a3 ca 98 bc f2 34 6c 3d a4 f0 f1 3d 80 4d 01 be
       -0.018651312 0.05766768 0.11813477 -0.1262722
000190 a8 f8 2b bd 52 8e 85 3e ba 7d 35 be 39 71 20 3e
       -0.041985184 0.26085144 -0.17723742 0.15668191
0001a0 4d 71 3f be 3d 9f 2c bd a4 7a 12 3e 52 7f 13 3e
       -0.18695565 -0.04214405 0.14304596 0.14404038
0001b0 6b f2 81 be 2a 66 09 bd 15 75 db 3d 3a bb 2e bd
       -0.25380263 -0.033544697 0.10715691 -0.042659022
0001c0 19 13 99 3e dc 72 67 bd 78 dd 77 be 2e 4a 19 be
       0.29897383 -0.056506023 -0.24205577 -0.14969704
0001d0 12 ad 8c 3e 5f 5e ff 3d d8 37 95 3d 8e d1 23 3e
       0.27475792 0.12469172 0.07286042 0.15997908
0001e0 2f 35 ca bd 80 b5 20 3e 7d bf d8 bc 66 b1 3a be
       -0.09873425 0.15694237 -0.026458496 -0.18231735
0001f0 a2 84 c7 3c 4e 9c 9c 3c 4f 62 6f be 9c a0 89 3e
       0.024355236 0.0191175 -0.23377346 0.26880348

pi.mu_net.2.weight f4 [128, 128]
000000 2b 64 3a bd 38 3e c3 bd 80 5f 62 3d 5c f2 6c 3d
       -0.045505684 -0.09533352 0.055266857 0.05784832
000010 dc 95 99 3c b6 33 25 bd fd c1 99 bc ff be 8b bd
       0.018748216 -0.04033252 -0.018769259 -0.06823539
000020 c4 f6 ea bd 69 46 d3 3d dd f9 43 3d 1c d1 d7 bd
       -0.11472848 0.10316164 0.04784571 -0.10537931
000030 85 f1 c4 bc 51 fb f8 bc 83 4f 7f bc 55 8a 10 3d
       -0.024040947 -0.030393275 -0.015582922 0.035288174
000040 f0 1e c2 38 d8 8d 73 3c 1c 50 83 3c 4d 4c 0d 3d
       9.2564034e-05 0.014865361 0.01602941 0.034496594
000050 a4 2a dd bc e4 f5 dd 3c ea 76 8a bd 4b a4 c3 bd
       -0.026997872 0.027094789 -0.06760962 -0.09552821
000060 eb 38 7e 3c 43 41 15 bd 73 39 52 3d d1 6f 3e 3d
       0.0155165 -0.03643919 0.05132432 0.046493355
000070 70 02 b6 3c 9e f4 8f 3d b4 0f d7 bd 89 2c a5 bd
       0.02221796 0.07029079 -0.10501042 -0.08065135
000080 b4 90 e5 bd a7 e8 df bd 1b 4a ab 3d 79 55 1c b8
       -0.112092406 -0.10933047 0.08363744 -3.72729e-05
000090 f3 11 42 bd ed b4 37 bd cf 8c db 3d 61 c9 81 3c
       -0.0473804 -0.04485028 0.107202165 0.015843095
0000a0 49 47 8e bd ff 15 77 bd 9d d5 d2 3d cb e5 9e bd
       -0.0694719 -0.06032371 0.1029465 -0.07758673
0000b0 64 bc f4 bc 20 75 34 3d a5 46 3a bd bd 37 dc 3b
       -0.029874988 0.04405701 -0.045477528 0.0067205117
0000c0 94 f7 8a bd 8e d2 cb bd ab f6 e2 bc 35 0d ed bc
       -0.06785503 -0.099522695 -0.027705511 -0.028936962
0000d0 4d 73 8e 3d c9 64 14 b8 c0 4a f9 bc 6e bf 91 3c
       0.06955586 -3.5379813e-05 -0.030431151 0.017791476
0000e0 49 e4 d4 3d 1e 86 a6 3d 1d 57 e1 bc 40 bc a4 3a
       0.103951044 0.081310496 -0.02750736 0.001256831
0000f0 9b 0f 51 bd 88 11 c0 3d 16 91 81 bd bb 29 b8 3d
       -0.051040273 0.09378344 -0.06326501 0.089923345
000100 a5 20 1e 3d 84 f5 62 bd 58 ae 39 bd 53 1d e5 bc
       0.03860535 -0.055409923 -0.045332283 -0.027968084
000110 61 89 58 bd dc 07 ae 3d 8d 17 6a 3c c4 1a e7 bd
       -0.05286539 0.08497593 0.0142878415 -0.11284402
000120 9f 71 7e bb ec c6 64 3d 7e 07 9c 3d 3a 3a f7 bc
       -0.0038825048 0.05585377 0.076186165 -0.030179132
000130 a8 e3 d7 bc cb 07 ad bc 3f 21 e5 3d 59 a3 33 bc
       -0.026353672 -0.02112188 0.11187982 -0.010964238
000140 60 23 8b bd a5 d7 31 bd c7 85 b3 bd 7c 97 3d bc
       -0.067938566 -0.043418545 -0.087657504 -0.011571761
000150 1a 4e ac 3d d5 ff 7a bd 18 c0 2d 3c b5 4c 15 bd
       0.08413334 -0.061279137 0.010604881 -0.036450107
000160 c5 eb 02 3d fa a7 d4 3c 54 0f a5 bc 79 ea 1b be
       0.03196313 0.025959004 -0.02014891 -0.15226163
000170 87 be 59 bc de 65 47 bd f7 cc 84 3d 32 a8 01 be
       -0.013290054 -0.048681132 0.064844064 -0.12661818
000180 ee 3d d4 bb 7c c2 20 3d 2f 75 dd bd 87 12 b0 bd
       -0.006477109 0.039247975 -0.108133666 -0.08597284
000190 e6 34 42 bd f3 36 04 3d cf a4 ce bc 51 ce 8d 3d
       -0.04741373 0.032278966 -0.025225071 0.06924117
0001a0 dd 6f 26 bd ef d0 02 bc f4 2b 11 bd 6f 8f 6e bd
       -0.040634025 -0.007984384 -0.035442308 -0.058242258
0001b0 60 2c a0 bd 36 0a a0 bd 01 93 af bd 8d 09 d1 3d
       -0.07820964 -0.078144476 -0.08572961 0.102069
0001c0 b5 c6 ab bd ca b1 0c 3e df 88 8e 3c 2c 19 4b 3c
       -0.0838751 0.13739696 0.01739925 0.012396138
0001d0 1b ac ac 3c 0e c3 12 3e 35 34 9a 3c 9b e3 39 3c
       0.02107816 0.1433222 0.018823722 0.011345769
0001e0 63 6f 61 3c a8 e5 10 3e c8 58 39 bd af 4e 00 3d
       0.013759467 0.14150107 -0.045250684 0.03132504
0001f0 87 b9 78 3b d1 d8 48 3d 32 b6 61 bb b1 51 ec 3d
       0.003795238 0.049034897 -0.0034440872 0.11539019
000200 90 e7 ba 3d d7 f7 a1 bd 54 39 f6 3c b7 41 a3 3d
       0.09126198 -0.079086 0.030056633 0.079715185
000210 2b c0 ba 3c ea 43 89 bd 49 db 80 3d 05 3b 0a 3e
       0.022796711 -0.06702407 0.06291825 0.13499077
000220 9a 60 59 be 55 95 06 3e 11 c3 a4 3c a9 6c a5 3c
       -0.21228257 0.13142903 0.020112546 0.020193415
000230 82 9f b3 bc 08 9b 4a bd 0a 62 2a bb 1f 24 19 3d
       -0.021926645 -0.049464256 -0.0025998377 0.037387963
000240 90 9c d1 bd a0 3f 1e 3d b0 b4 1b 3e e9 12 02 3e
       -0.1023494 0.038634896 0.15205646 0.12702526
000250 b3 f2 33 3e 15 4f ea bb 50 03 64 3d 61 70 16 be
       0.17573051 -0.0071505406 0.05566722 -0.14691307
000260 03 f2 e5 3c 97 9e ba 3d 21 7c 96 3d 33 8c ab bc
       0.028069502 0.0911228 0.073478945 -0.020940876
000270 7b db 74 bd 46 01 ce bc 32 ca b1 3d c4 5f a9 bd
       -0.059779625 -0.025147092 0.08681144 -0.08270219
000280 ec 8e 37 bd 86 95 d0 b9 28 79 05 3e 44 a2 a2 ba
       -0.044814035 -0.00039784255 0.13034499 -0.0012407978
000290 17 cd 9e bc a7 b8 04 be 9a 38 60 3d bb f4 b0 bd
       -0.019384904 -0.12961064 0.05474148 -0.08640429
0002a0 55 19 6c bc 26 26 b7 bc cc 55 92 bd a0 e4 ca bd
       -0.0144103365 -0.022357058 -0.07145271 -0.09906888
0002b0 0c d7 28 bd e8 60 51 bd 37 14 a7 3d 02 bf 88 3d
       -0.04122071 -0.051117808 0.081581526 0.06677057
0002c0 33 40 e2 bc 26 37 33 3d 0a df 0a be a8 1b 92 bd
       -0.027618503 0.043753766 -0.13561645 -0.07134181
0002d0 c3 90 59 bd c4 6c b3 3c 58 ec 99 bd b1 dc 00 bd
       -0.05311657 0.02190245 -0.07515782 -0.031460468
0002e0 74 bc 5c bd 78 b8 40 bb f5 12 5b 3b 07 d0 7a bd
       -0.05389066 -0.0029406827 0.0033428047 -0.061233547
0002f0 78 d8 1d 3e 5c 27 7b 3b e4 e5 07 3d fe 49 c9 3c
       0.15414608 0.003832302 0.033178225 0.024571415
000300 ce 27 94 bd f3 95 f1 bb 45 13 cc bd 1a ae ea 3d
       -0.07234155 -0.0073726117 -0.09964613 0.114589885
000310 f5 75 bc 3b dc 75 b2 bb 3d 9e 7e 3b a3 f6 95 bd
       0.0057513663 -0.005446179 0.0038851642 -0.07322433
000320 fa 52 ca 3d a0 af 12 3c 52 e9 5f 3d ee 0c 6d 3d
       0.09879108 0.008953005 0.05466587 0.05787366
000330 b3 79 2c 3d c1 32 d3 bc 6a e5 dd 3c 5c 03 ac 3d
       0.04210825 -0.025781037 0.027086932 0.08399078
000340 f8 1b aa 3b 4d f0 02 3e 96 cd ea 3d d8 7c db 3c
       0.0051913224 0.1278698 0.11464994 0.026792929
000350 08 ae 85 3d 9c 59 3a bd eb 63 67 bd 75 2e 05 3d
       0.065273345 -0.045495614 -0.056491774 0.032515008
000360 0f de 70 3d e1 a3 6b bc 19 92 5a bd 97 f1 db 3b
       0.05880552 -0.0143823335 -0.053361986 0.0067121494
000370 e5 f6 85 39 8a b7 20 bd 08 ec bf bd 48 5a 5e 3d
       0.00025551688 -0.039237536 -0.09371191 0.054285318
000380 64 91 8a bd 37 1c 77 bb 38 23 7a bd 2d 69 16 3c
       -0.06766012 -0.0037706026 -0.061068743 0.009180349
000390 18 64 15 bd 23 d2 52 bd 6a 68 23 3d 5b 56 c4 3d
       -0.03647241 -0.051469933 0.0398945 0.095867835
0003a0 5c 6e 48 3d 5c 41 b0 bd 1b bb 6c bc 41 3d 3b bd
       0.048933372 -0.08606216 -0.014448906 -0.045712713
0003b0 cf ff 6d bc 7f 0e c4 3d 19 99 8b 3c 85 9a 00 bd
       -0.014526322 0.095730774 0.017040776 -0.03139736
0003c0 00 e6 f3 3d ef be 8c 3d 98 aa 52 3d ee 88 2f bc
       0.119091034 0.06872355 0.051432222 -0.010713799
0003d0 4b fd ba bd d0 b6 98 bd 21 77 e3 3c dc cd 8e bd
       -0.09130343 -0.07456744 0.027766766 -0.06972858
0003e0 56 b8 70 bd 48 20 dd bd 54 cf ef 3d 92 c1 5c 3d
       -0.058769546 -0.10797173 0.117094666 0.05389554
0003f0 6d 4e c1 3b 3d 1b 22 3d 02 3a d8 3d a3 02 19 bd
       0.0058992417 0.039576758 0.10557939 -0.03735603

pi.mu_net.2.bias f4 [128]
000000 f5 d9 78 3c 6d 92 4e 3b 2d 68 29 bd 1b e8 93 bc
       0.015188684 0.0031520382 -0.041359115 -0.018055012
000010 b1 4a e9 3c d6 7b 93 bc 5d 38 cd 3d 5c 40 76 bd
       0.028477998 -0.018003386 0.10020516 -0.06011997
000020 f1 c7 71 3d c0 74 d2 3c 27 35 91 3d b6 4a ab 3d
       0.05902857 0.025690436 0.07090216 0.08363859
000030 63 d8 4d 3b bd e9 5d 3d ea 02 58 bd b6 8e b4 3d
       0.0031409494 0.05417799 -0.052737154 0.088162825
000040 2c cb 77 3d 7f 78 8a bd eb 12 11 3d 3a d4 13 bc
       0.060496494 -0.06761264 0.035418432 -0.009022767
000050 57 7d a0 bd 5a e7 1d be 4a 0c 74 bc 5f 65 a2 3d
       -0.07836407 -0.15420285 -0.014895508 0.07929491
000060 24 02 16 3d fd ac 9b 3d b3 9c c8 3d b4 37 9c bc
       0.036623135 0.07601354 0.09795513 -0.01906953
000070 be c4 4b 3d e1 b0 a7 bb b5 3e 89 bd 6c 91 34 3d
       0.049748175 -0.005117521 -0.067014135 0.044083998
000080 94 94 95 bc 2e 65 b6 3d 45 5d 15 3c 15 86 e0 bc
       -0.018259324 0.08906017 0.0091164755 -0.027407685
000090 c5 c6 a6 3c d9 23 d7 bd 9c f1 10 bd 44 33 16 bd
       0.020358453 -0.10504884 -0.035386667 -0.036669984
0000a0 f6 6f 19 bd 90 a1 49 3d 6d 7c 16 be c9 24 70 bc
       -0.03746029 0.049226344 -0.14695902 -0.014657208
0000b0 77 5e 9f bd bc 61 bc 3d b0 90 ad bb df c8 f3 3d
       -0.077816896 0.09198329 -0.005296789 0.119035475
0000c0 f1 bd dd 3d 42 13 c3 bd 90 78 55 bd 82 c2 a6 3d
       0.10827244 -0.095251575 -0.05211693 0.08142568
0000d0 03 05 6d bd f6 6e 28 bd 26 9c 06 be ac a2 a6 3d
       -0.057866108 -0.041121446 -0.13145503 0.08136496
0000e0 d2 bf 85 3d c1 fc 4d 3d 76 39 aa 3c 80 b8 a0 3d
       0.065307274 0.050289873 0.020779353 0.078476906
0000f0 20 a4 9b 3c a8 50 14 3d 5c cb f1 3b 1e ce 85 3d
       0.01899916 0.036209732 0.0073789787 0.06533454
000100 e5 bf 04 3e d7 ee f6 bb 9f 5d db 3c 43 f1 29 bd
       0.12963827 -0.007535796 0.02677804 -0.04148985
000110 18 19 db 3c 7b 4d 9d 3c 61 5e a0 bd a1 dd ac bd
       0.026745364 0.019201985 -0.07830501 -0.0844071
000120 aa 7c 9a bc 09 b0 89 bd 73 8a 7f 3d 08 e3 9a bd
       -0.018858273 -0.06723029 0.062387895 -0.07562834
000130 3e 8e be 3d 82 fd aa bc 89 ba a9 3d 41 e9 37 bd
       0.09304474 -0.020872835 0.08287532 -0.044900183
000140 a7 14 a0 bd 2c a4 86 bc 2d 50 74 3d 81 55 c5 3d
       -0.07816439 -0.016435705 0.059646774 0.09635449
000150 fa d6 99 bd d2 de fb 3d 3d 2e 0a bc c7 93 21 3b
       -0.07511707 0.12298359 -0.008433876 0.0024654733
000160 7b a0 99 3d e7 00 30 bc 93 c5 75 3d b5 cd 2b 3c
       0.07501312 -0.010742403 0.060002875 0.010486056
000170 73 12 68 bd cb 27 0b be cb bc 67 3c 08 dd de 3d
       -0.05665822 -0.13589399 0.014144133 0.10882002
000180 e0 85 6c 3a ea 11 fc 3d 39 98 14 bd 47 5c 8a 3d
       0.00090226345 0.12308104 -0.036277983 0.06755882
000190 57 b9 64 3b 26 90 6b bb c3 0e 5d 3d 8b 69 05 bd
       0.003490051 -0.0035944073 0.053969156 -0.032571357
0001a0 fb d1 b7 bc e3 c4 ed 3d 3c 5e ef bd a6 b0 3c 3c
       -0.022438994 0.11609819 -0.11687896 0.011516726
0001b0 77 f3 e4 bc 7d 8b 34 3d 0e 6a a3 bd 83 df ba bd
       -0.027948124 0.04407834 -0.07979213 -0.09124663
0001c0 91 c6 6d bd 33 c9 74 3d 3f fd 89 bd 51 4c 90 3c
       -0.058050696 0.05976219 -0.06737756 0.017614515
0001d0 7d e2 80 3d 86 ae ec 3d 91 6e 0c 3d c8 fb c6 bd
       0.06293199 0.11556725 0.03428513 -0.09715992
0001e0 e3 cf 8f 3c 91 d8 b4 bb 94 8e 90 bd 10 64 2b 3d
       0.017555183 -0.005518981 -0.070584446 0.041843474
0001f0 42 e4 bc bd bd 5b 97 3d 58 ea c6 3c e5 d1 17 3d
       -0.09223224 0.073905446 0.024281666 0.037065405

pi.mu_net.4.weight f4 [6, 128]
000000 59 af ca 3c 17 6c b0 3d e9 71 a1 bd 06 63 72 3d
       0.024741815 0.086143665 -0.07883055 0.059176467
000010 30 63 16 3d bb 38 8f bc de 00 91 3d 7b 04 40 bd
       0.036715686 -0.017483106 0.070802435 -0.046879273
000020 df 3b 06 3d 34 e3 19 3e 7d 13 f7 bc 5b cc 1d bd
       0.03277194 0.15028077 -0.03016066 -0.038524967
000030 9e a6 33 be c7 21 b9 3d 66 d8 c0 bd 9d 85 4c 3c
       -0.17544028 0.09039646 -0.09416275 0.012483028
000040 1a ac 08 3d e1 0c 9c bd dd 3b 09 3d 4f 7d cb bd
       0.033367254 -0.07619644 0.033504356 -0.0993601
000050 d1 8c 6b 3c 3e ee 3d 3d be 22 07 be 8a 12 0e 3e
       0.014376835 0.046369784 -0.13196847 0.1387426
000060 3f 46 8f bd bb 18 9e 3d 13 76 c5 bd 2c 51 ef 3d
       -0.0699582 0.07719561 -0.096416615 0.11685404
000070 35 1f 52 bd 46 8f 56 bd c1 a1 b8 3b 03 9c e4 3d
       -0.051299293 -0.05238273 0.005634517 0.111625694
000080 fb eb cb bd 8f c4 8b 3d 99 1a b8 3b f7 f4 09 be
       -0.09957119 0.068246 0.005618405 -0.13472353
000090 07 05 78 bd 50 0e 3c bd e3 23 92 bd bc 38 0b 3e
       -0.06055167 -0.045912087 -0.07135751 0.13595861
0000a0 7f c4 0b 3e 31 40 5a 3d 98 21 f6 3d 36 ee 51 3c
       0.13649176 0.053283874 0.12018126 0.012813142
0000b0 b3 ad 88 bc d7 a5 3f 3e 9a 23 4e bc 99 6c e0 bd
       -0.016684389 0.18715607 -0.01258173 -0.10958213
0000c0 fa a4 6e bb 1d 4c 7e bd 4b 84 33 be 43 a7 72 3d
       -0.0036414252 -0.062084306 -0.17530935 0.059241544
0000d0 24 24 22 3e 51 eb 62 3d 69 da 0c 3d 99 70 f8 3d
       0.15834099 0.055400196 0.03438798 0.12130851
0000e0 7f fa 2d be 20 a7 a9 3d 8a 61 4c 3d 8f 93 28 3d
       -0.16990088 0.0828383 0.049897708 0.041156348
0000f0 54 05 a6 bd c2 1b 4f 3d 62 1c f2 3d ad 99 57 3d
       -0.08106485 0.05056358 0.1182182 0.05263679
000100 11 ea 8c 3b 70 8d 2d 3d 54 8a f1 3c 47 03 86 bd
       0.004300364 0.042371213 0.029484905 -0.06543594
000110 9a f5 5e bb 22 68 0a be f2 ff 03 be 0d b1 16 3e
       -0.0034020902 -0.13516286 -0.12890604 0.14715977
000120 9e d9 11 3b 5b 39 e2 bd df eb 86 3d d2 11 25 3c
       0.0022254954 -0.11046096 0.065879576 0.0100750495
000130 01 f2 a6 bd 29 58 16 bc 42 c5 57 3c 2d 75 1d 3d
       -0.08151627 -0.009176292 0.0131695885 0.038441826
000140 8c 6a 2b 3d 76 cf 0a bd ef 31 37 be ee 1b a2 3d
       0.041849658 -0.033889256 -0.17890142 0.079154834
000150 e8 a0 ec 3d b2 d0 c1 bd 6d 82 92 bc 0f 0d 2c be
       0.11554128 -0.094636336 -0.017884457 -0.16801856
000160 cf f7 55 bd 15 45 9c bd 2e 9d 13 3e 8e 2c f1 3d
       -0.05223828 -0.07630364 0.14415428 0.11776076
000170 24 40 18 bd fb 22 e0 bd e8 c2 3f bd a9 9e 4b be
       -0.037170544 -0.10944172 -0.046816736 -0.19884743
000180 40 f9 2a 3d ba 8c ee 3c 4a e9 b5 bd d4 33 d3 3d
       0.04174161 0.029119838 -0.08882387 0.1031262
000190 a3 55 26 3e 20 ca ea 3d f9 b9 ca bd 46 6e cd 3d
       0.16243605 0.114643335 -0.09898753 0.100307986
0001a0 05 d4 cd 3c 81 75 90 3d 69 fa d5 bd 0b 47 02 bd
       0.025125513 0.07053662 -0.104481526 -0.031806033
0001b0 a1 c1 0e be 3f a9 cc 3d 3d 38 78 bd fb a0 c6 bd
       -0.13941051 0.09993219 -0.060600508 -0.09698673
0001c0 2f f7 7a bd e0 41 07 bc 7b 4f 1b be 2a ae 1c be
       -0.06127089 -0.008255452 -0.15167038 -0.15300813
0001d0 96 ea 5a 3d c0 57 cf bd d5 48 42 3d 38 ca a8 bd
       0.053446375 -0.10124159 0.04743274 -0.08241695
0001e0 3e b9 d2 bd e7 5b 74 3d 67 f7 93 3c 9d 72 1d bc
       -0.102892384 0.059657957 0.018062307 -0.0096098455
0001f0 d1 6f 0e bd 3f c6 cd 3d a9 3e 97 bd 9f ab f9 bc
       -0.034774605 0.10047578 -0.07384998 -0.030477343
000200 18 73 1e 3d d2 15 e5 3c a7 78 d2 3d 38 09 28 3e
       0.03868398 0.027964506 0.10276919 0.16409767
000210 ed 33 bd 3c 01 05 ce bb 54 ce a3 bd 03 2f 20 3e
       0.02309605 -0.0062872176 -0.07998338 0.15642934
000220 e9 17 97 bd b1 ca 04 be 92 ff dd 3d 1d dc dc bc
       -0.073776074 -0.12967946 0.10839762 -0.026960427
000230 05 92 f7 bd d5 db 2d 3e 5b 8e dd 3d 3c ff 9d 3d
       -0.12088398 0.1697839 0.10818168 0.07714698
000240 71 92 b5 bd 00 dc 7a bd f2 17 c4 bc 1b e7 af bd
       -0.08865822 -0.061244965 -0.0239372 -0.08589002
000250 d4 0a ab 3d 76 e1 db bb d9 fb cc 3d b6 8d 38 3d
       0.08351675 -0.0067102266 0.10008974 0.04505702
000260 9e 37 91 3c d8 68 88 bd 7a 68 0e 3e fc f3 e9 3c
       0.017726716 -0.06660622 0.13907042 0.028558724
000270 e5 18 bc bd ce aa a1 3d ac 91 40 bb 81 04 9f bc
       -0.09184436 0.078939065 -0.0029383702 -0.019411327
000280 64 bb ca bd 76 c7 95 bd f1 3f fe bc ca 83 93 bd
       -0.09899023 -0.07313435 -0.031036349 -0.07202871
000290 e2 40 16 bc cd 7f a4 bd 2f a4 a5 bd 66 44 d3 bd
       -0.009170743 -0.080321886 -0.08087956 -0.1031578
0002a0 f7 72 e8 bd e5 2d 0d 3e 99 55 42 bd 33 ef cd bd
       -0.11350053 0.13787039 -0.047444914 -0.10055389
0002b0 f7 3c 2b bd 8f bb b4 3d b3 13 e3 3d ed 6a 8b 3d
       -0.041806187 0.088248365 0.11087742 0.06807504
0002c0 ae 7f 46 3e 5a f9 f9 bd b9 01 fc bd b3 37 e1 bc
       0.19384643 -0.12205763 -0.12305016 -0.02749238
0002d0 b8 60 15 3d 1f 70 41 3d 22 b8 84 bc 5f cd 80 3d
       0.03646919 0.047226068 -0.016201083 0.062891714
0002e0 38 40 33 bd 1a 58 90 3c bc 9f c6 bd 6d 41 e0 3c
       -0.043762416 0.017620135 -0.09698436 0.027374947
0002f0 d4 8b 16 3d d5 c3 17 bd 0c 75 06 3e 65 1f e3 3d
       0.036754444 -0.037051994 0.13130587 0.110899724
000300 a9 45 e3 bc 4b 41 87 bd 99 81 e4 3d 80 b2 0c 3e
       -0.027743177 -0.066042505 0.11157531 0.13739967
000310 a7 3b 75 3d 6e 12 f2 bd aa 1a b7 bd fd 65 d8 3c
       0.059871342 -0.118199214 -0.08940633 0.02641582
000320 ee 6e a4 bd 65 20 02 3e 5f 24 dc 3d 4f 00 02 be
       -0.08028971 0.1270767 0.10749125 -0.1269543
000330 5a e2 9f bd bc e7 f5 bd 13 54 c5 bd 1a de 15 bd
       -0.07806845 -0.120070904 -0.096351765 -0.036588766
000340 f7 f5 13 be 98 19 56 be e9 4f a2 3c 97 17 cf 3c
       -0.14449297 -0.209082 0.019813495 0.025279803
000350 2b 29 69 3e ee 1d 83 3d 82 11 c2 bd 3b 89 5f be
       0.2276961 0.06402193 -0.094759956 -0.21829693
000360 d4 4b 60 be ac e1 28 3d 33 da 19 3e 44 1b e3 bd
       -0.21903926 0.041230842 0.15024643 -0.11089185
000370 a3 6c e5 3c 05 63 54 bd 8c 20 29 be b2 45 0b be
       0.028005904 -0.051852245 -0.16516322 -0.13600805
000380 80 7a 92 bd 68 e6 d7 bd c4 00 8d 3c 59 26 7b 3c
       -0.07152271 -0.105419934 0.01721228 0.015328967
000390 db d4 34 bc 89 f5 10 be fa 49 00 be 66 bb ae 3d
       -0.011037077 -0.14156164 -0.1252822 0.08531837
0003a0 d5 6a fc 3d 16 99 0c be dc d1 23 be 42 99 00 be
       0.12325064 -0.13730273 -0.15998024 -0.12558463
0003b0 20 33 8d 3d bb 6c 35 3c 17 b4 bb 3d 6a 79 60 3d
       0.06894517 0.011073287 0.09165209 0.05480329
0003c0 b9 46 b7 bc a2 ab 73 bd 47 12 86 bd 54 c4 0e 3e
       -0.02237259 -0.059489854 -0.06546455 0.1394208
0003d0 bf 4a 3e 3d ae c2 06 3e 3f dd fd bb 36 9b fb 3d
       0.046458002 0.13160202 -0.007747322 0.122854635
0003e0 69 2d 1b be 16 21 db bd a9 ad 47 bb fc bb a2 bd
       -0.15154041 -0.1069967 -0.00304685 -0.079460114
0003f0 86 92 23 be bf c5 08 be 4f ec 9f bd 02 3e 6a 3d
       -0.15973863 -0.13356684 -0.07808744 0.05718804

pi.mu_net.4.bias f4 [6]
000000 d2 37 c9 3d cb a5 aa bc 93 1b 98 3d 5d 59 8f bd
       0.098251 -0.02083101 0.07427134 -0.069994666
000010 b4 ad b0 3c 3b b8 bf 3d
       0.021567203 0.09361311

vf.v_net.0.weight f4 [128, 24]
000000 c2 c6 d0 bf a6 36 42 3f 64 d3 14 3f c1 26 0b 3f
       -1.6310656 0.75864637 0.58135056 0.5435601
000010 c2 65 d7 be 3e 3c bc 3e 40 21 d8 bd cb 6c 0c be
       -0.42069823 0.3676471 -0.10553217 -0.13713376
000020 96 12 c0 3e 94 a6 9d 3e ba 03 1f 3e b4 fa f9 bd
       0.3751418 0.30791152 0.15528765 -0.12206021
000030 78 31 c6 3c 3f 2b 60 3e a8 67 02 bf a9 a9 03 bf
       0.02419351 0.21891497 -0.50939417 -0.51430756
000040 b7 56 5a 3f 42 1c c9 bc 26 37 e4 3c b1 40 66 bd
       0.85288566 -0.024549607 0.027858328 -0.05621404
000050 a2 4e 1f be 7c 4e a0 3d f5 a1 33 be 7e 1c d8 bd
       -0.1555734 0.0782747 -0.1754225 -0.105523095
000060 2a 19 73 3d cf 0b 8b 3f 92 79 53 3e de 4e 04 be
       0.05935017 1.0862979 0.20651844 -0.1292071
000070 93 ff e0 3d 29 93 3d bf cf f0 4e be 1c 80 10 be
       0.10986247 -0.74052674 -0.20209049 -0.1411137
000080 ee b9 59 3d 6b 6a 50 3e 5e b5 c6 bf 68 30 56 3f
       0.053155832 0.20353095 -1.5524099 0.8366761
000090 8d fa b1 bf 14 76 16 be fd 8c 7b bf 20 fc 5d bf
       -1.3904587 -0.1469348 -0.98262006 -0.8671284
0000a0 ac 7c 2c be d3 65 b5 3e ca 52 e4 bd 32 a1 0b 3d
       -0.16844434 0.35429248 -0.11148603 0.034089275
0000b0 98 50 e5 bc b6 3c 1a be 53 3c 5b be 36 b1 9f bb
       -0.027992532 -0.15062222 -0.2140973 -0.00487342
0000c0 d9 eb 5c 3e be 8f 1b bf f2 bc 59 bd 39 aa 62 3e
       0.21574344 -0.6076621 -0.053158708 0.22135247
0000d0 fc 8c 27 be ac 3c 77 3e fe 2a 1a be d3 03 f7 3e
       -0.16362375 0.24144238 -0.15055463 0.48245105
0000e0 25 96 84 bf a7 b7 26 bf 11 aa 75 3f 39 b7 e2 bf
       -1.035832 -0.6512398 0.95962626 -1.7712165
0000f0 44 7b 81 3f 03 66 d0 bd 9e e2 54 3d 13 5e 4b bf
       1.0115743 -0.10175707 0.05197393 -0.7944042
000100 d2 a7 63 bf 98 72 20 3d 55 e2 21 3d 39 91 13 3e
       -0.8892795 0.039171785 0.039522488 0.14410867
000110 2c 23 1d bc b6 5a 05 be 8b 19 ce 3d d5 d5 a7 bc
       -0.009590905 -0.13022885 0.10063466 -0.020487705
000120 93 3b 40 bf fb d9 e0 bd ce b9 fa 3e 2f 9d 79 bc
       -0.75090903 -0.109790765 0.48969883 -0.015235229
000130 fb e5 2a 3e 64 2d ff 3e 30 a7 19 3e 06 9c 0d 3f
       0.16689293 0.49839318 0.15005183 0.553162
000140 55 3d 66 3e 32 09 04 3e b5 f2 62 3f ba b0 18 be
       0.22484334 0.12894133 0.8865159 -0.14911166
000150 b3 18 b3 3e bc c0 5b 3e 06 79 69 3f cf 8e 32 3f
       0.34979782 0.21460241 0.9120029 0.6974916
000160 a9 87 0f be 56 33 11 bf b2 53 92 bd 7b 67 37 be
       -0.14016594 -0.5671896 -0.0714487 -0.17910568
000170 17 90 7b bd bd 67 a2 3e 63 20 c1 be 59 ec f2 bb
       -0.06141671 0.3171977 -0.37720022 -0.0074134287
000180 5b 7f b9 be 81 53 92 3f ec 7b c7 bd 41 69 23 3e
       -0.36229977 1.1431733 -0.09740433 0.1595812
000190 22 77 d2 bd e1 05 ec be b7 74 c4 3d b9 48 c6 bc
       -0.10276629 -0.46098235 0.09592574 -0.024204599
0001a0 d6 87 4a 3e 3c b7 d2 3e 42 05 aa bf 03 d5 19 3f
       0.1977838 0.41155422 -1.3282855 0.60090655
0001b0 af 42 b1 be 53 d1 33 3d 41 5e fb be 4d c5 da be
       -0.34621188 0.0439008 -0.49095348 -0.42728654
0001c0 44 75 cf 3d e1 b1 8b bb e3 7b e9 bd a9 e0 ac 3e
       0.101297885 -0.004263148 -0.11400583 0.33765152
0001d0 98 65 4d 3d ed 35 13 3e 61 ec 00 3e 98 06 07 bd
       0.050145715 0.1437604 0.12590171 -0.032965273
0001e0 6f a6 98 3e e7 16 50 bf 71 bd 0b bf 3e 69 ec be
       0.2981448 -0.81284946 -0.5458594 -0.46174043
0001f0 39 da 8b 3e 34 7c c8 be 94 ee 90 be 4d 67 72 be
       0.27314928 -0.3915726 -0.2830702 -0.23672219
000200 81 4f 52 3d 60 79 b2 3d e9 f9 b4 be 54 43 d0 bd
       0.051345352 0.08714557 -0.35346916 -0.10169092
000210 bd ab e9 be 81 14 2e bf c4 8c 6e bd e8 ea 54 3f
       -0.45638838 -0.68000036 -0.058239713 0.8317094
000220 e5 75 84 bf 5a 05 42 bc b5 fd 69 3e ec 32 94 3e
       -1.0348479 -0.011842096 0.22850688 0.289451
000230 fd 55 8a bd 56 ab 06 be f6 48 66 bc 73 f2 f9 bb
       -0.06754682 -0.13151297 -0.014055481 -0.007627779
000240 cb bf c2 be c4 e0 8a be 09 02 88 3e 71 b7 ab ba
       -0.3803695 -0.27124608 0.26564053 -0.0013100934
000250 80 cb e0 be c0 00 20 3f cc 6b 0e bf e1 16 2a 3f
       -0.43905258 0.62501144 -0.55633235 0.6644116
000260 75 03 92 be fa df d3 bc ba 75 62 3d d7 6a e7 3e
       -0.28518263 -0.025863636 0.055288054 0.451987
000270 fc 6d 56 be fd 7e 8b be e4 08 55 3f 6b 6f e9 3e
       -0.20940393 -0.27245322 0.8321669 0.45592818
000280 03 ec 56 3f 91 a5 f0 3c 76 aa 4d be f4 c0 22 be
       0.83953875 0.029375823 -0.20084557 -0.15893918
000290 c2 36 da 3d d4 d6 0f be 3c f3 06 bf 81 ed a2 3b
       0.106549755 -0.14046794 -0.52714896 0.0049721603
0002a0 9d 91 40 bf d0 e2 e9 bd 70 02 08 3f 9e b6 22 3f
       -0.7522219 -0.11420214 0.5312872 0.635599
0002b0 76 22 af 3e cf 80 75 3f 78 79 11 be 30 7c 1f 3f
       0.3420598 0.9589967 -0.14206493 0.6229887
0002c0 77 e3 c4 3e 4b 1d 0f 3e 54 6b 90 3f 32 d7 d2 3e
       0.38454792 0.13976018 1.1282754 0.41179806
0002d0 2d 80 32 3e 94 f5 f0 3e 42 e1 ca 3e 2b e2 82 be
       0.17431708 0.4706236 0.39624983 -0.25563177
0002e0 10 47 c0 be 2a 85 bd be 4f 2f 85 3d d5 ff cf 3c
       -0.37554216 -0.3701566 0.06503164 0.025390545
0002f0 72 4b 40 bd f1 85 1e 3e b5 d6 9d 3d 8e ec 27 bf
       -0.04694695 0.15480782 0.07706968 -0.6559533
000300 f4 7f 03 3f 67 ee e6 be 20 43 b8 3e b5 13 77 3e
       0.51367116 -0.45103762 0.35988712 0.24128611
000310 83 d9 83 bd 2a 41 eb 3e a5 df 5b bc f5 88 be 3e
       -0.064379714 0.45948154 -0.01342002 0.37213865
000320 96 c6 89 be 07 ed 27 3e 88 32 9f 3e 44 7d 93 bc
       -0.26909322 0.16399013 0.3109324 -0.018004067
000330 81 4c 00 3f f0 97 63 3e 4f 2d 27 3f f9 9f 86 bf
       0.50116736 0.22225928 0.6530351 -1.051757
000340 ff 01 76 bd 23 77 65 3e 16 8d 12 3d a0 3e bc be
       -0.060060497 0.22408728 0.03577908 -0.3676653
000350 8e cb c0 bc 0a 77 e4 3c 01 11 f7 be f7 6e 98 3d
       -0.023534562 0.027888793 -0.4825516 0.0744304
000360 67 57 1e bf e4 6a 98 3e ec f6 07 be 1b 77 8d 3f
       -0.61852115 0.2976905 -0.13277787 1.1051973
000370 b8 7a 03 bf b7 43 a6 3e ae df ef 3c 62 94 6c be
       -0.5135913 0.32473537 0.029281463 -0.23103479
000380 cf 04 51 3e 84 b6 2d 3f 12 04 40 3e 36 ec 2a 3e
       0.2041199 0.6785662 0.18751553 0.1669167
000390 f4 e1 48 3d 56 53 7d 3d 5a 02 3d bf 89 7e b7 bf
       0.04904361 0.061847053 -0.73831713 -1.433549
0003a0 82 bc 45 3e 56 dc d5 be 40 a4 84 3e b2 59 47 3d
       0.19310191 -0.41769665 0.25906563 0.048669524
0003b0 5a 1b e4 3c 36 40 23 bd a2 9c fc bd 77 4a cb bc
       0.027845073 -0.03985616 -0.12334563 -0.024815781
0003c0 2b 8f 0f bf 36 fa bc 3f b3 f3 34 bf 46 d1 c7 b9
       -0.5607783 1.4763858 -0.70684355 -0.0003811216
0003d0 74 48 3e bf c6 56 6c 3e a5 0e 35 bf 98 dd 1b bc
       -0.74329305 0.23079976 -0.7072547 -0.009513281
0003e0 98 d5 f5 be 40 b2 4f bd 9e 9a 42 be 80 e4 3e be
       -0.48014522 -0.0507071 -0.19004294 -0.18641853
0003f0 c1 5a a7 be d5 ee 55 3e 55 05 1a bf ee 57 37 3e
       -0.32686427 0.20891888 -0.60164386 0.17904636

vf.v_net.0.bias f4 [128]
000000 ca 37 40 bd 58 0e 80 be 96 91 94 bf 51 17 0e be
       -0.046928205 -0.25010943 -1.1606929 -0.13876082
000010 7d 76 60 3d bc 6c fa be 56 c5 2e 3f 6b f3 84 3e
       0.0548005 -0.48911083 0.6826986 0.25966963
000020 e6 85 25 3f 4b 05 2f 3e ab a1 2b bf fb a0 86 be
       0.6465744 0.17091863 -0.6704356 -0.26294693
000030 84 9b db 3d 3c f4 ae 3e ed 94 72 be 8a 02 2e 3d
       0.107230216 0.3417071 -0.23689623 0.04248289
000040 53 dc 7a bb 16 27 5c 3f f4 ed c9 3c 52 1d f7 3c
       -0.0038278296 0.8599714 0.024649598 0.030165348
000050 ff 52 25 be 7e 23 f5 bd 6b 32 91 3e f7 f3 97 be
       -0.16144942 -0.1196966 0.28358778 -0.29678318
000060 8c 1f 04 bd 6a 4e 7e be a4 9a 42 be bd 48 08 bf
       -0.032256648 -0.248346 -0.19004303 -0.5323599
000070 69 b5 8f 3e ba 28 06 3f 78 2f 48 3e 80 ad 59 be
       0.28068092 0.52405894 0.19549358 -0.21257591
000080 0c e5 00 3f 2f d3 c2 3e 0b bb 99 3e f6 78 b8 be
       0.503495 0.38051745 0.30025515 -0.36029786
000090 a6 96 0c 3f d1 d2 b4 3d 95 70 92 3d ec 27 24 3e
       0.5491737 0.088292725 0.071503796 0.16030854
0000a0 0d f7 42 bf d2 40 27 3f 79 80 6d 3f 0a dc 8b bd
       -0.7615822 0.6533328 0.9277416 -0.068290785
0000b0 4c 4f 7a 3f 73 c2 6f 3f 8c b2 38 3f 4a eb f2 3e
       0.9777725 0.9365608 0.7214744 0.47445136
0000c0 38 15 01 3f 74 79 a5 be 98 75 61 bf 67 84 85 3f
       0.50423 -0.32319224 -0.8807006 1.0431031
0000d0 b5 5c e3 3e 1a 0b 2f bf 1e 55 f9 3d 34 12 9e be
       0.44406667 -0.68376315 0.12174438 -0.30873263
0000e0 78 1a e0 3e da a5 8a 3e 5e 4f a0 3d bc 18 bc be
       0.43770194 0.2707966 0.07827638 -0.3673762
0000f0 55 8d 2f 3f 7f 7d 83 3e e6 f4 52 3c 6c 37 87 bf
       0.6857503 0.25681683 0.012875771 -1.0563788
000100 ae 85 9c be c8 5e 3e bf bc 32 f5 3e 83 8b 5d 3f
       -0.3057074 -0.74363375 0.4789027 0.86541003
000110 40 b9 40 be f1 db 83 bd b1 28 f3 3e a2 c6 79 bf
       -0.18820667 -0.06438435 0.47491983 -0.97568715
000120 e6 9b bf be ce 20 d6 3e a8 c3 55 bf 09 f4 21 3e
       -0.3742363 0.41821903 -0.8350167 0.15815748
000130 bc b7 1f 3f e4 9a 90 3d 44 59 c2 3e 10 70 3b be
       0.6238973 0.07060793 0.3795873 -0.18304467
000140 45 b2 ba 3e ee 7c bb be 6f 40 f0 bc 34 0b 83 be
       0.36464134 -0.3661875 -0.0293276 -0.25594485
000150 e7 d3 3b 3f 4b b0 96 be 97 8d 4a 3e f2 cc 50 3f
       0.7337021 -0.29431376 0.19780575 0.8156272
000160 1a 7b 3c 3e 50 6a 9c 3d 30 8e 7b be 00 2f 20 bf
       0.18406335 0.07637465 -0.24565959 -0.62571716
000170 0d fa 80 3f b8 a4 b9 3e 6f 0f bd 3e 51 3e 28 bf
       1.007631 0.36258483 0.36925837 -0.6572009
000180 1f 2a 28 3f 69 f3 67 3e 15 95 8b 3f f6 ce 95 be
       0.6568927 0.22651447 1.0904871 -0.2925946
000190 a5 f6 fa 3e 07 6c 02 3f fc 50 ee 3d 4f 83 bd bd
       0.490163 0.50946087 0.1163654 -0.09253561
0001a0 fa 8a c7 bd e2 be 82 3f 5d e5 cd 3e ce e1 35 3f
       -0.097433046 1.0214503 0.40214053 0.71047676
0001b0 71 47 9e 3d 79 79 bb 3d ee 1e 04 3e e3 9b 3b 3f
       0.0772847 0.091540284 0.12902424 0.7328474
0001c0 1f a3 7c 3f b6 9c 9b 3d 94 80 c8 be c5 0d 52 be
       0.98686403 0.075982496 -0.39160597 -0.20513065
0001d0 51 fc 6b 3e 44 d7 29 3f 5d 29 7d 3b 10 7f d3 be
       0.2304547 0.66344094 0.003862939 -0.41307878
0001e0 9a 91 bd bd d2 68 fa be 7d d9 c6 3e ce b2 7f 3d
       -0.09256287 -0.48908097 0.38837805 0.06242638
0001f0 bb 1a 0f 3f b8 f5 8c 3e 5e cc 8d 3e 85 d8 81 be
       0.5590016 0.2753122 0.27694982 -0.25360504

vf.v_net.2.weight f4 [128, 128]
000000 1a aa 64 be a0 2b ea bd 27 e9 cf 3e 46 9b b0 be
       -0.22330514 -0.11434102 0.4060757 -0.34493464
000010 b3 55 96 3e d3 61 3c 3c e3 61 24 be ad 18 2a be
       0.29362258 0.0114979325 -0.16052966 -0.16610976
000020 71 c8 8c be 1e 94 9f bd 6e 66 5e 3e 82 35 12 3d
       -0.27496675 -0.07791923 0.21718761 0.03569556
000030 c7 4a 79 be 7e ac 22 3f bd 5e c9 3e 8a 42 0a bc
       -0.24344932 0.6354445 0.39330092 -0.008438716
000040 94 cf 0d be 83 c8 21 be a8 54 76 bd 45 2f 2e 3d
       -0.13848716 -0.15799145 -0.06013933 0.04252555
000050 13 b5 90 be 2b 7f e4 be 11 57 d3 bd 61 18 1e be
       -0.2826315 -0.4462827 -0.10319341 -0.15438987
000060 eb 8b 8e be e1 55 03 3e 34 6c 98 be d4 b6 be 3c
       -0.27841124 0.12825729 -0.29770052 0.023280539
000070 d5 a3 d9 be 88 fc 8c be aa 49 1f 3e a6 6b 13 bd
       -0.42507806 -0.27536416 0.15555444 -0.035991333
000080 95 b1 c4 be 77 ff 3f be 27 03 a0 3e 8b 8b a3 3d
       -0.38416734 -0.18749796 0.31252405 0.079856
000090 ae 90 58 be 8c 9a a5 bd 2c f4 ef be 1b 14 41 be
       -0.21148941 -0.08086118 -0.46865976 -0.18855326
0000a0 05 f0 48 bd 6b c9 31 3d 3b 60 98 3e 42 fc 81 3d
       -0.049057025 0.043404978 0.29760918 0.063469425
0000b0 9d a1 9f bd 06 cd 17 3e f9 6e 56 3e 87 c3 c1 3e
       -0.07794497 0.14824304 0.2094077 0.37844488
0000c0 4f 2f b2 bd 67 98 95 be 0a a2 57 3e 84 d9 4e be
       -0.0870043 -0.29217836 0.21057907 -0.20200163
0000d0 b9 a8 ec 39 4f 82 2b 3e b4 a0 92 3e 65 93 00 3e
       0.00045139136 0.16748928 0.28638232 0.12556227
0000e0 b2 36 39 3f 84 0e 82 3d 60 f8 18 bd e9 7d 39 be
       0.72349083 0.06350425 -0.037346244 -0.18114437
0000f0 93 d7 7d 3e 61 f5 6e 3e 1c f3 b9 3e 15 55 22 be
       0.24789266 0.23335792 0.3631829 -0.15852769
000100 1b d1 c5 3d 33 47 94 3e b7 43 8b 3e d8 6b 72 be
       0.09659024 0.2896057 0.272001 -0.23673952
000110 de 42 40 be f9 9d 97 be e2 75 96 be ec b4 89 bd
       -0.18775508 -0.2961271 -0.29386812 -0.06723961
000120 1c ac 9b 3e 22 11 a4 bd 40 09 9e 3e 35 03 ef be
       0.30404747 -0.0801108 0.30866432 -0.46682134
000130 f7 a1 1e bd b2 de 26 3f 22 d9 17 3e fa 86 56 3d
       -0.03872868 0.65183556 0.14828923 0.052374817
000140 c9 81 c8 3e f5 36 1b bf c4 99 cf bd 7b 28 61 3e
       0.39161518 -0.6063073 -0.1013675 0.21988098
000150 d5 64 ac bd f1 dd 17 3d 19 0f 61 3e e8 de d3 3c
       -0.0841767 0.037076894 0.21978416 0.025863126
000160 a0 05 7c 3e 22 9a 89 3d 59 d5 e1 3d 8e 2c 46 bd
       0.24611521 0.067188516 0.11027021 -0.048382334
000170 40 e2 85 3d dd 5e 96 3e 21 d2 82 3d 5f ca 24 3e
       0.065372944 0.2936925 0.06387735 0.16092823
000180 26 3d 3b 3f 3f 37 74 3e 28 0e 2f be 2e 87 5f be
       0.7314018 0.238492 -0.17095244 -0.2182891
000190 5c 3b 00 3d 43 ce 16 3b b9 a1 3c ba 6e eb eb bc
       0.03130661 0.0023011125 -0.00071957294 -0.028798785
0001a0 55 2a c0 3e 8c 3c 34 be ec 9c eb 3d f4 f2 20 3d
       0.37532297 -0.17601222 0.1150454 0.0392942
0001b0 d0 bc 66 be 79 f4 2a 3e a2 bc 8f 3b e0 bd fe bc
       -0.22532964 0.16694821 0.0043865005 -0.031096399
0001c0 fe 67 26 be f9 28 93 bd c1 42 3d 3e 1d a4 8f bd
       -0.16250607 -0.07185549 0.18482496 -0.07013724
0001d0 e3 be 9d 3e fa 3e 4c be 5a 3f a2 be 69 17 7d be
       0.30809698 -0.19945899 -0.31688958 -0.24715962
0001e0 e2 eb 15 3e f4 3c 6d 3c 4b 26 26 3b 02 49 b9 3d
       0.14640763 0.014479864 0.0025352414 0.09047128
0001f0 77 67 8c 3e 7d 18 2e 3e 6d 28 19 bf eb cb 69 3b
       0.27422687 0.17001529 -0.5982731 0.0035674523
000200 e4 a4 c1 3e a8 18 fd 3c 04 a7 3f bd f1 6a c8 3e
       0.37821114 0.030895546 -0.046790138 0.3914409
000210 a1 30 93 be 9e 80 02 bb de 64 8f ba 8c 32 33 3e
       -0.28748038 -0.0019913088 -0.0010940095 0.17499751
000220 d6 69 ea bd e0 4a f8 3e fe 26 ed 3d 91 f4 58 3c
       -0.11445968 0.48494625 0.11579703 0.013241903
000230 7f af 94 3b 09 15 58 bd 32 e2 43 3e 8f c2 b0 3c
       0.0045375223 -0.052754436 0.19129255 0.021577148
000240 89 95 4f bf f8 5a 95 3e b4 85 77 3d de e7 87 bd
       -0.8108755 0.29170966 0.060430244 -0.06636022
000250 fc 0e 49 3e 8c ec 2c 3f 91 97 03 be 67 ca 50 3e
       0.19634622 0.6754844 -0.12850787 0.2038971
000260 85 99 36 3d c4 17 be 3d 55 46 03 be 2a 1a 0a 3d
       0.04458 0.09281877 -0.12819798 0.03371636
000270 b6 92 a2 3c 78 3a b1 bd d3 c0 b4 bd cc b0 3d be
       0.019845348 -0.0865373 -0.08825841 -0.18524474
000280 ef 28 bc 3d d7 99 a4 3e 81 ed f3 3d 1a 14 46 3e
       0.09187495 0.3214862 0.11910535 0.19343606
000290 5c df 52 be e4 9a ba bc 22 8d ec 3e 13 c2 0e 3f
       -0.20593017 -0.022778936 0.46201426 0.55764884
0002a0 94 d4 cb bd 61 94 d4 be 1a a9 db 3e 18 fc a1 3e
       -0.099526554 -0.41519454 0.42902452 0.31637645
0002b0 91 ec 35 3e 8b f1 82 3e d3 a8 ea 3b 33 f8 9c 3d
       0.17766024 0.25574908 0.0071612387 0.07664528
0002c0 a0 d8 f8 3d a0 72 73 bd c0 e6 a7 3e b2 53 18 be
       0.12150693 -0.059435487 0.32793236 -0.14875677
0002d0 fe be 0c be 83 1d d7 bd 21 ac f4 bc 7e b3 52 3d
       -0.13744733 -0.10503676 -0.029867234 0.05144071
0002e0 ef 38 1f be 30 79 25 3e 20 0b 50 3e cd eb 2e 3f
       -0.15549062 0.1615951 0.20316744 0.68328553
0002f0 92 95 df 3e 9b 14 ec bd 9f 30 d9 3e 57 7c 31 be
       0.436688 -0.11527368 0.42419907 -0.17332588
000300 be 81 b2 3e bf 92 16 bd cc 03 4d bd 33 7d 7a 3e
       0.3486461 -0.03676104 -0.05005245 0.24461822
000310 dc 7a 97 3c 87 dd 23 3c 89 f2 ea 3d bd f3 c1 3d
       0.018491201 0.010001547 0.11472041 0.094703175
000320 58 bc c2 be 37 85 bd 3d 98 77 a0 bd c7 be 6f 3d
       -0.3803432 0.09253924 -0.07835311 0.05853155
000330 93 2d 26 3e c1 6b 0b be 33 72 ec 3e 74 f9 a9 be
       0.16228323 -0.13615324 0.46180877 -0.3319813
000340 9a 61 ce 3e 17 a6 b1 be bd 03 0b 3e c1 30 4b 3d
       0.4030884 -0.3469703 0.13575645 0.049607042
000350 7f a0 ad bd 22 95 1b 3e 6c b6 94 be ba 1d 05 3c
       -0.08477878 0.15193608 -0.29045427 0.008124763
000360 a7 7a 4c bf 6f 82 b4 3c 62 bf 7a be 60 46 31 bf
       -0.7987465 0.022034852 -0.24487069 -0.6924801
000370 c8 22 8b be 35 53 bc 3d 46 ae dd bd 55 dc cf be
       -0.27174973 0.09195558 -0.10824256 -0.40597787
000380 17 02 19 3f 36 84 17 3d 29 66 a8 bd 90 f0 7a 3b
       0.59768814 0.03699132 -0.082226105 0.003829036
000390 f9 24 df 3d 55 d5 98 be e3 92 63 3e 7a a0 10 3e
       0.10895724 -0.2985026 0.22224002 0.14123717
0003a0 08 e2 ac 3d af 74 14 3e 9a a4 a2 3e dc 50 91 3d
       0.084415495 0.14497636 0.31766206 0.07095501
0003b0 ac 24 f2 3e a2 40 30 3b 89 a9 3d be 74 5e aa 3d
       0.47293603 0.0026893993 -0.18521704 0.08318797
0003c0 d5 29 15 bd e1 50 39 bc 39 1e da 3e 94 34 59 be
       -0.036416847 -0.011310787 0.42601183 -0.21211463
0003d0 30 af ca 3c 70 2d 3a bd 2e 5e 62 be a0 a2 99 be
       0.024741739 -0.04545349 -0.22106239 -0.30006886
0003e0 33 30 43 be 91 c7 8b 3d 6d 25 65 3d dc 30 d8 3e
       -0.19061355 0.06825174 0.055943895 0.42224777
0003f0 bf 3b 82 bd 69 19 9f 3e ec fc 33 be 44 37 d0 3d
       -0.06359052 0.31074074 -0.17576951 0.10166791

vf.v_net.2.bias f4 [128]
000000 29 0a 9f 3e 30 15 40 3e ce 7f 71 3e 85 17 09 be
       0.3106244 0.18758082 0.2358391 -0.13387878
000010 12 59 5a bf 6c f6 9e 3e 1b 3f 3c bf 9b 9e 48 bf
       -0.8529216 0.3104738 -0.7353379 -0.7836701
000020 ad fe cd be de e2 64 3e 9b 59 32 3d e7 2a 82 bf
       -0.40233365 0.22352168 0.043542486 -1.0169343
000030 44 f0 a9 bd b8 79 9a 3d a5 52 90 be 02 07 5c 3e
       -0.0829778 0.07542747 -0.28188053 0.21487048
000040 91 0b 54 3d d9 4e 04 3e 5e bd 16 bd b4 0d 4a bd
       0.051768843 0.12920703 -0.03680169 -0.049329475
000050 c4 59 8b be 00 32 91 be 70 d9 b1 be 7c 43 98 3e
       -0.27216923 -0.2835846 -0.34736204 0.29738986
000060 4a f4 86 3d 4d 8b 04 3d 34 ab 11 bf 84 e8 dc be
       0.06589563 0.03235941 -0.5690186 -0.43146145
000070 8f df 42 be 49 28 16 be 7c a1 58 3e 25 bd 15 3e
       -0.19030593 -0.14663805 0.21155351 0.14622934
000080 b3 87 8c 3d 93 b6 5e be 2a 22 8e be 23 dc 4b bf
       0.0686182 -0.21749334 -0.2776044 -0.79632777
000090 5e 28 ac be dd be 18 bf 9e 1d 9e 3e 45 59 27 be
       -0.33624548 -0.59666234 0.3088197 -0.16342647
0000a0 c3 a6 0a bf b8 6d 88 be 88 c1 49 3e 65 d2 cb be
       -0.5416071 -0.2664621 0.19702733 -0.39808956
0000b0 d7 90 93 3d f2 4e 3a 3e 7f 9f d3 be a1 74 44 3e
       0.072053604 0.18194178 -0.41332623 0.19185115
0000c0 ff 3a 00 3d d9 80 9d be d0 4c 8b 3c 7a 04 ab 3c
       0.031306263 -0.30762365 0.0170044 0.020876158
0000d0 94 2b 4a be fc 8a 87 3e da eb 3a 3e 38 56 0e 3e
       -0.19743186 0.26473224 0.18254033 0.13900077
0000e0 a0 a9 0b bf 1b b0 9c 3d 7d 23 8f be ef 50 ad be
       -0.545557 0.07650777 -0.27956763 -0.3385081
0000f0 b3 ae 2e bd f2 ad 9a be 93 7a 3c bf 51 7d 45 3d
       -0.042647075 -0.30210835 -0.73624533 0.048215214
000100 7f d6 62 bd e7 69 2e be ac b8 ec be be 84 68 3e
       -0.05538034 -0.17032586 -0.46234643 0.22706887
000110 56 c6 b9 3d 4c 03 c2 be e7 62 ea be 70 80 37 3e
       0.09071033 -0.3789314 -0.45778582 0.17920089
000120 8e 18 2c 3e f1 83 15 3e 5a 55 34 3e 3e dd 4a bd
       0.16806242 0.14601113 0.17610684 -0.0495274
000130 f5 92 b3 be a5 44 0f 3e fc 4c 9e 3d 32 57 c5 be
       -0.35073057 0.1399103 0.07729527 -0.38543087
000140 b4 b2 b4 3e d1 28 ab bd e3 80 7e be 05 dd b5 bd
       0.3529259 -0.083573945 -0.24853854 -0.08880047
000150 a6 b8 cc be 45 63 01 3e 4f f9 37 3e 98 6b 15 3e
       -0.39984626 0.12635525 0.17966197 0.14591825
000160 7e cc 21 3e ae d3 c7 be 69 fb 0d 3e 07 5d 7a be
       0.15800664 -0.39028686 0.13865437 -0.2444955
000170 89 ea ec bd d5 78 43 3e 49 c1 71 3d f4 fe be bc
       -0.115681715 0.19089063 0.05902222 -0.02331493
000180 6f 9d 96 3e 9b 38 92 be a8 85 71 3c 32 8e e7 3d
       0.29416987 -0.28558812 0.014741339 0.113064185
000190 0e 66 04 bf 3b 84 08 3e fa 16 25 bf 17 da c5 3d
       -0.51718223 0.13331692 -0.64488184 0.09660738
0001a0 5e c0 57 3c 1a 40 24 bd d8 66 54 bf ee 53 af 3e
       0.0131684225 -0.040100195 -0.8296943 0.3424372
0001b0 fc 88 96 bd 93 95 c9 bd 1e 5b 0e be 11 ea 03 bf
       -0.073503464 -0.09842982 -0.13901946 -0.5152903
0001c0 37 7d b9 3c 78 ca ec bd 8d 81 2e 3e ae 70 ea bc
       0.022642715 -0.11562055 0.17041607 -0.028618183
0001d0 24 44 81 3e 61 64 fb bd 88 54 c1 be f0 2d ba be
       0.252473 -0.12275005 -0.37759805 -0.36363173
0001e0 fd ab c7 bd 00 8f ca be f8 1b 37 bd c0 ff e7 bd
       -0.09749601 -0.39562225 -0.044704407 -0.11328077
0001f0 90 71 52 be 60 3f 8c 3d 81 b5 ce bd 02 54 17 3d
       -0.20551133 0.06848025 -0.10093213 0.03694535
