HW4/ppo_dm_control-master/training/walker/walk/ppo_ac_model.pth (torch, 52740 bytes, 12 tensors)

pi.log_std f4 [6]
0	0xbfaf6d4f	-1.3705233
1	0xbfacdb6e	-1.3504465
2	0xbf989a83	-1.1922153
3	0xbf93c247	-1.1543664
4	0xbfa85d09	-1.3153392
5	0xbfb1e1f3	-1.3897079

pi.mu_net.0.weight f4 [64, 24]
0	0x3e7d5e31	0.24742962
1	0xbe3e4e89	-0.18584646
2	0x3e39c750	0.18142438
3	0xbe80487f	-0.2505531
4	0x3e84993d	0.25898162
5	0x3e69229b	0.22767107
6	0x3cc04d66	0.023474406
7	0x3d680df8	0.056653947
8	0x3e2d5410	0.16926599
9	0x3a84f0c4	0.0010142555
10	0xbe4cbac3	-0.19993119
11	0x3e351925	0.17685373
12	0x3df6eaa9	0.120564766
13	0x3da0f42c	0.07859072
14	0x3ee01b88	0.43771005
15	0x3d2b67f2	0.041847177
16	0x3e7176ad	0.23580427
17	0xbd0fe75c	-0.03513275
18	0x3de102e1	0.10986877
19	0x3e56341a	0.20918313
20	0x3e1e4c4b	0.15458791
21	0x3e010121	0.12598087
22	0x3d3b0153	0.04565556
23	0xbd7f5128	-0.062333256
24	0x3f051e1b	0.5199906
25	0xbeb2bcc3	-0.3490964
26	0x3e1622b1	0.14661671
27	0xbe72defe	-0.23717877
28	0x3bf505eb	0.007477512
29	0x3cdf8c02	0.02728844
30	0xbcb44cb4	-0.022009231
31	0xbb284707	-0.0025677101
32	0xbdb0bb73	-0.08629503
33	0xbec8cba0	-0.39217854
34	0x3d782d50	0.06059009
35	0x3c5cb4f7	0.01347088
36	0xbe025228	-0.12726653
37	0x3e9cc520	0.30619144
38	0x3e1ebac3	0.15500931
39	0xbe49a62c	-0.19692296
40	0xbea74216	-0.32667607
41	0xbe028b43	-0.12748437
42	0xbd39427a	-0.045229413
43	0x3df0a2e2	0.117498174
44	0x3df28bb2	0.11843051
45	0x3e043d1b	0.12913935
46	0x3cc78012	0.02435306
47	0xbd192c3b	-0.037395697
48	0xbed81117	-0.4220054
49	0xbc0851fb	-0.008320327
50	0x3e5d7faf	0.21630739
51	0x3dfaf741	0.12254191
52	0xbd227e6e	-0.039671354
53	0xbd7e5fdd	-0.06210314
54	0xbe9ed2cd	-0.31020203
55	0xbe1f3e09	-0.15551008
56	0xbe268953	-0.16263323
57	0x3e89d9f4	0.26924098
58	0xbd882722	-0.06648089
59	0xbe4e9fb6	-0.20178112
60	0xbe30b38d	-0.17255993
61	0x3a4e8f64	0.0007879643
62	0xbe9d7c8b	-0.3075908
63	0xbbfa7b2d	-0.007644078
64	0xbe2f8070	-0.17138839
65	0xbdc9e0b2	-0.0985731
66	0xbdf80643	-0.12110569
67	0x3bed6cfb	0.0072456575
68	0xbdd49708	-0.103803694
69	0x3d736b2b	0.059428375
70	0x3d0cebff	0.03440475
71	0xbba72756	-0.0051011248
72	0xbda226dc	-0.07917568
73	0x3ea297e6	0.31756514
74	0x3c910fa2	0.01770765
75	0xbe144a97	-0.14481579
76	0xbbb54601	-0.0055320268
77	0x3c30fef9	0.010802978
78	0xbbf6e957	-0.0075351405
79	0xbc8b9b4f	-0.01704183
80	0x3de86962	0.11348225
81	0xbdbe4b89	-0.09291751
82	0x3d04daea	0.032435335
83	0x3e47a105	0.19495018
84	0xbe88da50	-0.2672906
85	0xbdb2a40f	-0.08722698
86	0xbdabc9fc	-0.08388135
87	0x3d4f471a	0.050604917
88	0x3e4fd3b4	0.20295602
89	0x3dbfd17f	0.0936613
90	0x3d96b510	0.07358754
91	0x3e5a94c7	0.21345817
92	0xbc9a58ae	-0.018841114
93	0xbe62d0ac	-0.22149915
94	0x3e4c0e0b	0.19927232
95	0xbd847ab0	-0.06468713
96	0xbdd1ed30	-0.10250318
97	0x3c45e28d	0.01207794
98	0x3c29cbe9	0.010363557
99	0x3e1fdc02	0.1561127
100	0xbc1b9c9d	-0.009497789
101	0x3cf72e1b	0.030173352
102	0x3cfe85bf	0.031069634
103	0x3cc33761	0.023830118
104	0x3e84ca98	0.25935817
105	0x3e59e881	0.212801
106	0x3cffe112	0.031235252
107	0x3d1209b2	0.035653777
108	0xbc62d5da	-0.0138449315
109	0xbbf80272	-0.007568651
110	0x3dfd757a	0.123759225
111	0x3e9cf4df	0.30655572
112	0x3e0beabd	0.13663764
113	0xbe0d3e65	-0.13793333
114	0xbe0eac42	-0.13932899
115	0xbc42bdff	-0.011886119
116	0x3cabf3e1	0.020990314
117	0x3d6a7fad	0.057250667
118	0xbc46d259	-0.012135112
119	0x3e04a890	0.12954926
120	0xbe441612	-0.19149044
121	0xbee0f877	-0.43939564
122	0x3c8eb652	0.017420921
123	0x3c1263ec	0.008934956
124	0x3de4c8cb	0.11171111
125	0xbe945d2f	-0.28977343
126	0x3e2cf023	0.1688848
127	0xbe70ac48	-0.2350322
128	0xbd121a12	-0.035669394
129	0xbe96e1ed	-0.29469243
130	0x3de4c265	0.1116989
131	0x3e627c36	0.22117695
132	0x3e09fce6	0.1347538
133	0x3e30698e	0.17227766
134	0x3e0fda78	0.14048183
135	0xbd746515	-0.05966671
136	0xbce1def6	-0.027572136
137	0xbd9958f9	-0.07487673
138	0xbd556341	-0.05209661
139	0xbde68ef9	-0.112577386
140	0x3e13b6e1	0.14425232
141	0x3e03d3bb	0.12873738
142	0x3cb56494	0.022142686
143	0xbd657c0e	-0.05602651
144	0xbe959e92	-0.29222542
145	0x3d1130f6	0.035447083
146	0x3dba9c2a	0.09111817
147	0xbdc209eb	-0.09474548
148	0x3e487475	0.19575675
149	0x3d1e306e	0.038620405
150	0x3e985ffc	0.2976073
151	0xbd493f24	-0.04913248
152	0x3e8fde73	0.28099403
153	0xbdbe74c9	-0.09299619
154	0xbded4e1b	-0.11587163
155	0x3dac7abf	0.084218495
156	0xbd5c2aac	-0.053751633
157	0x3ce521f2	0.027970288
158	0xbc5656fc	-0.013082262
159	0x3e7445b0	0.23854709
160	0x3e0d1c01	0.13780214
161	0xbe2c65a4	-0.16835648
162	0x3da5bf35	0.080931105
163	0xbd35da60	-0.04439771
164	0xbe034cd0	-0.1282227
165	0x3d5fa6ff	0.05460262
166	0x3dbcdb1c	0.09221479
167	0xbdc66674	-0.0968751
168	0x3f06ce0b	0.52658147
169	0x3c46e55c	0.0121396445
170	0xbcc94aa3	-0.024571722
171	0xbe0523cf	-0.13001941
172	0xbe518137	-0.20459448
173	0x3e450f95	0.19244225
174	0xbe0b0124	-0.13574654
175	0x3e60dba2	0.21958783
176	0x3d989bc3	0.07451584
177	0xbe9c9783	-0.30584344
178	0x3e6a5fe4	0.22888142
179	0x3e4c2b89	0.19938482
180	0x3e356ec8	0.17718041
181	0x3e29d9f9	0.16587056
182	0x3c596026	0.0132675525
183	0xbe1c4c1e	-0.15263411
184	0xbe09ca44	-0.13456064
185	0xbd8ce523	-0.06879642
186	0xbdc3ecaf	-0.09566628
187	0xbe146c60	-0.14494467
188	0xbe0b7b7f	-0.13621329
189	0x3de44292	0.1114551
190	0xbd43a825	-0.047767777
191	0xbd49da08	-0.049280196
192	0xbe9c0753	-0.30474338
193	0x3de5fc9d	0.11229823
194	0x3d832d8b	0.06405171
195	0x3e294721	0.1653104
196	0xbcb4f982	-0.02209163
197	0xbb21ff32	-0.0024718759
198	0x3e29901b	0.16558878
199	0x3ccd59aa	0.02506717
200	0xbc8f89d4	-0.017521776
201	0x3eabe7b2	0.33575207
202	0xbcd568f4	-0.026051022
203	0xbd0af9fe	-0.033929817
204	0xbcb82f4b	-0.022483489
205	0xbe1390a9	-0.14410652
206	0x3d0e724c	0.03477697
207	0x3e8b6b30	0.27230215
208	0x3d39a98d	0.04532771
209	0xbe2ead9e	-0.17058417
210	0xbe1f127e	-0.15534398
211	0xbc5aeaf6	-0.013361683
212	0xbd982d84	-0.074305564
213	0xbe8167c2	-0.25274473
214	0x3c72560d	0.014791024
215	0x3d964e1a	0.073391154
216	0xbd903e52	-0.07043137
217	0xbc71a011	-0.014747635
218	0xbc8ed41c	-0.017435126
219	0xbd3ce0df	-0.04611289
220	0xbe04973c	-0.12948316
221	0xbe0a9e28	-0.13536894
222	0x3e817ee5	0.25292125
223	0xbea0626f	-0.313251
224	0xbe6aa0d2	-0.2291291
225	0xbe3e585c	-0.18588394
226	0x3e4ff07c	0.20306581
227	0xbe8f4438	-0.27981734
228	0x3de3e5d3	0.1112782
229	0xbdfc049c	-0.12305567
230	0x3d4e9806	0.05043795
231	0xbe471e68	-0.19445193
232	0xbed9fdcd	-0.42576447
233	0xbdf59b5c	-0.11992523
234	0x3dfeaa61	0.12434841
235	0xbe0d97a0	-0.13827372
236	0xbdfb9306	-0.12283902
237	0x3bdb30bd	0.0066891597
238	0x3e04673e	0.12930009
239	0x3d417c2a	0.047237553
240	0x3d5082f4	0.050906137
241	0xbdb1993b	-0.086718045
242	0x3e79a2b4	0.24378473
243	0xbe604d83	-0.21904568
244	0xbdaa49e3	-0.08314874
245	0xbdc676b1	-0.09690607
246	0xbe633c9e	-0.22191092
247	0xbc80ce54	-0.015723385
248	0x3d41e5f5	0.047338445
249	0x3e0b5019	0.13604774
250	0x3d765b61	0.06014574
251	0xbdab6471	-0.08368767
252	0x3d381083	0.04493762
253	0xbda81416	-0.08206956
254	0xbd63a2cd	-0.05557518
255	0xbdc4292f	-0.09578168

pi.mu_net.0.bias f4 [64]
0	0xbd2b49a5	-0.04181828
1	0xbddafabb	-0.10692354
2	0xbe51dd7a	-0.20494643
3	0x3e78d3e2	0.24299577
4	0xbd246153	-0.040131878
5	0x3d0cdea6	0.03439202
6	0xbd98e52c	-0.07465586
7	0xbdfc6ab0	-0.123250365
8	0xbe951bab	-0.2912267
9	0xbd4a4e0a	-0.04939083
10	0xbda2332b	-0.07919916
11	0xbd48920b	-0.048967402
12	0xbde46102	-0.11151315
13	0x3c72ab8c	0.014811408
14	0x3e01d366	0.12678298
15	0x3d43901b	0.04774485
16	0xbccd8dbf	-0.025092004
17	0x3dc66703	0.09687617
18	0xbd4ec7d1	-0.05048353
19	0xbc25d5bd	-0.01012176
20	0xbd6ef867	-0.058342364
21	0xbd2e2aba	-0.042521216
22	0xbe0b107e	-0.1358051
23	0xbd8cc0e7	-0.06872731
24	0x3e04c218	0.12964666
25	0xbeb4c17f	-0.35303876
26	0x3e2e208d	0.17004605
27	0x3e173ef4	0.14770108
28	0xbdb5ce62	-0.08877255
29	0xbe09cefd	-0.13457866
30	0x3dbbb2d5	0.09164969
31	0x3e2fb7a0	0.17159891
32	0xbcf6d5f6	-0.030131321
33	0xbdef4fb2	-0.116851225
34	0x3e895046	0.26819056
35	0x3d36ba3e	0.04461121
36	0xbda4b773	-0.08042803
37	0xbd8b96c5	-0.068158664
38	0xbd7b65af	-0.06137627
39	0xbe3c3496	-0.18379435
40	0x3de71c03	0.1128464
41	0xbdb4d4b4	-0.088296324
42	0xbdbf8499	-0.09351463
43	0xbe49e9f7	-0.19718157
44	0x3d8c637a	0.06854911
45	0x3e0693b8	0.13142288
46	0x3deeb243	0.116550945
47	0x3e3d77f6	0.18502793
48	0xbd1e9c62	-0.038723357
49	0x3e71e9fd	0.23624416
50	0xbdc33a17	-0.09532564
51	0xbe6d364f	-0.23165248
52	0x3d07f4e0	0.033192515
53	0xbd5dbee1	-0.054137114
54	0xbeb84926	-0.35993308
55	0xbdff8392	-0.12476267
56	0xbe0c8dad	-0.1372592
57	0x3df3b2e1	0.11899353
58	0xbd684e58	-0.05671534
59	0x3d715123	0.05891527
60	0xbe1f9042	-0.15582374
61	0xbde478e1	-0.11155868
62	0xbe25caf8	-0.16190708
63	0x3d1848c1	0.03717876

pi.mu_net.2.weight f4 [64, 64]
0	0xbd9c3753	-0.0762774
1	0x3ce04ccf	0.027380375
2	0x3db4d8f2	0.088304415
3	0xbd139512	-0.036030836
4	0xbd0ced81	-0.03440619
5	0xbac1d007	-0.0014786728
6	0xbd49a336	-0.049227916
7	0x3decc906	0.1156178
8	0x3dc6fffb	0.09716793
9	0x3d8cacbd	0.06868885
10	0xbdc12210	-0.09430325
11	0xbd335aac	-0.043787643
12	0x3d63f2c1	0.05565143
13	0xbdc41fef	-0.09576403
14	0xbddbfd7c	-0.10741708
15	0xbd819e56	-0.06329028
16	0x3e05436d	0.13014002
17	0xbdaf5533	-0.08561172
18	0x3d773cde	0.06036078
19	0xbd1cbe70	-0.038267553
20	0xbb8ec457	-0.0043569016
21	0xbe04d997	-0.12973629
22	0x3e34a839	0.17642297
23	0x3d862ecd	0.06551895
24	0xbe247dd9	-0.16063632
25	0x3d688d36	0.056775294
26	0x3e07bba4	0.13255173
27	0x3e4edc13	0.20201139
28	0x3d49c273	0.049257707
29	0xbdd4c322	-0.10388781
30	0xbdae741a	-0.08518238
31	0x3dd57d7e	0.10424326
32	0x3e59fda7	0.21288167
33	0x3d8ea5b0	0.06965196
34	0x3dcefd69	0.10106928
35	0xbcb90824	-0.02258689
36	0xbc5e448b	-0.013566147
37	0xbdc7d083	-0.09756567
38	0x3e1c7dd0	0.15282369
39	0x3dba1250	0.09085524
40	0xbe5bedfa	-0.214775
41	0xbe11821c	-0.14209789
42	0x3e0d455a	0.13795987
43	0xbd4846f8	-0.048895806
44	0xbd90120d	-0.07034693
45	0x3dad5159	0.084627815
46	0xbe1e7205	-0.15473182
47	0xbc8327b8	-0.01601015
48	0x3e07c835	0.13259967
49	0xbd5bdcdf	-0.053677436
50	0x3d805985	0.062670745
51	0xbe59d148	-0.2127124
52	0xbc6ae758	-0.014337383
53	0xbbc33525	-0.005957263
54	0x3d2843f5	0.041080434
55	0x3dcaffb6	0.09912054
56	0xbdea9dc7	-0.11455875
57	0xbdf834ed	-0.1211947
58	0x3c151b80	0.009100795
59	0x3d57eccf	0.052716073
60	0xbd297076	-0.041367017
61	0x3c90aff8	0.017662033
62	0x3c297f93	0.0103453575
63	0x3dbfa5ee	0.093578205
64	0xbdb166d2	-0.086621895
65	0xbd3b2475	-0.045689065
66	0xbd9d2911	-0.076738484
67	0xbd2bb603	-0.041921627
68	0x3d64ee10	0.055891097
69	0xbe27870a	-0.16360107
70	0xbe191940	-0.14951038
71	0xbdb1eb93	-0.0868751
72	0x3d449878	0.047996968
73	0xbd409704	-0.04701902
74	0xbcaef5cc	-0.02135744
75	0x3e1bca5a	0.1521391
76	0x3d9d94f7	0.076944284
77	0x3e1a5e74	0.15075094
78	0x3e4fe720	0.20303011
79	0xbc98f9c2	-0.018673781
80	0x3d2b25a9	0.041783962
81	0x3d8e812d	0.06958232
82	0x3c8e7188	0.01738812
83	0x3d33ec8f	0.04392677
84	0xbe259b44	-0.1617251
85	0x3d63224e	0.055452637
86	0xbdd32abb	-0.103108846
87	0x3e3c0bc2	0.1836386
88	0x3e181068	0.14850008
89	0xbdcff6ee	-0.1015452
90	0x3e0bf17a	0.13666335
91	0xbe2320a4	-0.1593042
92	0x3d69e659	0.057104442
93	0x3de8bb11	0.11363805
94	0xbdd5f468	-0.104470074
95	0x3c3f1f0d	0.011665118
96	0x3cd9061f	0.026492177
97	0xbdb0580e	-0.08610545
98	0x3d8ef008	0.06979376
99	0xbd257438	-0.040394038
100	0xbd8bf3b3	-0.06833591
101	0x3d5235d6	0.051320873
102	0xbdea4763	-0.11439397
103	0xbe05ced0	-0.13067174
104	0x3b786222	0.0037900289
105	0xbb8aa365	-0.004230904
106	0x3dcad183	0.099032424
107	0x3e0ec28d	0.13941403
108	0x3d8896b3	0.066693686
109	0x3dc2ae8f	0.09505951
110	0xbd5aca74	-0.05341573
111	0x3df65c48	0.1202932
112	0x3d8499d9	0.064746566
113	0x3dd89ee8	0.10577184
114	0x3dd23a2e	0.10265003
115	0xbe5993da	-0.21247807
116	0x3dbffaa4	0.09373978
117	0x3ab39f59	0.0013704106
118	0xbded8703	-0.11598017
119	0x3df59aa9	0.1199239
120	0x3d96d3b8	0.07364601
121	0x3d28efc1	0.041244272
122	0xbd62bd50	-0.055356324
123	0x3e3e6c72	0.18596056
124	0xbd7d32fd	-0.061816204
125	0xbc065aff	-0.008200406
126	0xbe1b4dc1	-0.1516638
127	0x3d8c9ad0	0.06865466
128	0x3d28a9f0	0.04117769
129	0xbc58741e	-0.013211278
130	0x3ddd7714	0.10813728
131	0x3e00be16	0.12572512
132	0xbdadfefe	-0.084959015
133	0xbc85bac4	-0.016324408
134	0xbd5231fd	-0.051317204
135	0x3d1354c6	0.035969518
136	0x3dafafbc	0.085784405
137	0xbc562f24	-0.013072763
138	0xbd0efc7f	-0.034908768
139	0xbdf8ac9f	-0.121423
140	0xbdec2df7	-0.115322046
141	0xbdc37d92	-0.09545435
142	0xbdbb682a	-0.09150727
143	0x3e48aa89	0.19596304
144	0xbe0de0da	-0.13855305
145	0x3daf390f	0.08555805
146	0xbd8f6350	-0.07001364
147	0x3d8f7f2f	0.0700668
148	0x3d416b82	0.047221668
149	0xbdb0a9fe	-0.086261734
150	0x3e0eef48	0.13958466
151	0x3d70fffb	0.058837872
152	0x3d7a25ca	0.061071195
153	0x3d60df45	0.054900426
154	0xbd8a1fd3	-0.06744351
155	0xbc0bc75d	-0.008531419
156	0xbe641569	-0.22273792
157	0x3d94b7dd	0.07261632
158	0x3da64c21	0.08119989
159	0xbd7cdb95	-0.061732847
160	0x3d3d49f1	0.046213094
161	0x3e3254bd	0.17415138
162	0xbe03a8a2	-0.12857297
163	0xbdf1b73f	-0.118025295
164	0xbd416ef6	-0.04722496
165	0xbd79080b	-0.060798686
166	0x3c0884a4	0.008332405
167	0xbe070766	-0.13186416
168	0x3d6ebffb	0.058288556
169	0x3e291481	0.16511728
170	0xbe14d047	-0.14532577
171	0x3dc027f0	0.093826175
172	0x3d62aa32	0.055338092
173	0x3e309b50	0.17246747
174	0x3d82554a	0.06363924
175	0xbd6d41fb	-0.057924252
176	0x3e15370c	0.1457178
177	0xbdf78f0b	-0.1208783
178	0xbbcc238f	-0.006229825
179	0x3d75fd3d	0.06005596
180	0xbd36d3ab	-0.044635456
181	0x3dcede09	0.101009436
182	0x3d3f03f2	0.046634622
183	0x3d94bb42	0.07262279
184	0x3e2e059c	0.16994327
185	0x3d9b69fd	0.07588575
186	0x3d9c5324	0.07633045
187	0x3c787a3e	0.015165864
188	0xbe0b1b80	-0.13584709
189	0xbcc0eb93	-0.02354983
190	0xbdfe10aa	-0.12405522
191	0xbc5ef184	-0.0136073865
192	0xbc01a3fa	-0.00791263
193	0x3c406814	0.011743564
194	0xbde004b9	-0.10938401
195	0x3c95cf34	0.018287279
196	0x3d724c8e	0.05915504
197	0x3c404809	0.0117359245
198	0x3db71636	0.08939783
199	0x3b9d8688	0.004807297
200	0x3debb1dd	0.11508534
201	0xbe172b25	-0.14762552
202	0xbe0d6717	-0.13808857
203	0x3cd8b372	0.026452754
204	0x3d480e17	0.048841562
205	0x3e118fc3	0.14214997
206	0x3e0ae680	0.13564491
207	0xbc9664b9	-0.018358575
208	0xbd0cea94	-0.0344034
209	0x3e3c27ab	0.18374507
210	0xbe024a41	-0.12723638
211	0x3d9926fa	0.07478137
212	0xbc53678a	-0.012903104
213	0xbd3573e4	-0.044299975
214	0x3e364faf	0.17803834
215	0x3e4f6e27	0.20256864
216	0x3e2534f1	0.16133477
217	0xbdbdd02e	-0.09268223
218	0xbb922716	-0.004460226
219	0x3d4558e8	0.04818049
220	0x3d391b48	0.045192033
221	0xbe0c85f0	-0.13722968
222	0x3dd23a45	0.1026502
223	0xbe0153b3	-0.12629585
224	0xbcada80e	-0.021198299
225	0x3dd5d35a	0.10440703
226	0xbdfd4f1c	-0.123686045
227	0x3cd3df56	0.02586333
228	0x3d5d4413	0.05402
229	0xbdcb1ac0	-0.099172115
230	0xbdd0a83a	-0.10188337
231	0xbdf5bda0	-0.11999059
232	0xbd13dd61	-0.036099795
233	0xbd8bbdfc	-0.06823346
234	0x3d443fdf	0.047912475
235	0xbc4cf9bd	-0.012510714
236	0x3e35f41b	0.177689
237	0xbd4657e5	-0.048423667
238	0x3dcaed87	0.09908586
239	0x3d55ec34	0.052227214
240	0x3ded517b	0.11587807
241	0x3e4affd0	0.19824147
242	0x3d87b700	0.06626701
243	0x3e16cb3e	0.14725968
244	0xbe638b79	-0.22221173
245	0x3ccb266b	0.024798593
246	0x3d9c0b92	0.07619394
247	0x3da27ac5	0.07933573
248	0x3e081384	0.13288695
249	0x3d567b32	0.052363582
250	0xbdbba9f9	-0.09163279
251	0xbdb6b662	-0.089215055
252	0x3db5c24a	0.08874948
253	0xbcb2a328	-0.021806315
254	0x3d9a96a3	0.07548263
255	0x3bdd581a	0.0067548873

pi.mu_net.2.bias f4 [64]
0	0x3de8ee19	0.113735385
1	0x3d578767	0.052619364
2	0x3d3cfc9a	0.046139337
3	0x3dca6de7	0.098842435
4	0x3dbd9607	0.09257131
5	0x3c8599ce	0.016308691
6	0x3e08687b	0.13321106
7	0x3e052b05	0.13004692
8	0xbd0be0f2	-0.03415007
9	0x3dab9e39	0.08379788
10	0xbd96e4d7	-0.073678665
11	0x3df2bb3b	0.11852118
12	0x3cbc0a2c	0.02295407
13	0x3e003868	0.12521517
14	0x3e07ec6d	0.13273783
15	0xbd2892a6	-0.04115548
16	0xbc63b806	-0.013898855
17	0x3e086685	0.13320358
18	0x3d9a6e09	0.07540519
19	0xbd129ba8	-0.035792977
20	0xbdb38367	-0.087652974
21	0x3dfbb9ce	0.12291299
22	0x3d11bdef	0.035581525
23	0xbd929747	-0.0715776
24	0x3ddf94a4	0.10917023
25	0xbd971d9d	-0.07378695
26	0x3db6c922	0.08925082
27	0x3d89dc4d	0.06731472
28	0xbdcac681	-0.09901143
29	0xbc6d5943	-0.014486614
30	0x3cb4314a	0.02199616
31	0xb9ea42bc	-0.0004468168
32	0x3dc8c7c1	0.09803725
33	0x3df55507	0.11979108
34	0x3dd396b4	0.10331479
35	0x3d9d6bc3	0.076865695
36	0x3d2073f6	0.03917309
37	0x3cce6fa6	0.025199722
38	0xbc9433f4	-0.01809118
39	0x3dabb87a	0.083847955
40	0x3e7530fe	0.2394447
41	0x3c105c82	0.008811118
42	0xbcb40d4c	-0.021978997
43	0x3c64561f	0.0139365485
44	0x3d016abd	0.031595934
45	0x3e7adbe5	0.24497946
46	0x3d98f240	0.074680805
47	0x3d38bbfc	0.04510115
48	0x3db5dead	0.08880363
49	0xbdaa2409	-0.083076544
50	0xbc50cab4	-0.012743641
51	0xbd84721c	-0.06467077
52	0xbcb1a038	-0.021682844
53	0xbc9ab5c2	-0.018885497
54	0x3e318be1	0.17338516
55	0x3e2f3825	0.17111261
56	0x3ddd5c0b	0.108085714
57	0xbd6a81e1	-0.05725277
58	0x3d0a6fa0	0.03379786
59	0x3d64c445	0.05585124
60	0x3dc69541	0.09696437
61	0xbc599894	-0.013281006
62	0x3e0d63e6	0.1380764
63	0xbd6e134d	-0.058123875

pi.mu_net.4.weight f4 [6, 64]
0	0xbd8ea583	-0.069651626
1	0x3de26ca2	0.11055876
2	0xbd41d264	-0.047319785
3	0xbda6d3d3	-0.08145871
4	0xbdca9b1c	-0.09892866
5	0x3d2d4029	0.042297516
6	0x3e408271	0.1879976
7	0xbe2822b6	-0.16419491
8	0x3daeff97	0.08544844
9	0x3c6e8e97	0.014560363
10	0x3e48a859	0.1959547
11	0xbd822c37	-0.063560896
12	0x3bcd44c3	0.0062643006
13	0xbdfc5639	-0.12321133
14	0x3aca1c7a	0.0015419864
15	0x3d2433bc	0.0400884
16	0xbddc3f4e	-0.10754262
17	0x3e002b14	0.12516433
18	0x3dc62f41	0.09676982
19	0xbbd08786	-0.006363812
20	0x3dd0c151	0.10193122
21	0x3ca964b9	0.020677911
22	0x3e45abac	0.19303769
23	0x3d4a7053	0.049423527
24	0xbe176e16	-0.14788088
25	0xbe3e8c90	-0.18608308
26	0xbe585eec	-0.2112996
27	0xbd09b7e1	-0.033622626
28	0xbe7720ed	-0.24133654
29	0xbe7c1f74	-0.24621373
30	0xbbde616d	-0.0067865164
31	0x3e4a36f5	0.19747527
32	0xbe2cb062	-0.1686416
33	0x3d42e43e	0.04758095
34	0xbd876c27	-0.06612425
35	0x3de2baed	0.110708095
36	0x3ca4e6e7	0.020129634
37	0x3e474028	0.19458067
38	0xbe20954f	-0.15681957
39	0x3ddb4882	0.10707189
40	0x3e4c511a	0.19952813
41	0xbdaa8ae7	-0.08327275
42	0xbdf6e6b7	-0.12055724
43	0xbde94746	-0.113905475
44	0xbdb9e5c2	-0.09077026
45	0x3e6f9a9b	0.23398821
46	0xbe0eee47	-0.13958083
47	0x3e2cce5d	0.16875596
48	0xba306609	-0.00067290716
49	0x3d717d40	0.05895734
50	0x3da0e42a	0.07856019
51	0xbd36fb46	-0.044673227
52	0x3d5e1eaa	0.054228462
53	0x3dc95a8a	0.09831722
54	0x3b3dfe14	0.0028990554
55	0x3e0ec7ed	0.13943453
56	0x3e635860	0.22201681
57	0xbe3a92d2	-0.1822007
58	0x3d6d2110	0.05789286
59	0x3e2dac6d	0.16960306
60	0xbe569ad3	-0.20957498
61	0x3e226c83	0.15861706
62	0xbde7e09d	-0.113221385
63	0xbcf4dd34	-0.029890634
64	0x3c0c8e0d	0.008578789
65	0xbd9270d1	-0.07150424
66	0xbe30e7f6	-0.17275986
67	0xbdeca544	-0.115549594
68	0x3e781354	0.24226123
69	0x3e497fa4	0.19677597
70	0xbe5991cf	-0.21247028
71	0x3e70e74c	0.23525733
72	0xbe064a9e	-0.13114402
73	0x3e1ab081	0.15106393
74	0xbe79ab5c	-0.24381775
75	0x3e3b3a20	0.18283892
76	0x3e84cfe4	0.25939858
77	0x3ddb376b	0.107039295
78	0x3e30468c	0.17214411
79	0x3da4b5e7	0.080425076
80	0xbda60f18	-0.08108348
81	0x3c1b538d	0.009480369
82	0xbe182792	-0.14858845
83	0xbdab6e2e	-0.083706245
84	0x3ddfb14f	0.10922491
85	0x3d5dcbbd	0.054149378
86	0xbd7dfc18	-0.062007993
87	0x3da92ebd	0.08260868
88	0xbd2be8be	-0.041970007
89	0xbda94cce	-0.082666025
90	0x3d8af3ae	0.067847595
91	0xbddf2d8e	-0.10897361
92	0xbdec5775	-0.115401186
93	0x3dd26c44	0.10274556
94	0xbe30652d	-0.17226095
95	0xbe8206a8	-0.25395703
96	0x3d4e3df7	0.050352063
97	0xbd6d0993	-0.05787046
98	0x3e263ca3	0.16234069
99	0x3d30e62c	0.04318826
100	0xbc912bf1	-0.017721148
101	0x3c9ee260	0.019395053
102	0x3df73e5d	0.12072442
103	0xbeb2a7d4	-0.34893668
104	0x3e8ab6ca	0.27092582
105	0x3e54e6df	0.20791195
106	0x3cb56be8	0.02214618
107	0xbe64471f	-0.22292756
108	0x3e38a744	0.18032557
109	0x3cd5f47d	0.026117558
110	0xbdd2f96b	-0.10301479
111	0x3dbd9584	0.092570335
112	0x3cc0e324	0.02354581
113	0xbcc980ad	-0.02459749
114	0xb9049562	-0.0001264415
115	0x3e157e05	0.14598854
116	0xbdd502e5	-0.10400943
117	0xbd1fc4e8	-0.039006144
118	0x3e60acf0	0.2194097
119	0x3e205eb5	0.15661128
120	0xbda38bde	-0.07985662
121	0xbe645b4a	-0.22300449
122	0x3e20c2a1	0.15699245
123	0xbc0335d4	-0.008008439
124	0xbe36e703	-0.17861561
125	0x3bbc8f41	0.005754382
126	0xbe2e4572	-0.17018679
127	0x3c7b762b	0.015347998
128	0x3e27f38f	0.16401504
129	0xbe2ccab5	-0.16874202
130	0x3dd46e50	0.10372603
131	0xbe1e433e	-0.15455338
132	0x3da101c1	0.07861663
133	0x3d81e8d3	0.06343236
134	0x3c369a8e	0.011145247
135	0xbd7986fa	-0.06091974
136	0x3e1a559e	0.15071723
137	0x3da4687b	0.080277406
138	0x3de46284	0.11151603
139	0xbdd0fa9e	-0.102040514
140	0xbde9d81e	-0.11418174
141	0xbe327aac	-0.17429608
142	0xbe223787	-0.15841495
143	0xbde4d7fb	-0.111740075
144	0x3bcec93b	0.0063106096
145	0xbe17dbe4	-0.14829975
146	0x3e18c7b8	0.14919937
147	0xbdb4d8ef	-0.08830439
148	0x3e470dd6	0.19438872
149	0xbd3c57e3	-0.045982253
150	0xbda361fe	-0.07977675
151	0xbdd4924b	-0.10379466
152	0xbd85ae44	-0.06527379
153	0x3d7380f6	0.05944916
154	0x3daf34ac	0.08554968
155	0xbcd0aa5c	-0.025471859
156	0x3d31e811	0.043434206
157	0x3d764232	0.060121723
158	0x3cf78cb7	0.030218465
159	0x3db22944	0.08699277
160	0xbd67e9c7	-0.05661943
161	0x3d552901	0.052041057
162	0x3d9f0c21	0.07765985
163	0x3dea4d3a	0.11440511
164	0xbe077434	-0.13227922
165	0xbdd0de66	-0.10198669
166	0x3e574c9d	0.2102532
167	0xbddc2b04	-0.10750392
168	0x3c9d0545	0.019167552
169	0xbe4c858b	-0.19972818
170	0xbe52c5cc	-0.20583266
171	0x3dc79554	0.09745279
172	0xbe4a63e4	-0.19764668
173	0xbc89e576	-0.016833048
174	0x3c1a7f77	0.009429804
175	0xbe1284f5	-0.14308532
176	0xbd7221d0	-0.059114277
177	0xbd68221c	-0.056673154
178	0x3dae5b2b	0.08513483
179	0xbda0aaab	-0.07845052
180	0x3e292783	0.16518979
181	0xbccf0980	-0.025273085
182	0x3dd545ee	0.10413729
183	0x3dca42fb	0.09876057
184	0x3d9b70fa	0.07589908
185	0x3d317364	0.043322936
186	0x3db5a95f	0.088701956
187	0x3d1cef89	0.038314376
188	0x3d3d70f6	0.046250306
189	0xbdfe4edc	-0.12417385
190	0xbe2fe064	-0.17175442
191	0x3d4bc474	0.0497479
192	0xbe110532	-0.14162138
193	0x3e5307df	0.20608471
194	0x3daaefb7	0.08346503
195	0xbd6d44c2	-0.0579269
196	0x3e04ea19	0.12979926
197	0x3c9724ac	0.018450104
198	0x3e1d2950	0.1534779
199	0x3d95dcf7	0.07317536
200	0xbdfa8c9c	-0.1223385
201	0x3e4e42e5	0.20142706
202	0xbc35e355	-0.011101563
203	0xbd566f29	-0.052352104
204	0xbd2f55d7	-0.042806473
205	0x3e379716	0.17928728
206	0xbe175609	-0.14778914
207	0x3e4dbbca	0.20091167
208	0x3c705777	0.014669291
209	0xbcf3703e	-0.029716607
210	0xbd91790f	-0.07103168
211	0xbc65cad6	-0.014025411
212	0xbdf923fd	-0.12165067
213	0xbd6bf738	-0.057608813
214	0xbd491d37	-0.049100127
215	0x3e9a09db	0.30085644
216	0xbe158ba6	-0.14604053
217	0xbd945b3b	-0.07243963
218	0x3c8c6468	0.017137721
219	0xbe322ea8	-0.1740061
220	0xbcbe0388	-0.023195043
221	0xbe5a5f48	-0.2132541
222	0xbe48a896	-0.1959556
223	0xbe487af6	-0.19578156
224	0xbc5a7c70	-0.013335332
225	0xbe4eaf3e	-0.20184037
226	0xbe27edd9	-0.16399325
227	0x3d94f4af	0.07273232
228	0x3d165a00	0.036706924
229	0xbe5c25b5	-0.21498759
230	0xbdd481af	-0.10376298
231	0xbbb900f1	-0.005645864
232	0x3df9d988	0.12199694
233	0xbd904db4	-0.07046071
234	0xbd902677	-0.070385866
235	0xbd047db0	-0.032346427
236	0xbe10ca49	-0.14139666
237	0x3e87be13	0.26512203
238	0xbe592f7d	-0.21209522
239	0x3d043f8e	0.032287173
240	0x3e6a192a	0.22861162
241	0x3dff2ddf	0.12459921
242	0xbd379be2	-0.044826396
243	0x3d47e38b	0.048800986
244	0xbe02f8eb	-0.12790267
245	0x3dbfb8db	0.0936143
246	0x3dab2986	0.08357529
247	0xbc070ffe	-0.008243559
248	0x3e4910e7	0.19635354
249	0xbdf38cb2	-0.1189207
250	0xbe1ba749	-0.15200533
251	0xbe697b39	-0.22800912
252	0xbe1d553b	-0.15364544
253	0x3dc5478b	0.09632786
254	0xbd337200	-0.04380989
255	0x3dc5c8fe	0.09657477

pi.mu_net.4.bias f4 [6]
0	0xbdd95c4a	-0.10613306
1	0xbdbbd833	-0.09172096
2	0x3da60a18	0.08107394
3	0x3ccd60c4	0.025070556
4	0x3cefaf75	0.02925847
5	0xbce09ec0	-0.027419448

vf.v_net.0.weight f4 [64, 24]
0	0xbec78d2a	-0.38974887
1	0x3ca45133	0.02005825
2	0x3e13b69b	0.14425127
3	0x3d2051d9	0.039140556
4	0xbdfa4621	-0.12220407
5	0xbeda1619	-0.42594984
6	0x3ca1f359	0.019769358
7	0xbd529f74	-0.051421598
8	0xbe0a2a03	-0.13492589
9	0x3e7f369c	0.24923176
10	0x3c4efd09	0.0126335705
11	0x3ec0aad5	0.37630334
12	0xbeea494b	-0.45759043
13	0x3e8b6034	0.27221835
14	0x3ccf5e1a	0.025313426
15	0xbe128bca	-0.14311138
16	0xbe9cf91e	-0.3065881
17	0xbda8a930	-0.08235395
18	0xbdb30374	-0.08740893
19	0xbc4dd28d	-0.012562406
20	0xbcfb5ef9	-0.030684935
21	0x3e156c91	0.14592196
22	0x3e570eb0	0.21001697
23	0x3ad79eaa	0.0016450484
24	0x3ef24353	0.4731699
25	0xbe999467	-0.29996035
26	0xbdce9a50	-0.100880265
27	0xbde9b278	-0.11410993
28	0x3df058f6	0.11735718
29	0xbdd6ae31	-0.10482443
30	0x3dc5b012	0.09652723
31	0xbe28176c	-0.16415185
32	0x3d7a6ecf	0.06114083
33	0x3f1dacd1	0.6159182
34	0x3e6008ec	0.21878403
35	0x3e8763ab	0.26443228
36	0xbdc4aa70	-0.09602821
37	0xbd120374	-0.035647824
38	0xbe9a91b5	-0.3018929
39	0xbd16ae31	-0.036787216
40	0xbe2fb8bf	-0.17160319
41	0xbf0bdff7	-0.5463862
42	0xbf6034e1	-0.87580687
43	0x3e3fe2bb	0.18738835
44	0x3c810bf5	0.015752772
45	0xbe6ac265	-0.22925718
46	0x3e84bbf4	0.25924647
47	0x3cbe3a8d	0.023221279
48	0xbe3f1635	-0.18660815
49	0xbf19db2a	-0.6010004
50	0xbf26dab6	-0.65177476
51	0xbf072fbe	-0.52807224
52	0x3e642c05	0.22282417
53	0xbf55aba5	-0.83465034
54	0x3edcf303	0.43154153
55	0xbf19fe3c	-0.60153556
56	0xbf5f5061	-0.87232023
57	0xbe95338e	-0.29140896
58	0x3ed647c7	0.41851637
59	0xbec953d9	-0.39321783
60	0x3f0b2c55	0.5436452
61	0x3e187e44	0.14891917
62	0xbe3e16fd	-0.18563457
63	0xbeb61739	-0.35564592
64	0xbf9cfc77	-1.2264546
65	0xbcbcdd4a	-0.023054738
66	0x3b032345	0.0020010036
67	0x3d0cd50c	0.034382865
68	0xbc1e381b	-0.009656931
69	0x3db22ed0	0.08700335
70	0x3dc5df98	0.09661788
71	0x3c46250f	0.012093796
72	0xbea96306	-0.3308336
73	0x3e7742ae	0.2414653
74	0xbd519a9d	-0.05117284
75	0x3f6905dc	0.91024566
76	0xbed3392c	-0.41254556
77	0x3e7a22bf	0.24427317
78	0x3e41c73f	0.18923663
79	0x3e9788ad	0.29596463
80	0x3e08f4ff	0.13374709
81	0x3f90bbbc	1.1307292
82	0xbe209fc7	-0.1568595
83	0x3f1c687d	0.61096936
84	0xbc3f3bcf	-0.011671974
85	0xbe61bcf9	-0.22044744
86	0x3dd6db43	0.104910396
87	0xbe998f0f	-0.29991958
88	0x3f98e994	1.1946282
89	0x3d0b4ea0	0.03401053
90	0xbca1b1f9	-0.019738184
91	0xbd480373	-0.048831414
92	0xbc55bc41	-0.0130453715
93	0xbd579565	-0.052632708
94	0xbd600163	-0.054688822
95	0xb97ddbdf	-0.00024209869
96	0x3f04dff7	0.51904243
97	0x3e726ccc	0.23674315
98	0x3e2fbbbe	0.17161462
99	0xbe4101f9	-0.18848409
100	0x3e52885e	0.20559832
101	0xbeaba721	-0.33525947
102	0x3df1d6a3	0.11808517
103	0xbde43dad	-0.11144576
104	0x3e0041fc	0.12525171
105	0xbeae4bb7	-0.3404214
106	0xbe6110e4	-0.219791
107	0xbe84f3c8	-0.2596724
108	0x3e50ad21	0.20378543
109	0x3e462732	0.1935089
110	0xbd57aff5	-0.05265804
111	0x3e0bb3a9	0.13642754
112	0xbfe722cf	-1.8057498
113	0x3dabf45a	0.08396216
114	0x3dccab52	0.09993614
115	0x3da0ae57	0.07845753
116	0x3cad678b	0.021167537
117	0x3cb9f9d2	0.022702131
118	0x3d5d97c4	0.054099813
119	0x3ab0fb9d	0.0013502721
120	0xbe1df280	-0.15424538
121	0x3eb9f75a	0.36321527
122	0xbe3054fc	-0.17219919
123	0x3b04bb01	0.0020253065
124	0xbdfaabdb	-0.1223981
125	0x3e3372bd	0.17524238
126	0xbda9b8cc	-0.082872
127	0x3d72fb28	0.059321553
128	0xbd27a0c2	-0.040924795
129	0xbf21db9b	-0.63225716
130	0xbd0e6d0c	-0.034771964
131	0xbeab2f41	-0.3343449
132	0x3da0e188	0.07855517
133	0x3e33c8c5	0.17557056
134	0xbd04f261	-0.032457713
135	0x3e6dbf0e	0.23217413
136	0xbf068944	-0.525532
137	0xbcf04098	-0.029327676
138	0xbd94375f	-0.07237124
139	0xbd8f078c	-0.06983861
140	0x3d1a304e	0.037643723
141	0xbe9e94d8	-0.30972934
142	0xbe115ab9	-0.14194764
143	0x3c11e042	0.008903565
144	0x3e54e8e5	0.20791967
145	0x3e8a4f67	0.27013704
146	0xbeb1e6cc	-0.34746397
147	0x3e0fbf71	0.14037873
148	0x3d6a1e06	0.05715754
149	0x3e00101c	0.12506145
150	0xbe4fd821	-0.2029729
151	0x3ba5f25c	0.005064292
152	0xbe8b9a82	-0.27266318
153	0x3dd899c5	0.10576204
154	0x3dbf397f	0.093371384
155	0xbd5d3b0e	-0.054011397
156	0x3db7a5c2	0.08967163
157	0x3ee4cd76	0.44688004
158	0xbe6e1675	-0.23250754
159	0x3e14aa6f	0.1451814
160	0xbf6db0ad	-0.9284771
161	0xbd5c0dcb	-0.05372409
162	0x3addf240	0.0016933158
163	0x3d9b5144	0.075838596
164	0x3c80cc87	0.015722526
165	0xbd413f0f	-0.047179278
166	0x3d9303e3	0.07178476
167	0xbc798bc1	-0.015231074
168	0xbd4e27df	-0.050330993
169	0xbe2b69ff	-0.16739653
170	0x3e49eac0	0.19718456
171	0x3dc8d5f4	0.09806433
172	0x3de0aaf3	0.10970106
173	0x3d985077	0.074372225
174	0x3d8f321a	0.06991978
175	0xbe08e318	-0.1336788
176	0x3dbe65f7	0.09296792
177	0xbeed7eeb	-0.46385893
178	0xbe619e58	-0.2203306
179	0xbe8388ab	-0.25690207
180	0xbdacca2d	-0.084369995
181	0x3e11dc3c	0.14244169
182	0xbe3cf1fb	-0.18451683
183	0x3dbd48df	0.09242415
184	0x3deadc14	0.11467758
185	0x3ea124d0	0.31473398
186	0x3f1222ae	0.57084167
187	0xbd83e8d8	-0.06440896
188	0xbcfae3f3	-0.030626273
189	0x3e0d6e26	0.1381155
190	0xbe591d6e	-0.21202633
191	0xbbeb5116	-0.007181297
192	0xbdacb761	-0.08433414
193	0x3e55e7b3	0.20889167
194	0x3e28bbfc	0.1647796
195	0x3db8ce9c	0.090237826
196	0xbf13eedf	-0.57786363
197	0x3eac1179	0.3360708
198	0xbec84192	-0.39112526
199	0x3dbc828f	0.092045896
200	0xbde38c02	-0.11110689
201	0xbe5b70f6	-0.2142981
202	0x3dd02b2f	0.101644866
203	0xbee9daf8	-0.45674872
204	0x3e4bbf2e	0.19897148
205	0xbe7597e3	-0.23983721
206	0x3d2f2a10	0.042764723
207	0x3d43ad03	0.04777242
208	0xbeec3edb	-0.46141705
209	0xbce17431	-0.027521225
210	0x3db4f4da	0.08835764
211	0x3c95c923	0.018284386
212	0xbbb6ca3b	-0.005578307
213	0xba524114	-0.00080205617
214	0x3c8278a1	0.015926661
215	0x3c4c1f30	0.012458608
216	0x3e968927	0.29401514
217	0xbf729b71	-0.94768435
218	0xbf258a3c	-0.64664054
219	0xbee2d88f	-0.44305846
220	0x3ed852f1	0.4225078
221	0xbf413225	-0.7546714
222	0x3ecf0976	0.40436906
223	0xbec4a1ef	-0.38404796
224	0xbebd1c9b	-0.36935887
225	0xbf5806a0	-0.8438511
226	0xbbb5eb1e	-0.00555171
227	0xbf79d5b7	-0.9759173
228	0x3f03c150	0.51466846
229	0x3ec0a764	0.3762771
230	0xbd0be28c	-0.0341516
231	0xbea10d5b	-0.31455502
232	0xbf64e49d	-0.89411336
233	0xbed7921a	-0.42103654
234	0x3e25ed4d	0.16203804
235	0x3de9a0ce	0.11407624
236	0x3bad76bb	0.005293695
237	0x3df6f7fe	0.120590195
238	0x3d94ddd9	0.072688766
239	0x3c297ba1	0.010344417
240	0xbe5b7a19	-0.21433295
241	0xbf2c608e	-0.6733483
242	0xbefaaf07	-0.4896166
243	0xbea571ee	-0.32313484
244	0x3e17897b	0.14798538
245	0xbe56c316	-0.20972857
246	0x3e8f0c01	0.27938846
247	0x3dd46749	0.103712626
248	0xbec40963	-0.38288411
249	0xbe6f4cba	-0.23369113
250	0x3ef38826	0.4756481
251	0x3df9294d	0.121660806
252	0x3d79dab2	0.06099958
253	0xbe5fa02f	-0.21838449
254	0xbe8153a0	-0.25259113
255	0xbe9ca776	-0.30596513

vf.v_net.0.bias f4 [64]
0	0xbf223abf	-0.6337089
1	0x3f00c844	0.5030558
2	0x3dddcb58	0.108298
3	0x3e44b18b	0.19208352
4	0xbecbb4c6	-0.39786357
5	0xbf30a373	-0.68999404
6	0xbf45fd4a	-0.77339613
7	0xbf3f2327	-0.74663013
8	0xbf4897f9	-0.7835689
9	0xbe8f865e	-0.28032202
10	0x3eed1820	0.46307468
11	0xbeaad24d	-0.33363572
12	0xbf2be796	-0.6715025
13	0xbdf934c1	-0.12168265
14	0x3e08faef	0.13376974
15	0xbf3f7342	-0.74785244
16	0x3d8719a9	0.06596691
17	0x3f7eb2de	0.9949168
18	0xbe630f2a	-0.22173753
19	0x3e2c6afe	0.1683769
20	0xbe2a5b27	-0.16636334
21	0x3f7a31c8	0.9773221
22	0xbf889879	-1.0671531
23	0x3ee015d4	0.43766654
24	0x3f48d011	0.78442484
25	0xbee1e46b	-0.44119582
26	0xbf000f4e	-0.50023353
27	0xbef46173	-0.47730598
28	0xbdaaecce	-0.08345948
29	0x3e4631be	0.19354913
30	0xbf0403e7	-0.51568455
31	0x3f1ebaee	0.6200398
32	0xbe7ce975	-0.24698432
33	0x3f0d7b39	0.5526615
34	0xbf887b3c	-1.0662608
35	0x3ea5cd9f	0.3238344
36	0xbebb85b2	-0.3662544
37	0x3d1429d1	0.03617269
38	0xbecf998e	-0.4054684
39	0x3e3ced30	0.18449855
40	0xbdb62751	-0.08894218
41	0x3f3c32be	0.73514926
42	0x3d26578f	0.040610846
43	0xbe0889b5	-0.13333781
44	0xbf2e7507	-0.6814732
45	0x3e985d1e	0.29758543
46	0x3ef27a8b	0.47359118
47	0x3dee08d6	0.11622779
48	0x3f825668	1.0182619
49	0x3f28f098	0.65992117
50	0x3dddb028	0.10824615
51	0x3e9ff54b	0.3124183
52	0xbf6b66fc	-0.91954017
53	0xbf1d1948	-0.613667
54	0xbe407307	-0.1879388
55	0x3f0030c0	0.50074387
56	0x3f45f009	0.7731939
57	0xbf1a40ee	-0.60255325
58	0x3efbad29	0.49155548
59	0xbd38c7d5	-0.04511245
60	0xbf3b25a7	-0.7310433
61	0xbd9667e2	-0.07344033
62	0xbf10ba81	-0.5653458
63	0xbf230a6a	-0.63687766

vf.v_net.2.weight f4 [64, 64]
0	0x3e49ccfd	0.19707103
1	0x3ec4f637	0.38469097
2	0xbdd35dd4	-0.10320631
3	0x3e88e196	0.26734608
4	0xbf06df21	-0.5268422
5	0x3e00b82c	0.12570256
6	0x3dbe1383	0.09281065
7	0xbea48179	-0.3213003
8	0xbea2b6a4	-0.3177997
9	0xbf14a343	-0.5806162
10	0x3eab982d	0.33514538
11	0xbeb85cbd	-0.36008254
12	0x3e762baf	0.24040101
13	0xbe3dcaea	-0.18534437
14	0xbf168f2b	-0.58812207
15	0xbeb2fd7d	-0.3495902
16	0x3ea0a118	0.31372905
17	0xbcaebe9f	-0.02133113
18	0x3eefd277	0.4684026
19	0xbe422075	-0.18957694
20	0xbe53fe60	-0.20702505
21	0x3ea5b222	0.32362467
22	0x3daed55b	0.08536788
23	0x3e925004	0.28576672
24	0x3ebb2964	0.36555016
25	0x3e526c7d	0.20549197
26	0xbec295ea	-0.38005
27	0xbe6b0a49	-0.22953142
28	0xbe9cebc3	-0.30648622
29	0xbde16ce7	-0.110070996
30	0xbecf8ff3	-0.40539512
31	0x3ca5b7c8	0.020229235
32	0xbeca4fa7	-0.39513895
33	0x3dc01ba4	0.09380272
34	0x3e196d10	0.1498301
35	0xbe10e4d9	-0.14149798
36	0xbe83d67d	-0.2574958
37	0x3e223d3c	0.15843672
38	0xbdea0c78	-0.114281595
39	0xbe24d8f4	-0.16098386
40	0xbe32ea40	-0.17472172
41	0x3c6b6a77	0.014368645
42	0x3e3b0798	0.18264616
43	0x3e6727ce	0.22573778
44	0x3e981775	0.29705396
45	0x3ee7af6a	0.45251018
46	0x3e903075	0.2816197
47	0xbe439d6d	-0.19103022
48	0xbe8582c9	-0.26076344
49	0x3b04305a	0.0020170421
50	0x3aaed175	0.001333757
51	0x3ebe3fc1	0.37158015
52	0xbe9676c2	-0.2938748
53	0xbe88faa1	-0.26753715
54	0xbe10e360	-0.14149237
55	0x3ea4122a	0.32045108
56	0xbec13f7e	-0.37743753
57	0xbdde2618	-0.108471096
58	0x3eb6a909	0.3567584
59	0xbe1400cf	-0.14453433
60	0x3df84525	0.12122563
61	0x3ea179a8	0.3153813
62	0x3c4fbd61	0.012679429
63	0xbea7781d	-0.32708827
64	0xbdf79001	-0.120880134
65	0x3e93ddf9	0.2888029
66	0xbd815bc6	-0.063163325
67	0x3e67ebb3	0.22648506
68	0xbecae356	-0.3962657
69	0x3ea93959	0.33051565
70	0xbd1f98cf	-0.03896409
71	0xbe9c54fc	-0.30533588
72	0xbee2f7b6	-0.44329613
73	0xbf0dd395	-0.55400974
74	0x3ecf7ee0	0.40526485
75	0xbe34dc9d	-0.17662282
76	0x3ea6caf6	0.32576722
77	0xbbf1b45b	-0.0073762364
78	0xbf2246dc	-0.6338937
79	0xbea526e7	-0.32256243
80	0x3e7ff68a	0.24996391
81	0xbeb83bc9	-0.35983112
82	0x3e17e395	0.1483291
83	0x3d3fbaf9	0.04680917
84	0xbe2377c9	-0.15963663
85	0x3e781963	0.24228434
86	0x3db70953	0.08937325
87	0x3eb23202	0.34803778
88	0x3e4f3899	0.20236434
89	0x3ea8639b	0.32888493
90	0xbedb004a	-0.42773658
91	0x3eed0a63	0.46296987
92	0xbeab0ec0	-0.3340969
93	0x3ef1949c	0.47183692
94	0xbea8026e	-0.32814354
95	0xbd862bf8	-0.06551355
96	0xbea27861	-0.31732467
97	0x3d91142c	0.070839256
98	0x3e0cc165	0.13745649
99	0xbe8c6a0e	-0.27424663
100	0xbd36c4f4	-0.044621423
101	0xbcddb52e	-0.027063932
102	0xbebc50ba	-0.3678034
103	0xbdf3a8d9	-0.118974395
104	0xbe1a16ce	-0.15047762
105	0x3e2bf786	0.16793641
106	0xbe6bf6e4	-0.230434
107	0xbe1304aa	-0.14357248
108	0x3e73ac64	0.2379623
109	0x3f056cb8	0.52119017
110	0x3e937a7e	0.28804392
111	0xbdede1f7	-0.11615365
112	0xbe35ffa3	-0.17773299
113	0x3e4444a8	0.19166815
114	0xbe51d08a	-0.20489708
115	0xbe094bdd	-0.13407846
116	0xbe8715b4	-0.26383746
117	0xbdc1c023	-0.09460475
118	0xbed745c1	-0.42045406
119	0x3e1f0f09	0.15533079
120	0xbec1dc8a	-0.3786357
121	0xbecaeb3b	-0.39632592
122	0xbd1d1ddc	-0.038358554
123	0xbec90524	-0.39261734
124	0xbe287332	-0.16450194
125	0x3f20caf3	0.62809676
126	0x3f113745	0.5672496
127	0x3ca89b63	0.020581907
128	0xbd556bbb	-0.052104693
129	0xbe4dbf97	-0.20092617
130	0x3e3c36ac	0.1838023
131	0x3bae5798	0.0053205006
132	0xbe839e1a	-0.2570656
133	0x3ea81ff5	0.3283688
134	0x3d9ed8c7	0.07756191
135	0x3deb9d89	0.11504657
136	0xbe48ebca	-0.19621196
137	0xbee96954	-0.4558817
138	0x3ce843b4	0.028352596
139	0xbe599fcf	-0.21252368
140	0xbe49889e	-0.19681022
141	0xbeacdd97	-0.3376281
142	0xbedba519	-0.42899397
143	0x3c743159	0.0149043435
144	0x3e19fee7	0.15038644
145	0x39d67426	0.00040903798
146	0xbc0fd15b	-0.008777942
147	0x3e1ac022	0.15112355
148	0xbd72d5ec	-0.059286043
149	0x3e315ecf	0.17321323
150	0x3b819a29	0.003955145
151	0x3e52d938	0.20590675
152	0xbc46852e	-0.012116713
153	0x3d0e7bc1	0.03478599
154	0xbe945236	-0.28968972
155	0x3f259041	0.6467324
156	0x3e5ee85e	0.21768329
157	0x3f002c07	0.5006718
158	0xbe03c6a4	-0.12868744
159	0xbc81a7a8	-0.015827015
160	0xbe440b87	-0.19145022
161	0xbe03a625	-0.12856348
162	0xbe1f7873	-0.15573291
163	0xbdd66636	-0.10468714
164	0x3e4b22eb	0.19837539
165	0xbf5b6fc9	-0.85717446
166	0xbe259d65	-0.16173322
167	0xbe95eed3	-0.2928377
168	0x3c9f02ed	0.019410575
169	0x3e19e2ac	0.15027875
170	0xbe9e2997	-0.30891106
171	0xbf134a3e	-0.5753516
172	0x3df75e12	0.12078489
173	0x3e19877a	0.14993086
174	0x3e0e6404	0.1390534
175	0xbe65a62f	-0.22426675
176	0x3dc76cd9	0.09737558
177	0x3d97b828	0.07408172
178	0xbe54615f	-0.20740269
179	0xbedbc55d	-0.42924014
180	0xbe692ab0	-0.2277019
181	0xbe930d26	-0.2872097
182	0xbe54529f	-0.20734642
183	0x3ecbfbd8	0.3984058
184	0x3e3f7dba	0.18700305
185	0xbe5c73ed	-0.21528597
186	0xbe6664f7	-0.22499453
187	0x3d7af5c3	0.061269533
188	0xbeb733f5	-0.35781828
189	0x3e7c66d3	0.246486
190	0x3ea08362	0.31350237
191	0x3e9f46ef	0.31108806
192	0xbddce8b8	-0.10786575
193	0xbe0fa26c	-0.14026803
194	0xbcee4683	-0.029086357
195	0x3e9c72a2	0.30556208
196	0xbe9b60cb	-0.30347285
197	0xbec54d3a	-0.38535482
198	0xbe9a6dfb	-0.30162033
199	0x3e95bad7	0.2924411
200	0x3da58af9	0.080831476
201	0xbf071743	-0.5276987
202	0xbeb0113b	-0.34388146
203	0x3ec935d7	0.3929889
204	0xbe3e8eee	-0.18609211
205	0xbe7ae103	-0.24499898
206	0x3e64b419	0.22334327
207	0xbd3274d4	-0.043568447
208	0x3df9a21f	0.12189125
209	0x3e9b70f5	0.30359617
210	0xbe039fc0	-0.12853909
211	0x3e1bd088	0.15216267
212	0x3ea74169	0.3266709
213	0xbde15e56	-0.11004321
214	0xbe8a4d91	-0.27012303
215	0xbd69ab97	-0.057048406
216	0xbd43e467	-0.047825243
217	0xbe8e13e9	-0.27749565
218	0xbe9ea664	-0.3098632
219	0xbe600ce6	-0.2187992
220	0x3ed2e13a	0.4118746
221	0xbed5ea6f	-0.4178042
222	0xbe0dfb70	-0.13865447
223	0xbdfd83bb	-0.12378641
224	0xbeba5194	-0.36390364
225	0xbd351ae5	-0.0442151
226	0xbeb8ba77	-0.3607976
227	0x3e9c37f3	0.30511436
228	0xbea8d253	-0.32972965
229	0xbd2561de	-0.040376537
230	0x3eeb806e	0.45996422
231	0xbef61c38	-0.48068404
232	0x3e859a72	0.26094395
233	0xbe9bbdcb	-0.30418238
234	0xbd351300	-0.044207573
235	0xbe57a2f1	-0.21058251
236	0xbdf65d13	-0.12029471
237	0x3eea0832	0.45709378
238	0xbcd684d3	-0.026186382
239	0x3e367ee9	0.1782185
240	0x3e261930	0.16220546
241	0x3e6eb978	0.23312938
242	0x3e6a992d	0.22909994
243	0xbdf8534c	-0.121252626
244	0x3e850ee5	0.25987926
245	0x3e785639	0.24251641
246	0x3e67c81e	0.22634932
247	0x3dee70de	0.116426215
248	0x3ea1120e	0.31459087
249	0x3e8ad46f	0.271152
250	0x3d91bbb0	0.07115877
251	0x3ed1c22d	0.40968457
252	0xbdf92404	-0.121650726
253	0x3ebc5628	0.36784482
254	0xbde6e65d	-0.11274407
255	0x3e0a56a0	0.13509607

vf.v_net.2.bias f4 [64]
0	0x3ee30512	0.44339806
1	0x3ec3e77e	0.38262552
2	0x3e0d2dcd	0.13787003
3	0x3ed21cbc	0.41037548
4	0xbe9492ad	-0.29018155
5	0x3e4e7479	0.20161618
6	0x3ec81fce	0.39086765
7	0x3ec762a7	0.38942453
8	0x3eac0230	0.3359542
9	0x3c451792	0.012029545
10	0x3edec606	0.43510455
11	0x3dff091d	0.1245291
12	0xbe8112b4	-0.25209582
13	0x3ef8bbb2	0.485807
14	0x3edfe268	0.43727422
15	0x3d84af28	0.06478721
16	0xbea823c1	-0.32839778
17	0x3dec37a8	0.11534053
18	0xbe90818b	-0.28223833
19	0x3e5d8f02	0.21636584
20	0x3efaa58f	0.48954436
21	0xbdd22ef3	-0.10262861
22	0x3e41f9e1	0.18942977
23	0xbe397136	-0.18109593
24	0xbe150f21	-0.14556552
25	0x3ed0e965	0.40803066
26	0x3cbbdf7a	0.02293371
27	0x3e3a7087	0.18206988
28	0x3dae799c	0.08519289
29	0x3c941c80	0.018079996
30	0x3e894c77	0.2681615
31	0xbe560fc9	-0.20904459
32	0x3ec2bd79	0.3803518
33	0x3eff7039	0.49890307
34	0x3eddc035	0.43310705
35	0xbe81c5d2	-0.25346237
36	0x3e806cc0	0.2508297
37	0x3e7a878f	0.24465774
38	0x3ea7914d	0.32728043
39	0xbdab7f7d	-0.08373926
40	0x3e81eb2e	0.2537474
41	0x3e0193b5	0.12654002
42	0x3e5ca8bc	0.21548742
43	0x3e8ee525	0.27909198
44	0xbea3d812	-0.32000786
45	0x3ef0da5e	0.470416
46	0x3ee932ba	0.45546514
47	0x3e6984d5	0.22804578
48	0x3dda517e	0.10660075
49	0x3ea768df	0.32697198
50	0x3e558bac	0.20854062
51	0x3e899642	0.2687245
52	0x3ecf1d5d	0.4045209
53	0xbe553136	-0.20819554
54	0x3e9b092c	0.30280435
55	0x3ec398b7	0.3820245
56	0xbe490b63	-0.1963325
57	0x3e91685b	0.2839993
58	0x3eac19b1	0.3361335
59	0x3eb76586	0.35819644
60	0x3ef55740	0.4791813
61	0x3eca12f0	0.39467573
62	0x3e5870c7	0.21136771
63	0xbe38217a	-0.1798152

vf.v_net.4.weight f4 [1, 64]
0	0x3e999d2d	0.30002728
1	0x3ea8c1e3	0.32960424
2	0x3e9e1cee	0.30881447
3	0x3ea6551d	0.3248681
4	0xbe897e06	-0.2685396
5	0x3e8eb913	0.27875575
6	0x3ecc6619	0.39921644
7	0x3eb8e5c2	0.3611279
8	0x3ec155e6	0.37760848
9	0x3e63d0e2	0.22247651
10	0x3ee1012a	0.439462
11	0x3e833d59	0.25632742
12	0xbed79ce6	-0.42111892
13	0x3ebec87e	0.37262338
14	0x3ec67422	0.38760477
15	0x3e624319	0.22095908
16	0xbebac706	-0.36479968
17	0x3e3d01ea	0.18457761
18	0xbeae48b4	-0.34039843
19	0x3ebcab2a	0.36849338
20	0x3ebca5cc	0.36845243
21	0xbed84148	-0.42237306
22	0x3e2116ed	0.15731402
23	0xbed2a820	-0.41143894
24	0xbec483a3	-0.3838168
25	0x3ebfadbe	0.37437242
26	0x3e8ea783	0.27862176
27	0x3f2c69d7	0.67349
28	0x3e8ddecc	0.27709043
29	0x3ee06d1a	0.43833238
30	0x3ef90464	0.48636162
31	0xbe69c114	-0.2282756
32	0x3eaa919d	0.3331422
33	0x3eb3335d	0.35000125
34	0x3ea9a84c	0.33136213
35	0xbe98f48f	-0.29874083
36	0x3f0087b0	0.5020704
37	0x3eee7188	0.46570992
38	0x3ebcdf3f	0.36889073
39	0xbe96a440	-0.29422188
40	0x3f1dc820	0.6163349
41	0x3edad117	0.42737648
42	0x3e6bfea3	0.23046355
43	0x3eabd5f5	0.33561674
44	0xbebb8f7c	-0.36632907
45	0x3ed2e900	0.4119339
46	0x3ebcca60	0.3687315
47	0x3ee093ba	0.43862706
48	0x3ec05e20	0.37571812
49	0x3e9fd4d9	0.31217077
50	0x3ed5e05f	0.41772744
51	0x3ec46ea3	0.3836566
52	0x3edd06ad	0.43169156
53	0xbebdef63	-0.370967
54	0x3edb60a6	0.42847174
55	0x3e9745ce	0.29545444
56	0xbee95151	-0.45569852
57	0x3e992b24	0.29915726
58	0x3edc650f	0.43045852
59	0x3ec0b06b	0.37634596
60	0x3f5bc0fe	0.8584136
61	0x3f651beb	0.89495724
62	0x3e923e11	0.28562978
63	0xbec8fc62	-0.39255053
